covid.pth (torch, 5271 bytes, 6 tensors)

fc.0.weight f4 [24, 4]
000000 d4 15 86 be 8e 9a 9d 3e 63 92 0c 3d ab 97 36 3e
       -0.2618853 0.30781978 0.034319293 0.17831294
000010 72 24 88 be 6a b6 de 3e ae 44 e2 be d8 ab c2 3d
       -0.26590306 0.43498546 -0.44193023 0.09505433
000020 a2 75 d2 3e 5b ae b6 3e bd c4 ae 3e f2 7d 80 3e
       0.41105372 0.35679898 0.34134474 0.2509609
000030 42 bf 0a 3d d0 fc 98 3e 3c 91 a7 be 32 9f 37 be
       0.033873804 0.2988038 -0.32727993 -0.17931822
000040 ee d6 8e 3e aa 5b bf be 26 67 25 be aa 4e 95 3e
       0.27898353 -0.37374622 -0.1615263 0.29161578
000050 ee cb d0 be ef 28 33 be 68 27 e2 3c 38 70 eb 3d
       -0.40780586 -0.17496084 0.027606681 0.114960134
000060 f8 af de be ac 4d d9 be b6 66 ea 3e 86 d4 fb be
       -0.43493629 -0.4244207 0.45781487 -0.4918558
000070 f8 06 91 bd e0 98 8f be 18 1e 73 be dc 12 4a be
       -0.07081407 -0.28046322 -0.23741949 -0.19733757
000080 8b 91 1c 3e f7 03 07 be 9f a4 b5 bd 71 1c 13 3e
       0.15289895 -0.13185106 -0.088692896 0.14366318
000090 3f f7 7b 3e e1 5f ed be 70 eb e8 be 81 ec 8c 3e
       0.24606036 -0.46362212 -0.45492125 0.27524188
0000a0 4a cf 9f 3e a6 41 92 be aa 93 fd bc 7e c1 97 be
       0.31212837 -0.2856571 -0.0309542 -0.2963981
0000b0 c5 70 96 be d7 d9 44 3c 62 6e ca be 31 67 a6 3e
       -0.2938291 0.012014828 -0.3953734 0.32500604
0000c0 ff 62 87 be cb 31 18 3f f1 5d 80 3e fe 2f aa 3e
       -0.26442716 0.5945098 0.25071672 0.3323974
0000d0 c8 99 cd bd 74 3d 13 be 00 d2 e3 be 8a 38 d5 be
       -0.10039097 -0.14378911 -0.44496155 -0.41644698
0000e0 eb 1f 30 3e 45 73 1f 3e 07 de 16 3e 68 a4 58 be
       0.17199676 0.15571316 0.14733134 -0.21156466
0000f0 01 9a 55 be 9b b0 c1 be 88 47 ec be d3 fe cb 3c
       -0.20859529 -0.37830052 -0.46148324 0.024901783
000100 41 09 df 3e 8f a7 72 bd 39 35 b4 be 1f c3 e5 be
       0.43561748 -0.059241828 -0.35196856 -0.44875428
000110 7a 15 ed 3e 33 5b 91 3b f9 27 0e 3e 0b 3b d7 bd
       0.46305448 0.0044359206 0.13882436 -0.105093084
000120 a0 33 41 be cc 6a 17 3e dd ad b8 be bc c7 89 3e
       -0.1886735 0.14786834 -0.36070147 0.26910198
000130 58 86 71 be 04 7a 27 be 7c c8 85 be 00 a2 e0 bd
       -0.23586404 -0.16355139 -0.2612952 -0.10968399
000140 60 6e 2a bd 06 2c e1 be 58 3f c6 bd 64 6f f9 be
       -0.041609168 -0.439789 -0.096800506 -0.48717797
000150 ff c5 96 3e 96 a6 38 be ef 18 b7 bd 40 62 41 be
       0.29447934 -0.18032297 -0.089403026 -0.18885136
000160 c0 6a 47 be c0 f6 11 3c f0 5b 7a 3e e0 b8 8b bc
       -0.19474316 0.008908927 0.24449134 -0.017055929
000170 94 a9 a6 be d8 f2 42 be e4 0e 29 3e 60 93 d5 3d
       -0.32551253 -0.1903795 0.16509587 0.104285

fc.0.bias f4 [24]
000000 9e 0a 65 be 84 5c 13 3e ba 44 08 3e a8 3b e9 3e
       -0.22367331 0.1439076 0.13307467 0.45553327
000010 16 98 f6 be 62 29 85 be 8a 41 84 be 60 ee a8 bc
       -0.48162907 -0.26008135 -0.25831252 -0.020621479
000020 de ae 43 bd aa 04 c5 3c fa 33 21 3c 1e 42 34 bd
       -0.04777419 0.024050076 0.009839052 -0.044008367
000030 a5 00 0f bd 08 c5 8b be 50 8c 3e be 09 5a 07 be
       -0.034912724 -0.2729876 -0.18608212 -0.1321794
000040 b7 e4 57 be be 08 1e be 07 ff 65 bd a4 29 29 3e
       -0.21083342 -0.15433022 -0.056151416 0.16519791
000050 30 f8 4a 3e 61 5d d8 be 00 a4 97 3d 62 e8 d7 3e
       0.19821239 -0.42258742 0.074043274 0.42169482

fc.2.weight f4 [24, 24]
000000 cd da 8d bd 95 2c 1d be 19 99 4a be 08 5d a1 3d
       -0.069264986 -0.15349038 -0.19784965 0.078790724
000010 1f e1 16 be b0 68 19 3c c2 78 1f 3e 12 ba 0c 3e
       -0.14734314 0.009363338 0.15573409 0.13742855
000020 39 00 c4 3d d9 e0 35 be dc e4 19 3c c6 9b 25 3e
       0.09570355 -0.17761554 0.009392943 0.16172704
000030 05 ae 92 3d d8 a9 08 3e b8 ad 3d 3e ac b7 b2 3d
       0.07162098 0.1334604 0.185233 0.08726439
000040 b5 3e 29 3e 68 be 2b 3e 27 29 71 bc c0 8b fd 3c
       0.16527827 0.16771853 -0.014719284 0.030950427
000050 d0 1f 25 3e b3 bb b6 bd 00 47 24 3e 64 cb 50 bd
       0.16125417 -0.089225195 0.1604271 -0.05097522
000060 88 48 bc 3d 48 c0 49 3e 02 73 36 be 56 66 40 3e
       0.09193522 0.19702256 -0.1781731 0.18789038
000070 fc 7b 19 3d 36 66 40 3e 10 4c 4c 3e 70 d1 3f bd
       0.037471756 0.1878899 0.1995089 -0.046830595
000080 23 69 c0 bd 74 99 b6 3d 52 83 ba bd 4e b2 01 be
       -0.09395053 0.089159876 -0.091070786 -0.12665674
000090 f0 cd 51 3c ac a0 be 3d 64 e5 46 bd e8 5c 32 3e
       0.012805447 0.093079895 -0.048558608 0.17418253
0000a0 20 cb e8 bc 70 43 2a 3c c0 b6 0b 3b c6 9b 39 be
       -0.02841717 0.010392055 0.0021318644 -0.18125829
0000b0 38 92 02 be 38 18 41 3d 9b 12 27 be 72 41 4e 3e
       -0.1275109 0.047142237 -0.16315691 0.20142153
0000c0 ec 25 49 3e 20 e3 a6 3d 8c e9 47 be 78 4c 17 be
       0.19643372 0.081487894 -0.19522685 -0.14775264
0000d0 ac 77 59 bd e7 f9 47 be 44 f7 87 bd 00 fb 2e 3b
       -0.053092644 -0.19528924 -0.06638959 0.00266999
0000e0 b0 5d 26 be 3e 83 ec bd 50 e3 85 3d 78 b3 09 bd
       -0.16246676 -0.1154847 0.06537497 -0.03361842
0000f0 89 d7 20 be 10 4d 3e 3c c0 af 92 bc f6 49 2c be
       -0.1570722 0.011615053 -0.01790607 -0.16825089
000100 3f da a4 bd 3e 09 12 3e f8 c2 d9 bc 4c 36 37 be
       -0.0804944 0.14261338 -0.026582226 -0.17891806
000110 32 31 92 bd 40 ed 46 3b 00 b2 22 3e 0a 19 26 be
       -0.071382895 0.0030353814 0.15888214 -0.16220489
000120 b2 38 3d 3e 7e 24 29 3e 55 6a 3f be f3 c7 cf bd
       0.18478659 0.16517827 -0.18692906 -0.10145559
000130 32 27 39 be 08 ea a6 3c f0 d9 0e 3c d4 b7 1a be
       -0.18081358 0.020375267 0.008718953 -0.15109187
000140 75 b3 36 be f0 54 0f bc aa 6b 48 3e af 90 49 be
       -0.17841895 -0.008748278 0.1957232 -0.19684099
000150 80 58 0b 3d d0 41 af 3d e2 d4 12 be 54 90 2a 3e
       0.034019947 0.085574746 -0.14339021 0.1665662
000160 c0 b3 a9 3c 56 9c d1 bd 14 84 bc 3d bc be a8 3d
       0.020715594 -0.10234897 0.092048794 0.08239505
000170 bc 19 21 be a8 35 70 3d ba ce 1b be 9b 48 cd bd
       -0.15732473 0.05864492 -0.15215579 -0.10023614
000180 3e e2 49 3e 50 d7 29 be 58 c4 20 be 95 5c 45 be
       0.19715211 -0.16586041 -0.15699899 -0.19273598
000190 13 bf 03 3e 80 b8 4e 3d 00 b6 49 bb d4 4a f9 3d
       0.12865858 0.05046892 -0.0030778646 0.121724755
0001a0 d4 6e 63 be 2b 7e b7 3d 9b 2c 36 bd b4 45 1b bd
       -0.22210246 0.089596115 -0.044476133 -0.03790827
0001b0 11 c9 cc bd 50 4d 12 bc e5 3a f3 bd 64 2f 2f be
       -0.09999288 -0.008929566 -0.118764676 -0.17107922
0001c0 63 dc 27 3d e5 1a 76 be 2a 12 04 be a2 26 2e 3e
       0.04098166 -0.24033697 -0.12897554 0.17006925
0001d0 61 1b f2 bd 89 13 33 3d cd a3 cc bd 83 9b 3d be
       -0.11821628 0.043719802 -0.0999218 -0.18516354
0001e0 d1 37 f1 3c ca 4a 2a 3e 97 d5 0c bd ca 17 06 3e
       0.02944556 0.16630092 -0.034383383 0.13095012
0001f0 07 f1 b6 bd 39 4e 07 be 7c 35 85 3d 8d 2c c8 bd
       -0.08932691 -0.13213433 0.06504342 -0.097741224
000200 6f eb 93 3d e8 cb ee 3d 28 10 92 3d 91 a5 0a be
       0.0722264 0.11659986 0.07131988 -0.13539721
000210 f2 3a 3c be 50 97 f0 3c 8b c5 c7 3c 00 50 4f 3c
       -0.18381861 0.029369026 0.024386188 0.012653351
000220 64 61 d6 3b 28 9a b9 3c 27 e0 22 be d2 0a 3f 3e
       0.0065423716 0.022656515 -0.1590582 0.18656471
000230 36 a4 0b be 89 31 0d bc 90 a8 41 3d 7c 26 4a 3e
       -0.1363686 -0.008617767 0.047279894 0.19741243
000240 dd 81 14 3e 20 92 05 3e 8a 6f a3 3d 6a 56 3a 3e
       0.14502664 0.13044024 0.07980259 0.18197027
000250 62 94 16 3d 4c f8 47 3e f0 37 1b 3d c0 81 05 3e
       0.036762603 0.19528311 0.037895143 0.13037777
000260 5c 62 13 3e 9a f4 fc bd e5 5f 24 be 09 aa 1c be
       0.1439299 -0.123513415 -0.16052206 -0.15299238
000270 90 f5 51 bd f4 ab 49 bd f9 42 fb bd f0 64 f7 3c
       -0.051259577 -0.049236253 -0.122686334 0.030199498
000280 36 2a 42 3d 5a 4d 18 be 7b 83 4d be e0 e3 80 bd
       0.047403537 -0.14873257 -0.20069687 -0.06293464
000290 fa 28 4f 3e b0 8f 43 bc 30 5e 81 3c d8 88 10 be
       0.20230475 -0.011936113 0.015791982 -0.14114702
0002a0 04 89 d6 3d 7c 7f f9 3d b4 11 4c be 28 fc 9c bc
       0.104753524 0.12182519 -0.19928628 -0.019163206
0002b0 18 7e 3a be ae d0 26 be 44 41 fa 3d c8 5b 26 bd
       -0.18212163 -0.16290542 0.1221948 -0.040614873
0002c0 a8 18 3f be f0 38 87 3d a4 e7 01 be 68 cf 85 3d
       -0.1866175 0.06602657 -0.1268602 0.065337
0002d0 bc 30 02 3d 3e a2 38 3e 6e fb 2e 3e 50 b5 8d 3d
       0.031784758 0.1803064 0.170881 0.06919348
0002e0 0c ff 8d 3d 54 cd 82 bd 8c 08 30 be 68 11 b0 3c
       0.06933412 -0.063868195 -0.1719076 0.021492675
0002f0 54 c5 41 3e 92 d7 04 be 00 f4 16 bd 80 a0 e6 bc
       0.18922931 -0.12972859 -0.03685379 -0.028152704
000300 52 1d 29 bd 16 27 2a be 6b 6f d2 3c fd 38 e8 3c
       -0.041287728 -0.16616473 0.025687894 0.028347487
000310 10 36 42 3d e6 5f 50 be 18 64 76 3d 6e 5e e5 bd
       0.04741484 -0.20349082 0.06015405 -0.11199652
000320 38 59 93 be d4 bd 12 be b3 cb 16 be 78 fc 13 be
       -0.28779006 -0.14330226 -0.14726143 -0.14451778
000330 8d 38 88 be a6 18 44 3e 9f ce 3e be c0 87 65 3d
       -0.26605645 0.19150028 -0.18633507 0.056037664
000340 a1 68 2a bb 60 97 15 be 90 99 36 be a0 bf cb 3c
       -0.0026002305 -0.14608526 -0.17832017 0.024871647
000350 00 4e b5 3b e2 b6 d2 3d 52 51 4e be 21 3f d1 bd
       0.00553298 0.102887884 -0.20148209 -0.10217119
000360 f8 a8 07 be b8 41 f9 bd 41 23 1f 3e 47 18 37 3e
       -0.1324805 -0.12170738 0.15540792 0.17880355
000370 e5 d5 0d be c8 4e f0 bc 22 2e 2f be a8 c6 f4 bc
       -0.13851126 -0.02933444 -0.17107442 -0.029879883
000380 f6 0d 1e bd b4 88 88 bd 7c 12 4b be 60 39 ca bb
       -0.038587533 -0.06666699 -0.1983127 -0.0061713904
000390 49 3e 5d be 90 6f 27 3e fb 36 ab bd 50 82 49 3d
       -0.21605791 0.16351151 -0.08360096 0.04919654
0003a0 85 c4 fe 3d ad 6a 03 3e 6d a0 01 be 26 4b 23 be
       0.12439827 0.12833662 -0.12658854 -0.15946636
0003b0 05 66 b3 bd 60 37 1a bd 13 a6 0b be 80 d4 95 3b
       -0.08759693 -0.037650466 -0.13637571 0.004572451
0003c0 9c 89 3a bd 58 83 26 3d 8c 51 97 3c 62 42 f9 bd
       -0.04554139 0.040652603 0.018471502 -0.12170865
0003d0 c0 49 d2 bd 41 6c d0 bd de 18 33 3e 90 d6 84 bc
       -0.10267973 -0.10176898 0.17489955 -0.016215593
0003e0 b8 fe 05 3e b1 a1 36 be 5d 6c 33 3e 3b 10 7e be
       0.13085449 -0.17835118 0.17521806 -0.24810879
0003f0 f9 70 59 3e 9c dc 11 3e 26 48 4b bd cd 43 4e be
       0.21234502 0.14244312 -0.049629353 -0.20143051

fc.2.bias f4 [24]
000000 b6 11 aa bc 98 16 e9 3d 44 55 b6 3d d0 a8 da 3d
       -0.020760398 0.113812625 0.08902982 0.1067673
000010 7f 62 6d bd b2 0f 31 bc b3 81 36 3e 10 8b 5a 3c
       -0.05795526 -0.010806965 0.17822914 0.013338819
000020 3c c5 8d 3d 1e 8c 70 3d 91 ef 85 3d 22 48 e2 bd
       0.06922385 0.058727376 0.06539834 -0.110489145
000030 aa c4 08 be 9e f6 1d 3d 58 58 83 be 9c 9d 0f be
       -0.13356271 0.03856527 -0.25653338 -0.14024967
000040 43 e9 02 be fd f4 9b 3d a4 34 e2 3d a5 65 1e be
       -0.12784295 0.07615087 0.11045197 -0.15468462
000050 b2 95 81 3d 7b 80 f8 3c d2 2a 0f ba d7 fa 78 3e
       0.0632738 0.030334702 -0.0005461398 0.24314438

fc.4.weight f4 [4, 24]
000000 7d da 18 3e a8 2d d2 3c 38 88 43 be e8 74 34 be
       0.14927097 0.025656536 -0.19094932 -0.17622721
000010 a9 0b 38 3e 7d 34 d7 bd b2 e5 0b 3e 92 b7 08 3e
       0.17973198 -0.10508058 0.1366184 0.13351277
000020 68 0c bb bd 8d 15 df 3d b4 e6 be bd c1 9d 45 3d
       -0.09133226 0.10892782 -0.09321347 0.04824615
000030 43 55 e1 bc 45 91 5e 3e 34 34 0c be 38 d5 7d bd
       -0.027506476 0.21735103 -0.13691789 -0.06197092
000040 fb 68 0c 3e 7e 04 0d be b0 ab 3a 3e 5d 3c 2d 3d
       0.13711922 -0.13771245 0.18229556 0.042293895
000050 b4 c0 11 3d 7f ce 0c 3e 96 ad 21 3c d1 ec 3b bd
       0.035584167 0.13750647 0.009868046 -0.045880143
000060 0d 05 d1 bd ea 6e 43 be 2c 5b 25 bd 20 b6 af 3d
       -0.102060415 -0.19085279 -0.04037015 0.085796595
000070 d0 b6 82 3d 77 b0 cc 3d a5 9a 7f 3c 2c df b1 3d
       0.06382525 0.099945955 0.015600835 0.08685145
000080 c6 c8 b1 3d b4 0c 8f bd 36 02 7a bb 26 76 ea 3d
       0.086808726 -0.06984845 -0.003814829 0.11448316
000090 a1 89 9d bc 82 11 96 bc 49 5f 50 3d d8 a6 92 bd
       -0.019230666 -0.018318895 0.05087212 -0.07160729
0000a0 5e d1 aa 3d 61 0f ee 3d f8 73 ed 3d 00 ef d5 3d
       0.08340715 0.11624027 0.11594385 0.10445976
0000b0 67 e2 af 3d 6a 59 b8 bd ec ec 98 bd e3 8e fc 3d
       0.08588105 -0.090014294 -0.07467064 0.12331941
0000c0 01 fe 4a 3e 36 7b 06 be f8 27 eb 3d 8c 8e 27 3e
       0.19823457 -0.13132939 0.11482233 0.16362971
0000d0 3a 0e 17 3e bf 25 15 be ec a0 1b bd 84 52 3b be
       0.14751521 -0.1456518 -0.037995264 -0.18293196
0000e0 5f f4 04 3d 87 65 54 3d a2 8f ef 3d 4a 46 ad bd
       0.032459613 0.051854637 0.11697318 -0.08460672
0000f0 3b 3c c7 bd be 79 8a bd 34 ae 75 3d ce 23 40 3e
       -0.09728285 -0.06761502 0.059980586 0.18763658
000100 88 94 54 3e 9a a2 14 be fc 5a d1 3d 6f 84 ce bd
       0.20759785 -0.14515153 0.10222432 -0.100838535
000110 03 b4 ec 3d 09 0d 9b bd 54 ba fa 3d cf f8 a8 bd
       0.11557772 -0.07570846 0.122425705 -0.082505815
000120 b2 e6 07 bd e5 82 20 be c4 ed 79 bd 6c d1 2f 3d
       -0.033178993 -0.15674932 -0.061017767 0.04292433
000130 a8 5b c6 3c 08 e3 42 be 11 0a 73 be ac 8d 41 3e
       0.024213627 -0.19031918 -0.23734309 0.189017
000140 b4 33 04 be 4b 52 4e 3d 23 ba 10 3e 8f 15 64 3d
       -0.12910348 0.05037145 0.14133506 0.055684622
000150 a0 98 36 bd 03 93 41 be 49 2f 06 bc 96 ff 31 3e
       -0.04457915 -0.18903737 -0.008189985 0.17382655
000160 7a cc 01 3e 9a be b9 3c 7e ce af bd b2 fe 49 3c
       0.12675658 0.022673894 -0.08584307 0.0123287905
000170 73 a2 22 be 50 4d d1 3c c6 58 43 3e 62 1c 35 3e
       -0.15882282 0.02554956 0.19076833 0.17686608

fc.4.bias f4 [4]
000000 7e a0 2b be 4e 86 a3 bd 6a e4 20 3d 39 64 a5 bd
       -0.16760442 -0.07984601 0.039280333 -0.080757566
