covid_mse.pth (torch, 10241 bytes, 12 tensors)

weight f4 [50, 4]
00000000: be77 7fbe 9087 abbd db4b 86be 06e0 98be
00000010: 9252 d1bd 7422 373d 4259 1c3d 699f 09be
00000020: 2bc8 56bc 5a80 4cbd b3e4 cebe 507a e4be
00000030: d80a 92be df5f b8bd 5eff 41bd 5e33 983b
00000040: 7692 56be 4e95 2ebe 035e 59be 50b4 03be
00000050: 5c7e f6be 4ce9 6b3d ec80 85be 8026 acbe
00000060: 22e8 8cbe 101e 5bbe 564f 27be d02e d1bc
00000070: 2134 daba 6d9b 373b 24e1 33bb 9c12 50bb
00000080: e23a 7dbc d2a0 20bc 831f 373e 04dc 93be
00000090: 26b9 c8bd a23e 4d3d a485 71bb 9aee 9fbe
000000a0: 64ce ceba b0b2 a3bd 0183 a63d fbc9 dabc
000000b0: 0b8b bfbc c060 03bd fa3c 833d 20f3 eebc
000000c0: b466 30bc e697 89bd a515 023d 724f 46bd
000000d0: cdf1 7ebd 733e 60bd 54b0 633b 05f0 1cbb
000000e0: 2b9f 90be cae8 223e 5a08 d3bd 5a8e c6bb
000000f0: cfcf 80bb 1cdc 4bbd 61f6 323d 7bae cdbc
00000100: 9c6b 66bd 39a4 923d 116c 52bd dda4 883a
00000110: 60d9 09be 62c7 593e 90c9 86be 6721 9cbe
00000120: 04db a5be 032d 503e 7871 07be c3d6 04bc
00000130: a91c fdbb 3d2d 843d d32b d7bd 4f25 843b
00000140: 8adc 8cbe 64d2 8d3d cee5 7d3e ab85 a7be
00000150: cb9e 64be 3850 423e 3376 b2be 9b2d 4ebe
00000160: a2a3 dabb 4d29 e9bc 37f7 7f3a 6be7 03bc
00000170: 5ead 74be 464e 573e 8317 31be d031 dfbd
00000180: c36f a3be 58d0 44bd b3bf 40be de19 9bbe
00000190: 76f7 debc 62bc 6a3d c174 c8bd e9c7 4fbc
000001a0: 1ddb 4fbd 3898 23be 8b95 d3bb 6c5d 97bc
000001b0: a686 a9ba dc93 d4bb 5cb2 ee3b ab73 88ba
000001c0: b355 4bbe 001a f23c 1044 82bc 4252 a1be
000001d0: dcb3 2bbc 75a8 2bbd b1a1 02be 00dd b5b9
000001e0: c2c4 e7bb 22f6 ea3b 53de 90bc aa32 c6bb
000001f0: 739d 9fba e449 f6bd 713f df3d d346 0bbd
00000200: 5ef2 a2be 05d5 1b3e 80af 4abd e2f5 3c3c
00000210: b7d8 84bc d2d4 9fbd ef0c e2bb 2b6c e6bc
00000220: 7b8f 14be 8041 62be 08eb 97be ccc4 96be
00000230: 77b7 13bb 80eb 86bd a787 8f3d a6c6 bebc
00000240: 9168 d1b9 cfa2 0bbd f063 efbc 70d2 12be
00000250: bea6 4bbe e1c1 993c 9b06 613e 9102 f4bd
00000260: 9342 bdbe a215 363e 8bee b1bd c2af 5b3c
00000270: 254d a1be c5ef 9a3d e82d a13d 39a7 b5bd
00000280: 00cc 2fbc bc64 f63d a407 94be 5888 08be
00000290: 53df 8bbd dd84 7f3d 18cd 25bc efec 82bd
000002a0: 77ae 58be 1e94 953d c7db eebc bb3f fc3b
000002b0: f691 e1bd 3378 1abe 88c9 1a3d 3062 64be
000002c0: e4f2 c5be e097 48be e1a0 8cbd 8ec0 c33b
000002d0: 1908 b8bd 76c2 ccbd 1d0a 9b3d 102e 95bd
000002e0: e094 30be 7e4e 01be 1051 bc3c 2bc9 42be
000002f0: 3b5e 60be 9ecb 363e 9ed7 82be 008e 4a3a
00000300: a61e 53bb 01ad de3c 2325 35bd f737 de3a
00000310: 32fa 94be 01f8 a93e 202e 29be ff8c 97be
-0.24948022 -0.08375466 -0.26229748 -0.29858416 -0.10220827 0.04471059 0.03817106 -0.13439716
-0.013109247 -0.049927093 -0.4040886 -0.44624567 -0.28523898 -0.09002661 -0.047362678 0.0046447953
-0.20954308 -0.17049143 -0.21227269 -0.12861753 -0.4814328 0.057595536 -0.26074922 -0.33623123
-0.27520853 -0.21398187 -0.16338858 -0.025535017 -0.0016647616 0.0028016225 -0.0027447427 -0.0031749373
-0.015455933 -0.009803968 0.17883115 -0.28878796 -0.09800939 0.05010856 -0.0036853338 -0.31236726
-0.0015778062 -0.07993066 0.08130456 -0.02670764 -0.02338173 -0.03207469 0.06408115 -0.029168665
-0.010766674 -0.067184255 0.031758923 -0.04841561 -0.062242318 -0.054747056 0.003474255 -0.0023946774
-0.28246436 0.15909114 -0.10304327 -0.00605945 -0.0039310227 -0.04977046 0.043691996 -0.025107613
-0.056254968 0.07160229 -0.05137259 0.001042511 -0.13461828 0.21267465 -0.26325655 -0.30494234
-0.32393658 0.2032967 -0.13226879 -0.008107844 -0.007724364 0.06453941 -0.10506406 0.004032768
-0.27512008 0.069248945 0.24794695 -0.32719168 -0.223262 0.18975914 -0.34855804 -0.20134585
-0.0066723386 -0.028462077 0.0009764316 -0.00805078 -0.2389426 0.21025953 -0.17294125 -0.10898173
-0.31921205 -0.048050255 -0.18823127 -0.30293173 -0.027217608 0.057308562 -0.09787894 -0.01268194
-0.050746072 -0.15976036 -0.006457036 -0.018477164 -0.0012933805 -0.006487353 0.0072844457 -0.0010410448
-0.1985691 0.029553413 -0.015901595 -0.3150807 -0.010479894 -0.0419087 -0.12756993 -0.00034687668
-0.007073016 0.0071704546 -0.017684137 -0.00604852 -0.0012177661 -0.12025812 0.10900772 -0.03400309
-0.31825536 0.15217979 -0.049483776 0.011533232 -0.016216619 -0.07804264 -0.0068985145 -0.02812775
-0.14507858 -0.22095299 -0.29671502 -0.2944702 -0.0022539773 -0.06587887 0.070082955 -0.023288082
-0.00039941494 -0.034090813 -0.029222459 -0.14338088 -0.19887826 0.018769206 0.21975176 -0.11914552
-0.36964855 0.1778169 -0.086880766 0.013408603 -0.3150417 0.07565264 0.07870084 -0.08869786
-0.01072979 0.12030932 -0.2891208 -0.13333261 -0.06829705 0.062382568 -0.010119699 -0.06392848
-0.21160303 0.07303642 -0.029157532 0.007698027 -0.11014168 -0.15084915 0.03778985 -0.2230308
-0.38661873 -0.19589186 -0.06866623 0.005973882 -0.089859195 -0.09998028 0.07570288 -0.07284176
-0.17244291 -0.12627599 0.022987872 -0.19022052 -0.21910946 0.17851111 -0.25555128 0.0007726848
-0.0032214313 0.027182104 -0.04422487 0.0016953935 -0.29097134 0.33197024 -0.16521502 -0.2959976

bias f4 [50]
00000000: 2cee f23e 9a57 bb3e bc03 e83b f8d3 c73e
00000010: 8c55 d7be 2ee8 b2be 0043 31be b135 1bbe
00000020: f509 fd3d fee0 ebbe f033 12bf c130 cdbe
00000030: 2c31 803d 20f6 89be 7648 bbbe 91d1 0fbf
00000040: cba9 8c3e 500c 80bd 544b fdbd e12f 88bd
00000050: 404e 643c f438 dbbe 2fec 92be 7c9b 08be
00000060: 6062 7c3d 44b6 b63b 6dc7 b1be 3848 d4be
00000070: 9878 a2bd c85b 75be f6fe 28bf a649 7cbd
00000080: 0d67 5b3d 32d3 9cbe 487e 28be f248 b33d
00000090: cf76 ecbc 38ac 4bbc 5217 d83d bd3d 07bf
000000a0: 0d3f 07bf 98bf 193d bb8a 8b3d c8ec 86be
000000b0: 5006 573e f932 aabd 402a 0a3e 4454 3fbe
000000c0: 2973 adbc 96e4 88be
0.47447336 0.36590272 0.0070805233 0.39028907 -0.42057455 -0.34942764 -0.17310715 -0.151572
0.12355415 -0.46070093 -0.571105 -0.4007626 0.06259379 -0.2694559 -0.3657872 -0.5617915
0.27473292 -0.062523484 -0.12367883 -0.06649757 0.013934672 -0.4281689 -0.2869582 -0.13340563
0.061617255 0.005575927 -0.34722462 -0.4146135 -0.07933158 -0.23960793 -0.6601404 -0.061593674
0.053565074 -0.3062988 -0.16454422 0.087541476 -0.028865246 -0.012431197 0.10551323 -0.5282858
-0.5283058 0.037536234 0.0681357 -0.26352525 0.20998502 -0.083105035 0.1349268 -0.18684489
-0.021173077 -0.26736897

weight f4 [4, 50]
00000000: f4c0 c83d 8e16 43be 325d b03e 853f ba3c
00000010: 9e58 5e3e 10a4 a73c b2fd 85be 6cff 063c
00000020: 133c 703e 02e1 433c 401d 2dbb 1753 edbc
00000030: 7c7f 90bb 61f9 eabb 788f 283c 2ac1 3fbd
00000040: 2777 323a 50b2 18be f31f 303b 8545 1aba
00000050: 1a76 5a3e 78bd a3bc 5241 ba38 c02e 72bd
00000060: 5d27 803e c532 1d3a 5153 743e d41c 7738
00000070: 2e84 313e 6578 593c 4d99 923b 305c 67bc
00000080: 01a3 913c 4486 843b 34ba a9be 4222 d3ba
00000090: 2bab ae3b 3321 643b 9886 1ebc 9d7d cbbd
000000a0: 7e55 08bd ad71 72bd e37f f7bb 0269 703e
000000b0: 81b7 1cbd 3edb 093e 7268 503e 784b 6ebe
000000c0: 67a5 bf3a 00d5 993b 9d4c 9f3e 461c 5fbe
000000d0: e6b8 da3d 737a 923d a84e 253d fcd6 8e3d
000000e0: 3ab0 9abe 8309 033e 0f9e 8fbc d294 493e
000000f0: 8833 11bc 6656 5abc 28e8 c0bc 84e8 8b3b
00000100: 1e34 5b3c 3978 8cbc 9dde eb38 c2ef 033e
00000110: 6803 623b 2007 0fba 485a 65bd a6a5 5a3e
00000120: 4ac3 2539 00f9 653c c353 95be b8e2 353b
00000130: dd67 4a3e 91a1 8238 b029 4cbe 89a9 1a3c
00000140: a0fe b1b8 e82a e6bc 1ba3 93bc 841e 673b
00000150: e4a0 cc3d 4b60 d73b 2bcd 3b3d cf24 b43c
00000160: 14d5 9a3c 1d17 46be 07c3 583d 8b87 91bd
00000170: 8bf7 87bb 005d 5d3c 9a5a b9bd ef7f 38be
00000180: 505c 9bbd b058 d93d 6dfd b13a 9626 1e3e
00000190: 986e 9cbe 0a20 17bd 701e 38bd 7bff 10bc
000001a0: 8797 9bbe 753e 853e 8b59 57be 2077 41be
000001b0: 9bdd 993d 9027 c0bd bfb4 57bb 6c59 0d39
000001c0: 716a 483b 3fb3 ce3b 02ac 15bd cded 29bd
000001d0: 8565 ac39 e08f 68bc c4c3 c93a 5e60 10ba
000001e0: 3bfa 90be 644e a3bd dd6f 8dbb 6004 93be
000001f0: 9092 13be fccb 143c fe1d 1bbe f9b5 3c38
00000200: ced0 703e 99d2 f93b c556 003d 7506 373c
00000210: a640 1dba 771a 7bbb 68f8 81be 3972 cfba
00000220: 51cd ce3c 74a3 00bd b278 a1bb 2320 c73c
00000230: df39 b53c 51a4 993d 2d35 313c 5032 5ebe
00000240: 6c12 17bd df83 abbd 427f 6f3e e0f7 cd3d
00000250: 289b b33a dc27 d33d 6047 12bc c1a7 90be
00000260: 4cf2 683e c69f 73bd c09a 9cbe 88a4 98be
00000270: f6a6 513e f0d8 723d 62aa 18bd dfcf 7e3b
00000280: 36b5 f73c b1ee e3bc 494c 89bb 07c6 063c
00000290: 3cbf 9cbc bdb1 3cbc 366f 463a 768d 73be
000002a0: 6f22 a43a bfda 26ba bca7 fcbd 70ed cd3d
000002b0: 8564 5239 78d8 183e 4880 7fbd 54f8 3ebc
000002c0: f5e8 d03d 58ac 9838 91af 953e 2a2a c63b
000002d0: 6491 d0bb cdb0 e1bc c44f a13c 92b4 243b
000002e0: 39e5 893e 189b 2dbd d382 c83d b09c 9ebc
000002f0: f0d6 2bbc 167b c6bd 63ae f33d 5a0c 143d
00000300: e43f 0ebc faf9 9cbe 2554 df3b cadd 763d
00000310: 807f 833d 3a41 323e dc7c cf3a 0e1f 76be
0.09802428 -0.19051573 0.34446102 0.022735367 0.21713492 0.020463973 -0.26170117 0.008239608
0.23460416 0.0119555015 -0.002641514 -0.028970284 -0.0044097286 -0.0071708416 0.010288112 -0.046815075
0.0006807916 -0.14911771 0.0026874512 -0.0005884993 0.21334115 -0.019987807 8.881338e-05 -0.059126616
0.25030032 0.000599664 0.23859908 5.8916237e-05 0.17335579 0.013273333 0.0044738413 -0.0141211
0.017777922 0.004044326 -0.33149874 -0.0016108232 0.0053304634 0.0034809827 -0.009675644 -0.09936068
-0.033284657 -0.05919044 -0.007553087 0.23477557 -0.03826094 0.1346254 0.20352343 -0.23270977
0.0014621437 0.004694581 0.3111314 -0.21788129 0.10679798 0.071522616 0.040358216 0.06974599
-0.30212575 0.12796597 -0.017531423 0.19685677 -0.008862384 -0.013326263 -0.0235482 0.0042696614
0.013379125 -0.01714717 0.00011247138 0.12884429 0.0034486894 -0.0005456079 -0.055994302 0.21352252
0.00015808377 0.014036417 -0.29165468 0.0027753543 0.19766183 6.228977e-05 -0.19937778 0.009439834
-8.487445e-05 -0.028096631 -0.01802211 0.0035265991 0.09991625 0.0065727583 0.04584996 0.021990208
0.018900432 -0.19344755 0.052920368 -0.07105931 -0.0041493825 0.013510942 -0.09050484 -0.18017553
-0.075859666 0.10612619 0.0013579555 0.15444407 -0.30553126 -0.03689579 -0.044950902 -0.008849974
-0.30389044 0.26024213 -0.21030252 -0.18893099 0.07512971 -0.09382546 -0.003291413 0.0001348012
0.0030581022 0.006307989 -0.036540993 -0.04148655 0.00032882034 -0.014194459 0.0015393426 -0.0005507524
-0.2831591 -0.07973936 -0.0043163137 -0.28714275 -0.14411378 0.009081837 -0.1514816 4.4992168e-05
0.23517153 0.007623982 0.03133275 0.011170973 -0.0005998708 -0.0038315335 -0.2538483 -0.0015826888
0.025244387 -0.03140588 -0.004927718 0.024307316 0.022122322 0.07502044 0.010815901 -0.2169888
-0.036882803 -0.08374762 0.23388389 0.10057044 0.0013702856 0.10310337 -0.00892815 -0.28252986
0.22748679 -0.059478544 -0.30586815 -0.29813027 0.20473847 0.05928892 -0.037271865 0.0038881225
0.030237775 -0.027823778 -0.004190002 0.008225924 -0.019134156 -0.0115169855 0.00075696723 -0.23784432
0.0012522469 -0.0006364993 -0.1233668 0.10055053 0.00020064607 0.14926326 -0.062378198 -0.011655886
0.10200683 7.280026e-05 0.2923551 0.006047507 -0.006364988 -0.027550125 0.019691356 0.0025132042
0.26932696 -0.042384237 0.09790578 -0.019361824 -0.010488257 -0.096914455 0.11898496 0.036144592
-0.008682225 -0.30659467 0.0068154507 0.06027011 0.06420803 0.17407694 0.0015830058 -0.24035284

bias f4 [4]
00000000: 2c0f 743f 310a 933f 1fff 933f 341d d63e
0.9533565 1.1487485 1.1562232 0.41819155

exp_avg f4 [50, 4]
00000000: 0000 0000 0000 0000 0000 0000 0000 0000
00000010: 0400 0000 0400 0000 0400 0000 0400 0000
00000020: 0400 0000 0400 0000 0400 0000 0400 0000
00000030: 0400 0000 0400 0000 0400 0000 0400 0000
00000040: 0000 0000 0000 0000 0000 0000 0000 0000
00000050: 0400 0000 0400 0000 0400 0000 0400 0000
00000060: 0000 0000 0000 0000 0000 0000 0000 0000
00000070: 0400 0000 0400 0000 0400 0000 0400 0000
00000080: 0400 0000 0400 0000 0400 0000 0400 0000
00000090: 0400 0000 0400 0000 0400 0000 0400 0000
000000a0: 0400 0000 0400 0000 0400 0000 0400 0000
000000b0: 0400 0000 0400 0000 0400 0000 0400 0000
000000c0: 0400 0000 0400 0000 0400 0000 0400 0000
000000d0: 0400 0000 0400 0000 0400 0000 0400 0000
000000e0: 0400 0000 0400 0000 0400 0000 0400 0000
000000f0: 0400 0000 0400 0000 0400 0000 0400 0000
00000100: b009 9389 f759 298a ffd6 b989 bb92 068a
00000110: 0000 0000 0000 0000 0000 0000 0000 0000
00000120: 0400 0000 0400 0000 0400 0000 0400 0000
00000130: c0b2 3841 f7ac 023f aac6 933e d41e 5642
00000140: 0000 0000 0000 0000 0000 0000 0000 0000
00000150: 0400 0000 0400 0000 0400 0000 0400 0000
00000160: 0400 0000 0400 0000 0400 0000 0400 0000
00000170: 0000 0000 0000 0000 0000 0000 0000 0000
00000180: 0000 0000 0000 0000 0000 0000 0000 0000
00000190: 0400 0000 0400 0000 0400 0000 0400 0000
000001a0: 0400 0000 0400 0000 0400 0000 0400 0000
000001b0: 7866 dc3f cc76 be3e af14 a63f 0f7c 9240
000001c0: 0000 0000 0000 0000 0000 0000 0000 0000
000001d0: 0400 0000 0400 0000 0400 0000 0400 0000
000001e0: 0400 0000 0400 0000 0400 0000 0400 0000
000001f0: 0400 0000 0400 0080 0400 0080 0400 0080
00000200: 0400 0080 0400 0080 0400 0080 0400 0080
00000210: 0400 0000 0400 0000 0400 0000 0400 0000
00000220: 0000 0000 0000 0000 0000 0000 0000 0000
00000230: 0400 0000 0400 0000 0400 0000 0400 0000
00000240: 0400 0000 0400 0000 0400 0000 0400 0000
00000250: 0400 0000 0400 0000 0400 0000 0400 0000
00000260: 0400 0000 0400 0080 0400 0080 0400 0000
00000270: 0400 0000 0400 0000 0400 0000 0400 0000
00000280: 0400 0000 0400 0000 0400 0000 0400 0000
00000290: 0400 0000 0400 0000 0400 0000 0400 0000
000002a0: 0400 0080 0400 0080 0400 0080 0400 0080
000002b0: 0000 0000 0000 0000 0000 0000 0000 0000
000002c0: 0400 0000 0400 0000 0400 0000 0400 0000
000002d0: 0400 0000 0400 0000 0400 0000 0400 0000
000002e0: 0000 0000 0000 0000 0000 0000 0000 0000
000002f0: 0000 0000 0000 0000 0000 0000 0000 0000
00000300: 440e d6c1 cf90 9fbf 5ee7 43bf 2cba f7c2
00000310: 0000 0000 0000 0000 0000 0000 0000 0000
0.0 0.0 0.0 0.0 6e-45 6e-45 6e-45 6e-45
6e-45 6e-45 6e-45 6e-45 6e-45 6e-45 6e-45 6e-45
0.0 0.0 0.0 0.0 6e-45 6e-45 6e-45 6e-45
0.0 0.0 0.0 0.0 6e-45 6e-45 6e-45 6e-45
6e-45 6e-45 6e-45 6e-45 6e-45 6e-45 6e-45 6e-45
6e-45 6e-45 6e-45 6e-45 6e-45 6e-45 6e-45 6e-45
6e-45 6e-45 6e-45 6e-45 6e-45 6e-45 6e-45 6e-45
6e-45 6e-45 6e-45 6e-45 6e-45 6e-45 6e-45 6e-45
-3.5398073e-33 -8.1539745e-33 -4.473931e-33 -6.479462e-33 0.0 0.0 0.0 0.0
6e-45 6e-45 6e-45 6e-45 11.54364 0.51045173 0.28862506 53.530106
0.0 0.0 0.0 0.0 6e-45 6e-45 6e-45 6e-45
6e-45 6e-45 6e-45 6e-45 0.0 0.0 0.0 0.0
0.0 0.0 0.0 0.0 6e-45 6e-45 6e-45 6e-45
6e-45 6e-45 6e-45 6e-45 1.7218771 0.3720001 1.2975062 4.577644
0.0 0.0 0.0 0.0 6e-45 6e-45 6e-45 6e-45
6e-45 6e-45 6e-45 6e-45 6e-45 -6e-45 -6e-45 -6e-45
-6e-45 -6e-45 -6e-45 -6e-45 6e-45 6e-45 6e-45 6e-45
0.0 0.0 0.0 0.0 6e-45 6e-45 6e-45 6e-45
6e-45 6e-45 6e-45 6e-45 6e-45 6e-45 6e-45 6e-45
6e-45 -6e-45 -6e-45 6e-45 6e-45 6e-45 6e-45 6e-45
6e-45 6e-45 6e-45 6e-45 6e-45 6e-45 6e-45 6e-45
-6e-45 -6e-45 -6e-45 -6e-45 0.0 0.0 0.0 0.0
6e-45 6e-45 6e-45 6e-45 6e-45 6e-45 6e-45 6e-45
0.0 0.0 0.0 0.0 0.0 0.0 0.0 0.0
-26.756966 -1.2466067 -0.76524913 -123.86362 0.0 0.0 0.0 0.0

exp_avg_sq f4 [50, 4]
00000000: 0000 0000 0000 0000 0000 0000 0000 0000
00000010: 8e04 814a f8b6 3f4a 1f24 0c4a ea4c d24a
00000020: febd 7850 bdde 024b 603e 4f49 2868 c749
00000030: 3fe1 4051 873d 5f4c 0df3 514f 3981 b954
00000040: 0000 0000 0000 0000 0000 0000 0000 0000
00000050: f7d3 2444 a16d c444 da4a 8543 9ab7 fa43
00000060: 0000 0000 0000 0000 0000 0000 0000 0000
00000070: a9d7 b452 e89c 794e 5a2d 874f fb47 0654
00000080: 090a da4e b780 214c 574b d04a 72e8 6a4b
00000090: f9b2 c947 6b50 d847 b0f6 4f46 fb83 c346
000000a0: 51b6 ec54 b32c 804f d1c5 0e50 30d1 3e54
000000b0: 37fc 2a52 a733 864e 7308 c64e 80ab 8d52
000000c0: b336 1655 1839 0251 a8ff fc4f d6c4 3951
000000d0: ff91 f94f 726d d54a 6232 4d4d f530 8052
000000e0: 7c22 9350 4033 0f4e 88d3 244f 3763 0254
000000f0: bda8 2454 6af9 df4f 26d4 104f ad35 0e51
00000100: 2666 2753 567a 7d4f 8886 0e51 89d3 0356
00000110: 0000 0000 0000 0000 0000 0000 0000 0000
00000120: cd3b fa4e 562b 494e 1dc1 0f4e b447 1d52
00000130: 51e9 8755 d050 a551 6d98 af52 dd69 cd57
00000140: 0000 0000 0000 0000 0000 0000 0000 0000
00000150: 87f5 1048 d642 2448 23c9 9d46 fa7b 1447
00000160: 9895 8955 b978 4f51 6a93 ee51 3763 7456
00000170: 0000 0000 0000 0000 0000 0000 0000 0000
00000180: 0000 0000 0000 0000 0000 0000 0000 0000
00000190: c69b 5e56 2e58 3452 01b1 4653 ed79 4a58
000001a0: c540 864e 9fa9 264a cbdd b24c bb2b a051
000001b0: 7331 2455 2607 d450 cb70 8a51 f371 8b56
000001c0: 0000 0000 0000 0000 0000 0000 0000 0000
000001d0: 8c47 f350 c27f ae4b 5d2e 2f4d 0748 2f52
000001e0: 7dba f754 c9ff 9050 9a41 f251 0abc ec56
000001f0: fce1 0451 81a2 684b 9654 324a ff18 774b
00000200: 2749 2453 5475 ec4f 6ce1 6551 9cb2 7656
00000210: 2b77 8354 fc3f d150 5144 4a51 910d ad55
00000220: 0000 0000 0000 0000 0000 0000 0000 0000
00000230: 0a05 9455 6471 9951 d9c7 0051 895b 8152
00000240: 2ca7 b153 eb9a 374f d438 174f 8b0e 1d52
00000250: a4b0 994d fb71 114e dc4f b64e ba1d 0d50
00000260: 4bac ed52 a712 2c4f 6ee3 1351 6196 4556
00000270: a007 8c4b 53d5 904a 7107 214c ab47 fb4d
00000280: 4a78 6850 c13c 9b4c fcc2 cd4b 58c0 5050
00000290: b599 324f 261d 4d4c adb1 d04b 4b46 d24c
000002a0: f754 3452 4b41 d34e ce94 6c50 54fd 8155
000002b0: 0000 0000 0000 0000 0000 0000 0000 0000
000002c0: 2a44 8a50 c372 e94b f343 974e 6779 fa53
000002d0: b659 1b4f 7125 224b 5eb3 f14c ded6 9251
000002e0: 0000 0000 0000 0000 0000 0000 0000 0000
000002f0: 0000 0000 0000 0000 0000 0000 0000 0000
00000300: 729a 9b55 acc3 2952 60e7 fd52 feca f957
00000310: 0000 0000 0000 0000 0000 0000 0000 0000
0.0 0.0 0.0 0.0 4.227655e+06 3.141054e+06 2.2960718e+06 6.891125e+06
1.6692804e+10 8.576701e+06 848870.0 1.633541e+06 5.1775795e+10 5.8521116e+07 3.5223667e+09 6.3738956e+12
0.0 0.0 0.0 0.0 659.31195 1571.4259 266.58478 501.4344
0.0 0.0 0.0 0.0 3.8835615e+11 1.04695245e+09 4.5357926e+09 2.306933e+12
1.8290454e+09 4.2336988e+07 6.8253875e+06 1.539493e+07 103269.945 110752.836 13309.672 25025.99
8.1333683e+12 4.300826e+09 9.581315e+09 3.2782135e+12 1.8359398e+11 1.125766e+09 1.6612212e+09 3.0423384e+11
1.0322605e+13 3.4956476e+10 8.489226e+09 4.9866957e+10 8.3741896e+09 6.993593e+06 2.1516445e+08 2.752886e+11
1.9748086e+10 6.0062515e+08 2.7653263e+09 2.2400412e+12 2.8288224e+12 7.5153295e+09 2.4298225e+09 3.8174118e+10
7.189733e+11 4.252653e+09 3.82589e+10 3.623614e+13 0.0 0.0 0.0 0.0
2.0991116e+09 8.437651e+08 6.0294944e+08 1.6887821e+11 1.867952e+13 8.875318e+10 3.7708828e+11 4.5170913e+14
0.0 0.0 0.0 0.0 148438.11 168203.34 20196.568 38011.977
1.890945e+13 5.5692726e+10 1.2808443e+11 6.717674e+13 0.0 0.0 0.0 0.0
0.0 0.0 0.0 0.0 6.1190156e+13 1.9364338e+11 8.5337316e+11 8.9050006e+14
1.1261958e+09 2.7305998e+06 9.3777496e+07 8.5991055e+10 1.1283268e+13 2.8457906e+10 7.432473e+10 7.666076e+13
0.0 0.0 0.0 0.0 3.265242e+10 2.287194e+07 1.836907e+08 1.8820692e+11
8.5118854e+12 1.9461458e+10 1.3006034e+11 1.3014618e+14 3.567044e+10 1.5245953e+07 2.9217655e+06 1.6193791e+07
7.056019e+11 7.9342244e+09 6.170809e+10 6.7811745e+13 4.51712e+12 2.8085051e+10 5.4295597e+10 2.3784222e+13
0.0 0.0 0.0 0.0 2.034367e+13 8.237905e+10 3.4569294e+10 2.7779324e+11
1.5260278e+12 3.0803832e+09 2.537084e+09 1.6863846e+11 3.223113e+08 6.1004154e+08 1.5293435e+09 9.470142e+09
5.1039892e+11 2.8869036e+09 3.969849e+10 5.4312416e+13 1.8353984e+07 4.7458975e+06 4.2212804e+07 5.2697226e+08
1.560079e+10 8.1389064e+07 2.6969592e+07 1.4009065e+10 2.9964178e+09 5.376937e+07 2.7353946e+07 1.1024444e+08
1.936299e+11 1.7721358e+09 1.58767e+10 1.786563e+13 0.0 0.0 0.0 0.0
1.8557784e+10 3.0598534e+07 1.2689064e+09 2.1515572e+12 2.6063478e+09 1.0626417e+07 1.2672075e+08 7.883376e+10
0.0 0.0 0.0 0.0 0.0 0.0 0.0 0.0
2.1385955e+13 1.8228308e+11 5.4525428e+11 5.4930048e+14 0.0 0.0 0.0 0.0

exp_avg f4 [50]
00000000: 0000 0000 0400 0000 0400 0000 0400 0000
00000010: 0000 0000 0400 0000 0000 0000 0400 0000
00000020: 0400 0000 0400 0000 0400 0000 0400 0000
00000030: 0400 0000 0400 0000 0400 0000 0400 0000
00000040: 4f77 0280 0000 0000 0400 0000 72d3 3035
00000050: 0000 0000 0400 0000 0400 0000 0000 0000
00000060: 0000 0000 0400 0000 0400 0000 2f22 ab33
00000070: 0000 0000 0400 0000 0400 0000 0400 0000
00000080: 0400 0080 0400 0000 0000 0000 0400 0000
00000090: 0400 0000 0400 0000 0400 0000 0400 0000
000000a0: 0400 0000 0400 0000 0400 0080 0000 0000
000000b0: 0400 0000 0400 0000 0000 0000 0000 0000
000000c0: 14dc ccb5 0000 0000
0.0 6e-45 6e-45 6e-45 0.0 6e-45 0.0 6e-45
6e-45 6e-45 6e-45 6e-45 6e-45 6e-45 6e-45 6e-45
-2.26471e-40 0.0 6e-45 6.58728e-07 0.0 6e-45 6e-45 0.0
0.0 6e-45 6e-45 7.969026e-08 0.0 6e-45 6e-45 6e-45
-6e-45 6e-45 0.0 6e-45 6e-45 6e-45 6e-45 6e-45
6e-45 6e-45 -6e-45 0.0 6e-45 6e-45 0.0 0.0
-1.5263236e-06 0.0

exp_avg_sq f4 [50]
00000000: 0000 0000 99f9 d431 e993 ef35 f8a9 4d3a
00000010: 0000 0000 bf4a 982b 0000 0000 0679 e739
00000020: 4848 8b34 7d07 bd2e ac23 e03a 8c05 c238
00000030: a707 b03a 202b 2038 fd47 9639 159e c939
00000040: f4cd a33b 0000 0000 3471 c037 0fe1 8c3d
00000050: 0000 0000 af03 0d2f 347d 843c 0000 0000
00000060: 0000 0000 dee2 173e f985 3f37 c080 693c
00000070: 0000 0000 d2c9 1038 ba71 ad3c 3cfc 8036
00000080: 8701 0e3c 84f7 a73b 0000 0000 5283 3f3b
00000090: aefd 9639 02fb 4c36 6678 df3b 1cb1 0834
000000a0: ab38 8e36 df3d 1035 7773 153b 0000 0000
000000b0: 497d 8b39 3a18 4837 0000 0000 0000 0000
000000c0: 845c a83d 0000 0000
0.0 6.198388e-09 1.7849935e-06 0.0007845457 0.0 1.0820996e-12 0.0 0.00044149923
2.594336e-07 8.596055e-11 0.0017100475 9.251674e-05 0.0013430015 3.8187136e-05 0.00028663865 0.00038455488
0.0049989168 0.0 2.2940898e-05 0.06878864 0.0 1.2825184e-10 0.016172983 0.0
0.0 0.14832637 1.141568e-05 0.014251888 0.0 3.4520235e-05 0.021172393 3.844061e-06
0.008667356 0.0051259417 0.0 0.002922256 0.00028799236 3.0544475e-06 0.0068197725 1.2730419e-07
4.238527e-06 5.3734215e-07 0.0022804418 0.0 0.0002660549 1.192657e-05 0.0 0.0
0.08220771 0.0

exp_avg f4 [4, 50]
00000000: 0000 0000 0400 0080 0400 0000 0400 0080
00000010: 0000 0000 0400 0000 0000 0000 0400 0000
00000020: 0400 0000 0400 0000 0400 0000 0400 0080
00000030: 0400 0000 0400 0000 0400 0000 0400 0080
00000040: 8d91 9a8c 0000 0000 0400 0000 80ea 5240
00000050: 0000 0000 0400 0000 0400 0080 0000 0000
00000060: 0000 0000 0400 0000 0400 0000 60c7 dba9
00000070: 0000 0000 0400 0000 0400 0080 0400 0080
00000080: 0400 0080 0400 0080 0000 0000 0400 0000
00000090: 0400 0000 0400 0000 0400 0000 0400 0080
000000a0: 0400 0080 0400 0080 0400 0000 0000 0000
000000b0: 0400 0080 0400 0080 0000 0000 0000 0000
000000c0: 8009 7b3f 0000 0000 0000 0000 0400 0080
000000d0: 0400 0000 0400 0000 0000 0000 0000 0000
000000e0: 0000 0000 0400 0080 0400 0080 0000 0000
000000f0: 0400 0080 0400 0080 0400 0000 0400 0080
00000100: 0400 0000 0400 0000 0400 0000 0000 0000
00000110: 0400 0080 0844 1ec3 0000 0000 0000 0000
00000120: 0400 0080 0000 0000 0000 0000 0400 0080
00000130: 0400 0000 e1de b33e 0000 0000 0400 0000
00000140: 0400 0000 0400 0080 0400 0000 0400 0080
00000150: 0000 0000 0400 0000 0400 0000 0400 0000
00000160: 0400 0000 0400 0080 0400 0000 0400 0000
00000170: 0400 0000 0000 0000 0400 0080 0400 0080
00000180: 0000 0000 0000 0000 4c95 80c2 0000 0000
00000190: 0000 0000 0400 0080 0400 0080 0400 0080
000001a0: 0000 0000 0000 0000 0000 0000 0400 0080
000001b0: 0400 0080 0000 0000 0400 0000 0400 0080
000001c0: 0400 0000 0400 0000 0400 0000 0400 0000
000001d0: 0400 0080 0000 0000 0400 0080 b861 9342
000001e0: 0000 0000 0000 0000 0400 0000 0000 0000
000001f0: 0000 0000 0400 0080 0400 0000 cf4a 0a3f
00000200: 0000 0000 0400 0000 0400 0000 0400 0080
00000210: 0400 0000 0400 0080 0000 0000 0400 0080
00000220: 0400 0000 0400 0080 0400 0000 0400 0080
00000230: 0400 0000 0400 0000 0400 0000 0000 0000
00000240: 0400 0080 0400 0080 0000 0000 0000 0000
00000250: e745 fe41 0000 0000 0000 0000 0400 0000
00000260: 0400 0000 0400 0080 0000 0000 0000 0000
00000270: 0000 0000 0400 0080 0400 0080 0400 0080
00000280: 0400 0000 0400 0080 0400 0000 0400 0000
00000290: 0400 0080 0400 0080 0400 0080 0000 0000
000002a0: 0400 0000 037b f1c2 0000 0000 0000 0000
000002b0: 0400 0080 0000 0000 0000 0000 0400 0080
000002c0: 0400 0000 fcfa 9d09 0000 0000 0400 0000
000002d0: 0400 0000 0400 0080 0400 0080 0400 0080
000002e0: 0000 0000 0400 0080 0400 0000 0400 0000
000002f0: 0400 0080 0400 0080 0400 0080 0400 0080
00000300: 0400 0080 0000 0000 0400 0000 0400 0080
00000310: 0000 0000 0000 0000 8234 4fc2 0000 0000
0.0 -6e-45 6e-45 -6e-45 0.0 6e-45 0.0 6e-45
6e-45 6e-45 6e-45 -6e-45 6e-45 6e-45 6e-45 -6e-45
-2.3815057e-31 0.0 6e-45 3.2955627 0.0 6e-45 -6e-45 0.0
0.0 6e-45 6e-45 -9.76014e-14 0.0 6e-45 -6e-45 -6e-45
-6e-45 -6e-45 0.0 6e-45 6e-45 6e-45 6e-45 -6e-45
-6e-45 -6e-45 6e-45 0.0 -6e-45 -6e-45 0.0 0.0
0.9806137 0.0 0.0 -6e-45 6e-45 6e-45 0.0 0.0
0.0 -6e-45 -6e-45 0.0 -6e-45 -6e-45 6e-45 -6e-45
6e-45 6e-45 6e-45 0.0 -6e-45 -158.26575 0.0 0.0
-6e-45 0.0 0.0 -6e-45 6e-45 0.3513098 0.0 6e-45
6e-45 -6e-45 6e-45 -6e-45 0.0 6e-45 6e-45 6e-45
6e-45 -6e-45 6e-45 6e-45 6e-45 0.0 -6e-45 -6e-45
0.0 0.0 -64.291595 0.0 0.0 -6e-45 -6e-45 -6e-45
0.0 0.0 0.0 -6e-45 -6e-45 0.0 6e-45 -6e-45
6e-45 6e-45 6e-45 6e-45 -6e-45 0.0 -6e-45 73.69086
0.0 0.0 6e-45 0.0 0.0 -6e-45 6e-45 0.540204
0.0 6e-45 6e-45 -6e-45 6e-45 -6e-45 0.0 -6e-45
6e-45 -6e-45 6e-45 -6e-45 6e-45 6e-45 6e-45 0.0
-6e-45 -6e-45 0.0 0.0 31.784132 0.0 0.0 6e-45
6e-45 -6e-45 0.0 0.0 0.0 -6e-45 -6e-45 -6e-45
6e-45 -6e-45 6e-45 6e-45 -6e-45 -6e-45 -6e-45 0.0
6e-45 -120.74026 0.0 0.0 -6e-45 0.0 0.0 -6e-45
6e-45 3.80324e-33 0.0 6e-45 6e-45 -6e-45 -6e-45 -6e-45
0.0 -6e-45 6e-45 6e-45 -6e-45 -6e-45 -6e-45 -6e-45
-6e-45 0.0 6e-45 -6e-45 0.0 0.0 -51.801277 0.0

exp_avg_sq f4 [4, 50]
00000000: 0000 0000 616c 0d47 4545 604a 952d fc50
00000010: 0000 0000 a407 2542 0000 0000 9da8 f550
00000020: d2e3 664b 5b96 8045 6246 2f52 b1a9 1550
00000030: 102a c652 64ae 0c50 5b7a 8751 69ca c251
00000040: ba28 8154 0000 0000 ee15 6351 4c10 a755
00000050: 0000 0000 037d 5e47 2ba3 f454 0000 0000
00000060: 0000 0000 65d4 cf55 f03a ea4c 9a84 c253
00000070: 0000 0000 beb6 0f51 f64a 8e54 2ab7 624d
00000080: 664d 3654 8cf4 ec52 0000 0000 9a88 8653
00000090: 3dd5 6851 7269 df4e 3e01 4e54 8d02 9349
000000a0: 3269 0c4c 8197 394c fc13 c053 0000 0000
000000b0: 00c2 8e51 4067 1a4e 0000 0000 0000 0000
000000c0: 5c1a da54 0000 0000 0000 0000 e343 2742
000000d0: 55af 9148 7569 5451 0000 0000 0000 0000
000000e0: 0000 0000 b34c 7c51 5bbb 294b 0000 0000
000000f0: 7c6f 1353 6e03 5951 54ef 6d53 0c3a 8450
00000100: b905 b651 4c51 e351 fdd0 2554 0000 0000
00000110: 005f af51 126f 2f55 0000 0000 0000 0000
00000120: 9e4f 5155 0000 0000 0000 0000 5d1c 8255
00000130: a32a 7d4d 73b4 1a54 0000 0000 d193 d551
00000140: 36b9 6854 928b 2e4e ae70 2354 80ba 1353
00000150: 0000 0000 f525 4954 4364 8e51 cf21 a64b
00000160: 2606 3954 260b 0249 b9f4 4d4a 5d42 084b
00000170: d4fd b853 0000 0000 6fec f551 1790 914e
00000180: 0000 0000 0000 0000 eb26 8354 0000 0000
00000190: 0000 0000 2546 1a45 2c9c 334a a2b1 3a50
000001a0: 0000 0000 0000 0000 0000 0000 7e03 dd50
000001b0: 307c ab4b 0000 0000 91f3 1052 6d4d 8f50
000001c0: 5753 3252 443d 3750 c9c1 1351 8466 ab51
000001d0: b4f8 3c54 0000 0000 3063 eb50 c432 5655
000001e0: 0000 0000 0000 0000 d8be 6554 0000 0000
000001f0: 0000 0000 fa60 b455 0f59 8f4d 4d45 a753
00000200: 0000 0000 b4f6 2b51 fbcb 8354 7e26 694d
00000210: 7791 3554 5a8c 1553 0000 0000 5ac4 be52
00000220: e6ba 6e51 8366 904d 3d8f 3f54 6164 c248
00000230: a2e3 3e4c 695b fb4b 407e b353 0000 0000
00000240: 8eda 2651 322b b04e 0000 0000 0000 0000
00000250: f272 a854 0000 0000 0000 0000 eaef e746
00000260: 0957 c44c 5896 1d52 0000 0000 0000 0000
00000270: 0000 0000 9d16 fb52 0da0 924e 55fc 1340
00000280: d52e 1853 db7d 5352 7cba 4353 31e9 3452
00000290: bd3c b752 5421 4b52 f37e 2f55 0000 0000
000002a0: 09fc bf52 5be3 8b56 0000 0000 0000 0000
000002b0: b52e 9c55 0000 0000 0000 0000 7c15 c456
000002c0: 24ca 804f 53be 8d54 0000 0000 4fa4 4753
000002d0: 55d2 8855 090f 474f 622a 1c55 3da9 fc53
000002e0: 0000 0000 a0c3 0854 b807 d951 0ff8 ee4e
000002f0: 2361 2455 525f cf4a 6645 c74e 5205 004f
00000300: ca69 a454 0000 0000 1c63 2d53 ebef 8c50
00000310: 0000 0000 0000 0000 e694 c155 0000 0000
0.0 36204.38 3.6744492e+06 3.3846766e+10 0.0 41.25746 0.0 3.2971745e+10
1.5131602e+07 4114.7944 1.8820003e+11 1.0043704e+10 4.255546e+11 9.440956e+09 7.273417e+10 1.0457744e+11
4.4378725e+12 0.0 6.0957843e+10 2.2961055e+13 0.0 56957.01 8.405676e+12 0.0
0.0 2.8563892e+13 1.228041e+08 1.6708967e+12 0.0 3.857789e+10 4.889144e+12 2.3772842e+08
3.1319303e+12 5.0885755e+11 0.0 1.1556348e+12 6.2500622e+10 1.8741148e+09 3.5391364e+12 1.2043056e+06
3.680788e+07 4.865178e+07 1.649938e+12 0.0 7.664252e+10 6.4761446e+08 0.0 0.0
7.493961e+12 0.0 0.0 41.816296 298362.66 5.7018896e+10 0.0 0.0
0.0 6.772616e+10 1.1123547e+07 0.0 6.332306e+11 5.825409e+10 1.0219225e+12 1.7747173e+10
9.772251e+10 1.2204019e+11 2.8487034e+12 0.0 9.415164e+10 1.2055724e+13 0.0 0.0
1.4383743e+13 0.0 0.0 1.7882291e+13 2.6546437e+08 2.6578096e+12 0.0 1.146635e+11
3.998159e+12 7.320956e+08 2.8078805e+12 6.3448914e+11 0.0 3.455701e+12 7.644593e+10 2.1775262e+07
3.1786884e+12 532658.4 3.3743822e+06 8.929885e+06 1.589065e+12 0.0 1.3202921e+11 1.2210697e+09
0.0 0.0 4.506349e+12 0.0 0.0 2468.384 2.942731e+06 1.2528814e+10
0.0 0.0 0.0 2.9663949e+10 2.2476896e+07 0.0 1.5564041e+11 1.9233729e+10
1.914756e+11 1.2296983e+10 3.966321e+10 9.201992e+10 3.2465056e+12 0.0 3.1593169e+10 1.4719595e+13
0.0 0.0 3.9469974e+12 0.0 0.0 2.4791076e+13 3.006223e+08 1.4368444e+12
0.0 4.616115e+10 4.5285035e+12 2.4447587e+08 3.1193183e+12 6.4230484e+11 0.0 4.09669e+11
6.4083616e+10 3.0282966e+08 3.2909676e+12 398115.03 5.0040456e+07 3.2945874e+07 1.5418345e+12 0.0
4.4789457e+10 1.4778104e+09 0.0 0.0 5.787864e+12 0.0 0.0 29687.957
1.02938696e+08 1.6920805e+11 0.0 0.0 0.0 5.392081e+11 1.2299813e+09 2.3122761
6.5362074e+11 2.270874e+11 8.406473e+11 1.942516e+11 3.9349902e+11 2.1810938e+11 1.2059986e+13 0.0
4.122836e+11 7.69043e+13 0.0 0.0 2.1465552e+13 0.0 0.0 1.0779828e+14
4.3214623e+09 4.870268e+12 0.0 8.574551e+11 1.8804619e+13 3.3396513e+09 1.0731615e+13 2.1703422e+12
0.0 2.3495904e+12 1.16517175e+11 2.0046171e+09 1.1296069e+13 6.795177e+06 1.671607e+09 2.1478323e+09
5.649196e+12 0.0 7.446921e+11 1.8916268e+10 0.0 0.0 2.6605657e+13 0.0

exp_avg f4 [4]
00000000: d863 59bb 764a d23d 43d8 ad3d 21c5 bcbc
-0.0033171084 0.102681085 0.08488514 -0.023043217

exp_avg_sq f4 [4]
00000000: 55cc 2941 934d 4f40 6733 dd40 5e57 ca41
10.612386 3.2391098 6.9125247 25.29266
