covid.pth (torch, 10241 bytes, 12 tensors)

weight f4 [50, 4]
0	0xbcb3dd92	-0.021956239
1	0xbd06046f	-0.032719072
2	0xbd5a29ef	-0.053262647
3	0xbbf463ab	-0.0074581704
4	0xbd9a4a2d	-0.07533679
5	0xbbd9176b	-0.006625106
6	0xbb4dbe91	-0.0031394104
7	0xbdf46d3d	-0.11934898
8	0xbe6a9db4	-0.22911721
9	0x3decceb4	0.11562863
10	0xbdfbb892	-0.12291063
11	0xbd0239ee	-0.031793527
12	0xba2d2f46	-0.00066064706
13	0xbe57924c	-0.21051902
14	0xbe837fed	-0.25683537
15	0xbda8fab0	-0.0825094
16	0xbc806984	-0.015675314
17	0xbd294895	-0.041328985
18	0xbc653f58	-0.013992153
19	0xbb92561e	-0.0044658324
20	0xbb48a100	-0.0030613542
21	0xbe0d0856	-0.13772711
22	0x3dbd05f8	0.09229654
23	0xbd97913a	-0.07400747
24	0xbc8f716c	-0.017510138
25	0xbe00ea4e	-0.1258938
26	0x3ee3af73	0.44469795
27	0xbe642bd7	-0.22282349
28	0xbd252ae4	-0.040324107
29	0x3d27105f	0.040787097
30	0xbd5afbac	-0.05346267
31	0x3998d406	0.0002914967
32	0xbc9ffb5b	-0.019529035
33	0x3d34163a	0.04396651
34	0xbe06ceba	-0.13164797
35	0xbb0ca857	-0.0021462643
36	0xbe4b53da	-0.19856206
37	0x3b0b3e0e	0.0021246704
38	0xbe0aad6d	-0.13542719
39	0xbb7911be	-0.003800496
40	0xbc8cb345	-0.017175326
41	0xbe1471e5	-0.14496572
42	0x3e1a55bf	0.15071772
43	0xbe5e92c4	-0.21735674
44	0xbd29ff08	-0.041502982
45	0xbe84f873	-0.25970802
46	0xbc0bda00	-0.008535862
47	0xbe161743	-0.14657311
48	0xbe0d6780	-0.13809013
49	0xbe958053	-0.29199466
50	0x3ea45741	0.3209782
51	0xbe412ea0	-0.18865442
52	0xbce3a1ba	-0.027787078
53	0xbbb2db34	-0.00545826
54	0xbde33e34	-0.11095849
55	0xbc822617	-0.015887303
56	0xbedc4fc1	-0.43029597
57	0x3e4794f9	0.19490422
58	0x3dbb1b0e	0.0913602
59	0xbe09f850	-0.1347363
60	0xbca054e8	-0.019571736
61	0xbc064a31	-0.0081964
62	0xbde5d2f7	-0.11221879
63	0xbc0d9f70	-0.00864397
64	0xbb405639	-0.0029348268
65	0xbca5a9e1	-0.020222606
66	0x3c2d335d	0.010571328
67	0xbc2b57dd	-0.01045796
68	0xbccc3968	-0.024929717
69	0xbcf79a1a	-0.030224849
70	0x3d793b93	0.06084783
71	0xbd3f833b	-0.04675601
72	0xbcca3cca	-0.02468719
73	0xbcbc8f72	-0.023017619
74	0x3aaabf8d	0.0013027057
75	0xbcd80384	-0.026368864
76	0xbb9cb3a4	-0.004782157
77	0xbd6e6483	-0.058201324
78	0xbe6f59e2	-0.23374131
79	0xbdcf41e1	-0.10119987
80	0xbc260a2d	-0.010134262
81	0xbc73641a	-0.014855409
82	0xbdda943f	-0.10672807
83	0xbcc90b55	-0.024541536
84	0xbdd8ba46	-0.10582404
85	0xbe34f683	-0.17672162
86	0xbd0770b8	-0.03306648
87	0xbe480573	-0.19533329
88	0xbd9e3e71	-0.077267535
89	0x3e033cd9	0.1281618
90	0xbd83203c	-0.064026326
91	0xbe852a41	-0.260088
92	0xbac2cbbd	-0.0014861744
93	0xbdba66cc	-0.09101638
94	0x3e20697f	0.15665244
95	0xbdafea96	-0.085896656
96	0xbd9f24c0	-0.077706814
97	0x3e1f1ff9	0.1553954
98	0xbe12cb64	-0.143354
99	0xbe10b1c6	-0.14130315
100	0xbe006046	-0.12536725
101	0x3e5bbf0a	0.21459594
102	0xbe10c65b	-0.14138167
103	0xbe3e8b40	-0.18607807
104	0xbe92e5a4	-0.28690827
105	0xbe0ea0ae	-0.13928482
106	0xbe6f1193	-0.23346548
107	0xbe159da3	-0.14610915
108	0xbe86fc09	-0.26364163
109	0xbede613f	-0.43433568
110	0x3d3ee77b	0.046607476
111	0xbbdbc902	-0.0067073116
112	0xbdd339a1	-0.10313726
113	0x3dd6e3ab	0.10492643
114	0xbde9f9f8	-0.11424631
115	0xbc116d96	-0.008876225
116	0xbbda6eb5	-0.0066660293
117	0xbc7b6de2	-0.015346022
118	0x3c2765a3	0.010217103
119	0xbd2a7471	-0.041614953
120	0xbc4c661b	-0.012475516
121	0xbc004418	-0.007828735
122	0xbdaeff0d	-0.08544741
123	0xbc14dcee	-0.009085877
124	0xbe481749	-0.19540133
125	0xbcf53d12	-0.029936347
126	0x3e0486a8	0.12941992
127	0xbe4bceec	-0.19903153
128	0xbee8f100	-0.45496368
129	0xbe66dece	-0.2254593
130	0xbe4d3a05	-0.20041664
131	0x3c056112	0.008140819
132	0xbe933a9b	-0.2875565
133	0x3ee5c530	0.44877005
134	0xbe59b6d9	-0.21261157
135	0xbec78cf9	-0.3897474
136	0xbe904c30	-0.28183126
137	0x3c537ee0	0.012908667
138	0xbe61348b	-0.219927
139	0xbd1a2ff8	-0.037643403
140	0xbd9ce1c9	-0.076602526
141	0x3d94c941	0.07264949
142	0xbdc853ec	-0.09781632
143	0x3a029698	0.00049815467
144	0xbdd19ad6	-0.10234611
145	0xbe232f75	-0.15936072
146	0x3d1facb2	0.038983054
147	0xbb7fd8aa	-0.0039039054
148	0xbe97b5bc	-0.2963084
149	0xbe0f4d70	-0.13994384
150	0x3e4643ca	0.19361797
151	0xbd8d758c	-0.06907186
152	0xbbbc5beb	-0.005748262
153	0xbcbd8db1	-0.023138853
154	0xbbb47197	-0.005506705
155	0xba2c45a0	-0.0006571654
156	0xbe752ca7	-0.23942815
157	0x3da3edb1	0.080043204
158	0xbea483f1	-0.32131913
159	0x3b2e93ff	0.0026638506
160	0xbeec2bd4	-0.46127188
161	0xbdcea5b0	-0.10090196
162	0xbcf5507d	-0.029945606
163	0xb99c56f2	-0.00029819418
164	0xbd580258	-0.05273661
165	0xbd8f458c	-0.06995687
166	0xbd850954	-0.0649592
167	0xbe145eb3	-0.1448925
168	0xbabe900e	-0.0014538781
169	0xbe100798	-0.14065397
170	0x3e18861e	0.14894912
171	0xbd43093a	-0.04761622
172	0xbd0e6a35	-0.034769256
173	0x3c5325b4	0.012887407
174	0xbd2bfa56	-0.041986786
175	0xba015ca6	-0.0004934765
176	0xbc5f34a1	-0.013623388
177	0x3c8d1d2b	0.017225822
178	0xbd16ff66	-0.03686466
179	0xbb9901df	-0.0046694125
180	0xbeb428a9	-0.3518727
181	0xbd298e7a	-0.041395642
182	0x3e856a74	0.2605778
183	0xbe0b2c5f	-0.13591145
184	0xbd2c436f	-0.042056497
185	0x3da0ac7d	0.078453995
186	0xbce4fec5	-0.027953515
187	0xbe993a3f	-0.2992725
188	0xba5e5f39	-0.0008482817
189	0xbb1fceaf	-0.0024384668
190	0x3c0c1f33	0.00855236
191	0xbb88ced9	-0.004175049
192	0xbe2067c4	-0.15664583
193	0xbda571c2	-0.08078338
194	0x3e5d6323	0.21619849
195	0xbe276539	-0.16347207
196	0xbc0a13fc	-0.008427616
197	0xbbc734a8	-0.006079275
198	0xbd60f1ff	-0.054918285
199	0xbc070cad	-0.008242768

bias f4 [50]
0	0xbd889794	-0.06669536
1	0xbeeb5f4b	-0.4597114
2	0xbe0b3524	-0.1359449
3	0x3ea6cc3c	0.32577693
4	0xbf1b4c5f	-0.6066341
5	0x3e73a4f3	0.23793392
6	0xbf23e4e4	-0.64021134
7	0xbbf4198a	-0.0074493336
8	0xbc662ee2	-0.014049264
9	0xbf180a38	-0.5939059
10	0x3df7ba53	0.120960854
11	0xbe831572	-0.256023
12	0xbdd2d758	-0.1029498
13	0x3e24a654	0.16079074
14	0x3e090368	0.13380206
15	0x3d8a393d	0.067491986
16	0x3e25576e	0.16146633
17	0xbe24656c	-0.16054314
18	0xbe9eac58	-0.30990863
19	0xbed5b0b7	-0.41736385
20	0x3c2ff55d	0.0107396515
21	0x3e998124	0.2998134
22	0xbd6f7cdf	-0.058468696
23	0xbebe6388	-0.3718531
24	0xbf3d6744	-0.73985696
25	0x3cc15cc0	0.023603797
26	0xbd1216b0	-0.035666168
27	0xbe211ede	-0.15734431
28	0x3e062a11	0.13101985
29	0xbf12e5e3	-0.5738203
30	0xbd8ca6d6	-0.06867759
31	0xbf3ea4c4	-0.7447016
32	0xbde0ed86	-0.10982804
33	0xbf0bf869	-0.5467592
34	0x3e13afd0	0.14422536
35	0xbe9d9c09	-0.30783108
36	0xbd952554	-0.072825104
37	0xbef09aae	-0.4699301
38	0xbf0ebadb	-0.5575387
39	0x3e2255ee	0.15853092
40	0xbdf21916	-0.11821191
41	0xbc67b8c0	-0.014143169
42	0xbe30408e	-0.17212126
43	0x3e8d2a4c	0.27571332
44	0x3dd0914a	0.10183962
45	0x3ea1cde5	0.31602398
46	0xbe4261cd	-0.1898262
47	0xbbabb894	-0.0052405093
48	0x3e749608	0.23885357
49	0xbe582fbb	-0.21111958

weight f4 [4, 50]
0	0xbb0d8b6e	-0.0021598
1	0xbd46dc4e	-0.048549943
2	0x3e6228b8	0.22085845
3	0x3cf71287	0.030160202
4	0x3c03b896	0.008039614
5	0x3dbf79fb	0.09349438
6	0xbd7b3955	-0.061333973
7	0xbbfad785	-0.0076550865
8	0xbe2aa036	-0.16662678
9	0xbcb038aa	-0.021511395
10	0x3e4816e4	0.19539982
11	0xbe9f953c	-0.31168544
12	0x3e205352	0.15656784
13	0xbc94af5a	-0.01815002
14	0x3ec57c6d	0.38571492
15	0x3d083e69	0.033262644
16	0x3c94437e	0.018098589
17	0xbcaa48fb	-0.020786753
18	0xbb64d6cf	-0.0034918075
19	0xbb1c9fe9	-0.0023899025
20	0x3c9839e7	0.018582297
21	0xbddb4700	-0.107069016
22	0x3b28a853	0.0025735095
23	0x3ba9447b	0.005165634
24	0x3cd4e3f4	0.025987603
25	0x3e76518a	0.24054542
26	0xbe5e6796	-0.21719202
27	0xbb5941ce	-0.0033150795
28	0x3c3b1c4c	0.011420321
29	0xbd1ed28e	-0.03877502
30	0xbd6ef0a5	-0.058334965
31	0x3d5c0dc1	0.053724054
32	0x3c64282f	0.013925596
33	0x3eb93e6b	0.36180434
34	0x3de9933c	0.11405036
35	0xbde67182	-0.11252119
36	0x3c348e6f	0.011020287
37	0xbea841d0	-0.3286271
38	0x3c57d126	0.0131724235
39	0x3e3abfd5	0.1823724
40	0x3b910c65	0.0044265264
41	0xbe880317	-0.26564857
42	0xbd0c15ac	-0.034200355
43	0xbc3df9b9	-0.011595183
44	0x3b1974a6	0.0023415475
45	0x3d18ce4a	0.037306108
46	0x3cdee048	0.027206555
47	0xbc8e09f1	-0.017338725
48	0xbe467ea8	-0.19384253
49	0x3d42ee24	0.04759039
50	0xbc5d44d9	-0.013505184
51	0x3c7d1111	0.0154459635
52	0xbd81ff17	-0.06347483
53	0x3c5193ac	0.012791555
54	0xb6bbeac5	-5.600365e-06
55	0xbdabd9d9	-0.083911605
56	0xbcfdc53e	-0.030977841
57	0xbb82942f	-0.00398495
58	0xbd872983	-0.065997146
59	0xbcd28c12	-0.025701556
60	0xbe13f88d	-0.14450283
61	0xbddb8056	-0.107178375
62	0xbe53e078	-0.20691097
63	0x3b8b9dfd	0.004260777
64	0xbe90934a	-0.28237373
65	0xbcda1b8c	-0.026624463
66	0x3d1f9b36	0.03896638
67	0xbbca53b8	-0.006174531
68	0xbc7d1c79	-0.015448683
69	0xbb4a81a4	-0.0030900026
70	0xbda84b1a	-0.082174495
71	0xbe2cae66	-0.16863403
72	0xbcf4750d	-0.02984097
73	0xbb6ac7a2	-0.0035824557
74	0x3ba6b10d	0.005087024
75	0x3e7c46fa	0.2463645
76	0x3dc69fdc	0.096984595
77	0xbd08bbb3	-0.03338213
78	0x3cbf1886	0.023327123
79	0x3c0b95e9	0.008519628
80	0x3d1dc7e1	0.038520698
81	0x3ccca37d	0.024980301
82	0xbd22326e	-0.039598875
83	0xbe82194d	-0.25409928
84	0x3e5a393e	0.21310899
85	0xbd03b475	-0.03215452
86	0x3ca66ea0	0.020316422
87	0x3e84a587	0.25907537
88	0x3d0339f1	0.03203768
89	0xbd0d26a3	-0.034460675
90	0xbaeeb9ca	-0.0018213328
91	0x3e6a6a32	0.22892073
92	0xbcbbc70c	-0.022922061
93	0x3bc84300	0.0061115026
94	0x3c22d971	0.009939537
95	0xbe1e6b1c	-0.15470546
96	0xbe0fd7e4	-0.140472
97	0xbd408f68	-0.047011763
98	0xbe1ffd06	-0.15623865
99	0x3c47d752	0.012197332
100	0xbc9e7d98	-0.019346997
101	0x3c63bfc2	0.013900699
102	0xbd9998a5	-0.07499818
103	0xbc529f9e	-0.0128554385
104	0xb7389ef6	-1.1004266e-05
105	0x3d08f0f2	0.03343291
106	0x3d81bebc	0.06335208
107	0xbd1182b1	-0.035525028
108	0xbdb604a0	-0.08887601
109	0x3d8e48ea	0.06947501
110	0xbdb96fd1	-0.090545304
111	0xbd3ae7d8	-0.04563126
112	0xbea83868	-0.32855535
113	0x3cba0420	0.022707045
114	0x3d6b4ec0	0.05744815
115	0x3a9ea179	0.0012102566
116	0x3d3a6721	0.045508508
117	0x3c00b3d2	0.0078553725
118	0xbd15b3c7	-0.036548402
119	0x3e0fbba3	0.14036421
120	0xbc2554ea	-0.010091046
121	0xbe0f4bce	-0.13993761
122	0xbc9b85d1	-0.018984707
123	0xbc050f5e	-0.00812134
124	0xbc7ac4ba	-0.015305692
125	0x3e3a3692	0.1818488
126	0x3de998ac	0.11406073
127	0xbcac6e4c	-0.021048687
128	0xbd89aa38	-0.0672192
129	0xbd32312f	-0.043503936
130	0xbc529c62	-0.012854667
131	0xbc2dbdaf	-0.010604306
132	0xb80950c9	-3.2738582e-05
133	0x3ece546e	0.4029879
134	0x3e5a57aa	0.21322504
135	0xbba00a75	-0.004884059
136	0x3b340967	0.0027471425
137	0xbe5f33d0	-0.21797109
138	0x3caa1b99	0.020765113
139	0xbe0c01c3	-0.13672547
140	0x3a3bb6de	0.0007160733
141	0x3e6b6f6a	0.2299172
142	0x3e6c977a	0.23104659
143	0x3c97b406	0.018518459
144	0x3aeea645	0.0018207511
145	0xbe8e9e93	-0.27855358
146	0xbca58ed3	-0.020209705
147	0xbb4d3bf9	-0.0031316264
148	0xbdcbf98c	-0.09959707
149	0x3b72a683	0.0037025518
150	0xbc8e0928	-0.01733835
151	0x3cf77e5b	0.030211618
152	0xbd3654dd	-0.044514526
153	0x3d8968b5	0.067094244
154	0x3a4ec038	0.0007886919
155	0xbca5f6ce	-0.020259287
156	0x3d7f6d0d	0.06235986
157	0xbcd29a59	-0.025708364
158	0x3c471ed0	0.012153342
159	0x3df84d42	0.12124111
160	0x3e9a5b39	0.30147722
161	0xbddc04fc	-0.10743138
162	0x3e78b60e	0.24288198
163	0xbc6d0d40	-0.014468491
164	0x3f38d6f7	0.7220301
165	0x3d28c494	0.041203097
166	0x3d00da94	0.031458452
167	0xbb5cdf0f	-0.003370229
168	0x3de4f75b	0.11179992
169	0xbe6282da	-0.22120228
170	0x3dcdea5a	0.10054465
171	0xbe0e6913	-0.1390727
172	0xbb94d166	-0.004541564
173	0xbb1363ab	-0.0022489827
174	0x3d4c986a	0.04995004
175	0x3dcb8ce4	0.09938982
176	0x3e830ef1	0.25597337
177	0x3c9bc2cf	0.01901379
178	0xbd1c74d7	-0.038197365
179	0x3c9d5d86	0.019209635
180	0xbbd07259	-0.0063612876
181	0xbc1ad869	-0.00945101
182	0x3cf47324	0.02984006
183	0x3edab875	0.42718855
184	0xbe577f80	-0.21044731
185	0xbcd31f6c	-0.025771819
186	0x3b86ef70	0.0041178986
187	0xbea1a54b	-0.3157142
188	0x3c3d876d	0.011567933
189	0xbe55e81e	-0.20889327
190	0xbbf9a210	-0.0076181963
191	0x3d3f53a8	0.04671064
192	0xbe078550	-0.13234448
193	0x3d1074aa	0.03526751
194	0xbcf6ffbb	-0.030151239
195	0xbe2bc883	-0.16775708
196	0xbc03254d	-0.008004499
197	0x3d25e95e	0.04050576
198	0x3e320e9a	0.17388383
199	0xbd69b52f	-0.057057556

bias f4 [4]
0	0xbeb404e4	-0.3515998
1	0xbe9f83e0	-0.311553
2	0xbea6f494	-0.32608473
3	0xbe9e23ce	-0.30886692

exp_avg f4 [50, 4]
0	0x00000004	6e-45
1	0x00000004	6e-45
2	0x00000004	6e-45
3	0x00000004	6e-45
4	0x00000004	6e-45
5	0x00000004	6e-45
6	0x00000004	6e-45
7	0x00000004	6e-45
8	0x00000004	6e-45
9	0x00000004	6e-45
10	0x00000004	6e-45
11	0x00000004	6e-45
12	0x00000004	6e-45
13	0x00000004	6e-45
14	0x00000004	6e-45
15	0x00000004	6e-45
16	0x00000004	6e-45
17	0x00000004	6e-45
18	0x00000004	6e-45
19	0x00000004	6e-45
20	0x00000004	6e-45
21	0x00000004	6e-45
22	0x00000004	6e-45
23	0x00000004	6e-45
24	0x00000004	6e-45
25	0x00000004	6e-45
26	0x00000004	6e-45
27	0x00000004	6e-45
28	0x00000004	6e-45
29	0x00000004	6e-45
30	0x00000004	6e-45
31	0x00000004	6e-45
32	0x00000004	6e-45
33	0x00000004	6e-45
34	0x00000004	6e-45
35	0x00000004	6e-45
36	0x00000004	6e-45
37	0x00000004	6e-45
38	0x00000004	6e-45
39	0x00000004	6e-45
40	0x00000004	6e-45
41	0x00000004	6e-45
42	0x00000004	6e-45
43	0x00000004	6e-45
44	0x00000000	0.0
45	0x00000000	0.0
46	0x00000000	0.0
47	0x00000000	0.0
48	0x00000000	0.0
49	0x00000000	0.0
50	0x00000000	0.0
51	0x00000000	0.0
52	0x00000004	6e-45
53	0x00000004	6e-45
54	0x00000004	6e-45
55	0x00000004	6e-45
56	0x00000004	6e-45
57	0x00000004	6e-45
58	0x00000004	6e-45
59	0x00000004	6e-45
60	0x00000004	6e-45
61	0x80000004	-6e-45
62	0x80000004	-6e-45
63	0x00000004	6e-45
64	0x00000004	6e-45
65	0x00000004	6e-45
66	0x00000004	6e-45
67	0x00000004	6e-45
68	0x00000004	6e-45
69	0x80000004	-6e-45
70	0x00000004	6e-45
71	0x00000004	6e-45
72	0x00000004	6e-45
73	0x00000004	6e-45
74	0x00000004	6e-45
75	0x00000004	6e-45
76	0x00000004	6e-45
77	0x00000004	6e-45
78	0x00000004	6e-45
79	0x00000004	6e-45
80	0x00000004	6e-45
81	0x00000004	6e-45
82	0x00000004	6e-45
83	0x00000004	6e-45
84	0x00000000	0.0
85	0x00000000	0.0
86	0x00000000	0.0
87	0x00000000	0.0
88	0x00000004	6e-45
89	0x00000004	6e-45
90	0x00000004	6e-45
91	0x00000004	6e-45
92	0x00000004	6e-45
93	0x00000004	6e-45
94	0x00000004	6e-45
95	0x00000004	6e-45
96	0x00000004	6e-45
97	0x00000004	6e-45
98	0x00000004	6e-45
99	0x00000004	6e-45
100	0x00000000	0.0
101	0x00000000	0.0
102	0x00000000	0.0
103	0x00000000	0.0
104	0x00000000	0.0
105	0x00000000	0.0
106	0x00000000	0.0
107	0x00000000	0.0
108	0x00000004	6e-45
109	0x00000004	6e-45
110	0x00000004	6e-45
111	0x00000004	6e-45
112	0x00000004	6e-45
113	0x00000004	6e-45
114	0x00000004	6e-45
115	0x00000004	6e-45
116	0x00000004	6e-45
117	0x80000004	-6e-45
118	0x00000004	6e-45
119	0x00000004	6e-45
120	0x00000004	6e-45
121	0x00000004	6e-45
122	0x00000004	6e-45
123	0x00000004	6e-45
124	0x00000004	6e-45
125	0x00000004	6e-45
126	0x00000004	6e-45
127	0x00000004	6e-45
128	0x00000004	6e-45
129	0x00000004	6e-45
130	0x00000004	6e-45
131	0x00000004	6e-45
132	0x00000004	6e-45
133	0x00000004	6e-45
134	0x00000004	6e-45
135	0x00000004	6e-45
136	0x00000000	0.0
137	0x00000000	0.0
138	0x00000000	0.0
139	0x00000000	0.0
140	0x00000004	6e-45
141	0x00000004	6e-45
142	0x00000004	6e-45
143	0x00000004	6e-45
144	0x00000004	6e-45
145	0x00000004	6e-45
146	0x00000004	6e-45
147	0x00000004	6e-45
148	0x00000000	0.0
149	0x00000000	0.0
150	0x00000000	0.0
151	0x00000000	0.0
152	0x00000004	6e-45
153	0x00000004	6e-45
154	0x80000004	-6e-45
155	0x00000004	6e-45
156	0x00000004	6e-45
157	0x80000004	-6e-45
158	0x00000004	6e-45
159	0x00000004	6e-45
160	0x00000004	6e-45
161	0x00000004	6e-45
162	0x00000004	6e-45
163	0x00000004	6e-45
164	0x00000000	0.0
165	0x00000000	0.0
166	0x00000000	0.0
167	0x00000000	0.0
168	0x00000004	6e-45
169	0x00000004	6e-45
170	0x00000004	6e-45
171	0x00000004	6e-45
172	0x00000004	6e-45
173	0x00000004	6e-45
174	0x00000004	6e-45
175	0x00000004	6e-45
176	0x00000004	6e-45
177	0x00000004	6e-45
178	0x00000004	6e-45
179	0x00000004	6e-45
180	0x00000004	6e-45
181	0x00000004	6e-45
182	0x00000004	6e-45
183	0x00000004	6e-45
184	0x00000004	6e-45
185	0x00000004	6e-45
186	0x00000004	6e-45
187	0x00000004	6e-45
188	0x00000004	6e-45
189	0x00000004	6e-45
190	0x00000004	6e-45
191	0x00000004	6e-45
192	0x00000004	6e-45
193	0x00000004	6e-45
194	0x00000004	6e-45
195	0x00000004	6e-45
196	0x00000004	6e-45
197	0x00000004	6e-45
198	0x00000004	6e-45
199	0x00000004	6e-45

exp_avg_sq f4 [50, 4]
0	0x4d3ce7de	1.9808202e+08
1	0x4935fee8	745454.5
2	0x4abc5ab5	6.1719945e+06
3	0x4f974226	5.0753894e+09
4	0x4ef937da	2.0905935e+09
5	0x4c92d842	7.698894e+07
6	0x4b314483	1.1617411e+07
7	0x4d295dbd	1.775933e+08
8	0x46a64bbc	21285.867
9	0x433be10f	187.87914
10	0x4632c0de	11440.217
11	0x4c2218f6	4.249289e+07
12	0x481fe818	163744.38
13	0x437e99fe	254.60153
14	0x4137e9c3	11.494571
15	0x45a0720c	5134.256
16	0x4c2ac914	4.4770384e+07
17	0x499bccc0	1.276312e+06
18	0x4a271217	2.7372858e+06
19	0x4e08a8dc	5.7319194e+08
20	0x4a8397dd	4.3120465e+06
21	0x44919b10	1164.8457
22	0x4468db8b	931.43036
23	0x4813b0bc	151234.94
24	0x47a12865	82512.79
25	0x4438efa3	739.7443
26	0x4476a9a2	986.6505
27	0x45898451	4400.5396
28	0x4b1b7eed	1.0190573e+07
29	0x46c5ea58	25333.172
30	0x48ce42b8	422421.75
31	0x4e44d3fe	8.2555686e+08
32	0x4b8d25f9	1.8500594e+07
33	0x4970063b	983139.7
34	0x49053c2f	545730.94
35	0x4d55ac10	2.2405146e+08
36	0x4a00b4a3	2.1087128e+06
37	0x46d67a8d	27453.275
38	0x487a5395	256334.33
39	0x4d857362	2.7986643e+08
40	0x4793a41d	75592.23
41	0x412f90c3	10.972842
42	0x3e88dd1c	0.26731193
43	0x3ed107ba	0.40826207
44	0x00000000	0.0
45	0x00000000	0.0
46	0x00000000	0.0
47	0x00000000	0.0
48	0x00000000	0.0
49	0x00000000	0.0
50	0x00000000	0.0
51	0x00000000	0.0
52	0x4f80fad4	4.327844e+09
53	0x4aa469dd	5.3875025e+06
54	0x4cd2358b	1.10210136e+08
55	0x520cb54c	1.5108427e+11
56	0x44a045af	1282.1776
57	0x46041f78	8455.867
58	0x45f27acd	7759.35
59	0x46b99781	23755.752
60	0x4f87eda7	4.560998e+09
61	0x4ac57d43	6.4713295e+06
62	0x4ca5709a	8.673813e+07
63	0x51ca28b9	1.08533326e+11
64	0x4fdecf45	7.476251e+09
65	0x4b847167	1.7359566e+07
66	0x4c0e75ae	3.734495e+07
67	0x50962cad	2.0156082e+10
68	0x4e8bfa34	1.1742152e+09
69	0x49d76e81	1.7648161e+06
70	0x4a460c4b	3.2448188e+06
71	0x4e4cca99	8.589574e+08
72	0x4c9bbe9a	8.165499e+07
73	0x48bcf103	386952.1
74	0x48af07d6	358462.7
75	0x4b7191d3	1.5831507e+07
76	0x45301e8c	2817.9092
77	0x3f09f1b1	0.53884417
78	0x3e943b66	0.28951567
79	0x43164b94	150.29523
80	0x4dc0ac65	4.0406544e+08
81	0x487d2e3d	259256.95
82	0x49d056a6	1.7067088e+06
83	0x4ed03ca2	1.7468173e+09
84	0x00000000	0.0
85	0x00000000	0.0
86	0x00000000	0.0
87	0x00000000	0.0
88	0x4b997262	2.011258e+07
89	0x49898709	1.1266251e+06
90	0x48b3f0a2	368517.06
91	0x4980d975	1.0555346e+06
92	0x4ecae0ff	1.7018715e+09
93	0x4abbb89f	6.1512475e+06
94	0x4a014ac8	2.118322e+06
95	0x4b313d40	1.1615552e+07
96	0x4bd06229	2.7313234e+07
97	0x484814d6	204883.34
98	0x470e4c7b	36428.48
99	0x499dc232	1.2923582e+06
100	0x00000000	0.0
101	0x00000000	0.0
102	0x00000000	0.0
103	0x00000000	0.0
104	0x00000000	0.0
105	0x00000000	0.0
106	0x00000000	0.0
107	0x00000000	0.0
108	0x437f88f5	255.53499
109	0x408b52bc	4.3538494
110	0x43115e6a	145.3688
111	0x47aac0cb	87425.586
112	0x49fee94b	2.0882334e+06
113	0x46c10414	24706.04
114	0x4800c222	131848.53
115	0x4cec0f91	1.2376385e+08
116	0x4c07967b	3.5543532e+07
117	0x461c77da	10013.963
118	0x46a88aaf	21573.342
119	0x4b2f3c50	1.148424e+07
120	0x51134332	3.953047e+10
121	0x4c2c2586	4.512719e+07
122	0x4d4a88e1	2.1237301e+08
123	0x525933f3	2.3321987e+11
124	0x4d08fc2d	1.4363925e+08
125	0x4b4307e4	1.278154e+07
126	0x4a4ade98	3.323814e+06
127	0x4b06d300	8.83584e+06
128	0x47321f45	45599.27
129	0x449ee17a	1271.0461
130	0x46355165	11604.349
131	0x4b1ee089	1.0412169e+07
132	0x478a9b42	70966.516
133	0x480b43c3	142607.05
134	0x46bedba3	24429.818
135	0x47458b3a	50571.227
136	0x00000000	0.0
137	0x00000000	0.0
138	0x00000000	0.0
139	0x00000000	0.0
140	0x4923116b	667926.7
141	0x468aafcd	17751.9
142	0x46fc5630	32299.094
143	0x4bc15132	2.5338468e+07
144	0x496231cf	926492.94
145	0x46ab3093	21912.287
146	0x482d6629	177560.64
147	0x4cdd3154	1.1596867e+08
148	0x00000000	0.0
149	0x00000000	0.0
150	0x00000000	0.0
151	0x00000000	0.0
152	0x4d225ef5	1.7025826e+08
153	0x48709162	246341.53
154	0x4a67c5d4	3.797365e+06
155	0x4f76625a	4.1336407e+09
156	0x4608e724	8761.785
157	0x3a644fd5	0.00087094057
158	0x440c2659	560.5992
159	0x4b99ad4c	2.0142744e+07
160	0x490e671d	583281.8
161	0x44d4b843	1701.7582
162	0x4753ece1	54252.88
163	0x4c847b73	6.945884e+07
164	0x00000000	0.0
165	0x00000000	0.0
166	0x00000000	0.0
167	0x00000000	0.0
168	0x46aa216d	21776.713
169	0x43d6f7fe	429.93744
170	0x448b5575	1114.6705
171	0x47bfe819	98256.195
172	0x4b9d267e	2.0598012e+07
173	0x46fde564	32498.695
174	0x48362c1f	186544.48
175	0x4d57cf8f	2.26294e+08
176	0x4cfa6850	1.3128563e+08
177	0x49ae1472	1.4260622e+06
178	0x4a1b4655	2.5440212e+06
179	0x4f4996bd	3.3820992e+09
180	0x419e46c1	19.784548
181	0x4347a23c	199.63373
182	0x44629ed5	906.48175
183	0x45982e5b	4869.7944
184	0x4bade24f	2.2791326e+07
185	0x461f501e	10196.029
186	0x44f765aa	1979.177
187	0x46305ed7	11287.71
188	0x4f6ca0f7	3.969972e+09
189	0x4a744d2d	4.0026352e+06
190	0x4ae3178f	7.4413515e+06
191	0x4e3b4be8	7.855785e+08
192	0x41e7818c	28.938255
193	0x43c3058e	390.0434
194	0x44675570	925.33496
195	0x454d796d	3287.589
196	0x508dcc85	1.9031927e+10
197	0x4c390626	4.8502936e+07
198	0x4cf8eec2	1.305124e+08
199	0x51eae0cd	1.26099235e+11

exp_avg f4 [50]
0	0x00000004	6e-45
1	0x00000004	6e-45
2	0x00000004	6e-45
3	0x00000004	6e-45
4	0x00000004	6e-45
5	0x00000004	6e-45
6	0x00000004	6e-45
7	0x00000004	6e-45
8	0x00000004	6e-45
9	0x00000004	6e-45
10	0x00000004	6e-45
11	0x00000000	0.0
12	0x00000000	0.0
13	0x00000004	6e-45
14	0x00000004	6e-45
15	0x00000004	6e-45
16	0x00000004	6e-45
17	0x00000004	6e-45
18	0x00000004	6e-45
19	0x00000004	6e-45
20	0x00000004	6e-45
21	0x00000000	0.0
22	0x00000004	6e-45
23	0x00000004	6e-45
24	0x00000004	6e-45
25	0x00000000	0.0
26	0x00000000	0.0
27	0x00000004	6e-45
28	0x00000004	6e-45
29	0x00000004	6e-45
30	0x00000004	6e-45
31	0x00000004	6e-45
32	0x00000004	6e-45
33	0x00000004	6e-45
34	0x00000000	0.0
35	0x00000004	6e-45
36	0x00000004	6e-45
37	0x00000000	0.0
38	0x00000004	6e-45
39	0x00000004	6e-45
40	0x00000004	6e-45
41	0x00000000	0.0
42	0x00000004	6e-45
43	0x00000004	6e-45
44	0x00000004	6e-45
45	0x00000004	6e-45
46	0x00000004	6e-45
47	0x00000004	6e-45
48	0x00000004	6e-45
49	0x00000004	6e-45

exp_avg_sq f4 [50]
0	0x354fee76	7.7460516e-07
1	0x34d43049	3.952321e-07
2	0x319d54f5	4.57896e-09
3	0x2da7508d	1.9021474e-11
4	0x33d28c94	9.804458e-08
5	0x3005338d	4.8458376e-10
6	0x2d68cf0c	1.3233647e-11
7	0x33df6fe0	1.0404597e-07
8	0x3317e1c1	3.536275e-08
9	0x3315a0d9	3.4838056e-08
10	0x2d094b7b	7.804308e-12
11	0x00000000	0.0
12	0x00000000	0.0
13	0x37af592e	2.0903153e-05
14	0x2d6e1c2b	1.3534988e-11
15	0x37872f06	1.6115151e-05
16	0x36aa5cdb	5.0772046e-06
17	0x34bbc293	3.4973036e-07
18	0x329684bc	1.7522659e-08
19	0x2ac8183a	3.5543947e-13
20	0x34bc6424	3.509059e-07
21	0x00000000	0.0
22	0x31888aef	3.973916e-09
23	0x346eaa95	2.2227535e-07
24	0x317fea86	3.7240695e-09
25	0x00000000	0.0
26	0x00000000	0.0
27	0x2d36c987	1.039025e-11
28	0x328b21ae	1.6197045e-08
29	0x31d4381b	6.1763905e-09
30	0x3832fe9c	4.267563e-05
31	0x3318a0d1	3.553652e-08
32	0x30a800d3	1.2223843e-09
33	0x2ede859c	1.0119125e-10
34	0x00000000	0.0
35	0x3167debf	3.374154e-09
36	0x327bf385	1.4665493e-08
37	0x00000000	0.0
38	0x3524e521	6.142819e-07
39	0x3111b0f9	2.1200874e-09
40	0x321552ff	8.691813e-09
41	0x00000000	0.0
42	0x2d90b3fa	1.645083e-11
43	0x331df316	3.6775496e-08
44	0x350416df	4.9207114e-07
45	0x2bc45fb4	1.3953201e-12
46	0x31256c9a	2.4072393e-09
47	0x3553354b	7.8681177e-07
48	0x2bb322de	1.2728393e-12
49	0x37c76618	2.377019e-05

exp_avg f4 [4, 50]
0	0x80000004	-6e-45
1	0x00000004	6e-45
2	0x00000004	6e-45
3	0x00000004	6e-45
4	0x80000004	-6e-45
5	0x80000004	-6e-45
6	0x80000004	-6e-45
7	0x80000004	-6e-45
8	0x80000004	-6e-45
9	0x00000004	6e-45
10	0x00000004	6e-45
11	0x00000000	0.0
12	0x00000000	0.0
13	0x80000004	-6e-45
14	0x00000004	6e-45
15	0x00000004	6e-45
16	0x00000004	6e-45
17	0x00000004	6e-45
18	0x00000004	6e-45
19	0x80000004	-6e-45
20	0x80000004	-6e-45
21	0x00000000	0.0
22	0x80000004	-6e-45
23	0x00000004	6e-45
24	0x00000004	6e-45
25	0x00000000	0.0
26	0x00000000	0.0
27	0x00000004	6e-45
28	0x00000004	6e-45
29	0x00000004	6e-45
30	0x00000004	6e-45
31	0x00000004	6e-45
32	0x80000004	-6e-45
33	0x00000004	6e-45
34	0x00000000	0.0
35	0x80000004	-6e-45
36	0x80000004	-6e-45
37	0x00000000	0.0
38	0x80000004	-6e-45
39	0x00000004	6e-45
40	0x00000004	6e-45
41	0x00000000	0.0
42	0x80000004	-6e-45
43	0x80000004	-6e-45
44	0x00000004	6e-45
45	0x00000004	6e-45
46	0x80000004	-6e-45
47	0x80000004	-6e-45
48	0x80000004	-6e-45
49	0x00000004	6e-45
50	0x00000004	6e-45
51	0x80000004	-6e-45
52	0x80000004	-6e-45
53	0x80000004	-6e-45
54	0x80000004	-6e-45
55	0x80000004	-6e-45
56	0x80000004	-6e-45
57	0x00000004	6e-45
58	0x00000004	6e-45
59	0x00000004	6e-45
60	0x80000004	-6e-45
61	0x00000000	0.0
62	0x00000000	0.0
63	0x80000004	-6e-45
64	0x00000000	0.0
65	0x00000004	6e-45
66	0x00000004	6e-45
67	0x80000004	-6e-45
68	0x80000004	-6e-45
69	0x00000004	6e-45
70	0x80000004	-6e-45
71	0x00000000	0.0
72	0x00000004	6e-45
73	0x80000004	-6e-45
74	0x80000004	-6e-45
75	0x00000000	0.0
76	0x00000000	0.0
77	0x00000004	6e-45
78	0x00000004	6e-45
79	0x80000004	-6e-45
80	0x00000004	6e-45
81	0x00000004	6e-45
82	0x80000004	-6e-45
83	0x00000004	6e-45
84	0x00000000	0.0
85	0x80000004	-6e-45
86	0x00000004	6e-45
87	0x00000000	0.0
88	0x00000004	6e-45
89	0x00000004	6e-45
90	0x80000004	-6e-45
91	0x00000000	0.0
92	0x00000004	6e-45
93	0x00000004	6e-45
94	0x80000004	-6e-45
95	0x80000004	-6e-45
96	0x00000004	6e-45
97	0x80000004	-6e-45
98	0x00000000	0.0
99	0x00000004	6e-45
100	0x80000004	-6e-45
101	0x80000004	-6e-45
102	0x00000004	6e-45
103	0x80000004	-6e-45
104	0x00000004	6e-45
105	0x00000004	6e-45
106	0x80000004	-6e-45
107	0x80000004	-6e-45
108	0x00000004	6e-45
109	0x80000004	-6e-45
110	0x80000004	-6e-45
111	0x00000000	0.0
112	0x00000000	0.0
113	0x00000004	6e-45
114	0x00000000	0.0
115	0x80000004	-6e-45
116	0x00000004	6e-45
117	0x80000004	-6e-45
118	0x80000004	-6e-45
119	0x00000004	6e-45
120	0x00000004	6e-45
121	0x00000000	0.0
122	0x00000004	6e-45
123	0x80000004	-6e-45
124	0x80000004	-6e-45
125	0x00000000	0.0
126	0x00000000	0.0
127	0x00000004	6e-45
128	0x00000004	6e-45
129	0x00000004	6e-45
130	0x80000004	-6e-45
131	0x00000004	6e-45
132	0x00000004	6e-45
133	0x00000004	6e-45
134	0x00000000	0.0
135	0x00000004	6e-45
136	0x00000004	6e-45
137	0x00000000	0.0
138	0x00000004	6e-45
139	0x80000004	-6e-45
140	0x80000004	-6e-45
141	0x00000000	0.0
142	0x00000004	6e-45
143	0x00000004	6e-45
144	0x00000004	6e-45
145	0x00000000	0.0
146	0x80000004	-6e-45
147	0x80000004	-6e-45
148	0x00000000	0.0
149	0x80000004	-6e-45
150	0x00000004	6e-45
151	0x80000004	-6e-45
152	0x80000004	-6e-45
153	0x00000004	6e-45
154	0x80000004	-6e-45
155	0x80000004	-6e-45
156	0x00000004	6e-45
157	0x80000004	-6e-45
158	0x80000004	-6e-45
159	0x00000004	6e-45
160	0x00000000	0.0
161	0x00000000	0.0
162	0x00000000	0.0
163	0x80000004	-6e-45
164	0x00000004	6e-45
165	0x00000004	6e-45
166	0x00000004	6e-45
167	0x80000004	-6e-45
168	0x00000004	6e-45
169	0x00000004	6e-45
170	0x00000004	6e-45
171	0x00000000	0.0
172	0x80000004	-6e-45
173	0x80000004	-6e-45
174	0x80000004	-6e-45
175	0x00000000	0.0
176	0x00000000	0.0
177	0x00000004	6e-45
178	0x80000004	-6e-45
179	0x80000004	-6e-45
180	0x00000004	6e-45
181	0x00000004	6e-45
182	0x80000004	-6e-45
183	0x00000004	6e-45
184	0x00000000	0.0
185	0x00000004	6e-45
186	0x00000004	6e-45
187	0x00000000	0.0
188	0x00000004	6e-45
189	0x00000004	6e-45
190	0x00000004	6e-45
191	0x00000000	0.0
192	0x80000004	-6e-45
193	0x00000004	6e-45
194	0x80000004	-6e-45
195	0x00000000	0.0
196	0x00000004	6e-45
197	0x80000004	-6e-45
198	0x00000000	0.0
199	0x00000004	6e-45

exp_avg_sq f4 [4, 50]
0	0x4e8a8bf2	1.1622136e+09
1	0x4db51cbf	3.7982e+08
2	0x4963db00	933296.0
3	0x46f5f350	31481.656
4	0x4c49da4d	5.2914484e+07
5	0x47b98f61	95006.76
6	0x4788b1bb	69987.46
7	0x4ccafd28	1.0642464e+08
8	0x4ac13829	6.3314125e+06
9	0x4c91e2f7	7.6486584e+07
10	0x43021a4d	130.10274
11	0x00000000	0.0
12	0x00000000	0.0
13	0x4ff95081	8.3656054e+09
14	0x447a4cb4	1001.1985
15	0x5005036b	8.926375e+09
16	0x4e79ce05	1.0477571e+09
17	0x4ce4cc61	1.1995623e+08
18	0x4afaeaf7	8.2220755e+06
19	0x470f8dc5	36749.77
20	0x4cc3f183	1.02730776e+08
21	0x00000000	0.0
22	0x4cec9ddd	1.2405527e+08
23	0x4cde20a1	1.1645876e+08
24	0x49394fbb	759035.7
25	0x00000000	0.0
26	0x00000000	0.0
27	0x4bfd5c2d	3.320841e+07
28	0x4b8dbd84	1.8578184e+07
29	0x4a3fad5c	3.140439e+06
30	0x500f7087	9.626066e+09
31	0x4ca39438	8.57625e+07
32	0x490764ee	554574.9
33	0x45c73e9a	6375.825
34	0x00000000	0.0
35	0x4b317655	1.1630165e+07
36	0x4c03b86e	3.452972e+07
37	0x00000000	0.0
38	0x4da4e31a	3.4579334e+08
39	0x479a154c	78890.59
40	0x4ce8a8e2	1.2198069e+08
41	0x00000000	0.0
42	0x466deda8	15227.414
43	0x4bcce486	2.6855692e+07
44	0x4d4fcb1f	2.1788722e+08
45	0x4479add6	998.7162
46	0x48adc8d9	355910.78
47	0x4d514b97	2.19462e+08
48	0x412531ee	10.32469
49	0x4f6c4406	3.963881e+09
50	0x4e201cd5	6.71561e+08
51	0x4db7218b	3.840536e+08
52	0x454ce050	3278.0195
53	0x475dd17e	56785.492
54	0x4c21fee9	4.2466212e+07
55	0x48ecec00	485216.0
56	0x4715a2b3	38306.7
57	0x4c420a14	5.0866256e+07
58	0x4aee107f	7.8008955e+06
59	0x4c0e8c23	3.7367948e+07
60	0x401dc3bb	2.4650714
61	0x00000000	0.0
62	0x00000000	0.0
63	0x4f694506	3.9136148e+09
64	0x00000000	0.0
65	0x4f5d0246	3.7079137e+09
66	0x4e697138	9.791278e+08
67	0x4e15f6eb	6.289968e+08
68	0x4bb2ad4b	2.3419542e+07
69	0x44c17e9e	1547.9568
70	0x4cd0e46b	1.09519704e+08
71	0x00000000	0.0
72	0x4a139cfd	2.4184952e+06
73	0x4ddc3b14	4.618574e+08
74	0x49ffb52e	2.0947578e+06
75	0x00000000	0.0
76	0x00000000	0.0
77	0x461ed7ea	10165.979
78	0x4a8e3279	4.6595165e+06
79	0x4b5aed44	1.4347588e+07
80	0x4f9e7dfc	5.3181133e+09
81	0x4ab503df	5.9315035e+06
82	0x492bbbf8	703423.5
83	0x3cf019ab	0.029309114
84	0x00000000	0.0
85	0x4a802170	4.198584e+06
86	0x4a6cd12a	3.8800105e+06
87	0x00000000	0.0
88	0x4d9059d8	3.027259e+08
89	0x408006b8	4.00082
90	0x4b87b6db	1.7788342e+07
91	0x00000000	0.0
92	0x44f2c74c	1942.228
93	0x4b28209a	1.1018394e+07
94	0x4d063bd8	1.407543e+08
95	0x3d2e0b77	0.042491402
96	0x498fd46b	1.1782534e+06
97	0x4eae7759	1.4635286e+09
98	0x00000000	0.0
99	0x4f5b208b	3.676343e+09
100	0x4e0c63fe	5.888408e+08
101	0x4c6a2f0d	6.1389876e+07
102	0x45aeae7e	5589.8115
103	0x46145512	9493.268
104	0x4b69ef56	1.5331158e+07
105	0x474507a4	50439.64
106	0x443a005f	744.0058
107	0x4b894e5c	1.7996984e+07
108	0x4a8e37be	4.660191e+06
109	0x4b968541	1.9729026e+07
110	0x3fb1a70a	1.3879101
111	0x00000000	0.0
112	0x00000000	0.0
113	0x4f40a14b	3.231796e+09
114	0x00000000	0.0
115	0x4f3ac556	3.1334948e+09
116	0x4dfa589f	5.2501398e+08
117	0x4c972861	7.9250184e+07
118	0x49fd0478	2.072719e+06
119	0x433b513a	187.31729
120	0x4c1a3de4	4.043355e+07
121	0x00000000	0.0
122	0x48f763e0	506655.0
123	0x4c54d720	5.5794816e+07
124	0x4901fa6f	532390.94
125	0x00000000	0.0
126	0x00000000	0.0
127	0x468a9f26	17743.574
128	0x4a22f694	2.669989e+06
129	0x49f728f3	2.0247344e+06
130	0x4f666cf1	3.8658993e+09
131	0x49988a63	1.2496124e+06
132	0x488faa4e	294226.44
133	0x3f0d8446	0.5527996
134	0x00000000	0.0
135	0x4a0926a1	2.2470802e+06
136	0x49b90b6a	1.5158852e+06
137	0x00000000	0.0
138	0x4d68c808	2.4408896e+08
139	0x414f5fa1	12.960847
140	0x4b263c0d	1.0894349e+07
141	0x00000000	0.0
142	0x42186c3e	38.105705
143	0x4aa83a9a	5.512525e+06
144	0x4ce18502	1.182372e+08
145	0x00000000	0.0
146	0x49418f39	792819.56
147	0x4d07b876	1.4231331e+08
148	0x00000000	0.0
149	0x4ebb0101	1.5687026e+09
150	0x4e3e097d	7.970732e+08
151	0x4c94e10b	7.805551e+07
152	0x46287c37	10783.054
153	0x45931eed	4707.8657
154	0x4bd3ae08	2.7745296e+07
155	0x4678b795	15917.8955
156	0x4280b17e	64.346664
157	0x4c1e9049	4.15665e+07
158	0x4b0d18d2	9.24693e+06
159	0x4c0945d7	3.5985244e+07
160	0x00000000	0.0
161	0x00000000	0.0
162	0x00000000	0.0
163	0x4f643c4c	3.8291569e+09
164	0x3da11384	0.078650504
165	0x4f5f71d0	3.748778e+09
166	0x4e13a994	6.1934106e+08
167	0x4ca47e3e	8.624178e+07
168	0x4a3f9973	3.1391648e+06
169	0x3c0cabb7	0.008585862
170	0x4c45ea15	5.1882068e+07
171	0x00000000	0.0
172	0x4a0a9dcc	2.271091e+06
173	0x4c9dcd4d	8.273367e+07
174	0x48d9f215	446352.66
175	0x00000000	0.0
176	0x00000000	0.0
177	0x473821ce	47137.805
178	0x4ab712e6	5.998963e+06
179	0x49f14afd	1.9766716e+06
180	0x4f93d7a0	4.960764e+09
181	0x4a712e68	3.951514e+06
182	0x494a6521	829010.06
183	0x4218f581	38.23975
184	0x00000000	0.0
185	0x4a9a064a	5.047077e+06
186	0x4a5417d5	3.4749332e+06
187	0x00000000	0.0
188	0x4d801598	2.6861235e+08
189	0x4174bb0a	15.295664
190	0x4bbb1433	2.4520806e+07
191	0x00000000	0.0
192	0x42632c3d	56.7932
193	0x4b10aea4	9.481892e+06
194	0x4d098128	1.4418394e+08
195	0x00000000	0.0
196	0x48bc60a1	385797.03
197	0x4d6c89f5	2.4802901e+08
198	0x00000000	0.0
199	0x4f0513eb	2.232675e+09

exp_avg f4 [4]
0	0x3ab8c436	0.0014096561
1	0x36b02f4a	5.250714e-06
2	0x3695865d	4.456188e-06
3	0xba2a18ad	-0.00064886623

exp_avg_sq f4 [4]
0	0x3bd6d143	0.0065557077
1	0x3a5128ff	0.0007978826
2	0x3a3e2e98	0.0007254868
3	0x3a4639d8	0.000756172
