covid.pth (torch, 10241 bytes, 12 tensors)

weight f4 [50, 4]
000000 6e 27 9c be ea cb c4 bd ca 59 88 be a3 c9 16 3c
       -0.30498832 -0.09609206 -0.26631004 0.009203347
000010 5b aa 23 bd 77 a0 15 be c1 70 ff 3e 3a f6 76 be
       -0.039957386 -0.14611994 0.49890712 -0.24117365
000020 8b 06 d2 be 25 d0 50 3e 88 06 83 bd 48 b6 22 bd
       -0.41020617 0.20391901 -0.0639773 -0.03972462
000030 94 e3 81 be 17 54 c6 3d 8d c0 1a 3d 51 75 e3 bc
       -0.2536894 0.096840076 0.037781287 -0.027765902
000040 25 01 84 bb 02 69 d2 be d0 43 c2 be 8f 5d e9 be
       -0.0040284568 -0.4109574 -0.37942362 -0.45579192
000050 eb 01 72 be 83 d7 b6 be ea 2a d4 be 7e 72 e4 3b
       -0.23633544 -0.35711297 -0.4143899 0.0069716563
000060 98 de 8e be 68 1c 05 be b8 f1 d4 3e 0c 98 7a be
       -0.279042 -0.12999117 0.41590667 -0.24472064
000070 c9 23 f8 bd d8 8d 26 3e 02 17 2e be 6f ad e4 bc
       -0.121162005 0.16265047 -0.17000964 -0.02791473
000080 b3 41 8f bd be 30 0c 3f d3 f4 40 3d 77 8a cf be
       -0.06994953 0.54761875 0.047108483 -0.40535328
000090 65 a8 50 be 4e 79 21 3d 2c a7 cf 3e 20 dc 8c be
       -0.20376737 0.039422326 0.4055723 -0.27511692
0000a0 20 e4 c0 be 30 b2 77 3d 66 4e 01 bf 49 bb 17 3c
       -0.37674046 0.060472667 -0.5051025 0.009260961
0000b0 9e 92 13 bf 7d 34 eb 3e 50 dd db be 17 24 7d 3b
       -0.57645595 0.45938483 -0.42942286 0.0038626248
0000c0 0f 82 05 ba 8a 25 26 bf 8b af d9 be ad dd 5a bc
       -0.00050929276 -0.6490103 -0.4251674 -0.013358516
0000d0 32 12 cc be 16 8e c4 3e b4 98 35 be a0 36 45 be
       -0.39857632 0.38389653 -0.17734033 -0.19259119
0000e0 ed ca 21 be 52 d7 9e bd cc 30 8a be 6e 12 91 3b
       -0.15800066 -0.07755913 -0.26990354 0.004427246
0000f0 5c a5 fa be c0 d1 81 3c c0 28 db be d8 67 e3 bd
       -0.48954284 0.015847087 -0.42804527 -0.11103791
000100 bf 53 d1 ba c3 66 e2 be ae 9e 06 bf 71 b2 19 bf
       -0.0015970393 -0.44219026 -0.52585876 -0.60037905
000110 f5 68 9f be 80 58 29 3e c4 ae d8 bc 5f 3e f4 3b
       -0.31134763 0.16537666 -0.026450522 0.0074537243
000120 51 4e dc bb 4f 25 44 bf d5 ff 55 3d 0a 4c 1c bf
       -0.006723203 -0.7661943 0.052245934 -0.61053526
000130 9c fd 9b bd c1 78 db 3d a7 22 23 bf b9 af bc 3a
       -0.076167315 0.10716391 -0.6372475 0.0014395631
000140 b9 ac 9b bb ec 41 f0 bd 49 3b 5e ba 64 c7 e2 bc
       -0.0047508148 -0.117313236 -0.0008477462 -0.027682967
000150 6b da fc b8 29 55 01 bf d0 06 27 bf f3 6f 23 bf
       -0.0001205698 -0.5052057 -0.6524477 -0.63842696
000160 c6 70 bf be cc b2 37 3e a0 f7 e5 3d c8 05 5e be
       -0.37390727 0.179393 0.11228871 -0.21681893
000170 78 c4 a2 bb 60 89 cd be 0b 94 2d 3e 53 54 10 be
       -0.0049672686 -0.4014387 0.16951005 -0.14094667
000180 51 95 af bb 5a 8d 4b be e8 67 5f be 03 ec 23 be
       -0.005358376 -0.1987814 -0.21816981 -0.16008
000190 3e 3e 06 bf 27 5f 23 3e 95 a7 9f bd 94 5c 8a bc
       -0.52438724 0.15954266 -0.077956356 -0.016889848
0001a0 9f 9d d8 be ed fd 0c 3e 81 fd 94 be 55 ab 4f 3c
       -0.42307755 0.1376874 -0.29099658 0.012675126
0001b0 51 6d 83 bd f6 74 54 3e f1 21 e9 be 57 16 c8 bc
       -0.06417335 0.20747742 -0.45533708 -0.024424715
0001c0 a1 03 1f bf bb 6b 14 3e 63 ed 1b 3e 70 7c 64 be
       -0.6211491 0.14494221 0.15227275 -0.22313094
0001d0 a3 f7 1d bf 22 73 b9 bd aa 10 14 bd 34 96 e2 3c
       -0.6170599 -0.09055163 -0.036148705 0.027659513
0001e0 ec f3 7a be 79 d3 85 3e 34 3c d7 be 39 8e b3 3a
       -0.24507111 0.26137903 -0.4203812 0.0013699002
0001f0 66 59 e0 ba 86 b1 98 be ba 5a 4a 3d 67 a2 82 be
       -0.0017116487 -0.2982294 0.04940293 -0.25514528
000200 8f 9d c1 be 23 13 87 be 05 e2 a6 be 53 02 22 3c
       -0.3781552 -0.26381788 -0.32594314 0.009888249
000210 14 fd 26 be e3 19 d3 bd 10 2b 46 bd c0 46 a5 bb
       -0.16307479 -0.10307672 -0.04838091 -0.0050438344
000220 d8 e7 3f bf e2 c3 69 3e 88 e8 d1 3c c5 92 80 bb
       -0.7496314 0.2282863 0.025623575 -0.0039237463
000230 58 9c ad be a8 92 8b be 06 eb f0 be cc d3 d0 be
       -0.33908343 -0.27260327 -0.4705431 -0.40786588
000240 69 8f d9 be 42 4b 7b 3d 86 1f ad bc 92 90 6d 3c
       -0.42492226 0.06135107 -0.021133196 0.0144998
000250 4c 89 e9 be 27 5e 80 3e 24 2e 14 bf 9d a6 5d 3c
       -0.45612562 0.25071833 -0.57882905 0.013528493
000260 04 57 f8 bb f5 25 9f bd 55 dd e8 3c da 7d ce bc
       -0.0075787324 -0.077709116 0.028425852 -0.025206495
000270 b8 95 a4 ba e9 a2 a6 bd ef ea cd be d5 9c dc bc
       -0.0012556827 -0.081365414 -0.40218303 -0.026930252
000280 93 35 71 bb e6 61 dd bd 6c 80 f2 be 85 71 ba be
       -0.0036805614 -0.10809688 -0.47363603 -0.36414734
000290 60 f0 09 bb 4b 9b 83 3b c3 56 10 bf a2 2f ae bb
       -0.0021047816 0.004016315 -0.5638239 -0.005315737
0002a0 1a 80 05 bf 90 2d 95 3d f0 3b db be 73 24 78 3c
       -0.5214859 0.07284081 -0.42819166 0.015145409
0002b0 ce 58 8e bd 0f 07 d4 be cb de ea be 05 b2 bd be
       -0.06950532 -0.41411635 -0.45873103 -0.3704988
0002c0 8a c6 e9 be 9c 8a 80 3e ca 9e d9 be d6 d5 a8 be
       -0.45659286 0.2510575 -0.4250396 -0.32975644
0002d0 45 bb ad bc 1f 96 1c 3b 89 7e 29 bc 50 42 69 3a
       -0.021207461 0.002389319 -0.01034511 0.0008898126
0002e0 a0 c5 a2 be 59 43 1e 3e a4 f4 f4 be f3 72 10 3c
       -0.317914 0.15455379 -0.47842896 0.0088164685
0002f0 70 8e a8 b8 2c 59 09 bf af 1f 16 bf 68 15 2a bf
       -8.037395e-05 -0.5365169 -0.58642095 -0.66438913
000300 4b ce 1b bf 23 a2 8c 3a 35 1a b6 3e 61 f2 2c be
       -0.60861653 0.0010729473 0.3556687 -0.16889335
000310 92 87 b7 bb 5a 07 ab bd b4 74 f9 39 2e 89 2f 3b
       -0.005600878 -0.083510116 0.00047579932 0.0026784646

bias f4 [50]
000000 ba 83 15 be 83 8a 9e be a9 d6 ba bd 8d 2e 95 be
       -0.14601031 -0.3096505 -0.091229744 -0.29137078
000010 86 35 80 bc 4a d2 90 be 2e 2c cf 3e 20 60 4d 3e
       -0.015650522 -0.28285438 0.40463394 0.200562
000020 32 0c 4c 3d 09 fe 8f 3e 92 d4 82 be fa 6c bf be
       0.049816318 0.281235 -0.25552803 -0.3738783
000030 e1 f2 df bb 4c 0d 1d 3e f7 fd 2e bf 48 21 2f be
       -0.0068343733 0.15337104 -0.6835627 -0.1710254
000040 97 19 89 be dc 45 21 3d 8e 5a c1 be 30 c3 f6 bd
       -0.26777336 0.039373264 -0.377644 -0.12048948
000050 40 93 39 bf 55 2c 88 3e 0c 9c 08 3e d0 bd 92 be
       -0.7249031 0.26596323 0.13340777 -0.2866044
000060 37 1f ec 3d 41 53 39 bf e0 76 83 be 30 68 b2 bd
       0.11529391 -0.7239266 -0.25676632 -0.087112784
000070 e5 08 38 3e 49 68 7f 3d 72 d9 58 bf c0 41 50 bf
       0.17972143 0.062355313 -0.84706795 -0.81350327
000080 c7 55 a1 3e b2 9a b8 bd f9 55 67 be f8 cb d2 bd
       0.31510755 -0.09013881 -0.2259139 -0.1029281
000090 72 ec 63 bc 72 6f c7 be d9 e7 88 bd 0e e0 bd be
       -0.013911353 -0.38952214 -0.066848464 -0.37085003
0000a0 75 af 57 bf b5 e2 88 3e f4 72 0e bf 46 b2 80 bd
       -0.842521 0.26735464 -0.55644155 -0.06284003
0000b0 08 54 6f be b1 9a 90 bd 02 6d 18 bf f2 67 67 3d
       -0.23371899 -0.07060755 -0.5954133 0.056495614
0000c0 5f 35 84 be 6b 3e 7e 3d
       -0.2582197 0.062071245

weight f4 [4, 50]
000000 93 14 c8 bb 3b 8d 1e 3c 3c 5d 9e 3c a8 f4 61 ba
       -0.0061059683 0.009677227 0.019331567 -0.00086195255
000010 6a ab 19 3d f4 2c 88 3c c4 f3 4a bd 17 28 96 b4
       0.03751699 0.016622998 -0.04954888 -2.7968846e-07
000020 65 dc ab 3d 70 05 18 3d 05 8f a0 bb 68 aa 5d bd
       0.08391646 0.03711456 -0.0048998618 -0.05411759
000030 d1 be 53 3b ae c8 ae 3d 47 88 54 bc a2 94 a6 3d
       0.003230978 0.0853437 -0.012971944 0.08133818
000040 3a 8a f0 bb 23 a9 7c bc 2b fa 56 ba 11 01 1b 3d
       -0.0073406966 -0.015421185 -0.000820073 0.037842814
000050 2b 43 b9 bc 26 0b d9 ba b4 50 b4 bc 2a 8a 0d 3d
       -0.022615036 -0.0016559109 -0.022011138 0.03455559
000060 b3 d4 85 3c e9 7f 0d bc 2d f7 73 3d 88 b6 03 3b
       0.016336774 -0.008636453 0.059561897 0.002009781
000070 21 09 7b 3c 68 cf 49 bc cd 9f 12 bd e8 bf 7d bb
       0.015322001 -0.012317516 -0.03579693 -0.0038719121
000080 ea db b5 bd 07 fd c2 39 f3 55 07 bb db 15 f2 bd
       -0.08879836 0.00037191084 -0.0020650595 -0.11820575
000090 a1 f0 83 bc 9d 6f 44 3c fd 20 35 bc 9b 4e ef ba
       -0.016105952 0.011989501 -0.011055228 -0.0018257679
0000a0 62 ca d2 bc 38 70 84 3c 7f 73 5f 3d d6 b7 ba bd
       -0.02573127 0.016166791 0.054553505 -0.09117095
0000b0 a8 e4 e2 3c 86 7b 3b bc 40 ff 01 3d b0 75 8b 3b
       0.027696922 -0.0114430245 0.031737566 0.004255973
0000c0 f2 c8 bb bc 90 42 94 3c 38 c0 9c 3c 26 16 c4 bb
       -0.022922967 0.018098146 0.019134626 -0.0059840856
0000d0 5b f9 a9 bb 89 7e 70 bc 5e a0 90 3c 8c 4c 7b bc
       -0.005187196 -0.014678606 0.017654594 -0.015338074
0000e0 b5 e3 cd bd 15 15 6c 3c 64 30 b8 3d 9e 50 eb 3d
       -0.10053197 0.014409323 0.08993605 0.11489986
0000f0 2b fd d5 bc d6 fc 33 bc be 2f fc 3a 00 b2 92 ba
       -0.026121696 -0.010985574 0.0019240302 -0.0011191964
000100 b7 40 03 3c a8 e6 ad 3d eb 7f d4 3b ea 87 48 bc
       0.008011035 0.0849126 0.0064849756 -0.012239436
000110 2b b1 50 3b c4 eb 20 3c 00 59 8d 3c 61 85 95 3b
       0.0031843882 0.009821836 0.017254353 0.004563019
000120 fc 6a 50 3d 66 5c 28 bb 24 74 14 3d d1 76 74 bb
       0.05088328 -0.002568984 0.036243573 -0.0037302265
000130 38 1f 3c 3d 63 40 61 3c 70 9c c2 3d e8 0f 3d bc
       0.04592821 0.013748261 0.09502494 -0.011539437
000140 e4 eb ed ba 53 6a ad ba ef 73 e3 3b 83 8e b9 bb
       -0.0018151966 -0.001323054 0.0069413106 -0.0056627407
000150 0f da 8a bc d0 02 ed bd 37 3f 1d 3c af 85 8f bb
       -0.016949682 -0.11572802 0.009597591 -0.00437995
000160 3f 55 30 3c 4b d9 8b bb 62 4d 75 3b 15 74 b3 bc
       0.010762512 -0.0042678467 0.0037430157 -0.021905938
000170 10 0b 3c bc 87 ef 27 3e b8 ba c6 3c c9 bf fe 3b
       -0.011477247 0.16399966 0.024258956 0.0077743274
000180 4f 3a b8 3b bb fb e2 3a 26 46 b6 3e 53 f8 a1 3c
       0.0056221853 0.0017317453 0.35600394 0.01977173
000190 99 16 63 3d bd 80 99 3b d5 e9 0c 3c 51 12 1b 3c
       0.055441473 0.0046845363 0.008600672 0.009464816
0001a0 d8 2d ad 3d 93 49 f6 3c 02 df 4b bd d4 66 4f 3c
       0.084560096 0.03006438 -0.049773224 0.0126587935
0001b0 70 e6 ae 3d d3 c1 c7 bd 1d ec d1 bc fb 63 26 bd
       0.08540046 -0.09753766 -0.025625283 -0.040622693
0001c0 e1 2d 20 3b 00 6b c0 3b fa 2d c5 3b 86 0a 38 bd
       0.0024441408 0.0058721304 0.0060174437 -0.04493191
0001d0 c9 0a a5 3c 43 c1 9b ba 30 f7 81 3c e7 e1 c3 3b
       0.020146744 -0.0011883158 0.015864938 0.0059778574
0001e0 3f f6 d5 3c 75 44 2f 3b 3d 4b c1 bd ba 3b 48 bb
       0.026118396 0.0026743684 -0.09438179 -0.0030553178
0001f0 06 52 63 bd 33 4b 7f 3c 7e 1d 25 3c 50 9c c5 bb
       -0.055498146 0.015581894 0.010077832 -0.006030597
000200 11 48 f4 bd bd 10 2e bc b3 03 74 3c 5c 23 2b 3d
       -0.11927808 -0.010624108 0.01489346 0.04178177
000210 f4 19 e7 bc 96 ca 0f 3b 68 51 ec 3b b8 39 25 bd
       -0.028210618 0.002194082 0.007211853 -0.040338248
000220 f1 58 de 3a 0f d1 44 bc 31 39 25 bd 1f 3e 2a bc
       0.0016963762 -0.012012734 -0.040337745 -0.010390787
000230 72 2c a7 3c e8 d6 96 3c 37 11 38 3c 7b 2b c7 bc
       0.020406935 0.018413022 0.011234573 -0.024312725
000240 d9 43 03 3e 7e 00 05 bb f9 02 bf bb 54 10 35 bc
       0.1281885 -0.0020294483 -0.005829212 -0.011051256
000250 24 f2 a5 3d a4 cf 88 3c 69 0d 9c 3d 69 9f 7e 3a
       0.08102825 0.016700573 0.07619745 0.0009713085
000260 86 5a 09 3c d0 03 2d 3c 62 26 ae 3c 26 d8 c1 3b
       0.008383399 0.010559991 0.021258537 0.0059156595
000270 32 a2 9e bd bf e1 17 3c 47 85 aa 3d b0 f9 43 3d
       -0.0774578 0.009270131 0.08326202 0.047845542
000280 d7 08 6e 3c aa 2d b3 bd 28 6e 5f 39 8a be 0e bd
       0.014528475 -0.08748944 0.00021307974 -0.03484968
000290 4d cd 76 bb 52 f0 74 bd 94 9b d6 3b 3e dd 10 bc
       -0.003765899 -0.0597995 0.006549308 -0.008841811
0002a0 f5 19 90 3b b1 18 2e 3a dc ce 5f bc 7c 19 0f 3b
       0.0043976256 0.00066412525 -0.013660159 0.0021835258
0002b0 c0 1a bf bd f2 e2 04 3d 46 0a b1 bb 7d 41 d0 3c
       -0.09331274 0.032442994 -0.005402836 0.025421852
0002c0 32 8c 4b 3d 63 0c 35 3c 4e a8 4c bd 77 3f 21 bb
       0.049694248 0.0110503165 -0.049965195 -0.0024604478
0002d0 f4 81 ac 3c ac 92 1f 3c f5 17 f7 bb e4 dc 12 3b
       0.02105806 0.009739559 -0.0075406977 0.0022409493
0002e0 92 70 23 3c 9c 7f d1 bc e4 c5 cc bb 3b a3 20 3d
       0.009975569 -0.025573544 -0.0062491763 0.03921817
0002f0 b6 58 37 3d bc bd 0c bc 2b 67 dd 3c 9b 95 86 3c
       0.044762336 -0.008590158 0.027026733 0.01642876
000300 03 09 15 bd 90 76 82 bc 15 3e 99 bd 8c 6a fe 3b
       -0.036385547 -0.015925676 -0.07482544 0.007764166
000310 6d 7d 59 bc dd 20 36 3b fa 4e 92 bd 19 b8 87 3c
       -0.013274533 0.0027790584 -0.0714397 0.016567277

bias f4 [4]
000000 e0 95 a5 40 35 0f a5 40 e8 40 a1 40 45 6b a1 40
       5.1745453 5.1581063 5.039173 5.0443444

exp_avg f4 [50, 4]
000000 04 00 00 00 04 00 00 00 04 00 00 00 04 00 00 00
       6e-45 6e-45 6e-45 6e-45
000010 04 00 00 00 04 00 00 00 04 00 00 00 04 00 00 00
       6e-45 6e-45 6e-45 6e-45
000020 04 00 00 00 04 00 00 80 04 00 00 80 04 00 00 00
       6e-45 -6e-45 -6e-45 6e-45
000030 04 00 00 00 04 00 00 00 04 00 00 00 04 00 00 00
       6e-45 6e-45 6e-45 6e-45
000040 04 00 00 00 04 00 00 00 04 00 00 00 04 00 00 00
       6e-45 6e-45 6e-45 6e-45
000050 04 00 00 00 04 00 00 00 04 00 00 00 04 00 00 00
       6e-45 6e-45 6e-45 6e-45
000060 00 00 00 00 00 00 00 00 00 00 00 00 00 00 00 00
       0.0 0.0 0.0 0.0
000070 28 0e 9d 2b 45 26 c7 2b 71 cc 01 2b 35 e2 26 2b
       1.115945e-12 1.4150422e-12 4.6113726e-13 5.928897e-13
000080 0e 68 ad 44 60 64 bd 43 0c c1 1a 43 7c 44 65 43
       1387.2517 378.78418 154.75409 229.26752
000090 04 00 00 00 04 00 00 00 04 00 00 00 04 00 00 00
       6e-45 6e-45 6e-45 6e-45
0000a0 04 00 00 00 04 00 00 00 04 00 00 00 04 00 00 00
       6e-45 6e-45 6e-45 6e-45
0000b0 04 00 00 00 04 00 00 00 04 00 00 00 04 00 00 00
       6e-45 6e-45 6e-45 6e-45
0000c0 04 00 00 00 04 00 00 00 04 00 00 00 04 00 00 00
       6e-45 6e-45 6e-45 6e-45
0000d0 00 00 00 00 00 00 00 00 00 00 00 00 00 00 00 00
       0.0 0.0 0.0 0.0
0000e0 04 00 00 00 04 00 00 00 04 00 00 00 04 00 00 00
       6e-45 6e-45 6e-45 6e-45
0000f0 00 00 00 00 00 00 00 00 00 00 00 00 00 00 00 00
       0.0 0.0 0.0 0.0
000100 04 00 00 00 04 00 00 00 04 00 00 00 04 00 00 00
       6e-45 6e-45 6e-45 6e-45
000110 04 00 00 00 04 00 00 00 04 00 00 00 04 00 00 00
       6e-45 6e-45 6e-45 6e-45
000120 04 00 00 00 04 00 00 00 04 00 00 00 04 00 00 00
       6e-45 6e-45 6e-45 6e-45
000130 04 00 00 00 04 00 00 00 04 00 00 00 04 00 00 00
       6e-45 6e-45 6e-45 6e-45
000140 04 00 00 00 04 00 00 00 04 00 00 00 04 00 00 00
       6e-45 6e-45 6e-45 6e-45
000150 04 00 00 00 04 00 00 00 04 00 00 00 04 00 00 00
       6e-45 6e-45 6e-45 6e-45
000160 00 00 00 00 00 00 00 00 00 00 00 00 00 00 00 00
       0.0 0.0 0.0 0.0
000170 04 00 00 00 04 00 00 00 04 00 00 00 04 00 00 00
       6e-45 6e-45 6e-45 6e-45
000180 04 00 00 00 04 00 00 00 04 00 00 00 04 00 00 00
       6e-45 6e-45 6e-45 6e-45
000190 04 00 00 00 04 00 00 00 04 00 00 80 04 00 00 00
       6e-45 6e-45 -6e-45 6e-45
0001a0 04 00 00 00 04 00 00 00 04 00 00 00 04 00 00 00
       6e-45 6e-45 6e-45 6e-45
0001b0 04 00 00 00 04 00 00 00 04 00 00 00 04 00 00 00
       6e-45 6e-45 6e-45 6e-45
0001c0 04 00 00 00 04 00 00 00 04 00 00 00 04 00 00 00
       6e-45 6e-45 6e-45 6e-45
0001d0 04 00 00 80 04 00 00 00 04 00 00 80 04 00 00 80
       -6e-45 6e-45 -6e-45 -6e-45
0001e0 04 00 00 00 04 00 00 00 04 00 00 00 04 00 00 00
       6e-45 6e-45 6e-45 6e-45
0001f0 04 00 00 00 04 00 00 00 04 00 00 00 04 00 00 00
       6e-45 6e-45 6e-45 6e-45
000200 04 00 00 00 04 00 00 00 04 00 00 00 04 00 00 00
       6e-45 6e-45 6e-45 6e-45
000210 04 00 00 00 04 00 00 00 04 00 00 00 04 00 00 00
       6e-45 6e-45 6e-45 6e-45
000220 04 00 00 00 04 00 00 00 04 00 00 00 04 00 00 00
       6e-45 6e-45 6e-45 6e-45
000230 00 00 00 00 00 00 00 00 00 00 00 00 00 00 00 00
       0.0 0.0 0.0 0.0
000240 04 00 00 00 04 00 00 00 04 00 00 00 04 00 00 00
       6e-45 6e-45 6e-45 6e-45
000250 04 00 00 00 04 00 00 00 04 00 00 00 04 00 00 00
       6e-45 6e-45 6e-45 6e-45
000260 04 00 00 00 04 00 00 00 04 00 00 00 04 00 00 00
       6e-45 6e-45 6e-45 6e-45
000270 04 00 00 00 04 00 00 00 04 00 00 00 04 00 00 00
       6e-45 6e-45 6e-45 6e-45
000280 04 00 00 00 04 00 00 00 04 00 00 00 04 00 00 00
       6e-45 6e-45 6e-45 6e-45
000290 04 00 00 00 04 00 00 00 04 00 00 00 04 00 00 00
       6e-45 6e-45 6e-45 6e-45
0002a0 04 00 00 00 04 00 00 00 04 00 00 00 04 00 00 00
       6e-45 6e-45 6e-45 6e-45
0002b0 04 00 00 00 04 00 00 00 04 00 00 80 04 00 00 80
       6e-45 6e-45 -6e-45 -6e-45
0002c0 00 00 00 00 00 00 00 00 00 00 00 00 00 00 00 00
       0.0 0.0 0.0 0.0
0002d0 04 00 00 00 04 00 00 00 04 00 00 00 04 00 00 00
       6e-45 6e-45 6e-45 6e-45
0002e0 04 00 00 00 04 00 00 00 04 00 00 00 04 00 00 00
       6e-45 6e-45 6e-45 6e-45
0002f0 04 00 00 00 04 00 00 00 04 00 00 00 04 00 00 00
       6e-45 6e-45 6e-45 6e-45
000300 04 00 00 00 04 00 00 00 04 00 00 00 04 00 00 00
       6e-45 6e-45 6e-45 6e-45
000310 92 6f a5 46 95 ab f5 c2 8c 1c f4 44 0e b2 ed 47
       21175.785 -122.83512 1952.8921 121700.11

exp_avg_sq f4 [50, 4]
000000 14 64 da 45 7f 70 92 3f 9b d6 f2 43 89 fe ba 49
       6988.51 1.1440581 485.6766 1.5318571e+06
000010 47 b7 36 49 13 02 46 45 ad 01 b8 45 d0 46 cc 46
       748404.44 3168.1296 5888.2095 26147.406
000020 bf d0 ba 47 04 fd 8f 45 c2 fe 6a 46 59 cb 2a 4b
       95649.49 4607.627 15039.689 1.1193177e+07
000030 e6 68 04 47 ff 9e 3d 46 80 0b 8e 46 17 62 51 4a
       33896.9 12135.749 18181.75 3.4305338e+06
000040 36 2f c2 48 54 8e ad 42 97 b4 94 41 f1 14 53 42
       397689.7 86.777985 18.588179 52.77045
000050 c4 2a 5e 45 4f 1d 97 41 65 9a 98 43 0a c7 0b 49
       3554.6729 18.88931 305.2062 572528.6
000060 00 00 00 00 00 00 00 00 00 00 00 00 00 00 00 00
       0.0 0.0 0.0 0.0
000070 88 eb b6 4a 1c ad ec 49 30 7f cd 48 f0 3f 78 4b
       5.993924e+06 1.9388515e+06 420857.5 1.6269296e+07
000080 5f 01 ba 4f 47 48 a0 4e 07 71 40 4d 3b d1 e1 4d
       6.241304e+09 1.3445457e+09 2.0178955e+08 4.7357322e+08
000090 78 19 45 3c 83 db a5 3d 6a 29 cd 3d 08 0f b4 3e
       0.012029998 0.08098509 0.10017665 0.35167718
0000a0 0f 61 79 42 e9 b1 a5 3a 24 1f 7a 3f 5e d9 ee 45
       62.344784 0.0012641522 0.97703767 7643.171
0000b0 72 33 2f 45 20 96 c4 42 d2 90 00 43 7a ff e7 48
       2803.2153 98.29321 128.5657 475131.8
0000c0 ef 81 b1 49 74 ed f7 43 e2 e8 ff 44 31 46 60 4a
       1.4541419e+06 495.8551 2047.2776 3.6745082e+06
0000d0 00 00 00 00 00 00 00 00 00 00 00 00 00 00 00 00
       0.0 0.0 0.0 0.0
0000e0 51 9e a6 46 06 6e 91 43 76 26 d6 44 d1 d2 a9 49
       21327.158 290.85956 1713.2019 1.3911941e+06
0000f0 00 00 00 00 00 00 00 00 00 00 00 00 00 00 00 00
       0.0 0.0 0.0 0.0
000100 1a 19 52 48 65 15 fc 41 01 f3 a5 40 7c 41 83 41
       215140.4 31.510447 5.1859136 16.406975
000110 af 6e 41 47 da 32 f4 44 13 4b 1d 46 06 a4 bc 4a
       49518.684 1953.5891 10066.769 6.181379e+06
000120 a7 ff 0c 48 68 01 80 42 52 53 e2 41 2e 41 de 42
       144382.61 64.00275 28.290684 111.127304
000130 f6 d7 8e 46 24 61 16 43 7e 13 94 44 cf fa 80 49
       18283.98 150.37946 1184.6091 1.0566019e+06
000140 5b 8b 96 49 fe 92 9d 44 3b 55 da 44 2e 4f 2a 48
       1.2332594e+06 1260.5935 1746.6635 174396.72
000150 dd 00 94 49 2e 5d fe 42 0f 0d b4 41 d4 8b 8e 42
       1.2124436e+06 127.18199 22.506376 71.2731
000160 00 00 00 00 00 00 00 00 00 00 00 00 00 00 00 00
       0.0 0.0 0.0 0.0
000170 9c 97 a9 46 95 ab 3c 42 28 3f 85 41 06 58 80 42
       21707.805 47.16756 16.655838 64.17192
000180 2d be 2c 49 23 69 b2 43 1c 8f 01 43 84 40 1d 44
       707554.8 356.82138 129.55902 629.00806
000190 a3 d9 37 48 bd 14 a6 44 5c 0a c2 46 cd c4 e9 4b
       188262.55 1328.6481 24837.18 3.0640538e+07
0001a0 9f 29 cd 46 43 7a 2c 42 d3 68 19 45 51 92 81 4a
       26260.81 43.119396 2454.5515 4.2458005e+06
0001b0 f6 b0 f7 49 84 0b 5f 48 90 d3 b1 46 1c f1 0b 4b
       2.0290868e+06 228398.06 22761.781 9.171228e+06
0001c0 75 0e d9 3b 66 9a 39 3d f1 82 53 3d 1b 93 35 3e
       0.006624038 0.04531326 0.051638547 0.17731898
0001d0 85 49 0d 47 b2 2a 5c 42 bc 36 47 45 64 7e bd 4a
       36169.52 55.041695 3187.421 6.20933e+06
0001e0 e1 01 19 48 93 87 a7 44 e6 d2 25 46 6a 65 58 4b
       156679.52 1340.2367 10612.725 1.4181738e+07
0001f0 4f 04 dd 47 35 a4 2d 43 b0 e4 e7 42 8e c6 00 44
       113160.62 173.64143 115.946655 515.1024
000200 30 39 12 47 cb 2e c4 42 fe a3 70 45 fc 45 b4 4a
       37433.188 98.09139 3850.2495 5.907198e+06
000210 3c d7 32 4c c6 af d5 46 4d 81 a4 49 f9 9e 3d 4f
       4.688203e+07 27351.887 1.3476256e+06 3.1813123e+09
000220 05 b7 77 45 99 0c bc 42 ab de 76 44 f3 c8 57 49
       3963.4387 94.024605 987.4792 883855.2
000230 00 00 00 00 00 00 00 00 00 00 00 00 00 00 00 00
       0.0 0.0 0.0 0.0
000240 2b 14 6a 47 63 6d f4 43 da ba 0e 46 2f a5 05 4b
       59924.168 488.85458 9134.713 8.758575e+06
000250 2f 18 43 46 89 42 d7 42 ef f0 0b 45 a3 be f0 49
       12486.046 107.62995 2239.0583 1.9721804e+06
000260 f8 0f f9 49 e4 9c cd 45 79 aa b9 45 97 47 df 49
       2.040319e+06 6579.6113 5941.309 1.8291069e+06
000270 f9 59 0e 46 89 74 81 41 a9 7e 87 41 d9 14 ef 45
       9110.493 16.181902 16.936846 7650.606
000280 f4 57 9b 46 44 8b f6 41 b3 4d 15 41 0a dc 0e 42
       19883.977 30.818 9.33147 35.71488
000290 08 93 93 47 59 b5 22 43 97 02 a5 43 d3 03 d4 48
       75558.06 162.70839 330.02023 434206.6
0002a0 3b fb e7 46 0f 6d fe 42 b5 47 6c 45 fb 2b 8c 4a
       29693.615 127.213005 3780.4817 4.5931495e+06
0002b0 39 0f b2 3f 4b ae 32 38 18 5f a0 36 80 b8 ca 37
       1.3910896 4.260083e-05 4.779442e-06 2.4166191e-05
0002c0 00 00 00 00 00 00 00 00 00 00 00 00 00 00 00 00
       0.0 0.0 0.0 0.0
0002d0 3d 13 4c 49 9a 3d 89 46 21 03 8f 47 44 b8 44 4c
       835891.8 17566.8 73222.26 5.156891e+07
0002e0 05 37 09 48 d4 10 6a 44 4b e3 38 46 11 52 78 4b
       140508.08 936.26294 11832.823 1.6273937e+07
0002f0 1b 8e ba 48 be dd 64 42 fc da 59 41 31 91 29 42
       382064.84 57.216545 13.615963 42.39179
000300 05 4b 35 41 ab be f8 41 b4 4d cc 42 82 52 16 44
       11.330815 31.0931 102.151764 601.2892
000310 39 4f a7 50 c5 58 03 4c da 1d 99 4d b2 39 a3 52
       2.2455896e+10 3.4431764e+07 3.211088e+08 3.5052382e+11

exp_avg f4 [50]
000000 04 00 00 00 04 00 00 00 04 00 00 00 04 00 00 00
       6e-45 6e-45 6e-45 6e-45
000010 04 00 00 00 04 00 00 00 00 00 00 00 29 4c 29 1f
       6e-45 6e-45 0.0 3.585014e-20
000020 20 5c b4 37 04 00 00 00 04 00 00 00 04 00 00 00
       2.1500571e-05 6e-45 6e-45 6e-45
000030 04 00 00 00 00 00 00 00 04 00 00 00 00 00 00 00
       6e-45 0.0 6e-45 0.0
000040 04 00 00 00 04 00 00 00 04 00 00 00 04 00 00 00
       6e-45 6e-45 6e-45 6e-45
000050 04 00 00 00 04 00 00 00 00 00 00 00 04 00 00 00
       6e-45 6e-45 0.0 6e-45
000060 04 00 00 00 04 00 00 00 04 00 00 00 04 00 00 00
       6e-45 6e-45 6e-45 6e-45
000070 04 00 00 00 04 00 00 80 04 00 00 00 04 00 00 00
       6e-45 -6e-45 6e-45 6e-45
000080 04 00 00 00 04 00 00 00 04 00 00 00 00 00 00 00
       6e-45 6e-45 6e-45 0.0
000090 04 00 00 00 04 00 00 00 04 00 00 00 04 00 00 00
       6e-45 6e-45 6e-45 6e-45
0000a0 04 00 00 00 04 00 00 00 04 00 00 00 04 00 00 00
       6e-45 6e-45 6e-45 6e-45
0000b0 00 00 00 00 04 00 00 00 04 00 00 00 04 00 00 00
       0.0 6e-45 6e-45 6e-45
0000c0 04 00 00 00 42 ab bd 3a
       6e-45 0.0014470594

exp_avg_sq f4 [50]
000000 88 a3 45 2f 42 0c f1 2e fe 65 c4 30 f2 d6 00 30
       1.7975144e-10 1.09615886e-10 1.4289865e-09 4.6871584e-10
000010 8d fe 37 2e 8e 0d 98 2e 00 00 00 00 72 f0 ae 31
       4.183547e-11 6.9145675e-11 0.0 5.091402e-09
000020 97 65 17 36 89 33 42 25 14 44 82 2b 7c db 77 2e
       2.2559886e-06 1.6844279e-16 9.255951e-13 5.635624e-11
000030 e0 48 3a 30 00 00 00 00 4e 85 47 2f 00 00 00 00
       6.776997e-10 0.0 1.8146304e-10 0.0
000040 7f 5c c3 2d 63 e9 58 30 c8 83 87 2d 07 24 13 2f
       2.221001e-11 7.8912005e-10 1.5406246e-11 1.3382372e-10
000050 cb ba 3c 2f 31 9a 09 2f 00 00 00 00 71 3f 33 2c
       1.7164863e-10 1.2514857e-10 0.0 2.5472647e-12
000060 09 92 a7 2e bd 18 7f 31 ae bc 0d 30 76 33 f0 30
       7.620222e-11 3.7121446e-09 5.156363e-10 1.7476924e-09
000070 d6 bb ca 24 3e 7a 4d 30 33 b6 f5 30 0e 28 6f 2d
       8.792174e-17 7.475228e-10 1.787788e-09 1.3594471e-11
000080 52 e1 45 30 36 38 dd 34 31 70 e5 2e 00 00 00 00
       7.198838e-10 4.1205357e-07 1.04336435e-10 0.0
000090 ba 6c 95 30 6f e8 85 2f 25 d0 0f 30 9c ec 3a 2c
       1.0872079e-09 2.4357713e-10 5.231889e-10 2.6563534e-12
0000a0 02 ff 1f 2c 35 57 98 2e 00 5b 1b 30 d3 f9 20 25
       2.2736817e-12 6.927651e-11 5.651799e-10 1.3962432e-16
0000b0 00 00 00 00 57 85 ed 31 de 77 0b 31 e8 f6 2d 2e
       0.0 6.912767e-09 2.0295299e-09 3.9554943e-11
0000c0 20 b2 51 2a 29 b1 67 38
       1.8624728e-13 5.5239685e-05

exp_avg f4 [4, 50]
000000 04 00 00 00 04 00 00 00 04 00 00 00 04 00 00 00
       6e-45 6e-45 6e-45 6e-45
000010 04 00 00 00 04 00 00 00 00 00 00 00 8a 12 8a 2c
       6e-45 6e-45 0.0 3.924254e-12
000020 37 49 c7 bf 04 00 00 80 04 00 00 80 04 00 00 80
       -1.5569218 -6e-45 -6e-45 -6e-45
000030 04 00 00 00 00 00 00 00 04 00 00 80 00 00 00 00
       6e-45 0.0 -6e-45 0.0
000040 04 00 00 80 04 00 00 80 04 00 00 00 04 00 00 00
       -6e-45 -6e-45 6e-45 6e-45
000050 04 00 00 80 04 00 00 00 00 00 00 00 04 00 00 00
       -6e-45 6e-45 0.0 6e-45
000060 04 00 00 00 04 00 00 00 04 00 00 00 04 00 00 00
       6e-45 6e-45 6e-45 6e-45
000070 04 00 00 00 04 00 00 00 04 00 00 80 04 00 00 00
       6e-45 6e-45 -6e-45 6e-45
000080 04 00 00 80 04 00 00 00 04 00 00 00 00 00 00 00
       -6e-45 6e-45 6e-45 0.0
000090 04 00 00 80 04 00 00 00 04 00 00 00 04 00 00 80
       -6e-45 6e-45 6e-45 -6e-45
0000a0 04 00 00 80 04 00 00 00 04 00 00 00 00 00 00 00
       -6e-45 6e-45 6e-45 0.0
0000b0 00 00 00 00 04 00 00 80 04 00 00 00 04 00 00 00
       0.0 -6e-45 6e-45 6e-45
0000c0 04 00 00 80 b9 c6 2a c6 04 00 00 00 04 00 00 00
       -6e-45 -10929.681 6e-45 6e-45
0000d0 04 00 00 80 04 00 00 80 04 00 00 00 04 00 00 80
       -6e-45 -6e-45 6e-45 -6e-45
0000e0 00 00 00 00 04 00 00 00 04 00 00 00 00 00 00 00
       0.0 6e-45 6e-45 0.0
0000f0 04 00 00 00 04 00 00 80 04 00 00 00 00 00 00 00
       6e-45 -6e-45 6e-45 0.0
000100 04 00 00 80 00 00 00 00 04 00 00 00 04 00 00 80
       -6e-45 0.0 6e-45 -6e-45
000110 04 00 00 00 04 00 00 00 04 00 00 00 04 00 00 00
       6e-45 6e-45 6e-45 6e-45
000120 00 00 00 00 04 00 00 80 04 00 00 00 04 00 00 00
       0.0 -6e-45 6e-45 6e-45
000130 04 00 00 00 04 00 00 00 00 00 00 00 04 00 00 80
       6e-45 6e-45 0.0 -6e-45
000140 04 00 00 00 04 00 00 80 04 00 00 80 04 00 00 00
       6e-45 -6e-45 -6e-45 6e-45
000150 04 00 00 80 00 00 00 00 04 00 00 80 04 00 00 80
       -6e-45 0.0 -6e-45 -6e-45
000160 04 00 00 00 04 00 00 80 04 00 00 80 04 00 00 80
       6e-45 -6e-45 -6e-45 -6e-45
000170 04 00 00 00 04 00 00 80 00 00 00 00 04 00 00 00
       6e-45 -6e-45 0.0 6e-45
000180 04 00 00 00 04 00 00 80 04 00 00 80 e8 a6 0f c4
       6e-45 -6e-45 -6e-45 -574.6079
000190 04 00 00 00 04 00 00 00 04 00 00 80 04 00 00 00
       6e-45 6e-45 -6e-45 6e-45
0001a0 04 00 00 00 04 00 00 00 00 00 00 00 04 00 00 00
       6e-45 6e-45 0.0 6e-45
0001b0 9c 8b d3 b1 00 00 00 00 04 00 00 00 04 00 00 80
       -6.15678e-09 0.0 6e-45 -6e-45
0001c0 04 00 00 80 00 00 00 00 04 00 00 00 00 00 00 00
       -6e-45 0.0 6e-45 0.0
0001d0 04 00 00 00 04 00 00 00 04 00 00 00 04 00 00 00
       6e-45 6e-45 6e-45 6e-45
0001e0 04 00 00 00 04 00 00 00 00 00 00 00 04 00 00 00
       6e-45 6e-45 0.0 6e-45
0001f0 04 00 00 80 04 00 00 80 04 00 00 00 04 00 00 80
       -6e-45 -6e-45 6e-45 -6e-45
000200 00 00 00 00 04 00 00 00 04 00 00 00 04 00 00 00
       0.0 6e-45 6e-45 6e-45
000210 04 00 00 80 04 00 00 00 04 00 00 80 00 00 00 00
       -6e-45 6e-45 -6e-45 0.0
000220 04 00 00 00 04 00 00 00 04 00 00 80 04 00 00 80
       6e-45 6e-45 -6e-45 -6e-45
000230 04 00 00 80 04 00 00 00 04 00 00 00 04 00 00 00
       -6e-45 6e-45 6e-45 6e-45
000240 00 00 00 00 04 00 00 80 04 00 00 80 04 00 00 80
       0.0 -6e-45 -6e-45 -6e-45
000250 04 00 00 80 39 ee 8a 46 04 00 00 00 04 00 00 80
       -6e-45 17783.111 6e-45 -6e-45
000260 04 00 00 80 04 00 00 00 04 00 00 00 04 00 00 80
       -6e-45 6e-45 6e-45 -6e-45
000270 00 00 00 00 04 00 00 00 14 3a 05 44 00 00 00 00
       0.0 6e-45 532.9075 0.0
000280 04 00 00 00 04 00 00 80 04 00 00 00 00 00 00 00
       6e-45 -6e-45 6e-45 0.0
000290 04 00 00 80 00 00 00 00 04 00 00 00 04 00 00 80
       -6e-45 0.0 6e-45 -6e-45
0002a0 04 00 00 00 04 00 00 80 04 00 00 80 04 00 00 00
       6e-45 -6e-45 -6e-45 6e-45
0002b0 00 00 00 00 04 00 00 00 04 00 00 00 04 00 00 80
       0.0 6e-45 6e-45 -6e-45
0002c0 04 00 00 00 04 00 00 00 00 00 00 00 04 00 00 80
       6e-45 6e-45 0.0 -6e-45
0002d0 04 00 00 00 04 00 00 00 04 00 00 80 04 00 00 00
       6e-45 6e-45 -6e-45 6e-45
0002e0 04 00 00 00 00 00 00 00 04 00 00 80 04 00 00 00
       6e-45 0.0 -6e-45 6e-45
0002f0 04 00 00 00 04 00 00 80 04 00 00 00 04 00 00 00
       6e-45 -6e-45 6e-45 6e-45
000300 04 00 00 00 00 00 00 00 00 00 00 00 04 00 00 00
       6e-45 0.0 0.0 6e-45
000310 04 00 00 80 04 00 00 00 04 00 00 80 b1 85 6c 46
       -6e-45 6e-45 -6e-45 15137.423

exp_avg_sq f4 [4, 50]
000000 c9 ec 90 4a 78 3f 67 48 e9 18 5f 4c e8 ac dd 4a
       4.7489005e+06 236797.88 5.848362e+07 7.26386e+06
000010 c3 ae 02 45 f8 12 8e 4b 00 00 00 00 b1 32 21 4c
       2090.9226 1.8621936e+07 0.0 4.2257092e+07
000020 d2 63 ae 4f 29 22 86 3e 4e 31 17 47 41 da 3b 47
       5.851555e+09 0.26197937 38705.305 48090.254
000030 79 d3 86 4a 00 00 00 00 32 27 ee 4b 00 00 00 00
       4.4179805e+06 0.0 3.1215204e+07 0.0
000040 60 a7 59 46 24 fd 2d 4b 98 5f 97 47 82 dc 91 4b
       13929.844 1.1402532e+07 77503.19 1.911834e+07
000050 09 5d 03 49 39 ce d4 46 00 00 00 00 9b e8 87 45
       538064.56 27239.111 0.0 4349.0757
000060 e2 61 80 47 0b 7a 3b 4c 9b 1c 02 4a 77 f4 6b 4c
       65731.766 4.91459e+07 2.1317508e+06 6.1854172e+07
000070 2c 57 71 3e 73 7e 90 4a bb 6f 34 4c 21 f6 ee 47
       0.2356841 4.7347775e+06 4.7300332e+07 122348.26
000080 e5 03 86 4a 66 ae ca 4d 96 7e 24 4b 00 00 00 00
       4.3914105e+06 4.2505338e+08 1.078031e+07 0.0
000090 f0 54 8a 4b 02 0a 09 4c e6 c8 8b 49 58 33 12 47
       1.8131424e+07 3.5923976e+07 1.1451168e+06 37427.344
0000a0 83 6a e8 45 93 57 84 4a 2e de d7 4a 00 00 00 00
       7437.314 4.3365855e+06 7.073559e+06 0.0
0000b0 00 00 00 00 34 cd 23 4c 19 fd b0 4b b5 eb c7 46
       0.0 4.29396e+07 2.3198258e+07 25589.854
0000c0 91 5e 9b 43 19 65 00 50 75 e5 40 48 04 3e 0f 49
       310.7388 8.616437e+09 197525.83 586720.25
0000d0 33 a3 cb 4b 79 ab 4c 49 1a 99 50 46 5e 51 69 49
       2.6691174e+07 838327.56 13350.275 955669.9
0000e0 00 00 00 00 60 b7 5b 4a 50 ba ea 44 00 00 00 00
       0.0 3.599832e+06 1877.8223 0.0
0000f0 d0 15 bc 42 24 3f 31 44 d1 c4 b9 49 00 00 00 00
       94.0426 708.9866 1.5218181e+06 0.0
000100 84 70 68 4a 00 00 00 00 6f 6b 79 47 58 f9 9a 49
       3.808289e+06 0.0 63851.434 1.269547e+06
000110 40 56 97 48 19 bf 10 4a a6 c5 f2 49 89 f5 1b 48
       309938.0 2.3715262e+06 1.9887888e+06 159702.14
000120 00 00 00 00 75 8d c8 45 2c 87 bd 48 f1 83 b8 4b
       0.0 6417.682 388153.38 2.4184802e+07
000130 6f d9 71 48 d5 4f b6 4b 00 00 00 00 b9 17 24 49
       247653.73 2.3895978e+07 0.0 672123.56
000140 a6 8c 94 4b 31 59 d6 48 c7 c7 e9 48 2e 03 a5 4d
       1.9470668e+07 438985.53 478782.22 3.4605613e+08
000150 8c 11 98 48 00 00 00 00 3e a4 59 4a b7 c0 9a 4a
       311436.38 0.0 3.5658395e+06 5.0709395e+06
000160 80 2f fd 49 53 74 92 45 87 85 30 46 ee c8 0a 48
       2.074096e+06 4686.5405 11297.382 142115.72
000170 d8 84 98 49 8e c1 85 3b 00 00 00 00 23 54 a1 4b
       1.249435e+06 0.0040819114 0.0 2.114567e+07
000180 5a 19 09 4b c3 1b df 47 71 44 1a 3e 8a e9 36 50
       8.984922e+06 114231.52 0.15065171 1.2275034e+10
000190 b5 ec 33 48 fa e3 0c 4a f2 27 b4 4b f5 81 42 49
       184242.83 2.3083505e+06 2.3613412e+07 796703.3
0001a0 e0 68 af 47 00 43 50 49 00 00 00 00 33 ba 76 4a
       89809.75 853040.0 0.0 4.0423808e+06
0001b0 a8 08 41 4b 00 00 00 00 f5 8d 68 42 c7 dd 62 44
       1.2650664e+07 0.0 58.13863 907.4653
0001c0 df e6 d8 49 00 00 00 00 d9 49 8e 4a 00 00 00 00
       1.7768599e+06 0.0 4.6625085e+06 0.0
0001d0 2f a9 52 49 55 fe a2 49 44 05 1f 4a 87 8f 1e 4a
       862866.94 1.3352426e+06 2.605393e+06 2.5978578e+06
0001e0 25 63 69 4a 96 38 b6 48 00 00 00 00 1c 08 22 49
       3.8238172e+06 373188.7 0.0 663681.75
0001f0 98 c3 68 49 55 20 9b 4b b8 94 52 48 7a 94 96 4b
       953401.5 2.0332714e+07 215634.88 1.973682e+07
000200 00 00 00 00 5a c0 19 49 91 8a 6e 4b d8 3a 38 4a
       0.0 629765.6 1.5633041e+07 3.018422e+06
000210 12 47 d1 48 42 53 8a 4d 32 12 8b 48 00 00 00 00
       428600.56 2.9008902e+08 284817.56 0.0
000220 99 00 55 4a 83 85 7f 4a 6c d9 55 4a 5d 7d d8 48
       3.4898302e+06 4.1864648e+06 3.503707e+06 443370.9
000230 6e 42 69 49 50 28 28 48 34 7f 84 49 56 96 32 41
       955430.9 172193.25 1.0854145e+06 11.161703
000240 00 00 00 00 5d 60 94 4b 02 45 e2 4a cd b8 3b 49
       0.0 1.9447994e+07 7.414401e+06 768908.8
000250 bb df a5 3e 92 af 5a 50 a1 04 37 48 bd 93 15 49
       0.32397255 1.4675757e+10 187410.52 612667.8
000260 f6 ab 9f 4b b1 f1 60 49 a2 13 e0 45 4a fd 6d 49
       2.0928492e+07 921371.06 7170.454 974804.6
000270 00 00 00 00 70 44 81 4a 9c e4 24 4d 00 00 00 00
       0.0 4.235832e+06 1.7290285e+08 0.0
000280 d3 0d 16 42 bf d3 8b 44 26 d8 74 49 00 00 00 00
       37.5135 1118.6171 1.0028824e+06 0.0
000290 56 dd 60 4a 00 00 00 00 e5 bd 32 47 fc ad c8 49
       3.6841815e+06 0.0 45757.895 1.6439675e+06
0002a0 75 6c 6e 48 5d 07 f6 49 99 76 bd 49 c5 67 d1 47
       244145.83 2.0154676e+06 1.5520831e+06 107215.54
0002b0 00 00 00 00 63 9c 24 46 c3 4c 69 48 7e d2 74 4b
       0.0 10535.097 238899.05 1.604467e+07
0002c0 bc 07 3c 48 9a f4 6c 4b 00 00 00 00 1a ea 49 49
       192542.94 1.5529114e+07 0.0 827041.6
0002d0 09 d7 4c 4b 83 de b9 48 03 d4 cb 48 34 37 b5 4d
       1.3424393e+07 380660.1 417440.1 3.8003674e+08
0002e0 7f 55 a0 48 00 00 00 00 c2 63 70 4a e0 18 6c 4a
       328363.97 0.0 3.9385445e+06 3.868216e+06
0002f0 a5 62 cc 49 73 e7 f3 45 44 f1 88 46 e2 32 0d 48
       1.6743246e+06 7804.931 17528.633 144587.53
000300 89 d0 67 49 00 00 00 00 00 00 00 00 43 cd 84 4b
       949512.56 0.0 0.0 1.7406598e+07
000310 78 ee cf 4a 46 03 9e 47 f6 e8 9c 41 54 cf 03 50
       6.8135e+06 80902.55 19.61375 8.845611e+09

exp_avg f4 [4]
000000 03 70 05 bd 5d d1 35 3d d1 8d ab 3d d3 4f 87 3d
       -0.032577526 0.044389118 0.08376659 0.06607022

exp_avg_sq f4 [4]
000000 b8 17 ee 3c 4b 8e 21 3d 7e cc 3c 3d 16 6a e5 3c
       0.029064044 0.03944234 0.046093456 0.028004687
