covid_mse.pth (torch, 10369 bytes, 12 tensors)

weight f4 [50, 4]
00000000: 5145 3fb9 8f54 6839 95b4 c7ba 6423 74b9
00000010: fc90 b8be 5f18 d93d 0666 c03d b630 cbbd
00000020: f407 e5be caa6 493d b44d dfbd f51a 8abe
00000030: 0076 41bc 0025 30bc 1ddb a03e 975f 98be
00000040: ed8c 1abb 5d0f 2abb 299d 10bb 2ee2 3dbb
00000050: be31 0fbe 7895 a4be c0e7 48be 4072 2dbd
00000060: 3bc3 9db7 35bf 6eb8 5b10 feb8 5459 91b8
00000070: b456 f1b5 4e91 d6b7 2bf0 2ab8 a565 5bb7
00000080: e515 0d34 d842 3b3b 1063 d5bc a048 11ba
00000090: cd32 26b7 94f2 ecb6 d5aa eeb7 1ae6 e5b7
000000a0: 0ba9 7cb8 06d8 8bb8 66b2 83b8 eda8 a5b7
000000b0: 99bd 90b6 78c0 3eb7 679f 89b7 b8f8 15b7
000000c0: 9456 96b6 aba7 1cb4 c781 2234 7912 aab6
000000d0: fc54 64b6 8a79 78b7 5159 c1b7 2616 b3b7
000000e0: b6ed 11b7 95b2 17b7 35fa 52b8 e92b 83b7
000000f0: 8055 c1b7 69d0 9db8 4040 90b8 2272 fab6
00000100: 46ee bdb6 df5b 00b7 201d 8ab7 c07f 76b7
00000110: 1632 00b7 0b83 89b3 c92f 39b7 1f6f b3b7
00000120: 468b 08b8 6558 3fb8 e506 c6b8 3736 1eb8
00000130: bc45 f339 843b d7bb 08ed cabc 1205 d6ba
00000140: b36f 5abe 5e16 79be 70ac a4bd b355 1bbe
00000150: 86b0 2fbe 30f1 bf3c 2815 4d3d 76f7 a6be
00000160: 286c 2abd d869 63bd 40c9 dcbc 480c 7fbd
00000170: 6c00 b8bd c6bb f4bd b409 a4bd d0b6 5abe
00000180: c03d 8eb8 65a7 a1b8 9c27 2f3a daa5 e0b9
00000190: f8c6 2fbe 4628 0dbe 239e 3dbe f38d 06be
000001a0: c1dd cabe ce09 bd3d 742a abbe 842d 713b
000001b0: acb8 e7bd b06a 92be 308b f9bc 6ecd 6ebe
000001c0: 2fae b739 7fc4 f9bc 51ab 88bc 6f21 a8bb
000001d0: 4197 17b6 3543 c4b7 d205 bdb7 8e1c 93b6
000001e0: 6744 6ebd 2181 0cbe 42d0 0abe 82cb a7be
000001f0: a0ac 06be bf8d 85be db3d 193e c181 49bd
00000200: 205e 5cb6 d1d5 8bb6 e534 9bb7 9ecd 7fb7
00000210: f53a dcb9 7f96 5bb9 00e5 e43a a559 d6ba
00000220: 5088 06b7 8e2d c6b7 fec1 1639 3f25 b1b8
00000230: 7622 78be 586e 583d dc4f febd c3ef 7cbe
00000240: 9863 28be 7040 27be d03e d83d 20e6 63bd
00000250: 696a d7b7 11a7 8db9 2826 a4b9 d871 edb8
00000260: 8e74 64be 107a 09be f2cc 753e 3bc8 01be
00000270: 0b4b 1ab7 912f 26b8 ce31 32b7 fdb2 4eb7
00000280: f0e8 99b6 6b38 7fb7 8576 c5b7 20af 84b7
00000290: 9f94 b0b6 8695 acb7 6cbb a8b7 b8bf 84b7
000002a0: 902f c9bd 2cf1 98bd 3e34 3abe 9b52 60be
000002b0: 106a 573a d9e6 9bbc 0a0d 49bd 5df8 10bc
000002c0: 2483 a837 338c faba a3dc f0bb c45c f9ba
000002d0: c9da 11b9 a9ad 7fb9 8564 85b9 a369 20b9
000002e0: 31ee fcb6 d087 6b37 d9e4 e5b7 d9d4 97b7
000002f0: 0c2d 0bb7 784f 1bb7 3c31 94b7 d5d5 11b8
00000300: c8eb 50b7 de0b afb7 7392 3cb8 9dd8 70b8
00000310: 727c 58b8 c686 97b8 41a2 d3b8 8c00 a3b8
-0.00018241002 0.00022156745 -0.0015236313 -0.00023282837 -0.36048114 0.106003515 0.093944594 -0.099214
-0.4473263 0.049231328 -0.109034926 -0.26973692 -0.011807919 -0.010751009 0.3141717 -0.2976043
-0.0023582533 -0.0025949099 -0.002206633 -0.0028973925 -0.13983819 -0.32145286 -0.19619656 -0.042345285
-1.880677e-05 -5.6921697e-05 -0.0001211471 -6.9307775e-05 -1.7981133e-06 -2.557845e-05 -4.0754832e-05 -1.3077083e-05
1.3139613e-07 0.0028573778 -0.026048213 -0.0005542133 -9.906199e-06 -7.061588e-06 -2.845136e-05 -2.7406077e-05
-6.0238915e-05 -6.668274e-05 -6.279796e-05 -1.9748195e-05 -4.3136065e-06 -1.1369695e-05 -1.64059e-05 -8.939001e-06
-4.4804274e-06 -1.458963e-07 1.5134638e-07 -5.0685453e-06 -3.4024115e-06 -1.481025e-05 -2.3048984e-05 -2.1348776e-05
-8.69802e-06 -9.041881e-06 -5.0300925e-05 -1.5636864e-05 -2.3047207e-05 -7.525163e-05 -6.8784226e-05 -7.4638674e-06
-5.6603776e-06 -7.650785e-06 -1.6464444e-05 -1.4692487e-05 -7.641056e-06 -6.403396e-08 -1.1037985e-05 -2.1390208e-05
-3.2554635e-05 -4.5620272e-05 -9.44266e-05 -3.7720627e-05 0.00046400528 -0.006568374 -0.024771228 -0.0016328415
-0.21331672 -0.24324939 -0.08040702 -0.1516941 -0.17157182 0.023430437 0.050069004 -0.32610673
-0.041607052 -0.055520862 -0.026951432 -0.06226757 -0.089844555 -0.119498774 -0.08009663 -0.213588
-6.7825895e-05 -7.708258e-05 0.00066816225 -0.00042848178 -0.17165744 -0.13784894 -0.18517356 -0.13140087
-0.3962231 0.09230386 -0.33430827 0.003680081 -0.1131452 -0.2859702 -0.030461878 -0.23320553
0.00035034257 -0.030489204 -0.016683253 -0.0051309387 -2.2588795e-06 -2.3396316e-05 -2.2533266e-05 -4.3842656e-06
-0.058170702 -0.13721134 -0.13556007 -0.32772452 -0.13151789 -0.26084706 0.14965002 -0.04919601
-3.2837343e-06 -4.1674143e-06 -1.850207e-05 -1.5247058e-05 -0.00042005596 -0.00020941532 0.0017463267 -0.001635362
-8.01876e-06 -2.3624652e-05 0.00014377382 -8.446955e-05 -0.24231896 0.052839607 -0.12417576 -0.24700837
-0.16444242 -0.16333175 0.105588555 -0.055639386 -2.5679548e-05 -0.0002701809 -0.00031308946 -0.00011322246
-0.22310087 -0.1342547 0.24003962 -0.12674038 -9.196588e-06 -3.9621784e-05 -1.0621223e-05 -1.2320231e-05
-4.586873e-06 -1.521232e-05 -2.353942e-05 -1.5817175e-05 -5.2625105e-06 -2.0573625e-05 -2.0114436e-05 -1.5824902e-05
-0.09823525 -0.07467875 -0.18183991 -0.21906511 0.00082174037 -0.019030975 -0.0490847 -0.008848277
2.0088228e-05 -0.0019115269 -0.0073505207 -0.0019024839 -0.00013909781 -0.00024383389 -0.0002544263 -0.00015298142
-7.5379144e-06 1.4038713e-05 -2.7405493e-05 -1.8099718e-05 -8.295534e-06 -9.257223e-06 -1.7665901e-05 -3.476984e-05
-1.2452663e-05 -2.0867152e-05 -4.4959084e-05 -5.7422196e-05 -5.161431e-05 -7.2253446e-05 -0.00010091486 -7.7725475e-05

bias f4 [50]
00000000: 1a43 efbe a1c2 4dbe 25bd ac3e 703e e8be
00000010: 6925 b4be 70ba f8be c3ca a13e b6a2 dd3c
00000020: a728 51be 8c30 623e 805d c5be 9022 4dbe
00000030: aeb3 dfbe 89c9 04bf 2736 be3e 602a c1be
00000040: 89ef fc3d 1af4 44be 2194 95be 18a0 c6be
00000050: 50af 49bd 803b acbe 1c28 b3be aa8c edbe
00000060: a151 b7be bef8 b5be 49da c63e 9690 d03e
00000070: 4f58 bcbe 833f cdbe bb89 01bf f2dc 1dbe
00000080: b426 bbbe 5de3 03be 218d 393e 24c7 01be
00000090: 8248 8e3e 8a6f 0bbf 4abf b63e ebf2 adbc
000000a0: e24e 08be 366c 5d3e 103c 143e 8f78 09bf
000000b0: c62e 2e3e b3da d2be 57fc aebe 3b8a 2d3d
000000c0: 1885 48be 53eb 313c
-0.46730882 -0.20093776 0.33738056 -0.45360136 -0.35184792 -0.4857974 0.31600007 0.027055126
-0.20425664 0.22088832 -0.38547897 -0.20032716 -0.43691772 -0.5187002 0.3715069 -0.37727642
0.12350375 -0.19233742 -0.29214576 -0.38794017 -0.049239457 -0.33639145 -0.3499154 -0.4639638
-0.35804465 -0.35541338 0.38838413 0.4073531 -0.36786124 -0.40087518 -0.50600785 -0.15416315
-0.36552966 -0.12879701 0.18120243 -0.12673622 0.27789694 -0.5446707 0.35692817 -0.021233996
-0.13311341 0.2162331 0.14476037 -0.5369958 0.1701003 -0.4118248 -0.34176895 0.042368155
-0.19582021 0.010859328

weight f4 [4, 50]
00000000: 50f5 6b3b 8049 1b3c 306e 723e a60b 79be
00000010: 603c 0d3e 8e02 9bbe 8f7d 853c b682 9f3c
00000020: c3a8 ce36 035e bb3c 9708 7b3c b745 b53c
00000030: 925d 3a3d 5f29 cf3c ebc5 2e3d 5a0c 783c
00000040: 9cc9 903c 5dfd 0d3d 1fed 473c 1af8 b635
00000050: 00c6 3f3a 0981 8e3e 5e42 703e 7090 a2be
00000060: 0da1 8c3d 484f 5c3d 92ea 913d cdd6 953e
00000070: 13cf aa36 9b9d bf3c dc72 8b3e bbd5 573d
00000080: 2e6e f23c 3412 ca3d 8dc1 943d 04b7 88be
00000090: e6de 43be f0dd c23b 0092 b73c 781b 1c3d
000000a0: 567b ef3c a10c b83c 305b bdbc f318 3036
000000b0: 7f50 c538 f78b 2e3c d52a 273d 896e 053d
000000c0: 3977 8e3c 2316 7e3c 5e4f 603b 00f6 3d3b
000000d0: eaff 473e 747b a9bd c484 143e a6d6 103e
000000e0: 48b5 873c 3fb8 a13c e83a af37 2db7 bd3c
000000f0: b8c9 743c 9c51 b93c e236 363d d9d9 d53c
00000100: bf99 353d 0090 7c3c 3655 8d3c 10da 0e3d
00000110: 9cce 493c ac22 c1b4 4076 08be 7aa8 313e
00000120: 9057 853c 1a97 703e 29c1 943d c6a3 44be
00000130: faa3 333d 68f1 31be 4b8f 3436 8f51 c03c
00000140: b5b3 34bd 4e7e 2bbd 1350 f63c 5873 ca3d
00000150: 8790 903d c293 463e 7b28 23be a836 c13b
00000160: 5022 913d e403 183d 61c4 f03c eef3 b73c
00000170: c0f9 303d 5410 c535 5595 d238 4130 263c
00000180: 589e 283d 694d 083d 9df2 903c 119a 803c
00000190: b9d5 473b e04f 8c3d d0d9 f2bd ea81 3b3e
000001a0: a194 fa3d 8066 cb3d 02c4 873c 8965 a23c
000001b0: 2f7f b536 dbde c43c 8e2c 793c 9128 b63c
000001c0: 4c82 373d d28a d33c 1413 353d 813f 7b3c
000001d0: ed79 8c3c 0df7 153d f9d7 4b3c 5038 5c35
000001e0: e2a8 773e a0db 8cbe 62dc 143e 9a90 3e3e
000001f0: 31b5 843d c3df 7cbe c2fd a33e 67b9 8a3e
00000200: b1b6 6c36 78f1 ba3c 26c8 a63e 7d8f 683d
00000210: 3125 f63c 6a3d bf3d fa35 913d 4996 a63e
00000220: f64d febd 68e7 c23b 00f1 8fba 63bb 193d
00000230: acb1 ee3c e4af b93c 3048 7cbe c448 1a36
00000240: 1334 b638 e6b1 243c 3b9c 273d a580 063d
00000250: 9933 8f3c 94d6 783c ebc3 603b b641 2b3e
00000260: 76bc 35be 33cf 19be aa15 0e3e 9ce5 af3d
00000270: eafd 873c bb38 a33c 84f3 2437 1fa4 c13c
00000280: 8097 733c 3f79 b73c 3c3c 383d 414f d13c
00000290: 3b59 303d a8de 7f3c 75b8 8e3c bec1 103d
000002a0: 22a2 4e3c 14ed 9735 a024 20bc c3ca 85be
000002b0: 388d 723d 7058 8d3c 430a 8e3d 4629 b6bd
000002c0: 3d12 07be 622e 8fbe 9d1e 8736 941c c13c
000002d0: 2817 b03c ca18 e83c 0de9 f73c c165 db3d
000002e0: e2de 913d 7ea5 793e 006d e8bd a83e c83b
000002f0: 31b4 903e d363 163d 55df f33c d513 bd3c
00000300: 7485 d53d d5ed 0035 6478 c438 c584 243c
00000310: 5d1f 203d da0e 083d 6a91 913c 6cb7 7f3c
0.0036004372 0.009477973 0.23674846 -0.2432085 0.13792562 -0.30275387 0.016295223 0.019471508
6.158925e-06 0.022871977 0.015321872 0.02212797 0.04549939 0.025288282 0.042669218 0.015139664
0.01767426 0.034665454 0.01220253 1.3632264e-06 0.0007315576 0.2783282 0.23462817 -0.31750822
0.068666555 0.053786546 0.07124819 0.29265442 5.0905014e-06 0.023390582 0.27236068 0.052694064
0.029593553 0.09866753 0.072634794 -0.2670213 -0.19127998 0.005946867 0.022408485 0.038112134
0.029233616 0.02246696 -0.02311477 2.6240566e-06 9.4086856e-05 0.010653487 0.040812332 0.032576118
0.017390834 0.0155082075 0.0034226994 0.0028985739 0.19531217 -0.082755 0.14503771 0.14144382
0.016565934 0.019741176 2.0889056e-05 0.023158634 0.014940672 0.022621922 0.044485934 0.026104854
0.044336077 0.015415192 0.017252546 0.03487593 0.012317326 -3.5974278e-07 -0.13326359 0.17349425
0.016277105 0.2349514 0.07263405 -0.192031 0.043857552 -0.17377245 2.6905498e-06 0.02347639
-0.044116694 -0.0418685 0.03006748 0.09885281 0.070588164 0.19392303 -0.15933411 0.005896408
0.07086623 0.037113085 0.029390516 0.022455182 0.04320693 1.4682396e-06 0.000100413956 0.010143341
0.041166633 0.03327695 0.017693812 0.015698465 0.003049238 0.068511724 -0.11857951 0.18311277
0.1223538 0.0993166 0.016572956 0.019823806 5.4090265e-06 0.024032047 0.015208377 0.02223614
0.044801995 0.02582303 0.044207647 0.015334965 0.017147982 0.03661256 0.012441629 8.203833e-07
0.24185517 -0.2751131 0.14537194 0.18609849 0.06479872 -0.24694733 0.3202954 0.27094576
3.527308e-06 0.02282022 0.32574576 0.056777466 0.030047031 0.09337886 0.07090373 0.32536533
-0.124172136 0.005947996 -0.0010981858 0.03753222 0.029137455 0.022666879 -0.24636912 2.2990143e-06
8.688136e-05 0.01005218 0.040920477 0.03283753 0.017480658 0.015187878 0.0034296464 0.16724285
-0.17747673 -0.15020446 0.13875452 0.085887164 0.016600568 0.019924512 9.83186e-06 0.02363783
0.014867663 0.022396682 0.04497932 0.025550487 0.043053847 0.01561705 0.01742194 0.035341017
0.012611898 1.1319376e-06 -0.009774357 -0.26131257 0.059216708 0.017254084 0.06935551 -0.08894591
-0.13190551 -0.27965075 4.0268774e-06 0.023573197 0.021495417 0.028332133 0.030262494 0.107127674
0.0712259 0.24379537 -0.11348915 0.006110985 0.28262475 0.036716294 0.029769579 0.023080746
0.10425845 4.8029807e-07 9.368433e-05 0.01004142 0.03909241 0.03321729 0.017769534 0.015607696

bias f4 [4]
00000000: 46bc 9a40 ea00 9e40 3867 9c40 731d 9c40
4.8354826 4.9376116 4.8876 4.878595

exp_avg f4 [50, 4]
00000000: 0400 0000 0400 0000 0400 0000 0400 0000
00000010: 0400 0000 0400 0000 0400 0000 0400 0000
00000020: 0400 0000 0400 0000 0400 0000 0400 0000
00000030: 0000 0000 0000 0000 0000 0000 0000 0000
00000040: 0400 0000 0400 0000 0400 0000 0400 0000
00000050: 0000 0000 0000 0000 0000 0000 0000 0000
00000060: 0400 0000 0400 0000 0400 0000 0400 0000
00000070: 0400 0000 0400 0000 0400 0000 0400 0000
00000080: 0400 0000 0400 0000 0400 0000 0400 0000
00000090: 0400 0000 0400 0000 0400 0000 0400 0000
000000a0: 0400 0000 0400 0000 0400 0000 0400 0000
000000b0: 0400 0000 0400 0000 0400 0000 0400 0000
000000c0: 0400 0000 0400 0000 0400 0000 0400 0000
000000d0: 0400 0000 0400 0000 0400 0000 0400 0000
000000e0: 0400 0000 0400 0000 0400 0000 0400 0000
000000f0: 0400 0000 0400 0000 0400 0000 0400 0000
00000100: 0400 0000 0400 0000 0400 0000 0400 0000
00000110: 0400 0000 0400 0000 0400 0000 0400 0000
00000120: 0400 0000 0400 0000 0400 0000 0400 0000
00000130: 7ec8 403f b7f2 493c 5167 173b 2328 c53c
00000140: 0000 0000 0000 0000 0000 0000 0000 0000
00000150: 0000 0000 0000 0000 0000 0000 0000 0000
00000160: 0000 0000 0000 0000 0000 0000 0000 0000
00000170: 0000 0000 0000 0000 0000 0000 0000 0000
00000180: 0400 0000 0400 0080 0400 0080 0400 0080
00000190: 0000 0000 0000 0000 0000 0000 0000 0000
000001a0: 0400 0000 0400 0000 0400 0000 0400 0000
000001b0: 0000 0000 0000 0000 0000 0000 0000 0000
000001c0: 4f34 873f d0d3 b53b 4c37 803b a52d 013c
000001d0: 0400 0000 0400 0000 0400 0000 0400 0000
000001e0: 0400 0000 0400 0000 0400 0000 0400 0000
000001f0: 0400 0000 0400 0000 0400 0000 0400 0000
00000200: 0400 0000 0400 0000 0400 0000 0400 0000
00000210: 0400 0000 0400 0000 0400 0000 0400 0000
00000220: 0400 0000 0400 0080 0400 0080 0400 0080
00000230: 0000 0000 0000 0000 0000 0000 0000 0000
00000240: 0000 0000 0000 0000 0000 0000 0000 0000
00000250: 0400 0000 0400 0000 0400 0000 0400 0000
00000260: 0000 0000 0000 0000 0000 0000 0000 0000
00000270: 0400 0000 0400 0000 0400 0000 0400 0000
00000280: 0400 0000 0400 0000 0400 0000 0400 0000
00000290: 0400 0000 0400 0000 0400 0000 0400 0000
000002a0: 0000 0000 0000 0000 0000 0000 0000 0000
000002b0: 6569 0a40 2089 3f3c bc54 b83b c9e9 c53c
000002c0: 1e98 36c1 f6e1 13bd a0c7 c3bc f14f 83bd
000002d0: 0400 0000 0400 0000 0400 0000 0400 0000
000002e0: 0400 0000 0400 0080 0400 0000 0400 0000
000002f0: 0400 0000 0400 0000 0400 0000 0400 0000
00000300: 0400 0000 0400 0000 0400 0000 0400 0000
00000310: 0400 0000 0400 0000 0400 0000 0400 0000
6e-45 6e-45 6e-45 6e-45 6e-45 6e-45 6e-45 6e-45
6e-45 6e-45 6e-45 6e-45 0.0 0.0 0.0 0.0
6e-45 6e-45 6e-45 6e-45 0.0 0.0 0.0 0.0
6e-45 6e-45 6e-45 6e-45 6e-45 6e-45 6e-45 6e-45
6e-45 6e-45 6e-45 6e-45 6e-45 6e-45 6e-45 6e-45
6e-45 6e-45 6e-45 6e-45 6e-45 6e-45 6e-45 6e-45
6e-45 6e-45 6e-45 6e-45 6e-45 6e-45 6e-45 6e-45
6e-45 6e-45 6e-45 6e-45 6e-45 6e-45 6e-45 6e-45
6e-45 6e-45 6e-45 6e-45 6e-45 6e-45 6e-45 6e-45
6e-45 6e-45 6e-45 6e-45 0.75305927 0.012325934 0.0023102353 0.02406699
0.0 0.0 0.0 0.0 0.0 0.0 0.0 0.0
0.0 0.0 0.0 0.0 0.0 0.0 0.0 0.0
6e-45 -6e-45 -6e-45 -6e-45 0.0 0.0 0.0 0.0
6e-45 6e-45 6e-45 6e-45 0.0 0.0 0.0 0.0
1.0562838 0.0055489317 0.003912842 0.007884418 6e-45 6e-45 6e-45 6e-45
6e-45 6e-45 6e-45 6e-45 6e-45 6e-45 6e-45 6e-45
6e-45 6e-45 6e-45 6e-45 6e-45 6e-45 6e-45 6e-45
6e-45 -6e-45 -6e-45 -6e-45 0.0 0.0 0.0 0.0
0.0 0.0 0.0 0.0 6e-45 6e-45 6e-45 6e-45
0.0 0.0 0.0 0.0 6e-45 6e-45 6e-45 6e-45
6e-45 6e-45 6e-45 6e-45 6e-45 6e-45 6e-45 6e-45
0.0 0.0 0.0 0.0 2.1626828 0.011690408 0.0056253355 0.024159329
-11.412138 -0.036104165 -0.0238989 -0.06411732 6e-45 6e-45 6e-45 6e-45
6e-45 -6e-45 6e-45 6e-45 6e-45 6e-45 6e-45 6e-45
6e-45 6e-45 6e-45 6e-45 6e-45 6e-45 6e-45 6e-45

exp_avg_sq f4 [50, 4]
00000000: a5db 3353 ce5c 954d ca5b 2c4f 2f7a 8054
00000010: 4125 bf47 e363 5748 dabd 7d48 a3b2 4f49
00000020: 2093 c243 8f0f 4145 7a96 9a44 d4be 2345
00000030: 0000 0000 0000 0000 0000 0000 0000 0000
00000040: 151c f954 ec6e cf50 8529 4451 3eac ae55
00000050: 0000 0000 0000 0000 0000 0000 0000 0000
00000060: 9d0c bc53 1b58 934f 6662 fd4f 5ef7 4e54
00000070: c79d 7953 dab6 464f a88a 0f50 9bd7 6f54
00000080: 08c9 9152 ccd2 b14d 0af6 6a4f 19ce 1654
00000090: 2f68 3554 0b6f bd4f edd3 4950 a170 9a54
000000a0: a602 3653 a99e e94e 3a72 d74f 1ab9 a154
000000b0: ffa5 1c54 5110 e84f a2a1 8c50 e0c3 bb54
000000c0: be40 4c54 e437 0d50 55b2 b650 2f51 1e55
000000d0: bc2e b753 b417 7e4f fea0 1b50 53a7 7154
000000e0: 9c88 4d54 43fb 1850 585b 9d50 9fef f954
000000f0: 8ca2 d753 76f2 8f4f 787d 0850 57d0 6054
00000100: 8183 3c53 edc8 f74e c84f 994f c789 f953
00000110: 969f 2554 febd 0a50 52ae 7950 d7d9 c754
00000120: f3d9 5753 5bd2 0d4f 2b59 a74f 420e e053
00000130: a409 e854 d381 1350 1b7f f450 d331 6855
00000140: 0000 0000 0000 0000 0000 0000 0000 0000
00000150: 0000 0000 0000 0000 0000 0000 0000 0000
00000160: 0000 0000 0000 0000 0000 0000 0000 0000
00000170: 0000 0000 0000 0000 0000 0000 0000 0000
00000180: 993e 2354 96fc 1e50 7273 8c50 347c 0655
00000190: 0000 0000 0000 0000 0000 0000 0000 0000
000001a0: 4e4e d44e d6bb d741 6b3c b749 834e 2151
000001b0: 0000 0000 0000 0000 0000 0000 0000 0000
000001c0: 42f7 9953 6729 7d4f 218a 564f e9bd 6553
000001d0: ccea aa52 74c1 9b4e f26f 9a4f f687 9b54
000001e0: 2ff6 0053 fe7a c04e a58b 844d cf59 3d4f
000001f0: fe68 0a50 3e24 8f4a fa97 f84c b00e c351
00000200: e2e7 7c54 b3a1 3c50 9421 be50 21e8 0755
00000210: 81fc eb54 09ce a950 190b 1b51 1a13 8255
00000220: 5c10 1455 0c1f 0951 5662 3e51 b5f4 9055
00000230: 0000 0000 0000 0000 0000 0000 0000 0000
00000240: 0000 0000 0000 0000 0000 0000 0000 0000
00000250: ef78 8e53 5b14 9d4f 612f 8e4f 9a5d d153
00000260: 0000 0000 0000 0000 0000 0000 0000 0000
00000270: b8ec 8c54 59c3 ed4f 0570 5a50 4b7e e254
00000280: 0aee 2154 0438 da4f f211 8050 dd2c ca54
00000290: ca21 d653 4d99 8d4f 05c0 4750 6e66 9054
000002a0: 0000 0000 0000 0000 0000 0000 0000 0000
000002b0: 2a2e c554 446f 1b50 184a ca4f 842c f153
000002c0: 9885 8053 ed5a 864f d4b2 7d4f 7079 7953
000002d0: d9de 3853 babe e84e 31e3 ce4f 74ce 9154
000002e0: 5490 6354 91bb d44f d678 5750 1bd2 a354
000002f0: 858a de53 4306 514f a620 1250 ae7f 6754
00000300: 749c 1654 f51d e34f a91f 3850 7c95 6c54
00000310: 747a 1253 51b8 d24e 0d23 734f 0f49 d253
7.724842e+11 3.132359e+08 2.8916966e+09 4.4144457e+12 97866.51 220559.55 259831.4 850730.2
389.1494 3088.9724 1236.7024 2619.9268 0.0 0.0 0.0 0.0
8.559344e+12 2.7841225e+10 5.2656886e+10 2.400685e+13 0.0 0.0 0.0 0.0
1.615331e+12 4.9440497e+09 8.5021686e+09 3.5556536e+12 1.0720939e+12 3.333872e+09 9.632915e+09 4.1204578e+12
3.130715e+11 3.7292275e+08 3.941993e+09 2.5908114e+12 3.116548e+12 6.3563423e+09 1.3544437e+10 5.3065165e+12
7.817285e+11 1.9597446e+09 7.229175e+09 5.556762e+12 2.6911994e+12 7.786767e+09 1.8875224e+10 6.451561e+12
3.509038e+12 9.477001e+09 2.4521124e+10 1.087947e+13 1.5735262e+12 4.2629663e+09 1.0444077e+10 4.1515774e+12
3.531041e+12 1.0266414e+10 2.1120074e+10 8.587736e+12 1.8522901e+12 4.8300636e+09 9.159696e+09 3.8622721e+12
8.096601e+11 2.0785701e+09 5.144285e+09 2.1435168e+12 2.845388e+12 9.310829e+09 1.6755804e+10 6.866826e+12
9.2707455e+11 2.3793733e+09 5.6152776e+09 1.9246238e+12 7.972753e+12 9.899036e+09 3.2815766e+10 1.5956293e+13
0.0 0.0 0.0 0.0 0.0 0.0 0.0 0.0
0.0 0.0 0.0 0.0 0.0 0.0 0.0 0.0
2.8045195e+12 1.0669414e+10 1.8851009e+10 9.24175e+12 0.0 0.0 0.0 0.0
1.7809508e+09 26.966717 1.5010694e+06 4.3300434e+10 0.0 0.0 0.0 0.0
1.3225566e+12 4.247349e+09 3.5993766e+09 9.867337e+11 3.6704184e+11 1.3065733e+09 5.1820554e+09 5.344008e+12
5.538861e+11 1.614643e+09 2.7796803e+08 3.1767795e+09 9.288546e+09 4.690463e+06 1.3033467e+08 1.0472063e+11
4.3448884e+12 1.2658855e+10 2.5518973e+10 9.339441e+12 8.108429e+12 2.2790818e+10 4.1619132e+10 1.787732e+13
1.0174874e+13 3.6808212e+10 5.110585e+10 1.9922585e+13 0.0 0.0 0.0 0.0
0.0 0.0 0.0 0.0 1.2238286e+12 5.270714e+09 4.7709394e+09 1.7984371e+12
0.0 0.0 0.0 0.0 4.842135e+12 7.978005e+09 1.4659098e+10 7.7822516e+12
2.7819335e+12 7.322208e+09 1.7189278e+10 6.9466886e+12 1.8393798e+12 4.7512684e+09 1.3405001e+10 4.96155e+12
0.0 0.0 0.0 0.0 6.7750645e+12 1.0431042e+10 6.787707e+09 2.0716679e+12
1.1039943e+12 4.5082117e+09 4.2563553e+09 1.07148424e+12 7.9401275e+11 1.9524068e+09 6.9419914e+09 5.0098717e+12
3.909516e+12 7.1381243e+09 1.4460082e+10 5.628837e+12 1.9116134e+12 3.5068485e+09 9.806453e+09 3.9771182e+12
2.5874798e+12 7.6207826e+09 1.235633e+10 4.0644809e+12 6.2911965e+11 1.7676474e+09 4.0791606e+09 1.8063377e+12

exp_avg f4 [50]
00000000: 0400 0000 0400 0000 0400 0000 0000 0000
00000010: 0400 0000 0000 0000 0400 0000 0400 0000
00000020: 0400 0000 0400 0000 0400 0000 0400 0000
00000030: 0400 0000 0400 0000 0400 0000 0400 0000
00000040: 0400 0000 0400 0000 0400 0000 1506 0832
00000050: 0000 0000 0000 0000 0000 0000 0000 0000
00000060: 0400 0000 0000 0000 0400 0000 0000 0000
00000070: bf72 3832 0400 0000 0400 0000 0400 0000
00000080: 0400 0000 0400 0000 0400 0000 0000 0000
00000090: 0000 0000 0400 0000 0000 0000 0400 0000
000000a0: 0400 0000 0400 0000 0000 0000 f255 bd32
000000b0: 43bd f7b3 0400 0000 0400 0000 0400 0000
000000c0: 0400 0000 0400 0000
6e-45 6e-45 6e-45 0.0 6e-45 0.0 6e-45 6e-45
6e-45 6e-45 6e-45 6e-45 6e-45 6e-45 6e-45 6e-45
6e-45 6e-45 6e-45 7.917625e-09 0.0 0.0 0.0 0.0
6e-45 0.0 6e-45 0.0 1.07363e-08 6e-45 6e-45 6e-45
6e-45 6e-45 6e-45 0.0 0.0 6e-45 0.0 6e-45
6e-45 6e-45 0.0 2.204158e-08 -1.153626e-07 6e-45 6e-45 6e-45
6e-45 6e-45

exp_avg_sq f4 [50]
00000000: 8393 6f3a 874b 0530 5ae5 372c 0000 0000
00000010: 3be3 bd3b 0000 0000 2ab1 7b3a 9436 753a
00000020: 3d12 013a 6bc1 c63a 7a8d 8b3a 3834 e03a
00000030: b05c 303b 869c 8b3a ef88 103b e12f 883a
00000040: c7a6 0c3a 5522 dc3a c009 093a d538 a13b
00000050: 0000 0000 0000 0000 0000 0000 0000 0000
00000060: c627 0c3b 0000 0000 884c d336 0000 0000
00000070: 7cc0 b339 2f0a 623a e96e 8538 4c0a 9d37
00000080: 05b9 223b 6875 a13b 25e5 cd3b 0000 0000
00000090: 0000 0000 d807 093a 0000 0000 20db 263b
000000a0: 94fe ed3a bb8c 9e3a 0000 0000 6394 b53a
000000b0: fa51 d539 c2fe 833a 0f57 e13a 2c1a 963a
000000c0: b11c 953a 4557 e239
0.00091391074 4.849245e-10 2.613318e-12 0.0 0.0057949102 0.0 0.00096012896 0.0009354141
0.0004923677 0.0015163844 0.0010647022 0.0017105406 0.0026910715 0.0010651506 0.0022054275 0.0010390246
0.0005365428 0.00167949 0.0005227588 0.004920105 0.0 0.0 0.0 0.0
0.0021386012 0.0 6.2971994e-06 0.0 0.00034284953 0.00086227333 6.362593e-05 1.8720653e-05
0.0024829519 0.004927326 0.0062834197 0.0 0.0 0.0005227304 0.0 0.0025460199
0.0018157535 0.0012096384 0.0 0.0013853427 0.00040687603 0.001007043 0.0017192083 0.0011451892
0.0011376349 0.000431711

exp_avg f4 [4, 50]
00000000: 0400 0080 0000 0000 0400 0080 0000 0000
00000010: 0400 0000 0000 0000 0400 0000 0400 0000
00000020: 0400 0000 0400 0000 0400 0000 0400 0000
00000030: 0400 0000 0400 0000 0400 0000 0400 0000
00000040: 0400 0000 0400 0000 0400 0000 9f81 fac1
00000050: 0000 0000 0000 0000 0000 0000 0000 0000
00000060: 0400 0000 0000 0000 0400 0080 0000 0000
00000070: cd47 d540 0400 0000 0400 0000 0400 0080
00000080: 0400 0000 0400 0000 0400 0000 0000 0000
00000090: 0000 0000 0400 0000 0000 0000 0400 0000
000000a0: 0400 0000 0400 0000 0000 0000 c58b 8ac2
000000b0: 88e0 eebd 0400 0000 0400 0000 0400 0000
000000c0: 0400 0000 0400 0000 0400 0080 0000 0000
000000d0: 0000 0000 0000 0000 0400 0000 0000 0000
000000e0: 0400 0000 0400 0000 0400 0000 0400 0000
000000f0: 0400 0000 0400 0000 0400 0000 0400 0000
00000100: 0400 0000 0400 0000 0400 0000 0400 0000
00000110: 0400 0000 aa3c 0fc2 0000 0000 0000 0000
00000120: 0000 0000 0000 0000 0400 0000 0000 0000
00000130: 0400 0080 0000 0000 3c17 e43f 0400 0000
00000140: 0400 0080 0400 0080 0400 0000 0400 0000
00000150: 0400 0000 0000 0000 0000 0000 0400 0000
00000160: 0000 0000 0400 0000 0400 0000 0400 0000
00000170: 0000 0000 995f d4c2 9878 5a3f 0400 0000
00000180: 0400 0000 0400 0000 0400 0000 0400 0000
00000190: 0400 0000 0000 0000 0000 0000 0000 0000
000001a0: 0400 0000 0000 0000 0400 0000 0400 0000
000001b0: 0400 0000 0400 0000 0400 0000 0400 0000
000001c0: 0400 0000 0400 0000 0400 0000 0400 0000
000001d0: 0400 0000 0400 0000 0400 0000 8787 86c1
000001e0: 0000 0000 0000 0000 0000 0000 0000 0000
000001f0: 0400 0000 0000 0000 0400 0080 0000 0000
00000200: 6eda bdc0 0400 0000 0400 0000 0400 0080
00000210: 0400 0000 0400 0000 0400 0000 0000 0000
00000220: 0000 0000 0400 0000 0000 0000 0400 0000
00000230: 0400 0000 0400 0000 0000 0000 406d 2942
00000240: 3402 653f 0400 0000 0400 0000 0400 0000
00000250: 0400 0000 0400 0000 0400 0080 0400 0000
00000260: 0000 0000 0000 0000 0400 0000 0000 0000
00000270: 0400 0000 0400 0000 0400 0000 0400 0000
00000280: 0400 0000 0400 0000 0400 0000 0400 0000
00000290: 0400 0000 0400 0000 0400 0000 0400 0000
000002a0: 0400 0000 bd5c 9441 0000 0000 0000 0000
000002b0: 0000 0000 0000 0000 0400 0000 0000 0000
000002c0: 0400 0080 0000 0000 7583 93c0 0400 0000
000002d0: 0400 0080 0400 0080 0400 0000 0400 0000
000002e0: 0400 0000 0000 0000 0000 0000 0400 0000
000002f0: 0000 0000 0400 0000 0400 0000 0400 0000
00000300: 0000 0000 b07f 68c0 6086 dd3d 0400 0000
00000310: 0400 0000 0400 0000 0400 0000 0400 0000
-6e-45 0.0 -6e-45 0.0 6e-45 0.0 6e-45 6e-45
6e-45 6e-45 6e-45 6e-45 6e-45 6e-45 6e-45 6e-45
6e-45 6e-45 6e-45 -31.313292 0.0 0.0 0.0 0.0
6e-45 0.0 -6e-45 0.0 6.6650147 6e-45 6e-45 -6e-45
6e-45 6e-45 6e-45 0.0 0.0 6e-45 0.0 6e-45
6e-45 6e-45 0.0 -69.27299 -0.1166392 6e-45 6e-45 6e-45
6e-45 6e-45 -6e-45 0.0 0.0 0.0 6e-45 0.0
6e-45 6e-45 6e-45 6e-45 6e-45 6e-45 6e-45 6e-45
6e-45 6e-45 6e-45 6e-45 6e-45 -35.809242 0.0 0.0
0.0 0.0 6e-45 0.0 -6e-45 0.0 1.781959 6e-45
-6e-45 -6e-45 6e-45 6e-45 6e-45 0.0 0.0 6e-45
0.0 6e-45 6e-45 6e-45 0.0 -106.186714 0.8534026 6e-45
6e-45 6e-45 6e-45 6e-45 6e-45 0.0 0.0 0.0
6e-45 0.0 6e-45 6e-45 6e-45 6e-45 6e-45 6e-45
6e-45 6e-45 6e-45 6e-45 6e-45 6e-45 6e-45 -16.816175
0.0 0.0 0.0 0.0 6e-45 0.0 -6e-45 0.0
-5.932914 6e-45 6e-45 -6e-45 6e-45 6e-45 6e-45 0.0
0.0 6e-45 0.0 6e-45 6e-45 6e-45 0.0 42.35669
0.89456487 6e-45 6e-45 6e-45 6e-45 6e-45 -6e-45 6e-45
0.0 0.0 6e-45 0.0 6e-45 6e-45 6e-45 6e-45
6e-45 6e-45 6e-45 6e-45 6e-45 6e-45 6e-45 6e-45
6e-45 18.545282 0.0 0.0 0.0 0.0 6e-45 0.0
-6e-45 0.0 -4.609797 6e-45 -6e-45 -6e-45 6e-45 6e-45
6e-45 0.0 0.0 6e-45 0.0 6e-45 6e-45 6e-45
0.0 -3.6327934 0.108166456 6e-45 6e-45 6e-45 6e-45 6e-45

exp_avg_sq f4 [4, 50]
00000000: f0a8 3d53 0000 0000 baf7 7347 0000 0000
00000010: 1638 5154 0000 0000 da44 9052 3273 2752
00000020: ce4a 1b54 d1be 9c52 ecf3 0352 4145 a251
00000030: 47fe 7f53 cf77 2953 f30f b752 099d 0d52
00000040: 8d59 0254 d382 ae52 6a43 c652 18fc 0355
00000050: 0000 0000 0000 0000 0000 0000 0000 0000
00000060: ec50 2254 0000 0000 45aa b94e 0000 0000
00000070: 3374 8353 5a60 4953 3c42 1451 044e d54e
00000080: c16e a051 7945 7353 b801 1a55 0000 0000
00000090: 0000 0000 1f6c 6f52 0000 0000 ecca 8954
000000a0: b7b0 9852 6100 1352 0000 0000 cc2b 7853
000000b0: 52fd 6053 2cb9 1054 39d4 b953 462f 2354
000000c0: 0172 5c52 3922 ec53 ace9 2053 0000 0000
000000d0: 0000 0000 0000 0000 1359 1955 0000 0000
000000e0: 1095 2a53 d1c7 2153 fbf6 d053 5984 2d53
000000f0: 3f0d 0452 bf8e bb52 e1f1 1453 73d2 b553
00000100: a700 7953 5390 df52 a12c 0654 4557 2c53
00000110: 8dd7 9953 75e1 0555 0000 0000 0000 0000
00000120: 0000 0000 0000 0000 6ba4 d054 0000 0000
00000130: 121e 824d 0000 0000 d4a5 6754 e9b8 f353
00000140: cacc 9b51 73d1 be4d c9b8 de52 694c 3653
00000150: 670c 2f54 0000 0000 0000 0000 789e 0453
00000160: 0000 0000 73c1 5154 8568 0653 4ba4 3853
00000170: 0000 0000 e85e f953 38f3 2654 7c5b bf53
00000180: afb7 f553 9fff 5354 f0d5 4f53 8581 3054
00000190: cc65 f351 0000 0000 0000 0000 0000 0000
000001a0: 0a0d cc52 0000 0000 2cb6 7d52 f582 b751
000001b0: 150f a453 1b0e cd52 e20c 1f51 f536 5d51
000001c0: 7a08 5b52 6a2d b152 b662 da52 c955 1552
000001d0: 99b8 ba52 218a 1853 4c06 ba52 21e5 0454
000001e0: 0000 0000 0000 0000 0000 0000 0000 0000
000001f0: 08a1 ab52 0000 0000 0331 1d4d 0000 0000
00000200: 5f53 bf53 14e2 e551 5960 4a51 f01e b84c
00000210: c24b 8d51 d029 ab52 b1ec f653 0000 0000
00000220: 0000 0000 25ca 7a52 0000 0000 b0aa 8153
00000230: 3eba 9a51 7a76 ba51 0000 0000 7217 f953
00000240: 45ad 7a53 c429 8752 7a67 7153 db79 1153
00000250: c36e 2e52 5b6f d952 911e 1253 32b5 cd45
00000260: 0000 0000 0000 0000 8934 9454 0000 0000
00000270: b7c8 3f53 bd4d 3b53 eb96 ec53 701f 3b53
00000280: e3b8 0452 7ea0 ca52 5f2c a853 d6b1 9c53
00000290: 3d62 0453 8d0a 0953 c4c1 3054 004f 4553
000002a0: 1e55 de53 2f6e 1254 0000 0000 0000 0000
000002b0: 0000 0000 0000 0000 f3c1 2254 0000 0000
000002c0: 1f29 324e 0000 0000 af21 8a54 8d54 b453
000002d0: e191 7e51 c5c7 434e bdbc d352 6088 1854
000002e0: 7868 9254 0000 0000 0000 0000 77fb 2253
000002f0: 0000 0000 7bf1 ea53 f38d 3d53 90d0 4253
00000300: 0000 0000 45ee 3054 de79 3b54 3820 9b53
00000310: 3a5c 4353 8efd 9154 b158 6353 9f6d 5e54
8.145831e+11 0.0 62455.727 0.0 3.5943565e+12 0.0 3.098152e+11 1.7979805e+11
2.6678998e+12 3.3660813e+11 1.4168326e+11 8.711832e+10 1.0994827e+12 7.278595e+11 3.931233e+11 1.5205625e+11
2.2393926e+12 3.747596e+11 4.2576727e+11 9.069922e+12 0.0 0.0 0.0 0.0
2.7885694e+12 0.0 1.5574719e+09 0.0 1.1291804e+12 8.6490494e+11 3.97979e+10 1.7893299e+09
8.613161e+10 1.0448426e+12 1.0583261e+13 0.0 0.0 2.5707779e+11 0.0 4.73452e+12
3.278999e+11 1.5784164e+11 0.0 1.0658867e+12 9.663227e+11 2.4863278e+12 1.5962589e+12 2.8034911e+12
2.3670137e+11 2.0283729e+12 6.911151e+11 0.0 0.0 0.0 1.0537991e+13 0.0
7.326453e+11 6.948421e+11 1.7949937e+12 7.452498e+11 1.4178948e+11 4.0277688e+11 6.397132e+11 1.5618397e+12
1.0694578e+12 4.8009953e+11 2.3050975e+12 7.401985e+11 1.3214927e+12 9.200211e+12 0.0 0.0
0.0 0.0 7.1688934e+12 0.0 2.728761e+08 0.0 3.9796783e+12 2.0935587e+12
8.3644465e+10 4.001747e+08 4.7829146e+11 7.82966e+11 3.0073094e+12 0.0 0.0 5.6959435e+11
0.0 3.6035748e+12 5.7727916e+11 7.9303036e+11 0.0 2.1420782e+12 2.8681804e+12 1.6437472e+12
2.1106974e+12 3.6421068e+12 8.926475e+11 3.032349e+12 1.30673115e+11 0.0 0.0 0.0
4.3819604e+11 0.0 2.7242077e+11 9.852201e+10 1.4092553e+12 4.4035247e+11 4.2694746e+10 5.9381862e+10
2.3518501e+11 3.8048557e+11 4.6897948e+11 1.6034734e+11 4.0098048e+11 6.5515245e+11 3.9948478e+11 2.2831193e+12
0.0 0.0 0.0 0.0 3.6857053e+11 0.0 1.6482718e+08 0.0
1.643475e+12 1.2341756e+11 5.432499e+10 9.653235e+07 7.5857674e+10 3.6757045e+11 2.121066e+12 0.0
0.0 2.6928331e+11 0.0 1.1138289e+12 8.30687e+10 1.0010645e+11 0.0 2.1396804e+12
1.0766488e+12 2.9026065e+11 1.03682317e+12 6.2481465e+11 1.8729565e+11 4.6693807e+11 6.2757804e+11 6582.6494
0.0 0.0 5.0922924e+12 0.0 8.237062e+11 8.044631e+11 2.0322885e+12 8.036863e+11
1.425094e+11 4.35138e+11 1.4445979e+12 1.345997e+12 5.6858385e+11 5.885875e+11 3.0366604e+12 8.4743396e+11
1.9098215e+12 2.5156552e+12 0.0 0.0 0.0 0.0 2.7961545e+12 0.0
7.4725984e+08 0.0 4.746165e+12 1.5490253e+12 6.833557e+10 8.211623e+08 4.547023e+11 2.620492e+12
5.0305434e+12 0.0 0.0 7.000036e+11 0.0 2.0181474e+12 8.141303e+11 8.3672275e+11
0.0 3.039647e+12 3.220814e+12 1.332521e+12 8.390659e+11 5.0161936e+12 9.764456e+11 3.8212875e+12

exp_avg f4 [4]
00000000: 4f9d 7b3d 9948 b43d ea76 1c3e a7ba b43d
0.061429318 0.088029094 0.15279737 0.088246636

exp_avg_sq f4 [4]
00000000: 7f9b 983d 9f6e f23d 203d b73e bfcf 043e
0.074515335 0.118375055 0.35788822 0.12969874
