covid_last.pth (torch, 10241 bytes, 12 tensors)

weight f4 [50, 4]
0.23537841 0.29159114 0.055186987 -0.07504976 -0.7524153 -1.1459038 -0.34076193 -0.07868077
-0.29625237 0.7633996 2.0646186 -0.27602395 -0.38997847 -0.5703404 -0.89727694 -0.30088365
-0.15321414 -0.54400086 -0.0009570209 -0.1465471 0.20051476 0.09059152 0.2872813 0.2073063
0.45844406 1.039641 -1.2566696 -0.47022513 0.50664485 -0.53917956 -0.6041145 -0.72981507
-0.32432473 0.33192155 0.123586506 -0.31476328 0.49733305 0.09932563 -0.88749397 -0.5498416
0.15891929 0.06485812 -0.3435266 -0.3794057 -0.47055054 0.41911545 0.26483607 0.08456182
-0.6882069 3.111796 2.4981542 -0.0050715636 -1.1978155 -5.464798 0.6108227 0.23922725
0.27666113 -0.09544957 0.08294162 -0.3101496 0.027419472 0.22159743 0.020415137 0.20808315
-0.30576983 -0.37397942 -0.5118122 -0.3514765 -0.21116519 0.27576002 0.07890174 0.15157601
-0.254235 -0.23839678 -0.33540255 -0.30677512 -0.09321444 0.21848816 -0.14025514 -0.017017035
-2.4666033 -5.0626283 1.0844223 0.20246622 -0.083375625 -0.8944436 -0.34879234 -0.07096955
0.08521974 -0.13914049 -0.26067936 -0.18775551 -0.3158153 -0.76461875 0.10068893 0.078860596
-0.39605707 -1.0015148 -0.7932991 -0.12104101 -0.077354796 0.064755395 -0.4224295 -0.30736148
-0.09793326 -0.1527594 0.23400101 -0.11881885 0.20381698 0.30006287 0.15419766 -0.14921543
-0.07633188 0.20558009 -0.15863025 0.25020924 0.42002958 -2.7338464 1.3446137 -0.28002256
-0.4093895 1.0056548 1.0010505 -0.5254154 -0.7773787 1.791918 1.7773796 -0.12408769
0.025559532 -0.7083921 0.20544323 -0.042572655 -1.8740108 0.29811448 1.1729591 -0.6730422
0.08949294 -0.002342799 -0.5089993 -0.41397393 -1.612699 2.007221 2.9184096 0.2883582
0.05556765 -0.5000912 -0.19383274 -0.6253795 -0.0637042 -0.085221656 -0.8837272 -0.063922346
-0.24436982 -0.06411132 -0.18782611 -0.2820404 -0.0577075 -0.072881185 0.104039565 -0.015480242
-1.7851938 -5.1191993 1.5016179 0.27214956 0.27614757 -0.19472925 -0.1923903 0.27225247
-0.04489699 0.090587705 0.122633845 -0.3307385 0.12538064 0.27677852 -1.0434265 -0.576559
-0.10267529 0.022277087 0.2728068 0.16622493 -0.5743681 -1.237961 -0.15696858 0.00776836
0.039121795 1.9581856 1.9318149 -0.09542412 -0.0721896 -0.03441605 -0.03815797 0.3286583
-0.38800085 -0.39501673 -0.8242013 -0.19822663 -0.08084368 2.0463822 2.85489 -0.1367003
00000000: 0a07 713e 6f4b 953e c00b 623d b0b3 99bd
00000010: 4a9e 40bf faac 92bf 5978 aebe 6223 a1bd
00000020: 64ae 97be 286e 433f b622 0440 0353 8dbe
00000030: 42ab c7be d401 12bf f1b3 65bf 6c0d 9abe
00000040: 2be4 1cbe a443 0bbf 96e0 7aba 7110 16be
00000050: be53 4d3e 0c88 b93d 8916 933e 1a48 543e
00000060: 2eb9 ea3e f512 853f 8dda a0bf 59c1 f0be
00000070: 7ab3 013f ac07 0abf 3fa7 1abf 29d5 3abf
00000080: e40d a6be 9ff1 a93e ec1a fd3d a728 a1be
00000090: 70a2 fe3e 3c6b cb3d ce32 63bf 6bc2 0cbf
000000a0: bdbb 223e 56d4 843d b8e2 afbe 7741 c2be
000000b0: 00ec f0be 4d96 d63e 9898 873e bf2e ad3d
000000c0: 542e 30bf aa27 4740 c2e1 1f40 5c2f a6bb
000000d0: 0552 99bf a0df aec0 e05e 1c3f fdf7 743e
000000e0: 87a6 8d3e 107b c3bd 4cdd a93d eecb 9ebe
000000f0: cd9e e03c 70ea 623e a53d a73c c013 553e
00000100: dd8d 9cbe 3b7a bfbe 2006 03bf baf4 b3be
00000110: b03b 58be 6b30 8d3e 3c97 a13d be36 1b3e
00000120: 172b 82be 491e 74be e2b9 abbe a111 9dbe
00000130: 36e7 bebd 5cbb 5f3e 0b9f 0fbe 4f67 8bbc
00000140: d4dc 1dc0 0d01 a2c0 5ace 8a3f 4e53 4f3e
00000150: d7c0 aabd 41fa 64bf e994 b2be 7c58 91bd
00000160: b087 ae3d d87a 0ebe c477 85be fb42 40be
00000170: 8bb2 a1be 0ebe 43bf ff35 ce3d aa81 a13d
00000180: fec7 cabe a331 80bf a615 4bbf 59e4 f7bd
00000190: 316c 9ebd 7a9e 843d ae48 d8be 7c5e 9dbe
000001a0: 3c91 c8bd f66c 1cbe f69d 6f3e 4c57 f3bd
000001b0: 66b5 503e d7a1 993e fee5 1d3e eecb 18be
000001c0: e453 9cbd 9683 523e f86f 22be 6d1b 803e
000001d0: 1e0e d73e 57f7 2ec0 4d1c ac3f 1e5f 8fbe
000001e0: 809b d1be 4cb9 803f 6c22 803f a081 06bf
000001f0: 4a02 47bf 925d e53f 2d81 e33f b021 febd
00000200: 3962 d13c 2f59 35bf b65f 523e aa60 2ebd
00000210: 96df efbf 76a2 983e 8623 963f 7e4c 2cbf
00000220: 1348 b73d a589 19bb c74d 02bf 64f4 d3be
00000230: ec6c cebf 4f76 0040 39c7 3a40 b0a3 933e
00000240: e79a 633d fa05 00bf 177c 46be df18 20bf
00000250: 5977 82bd b188 aebd f23b 62bf b8e9 82bd
00000260: 153c 7abe cc4c 83bd 7d55 40be 9967 90be
00000270: b35e 6cbd bb42 95bd b212 d53d d7a0 7dbc
00000280: 3b81 e4bf 7bd0 a3c0 0435 c03f 3057 8b3e
00000290: 3763 8d3e 1b67 47be f601 45be ad64 8b3e
000002a0: e8e5 37bd 0c86 b93d 7427 fb3d 8f56 a9be
000002b0: c863 003e eab5 8d3e 008f 85bf 5f99 13bf
000002c0: 6c47 d2bd 707e b63c 55ad 8b3e de36 2a3e
000002d0: ca09 13bf 8275 9ebf 5fbc 20be ba8d fe3b
000002e0: 2d3e 203d d3a5 fa3f b645 f73f b96d c3bd
000002f0: 24d8 93bd d8f7 0cbd 884b 1cbd e745 a83e
00000300: 0ca8 c6be a23f cabe dbfe 52bf ecfb 4abe
00000310: 5f91 a5bd edf7 0240 85b6 3640 2afb 0bbe

bias f4 [50]
-0.24638677 0.08401476 -0.04824576 0.117011644 0.122749954 -0.38800812 0.12708353 0.25009972
-0.02234745 0.34683004 -0.24567899 -0.28505382 0.010322994 -0.24184489 -0.35055077 -0.24950665
0.3057813 -0.47738647 0.2525516 -0.18628253 -0.15946235 0.06594431 -0.2966063 -0.08094268
0.095057085 0.07013097 -0.34008837 -0.22983718 -0.35063195 -0.2786116 -0.018236099 -0.2727992
-0.1848542 0.16145219 -0.17321055 -0.23215325 -0.07509149 0.028322294 -0.101145975 -0.0356295
0.09734856 -0.33951384 -0.27804822 -0.13856943 -0.3023929 0.0033529114 -0.04843552 -0.4954875
0.20201553 0.13992599
00000000: d04c 7cbe ee0f ac3d 599d 45bd cda3 ef3d
00000010: 5464 fb3d 00a9 c6be 2f22 023e 120d 803e
00000020: 0012 b7bc b593 b13e 4693 7bbe 93f2 91be
00000030: c621 293c 30a6 77be 647b b3be ac7e 7fbe
00000040: 5e8f 9c3e 006c f4be 714e 813e d9c0 3ebe
00000050: 194a 23be cf0d 873d c8dc 97be 47c5 a5bd
00000060: 4aad c23d d3a0 8f3d 1020 aebe 705a 6bbe
00000070: 0886 b3be 2ea6 8ebe df63 95bc 56ac 8bbe
00000080: 6b4a 3dbe b953 253e 1b5e 31be 95b9 6dbe
00000090: 91c9 99bd 2804 e83c 9f25 cfbd 3df0 11bd
000000a0: af5e c73d c2d4 adbe 565c 8ebe 25e5 0dbe
000000b0: 3ed3 9abe 85bc 5b3b 5364 46bd 8ab0 fdbe
000000c0: 29dd 4e3e c248 0f3e

weight f4 [4, 50]
0.0008350313 -0.0010661096 -0.4032841 0.024577286 -0.009721362 -0.025933266 0.92808247 -1.9224278
-0.32029295 1.2620962 0.10518131 -0.14029598 -0.35970128 -0.044658057 0.21034136 -0.048772827
-1.25122515e-05 0.21462908 -0.00091922074 -0.105343215 0.00025872263 0.0062805847 -0.2519346 -0.0035684363
0.023925658 0.012675023 -0.29034042 -0.29763064 0.08508265 0.04628691 -0.10723907 -0.45844892
0.033352774 -1.0490534 -0.016376076 -0.49671024 -0.061895967 -0.0018011827 -0.09028462 0.010890361
0.31803888 -0.24651158 -0.14311561 0.019850545 -0.012905121 -0.00076842715 -0.42087287 -0.1189239
-0.0026966564 -1.3591527 -0.30083415 0.18692186 -0.012181932 -0.21523857 -0.23300396 -0.31740588
-0.18404898 0.047219444 -0.17696075 0.36760056 0.092063926 -0.050855946 -0.3573565 -0.44850272
0.32016984 0.30868647 0.113054514 0.03590688 0.18570068 -0.03338501 0.17879476 -0.40136027
-0.19526732 0.10061004 -0.3073166 0.21370357 0.08329925 0.21769348 -0.15137267 -0.35778984
0.015449736 -0.7021146 -0.32918698 -0.7185549 0.102186576 -0.5213563 0.01182832 0.04986713
0.4323081 0.21585903 0.32540232 0.12335715 -0.14307503 0.12600873 0.07027826 0.2861373
-0.5438573 0.10130218 0.17671542 -1.3813753 0.16251698 0.4329538 -0.09402365 0.8586935
0.17221865 -0.22819158 0.8038255 -1.0824041 0.16672781 0.745775 0.021663807 0.036750834
-0.3037292 0.19201496 0.13234386 -0.22360961 -0.0022489321 -0.27623376 0.16673194 -0.2622802
0.3031016 -0.005418318 0.30705777 0.22223292 0.46994427 0.15890826 -0.13690309 0.1184642
0.31219915 -0.58541834 -0.47994375 -0.33603016 -0.334556 -0.15042724 0.12409096 -0.8728661
0.032490596 0.104646236 -0.0007979447 0.25594923 0.55982244 0.30960956 -0.13914788 0.069188826
0.32349995 0.17999987 -0.42294294 -0.065236956 0.2083691 -1.232498 0.09854683 0.2133754
-0.3418912 0.14633611 -0.21711472 -0.04274428 1.0897571 -1.5722356 -0.084676385 0.82412744
-0.009329703 -0.05980714 -0.37151402 -0.06337446 -0.20002091 0.32459906 0.31560883 -0.03125453
-0.016410924 -0.28458196 0.028719995 0.025585549 0.22884336 0.25752646 -0.013829169 0.39513335
0.1873394 0.2751924 0.048407108 0.10908284 -0.1183337 -0.41355744 0.031716187 -1.4303211
0.50115407 -0.5776272 0.11251271 0.47445995 -0.13845885 0.35278913 0.37346825 0.31032267
0.33260515 0.56633705 -0.32942235 -0.095650755 -0.4389511 0.2535415 0.068074524 -1.3038366
00000000: 00e6 5a3a b4bc 8bba 417b cebe 4e56 c93c
00000010: 5946 1fbc 0072 d4bc d096 6d3f 1d12 f6bf
00000020: 70fd a3be 5e8c a13f 4c69 d73d c0a9 0fbe
00000030: c42a b8be 5eeb 36bd ba63 573e 04c6 47bd
00000040: b6eb 51b7 bac7 5b3e dcf7 70ba 2fbe d7bd
00000050: 2aa5 8739 5dcd cd3b 92fd 80be 6ddc 69bb
00000060: beff c33c e6aa 4f3c 80a7 94be 0b63 98be
00000070: d03f ae3d 5897 3d3d 28a0 dbbd d1b9 eabe
00000080: eb9c 083d 6247 86bf 1f27 86bc ce50 febe
00000090: a086 7dbd aa15 ecba 25e7 b8bd 7c6d 323c
000000a0: fed5 a23e 886d 7cbe e68c 12be 9c9d a23c
000000b0: 0070 53bc 4670 49ba a67c d7be 608e f3bd
000000c0: 63ba 30bb b7f8 adbf ef06 9abe 7268 3f3e
000000d0: ba96 47bc 8067 5cbe 9798 6ebe 0683 a2be
000000e0: 5677 3cbe 2d69 413d 3335 35be 2436 bc3e
000000f0: 038c bc3d 534e 50bd 6ef7 b6be 26a2 e5be
00000100: 4ded a33e 270c 9e3e 2089 e73d 1813 133d
00000110: 5228 3e3e b8be 08bd f915 373e 187f cdbe
00000120: 28f4 47be a30c ce3d 9a58 9dbe 1cd5 5a3e
00000130: cc98 aa3d 0aeb 5e3e 7001 1bbe 3b30 b7be
00000140: e420 7d3c c8bd 33bf 328b a8be 37f3 37bf
00000150: 3247 d13d 9b77 05bf 92cb 413c 7a41 4c3d
00000160: 7d57 dd3e 260a 5d3e 229b a63e aca2 fc3d
00000170: 4382 12be 6f08 013e 0cee 8f3d 9780 923e
00000180: 3b3a 0bbf 8477 cf3d e3f4 343e e8d0 b0bf
00000190: da6a 263e 1fac dd3e 798f c0bd 56d3 5b3f
000001a0: 165a 303e 0eab 69be 82c7 4d3f 388c 8abf
000001b0: b2ba 2a3e 1ceb 3e3f 4c78 b13c 0b88 163d
000001c0: 6582 9bbe 929f 443e 2685 073e ebf9 64be
000001d0: d262 13bb 836e 8dbe c7bb 2a3e 9749 86be
000001e0: 2230 9b3e 258c b1bb ad36 9d3e 0791 633e
000001f0: 899c f03e d9b8 223e 5330 0cbe 5c9d f23d
00000200: 91d8 9f3e fadd 15bf 30bb f5be 250c acbe
00000210: ed4a abbe 9909 1abe 6723 fe3d 2774 5fbf
00000220: dc14 053d c450 d63d 2a2d 51ba c70b 833e
00000230: 8650 0f3f 2585 9e3e c87c 0ebe dfb2 8d3d
00000240: c9a1 a53e e351 383e fa8b d8be f49a 85bd
00000250: b65e 553e 7fc2 9dbf ecd2 c93d 157f 5a3e
00000260: 5d0c afbe 22d9 153e 5253 5ebe a014 2fbd
00000270: 297d 8b3f 043f c9bf d06a adbd 04fa 523f
00000280: 9cdb 18bc 55f8 74bd 1637 bebe 78ca 81bd
00000290: 48d2 4cbe d931 a63e 7b97 a13e c004 00bd
000002a0: 3470 86bc bab4 91be 3246 eb3c c998 d13c
000002b0: ea55 6a3e 82da 833e bd93 62bc eb4e ca3e
000002c0: e6d5 3f3e 05e6 8c3e 8846 463d d366 df3d
000002d0: f058 f2bd cdbd d3be d5e8 013d c314 b7bf
000002e0: a24b 003f 60df 13bf 106d e63d 6aec f23e
000002f0: 28c8 0dbe c7a0 b43e 3b37 bf3e 9de2 9e3e
00000300: 394b aa3e 77fb 103f 0caa a8be 8be4 c3bd
00000310: 33be e0be 31d0 813e a86a 8b3d 1ee4 a6bf

bias f4 [4]
-0.09275558 -0.12623885 -0.17800678 -0.11656671
00000000: a3f6 bdbd c244 01be 6947 36be 87ba eebd

exp_avg f4 [50, 4]
0.0 0.0 0.0 0.0 6e-45 6e-45 6e-45 6e-45
1.5501548e-06 3.656806e-06 2.185633e-06 5.7216275e-06 6e-45 6e-45 6e-45 6e-45
6e-45 6e-45 6e-45 6e-45 0.0 0.0 0.0 0.0
-7.4258496e-06 -5.4807274e-06 -2.3594007e-06 -3.16142e-06 1.2075225e-05 1.0400739e-06 1.9606335e-07 2.3702725e-07
0.0 0.0 0.0 0.0 -1.0324711e-05 -7.5201538e-06 -3.2334156e-06 -4.332159e-06
6e-45 6e-45 6e-45 6e-45 6e-45 -6e-45 6e-45 6e-45
2.603591e-06 3.899738e-06 3.5044727e-06 2.0941223e-05 6e-45 6e-45 6e-45 6e-45
0.0 0.0 0.0 0.0 6e-45 6e-45 6e-45 6e-45
6e-45 6e-45 6e-45 6e-45 0.0 0.0 0.0 0.0
6e-45 6e-45 6e-45 6e-45 6e-45 6e-45 6e-45 6e-45
-2.9763818e-08 8.152514e-09 1.0516452e-08 -6.466426e-07 6e-45 6e-45 6e-45 6e-45
0.0 0.0 0.0 0.0 6e-45 6e-45 6e-45 6e-45
6e-45 6e-45 6e-45 6e-45 6e-45 -6e-45 -6e-45 -6e-45
0.0 0.0 0.0 0.0 0.0 0.0 0.0 0.0
0.0 0.0 0.0 0.0 7.117785e-08 -7.862968e-10 -1.2501145e-10 -1.4110746e-10
8.1875766e-07 1.9740276e-06 2.950443e-06 5.7956286e-06 1.8618737e-06 4.6158975e-06 3.386589e-06 5.996796e-06
6e-45 6e-45 6e-45 6e-45 9.656172e-07 3.8896737e-06 3.3620565e-06 4.4347307e-06
6e-45 6e-45 6e-45 6e-45 3.06986e-06 5.8039277e-06 6.7891137e-06 3.287627e-05
6e-45 6e-45 6e-45 6e-45 6e-45 6e-45 6e-45 6e-45
6e-45 6e-45 6e-45 6e-45 6e-45 6e-45 6e-45 6e-45
-3.6161117e-07 -3.344137e-07 -1.30379e-06 -5.3770455e-06 0.0 0.0 0.0 0.0
0.0 0.0 0.0 0.0 6e-45 6e-45 6e-45 6e-45
0.0 0.0 0.0 0.0 6e-45 6e-45 6e-45 6e-45
4.6379782e-06 4.696045e-06 4.338148e-06 1.1635374e-05 0.0 0.0 0.0 0.0
6e-45 6e-45 6e-45 6e-45 1.5773967e-05 1.4226003e-05 1.211087e-05 6.114348e-05
00000000: 0000 0000 0000 0000 0000 0000 0000 0000
00000010: 0400 0000 0400 0000 0400 0000 0400 0000
00000020: ea0e d035 7367 7536 e4ac 1236 68fc bf36
00000030: 0400 0000 0400 0000 0400 0000 0400 0000
00000040: 0400 0000 0400 0000 0400 0000 0400 0000
00000050: 0000 0000 0000 0000 0000 0000 0000 0000
00000060: 902b f9b6 17e7 b7b6 3256 1eb6 c828 54b6
00000070: b296 4a37 ab98 8b35 7c85 5234 8e81 7e34
00000080: 0000 0000 0000 0000 0000 0000 0000 0000
00000090: 4c38 2db7 a155 fcb6 a8fd 58b6 f65c 91b6
000000a0: 0400 0000 0400 0000 0400 0000 0400 0000
000000b0: 0400 0000 0400 0080 0400 0000 0400 0000
000000c0: 5ab9 2e36 7fda 8236 622e 6b36 efaa af37
000000d0: 0400 0000 0400 0000 0400 0000 0400 0000
000000e0: 0000 0000 0000 0000 0000 0000 0000 0000
000000f0: 0400 0000 0400 0000 0400 0000 0400 0000
00000100: 0400 0000 0400 0000 0400 0000 0400 0000
00000110: 0000 0000 0000 0000 0000 0000 0000 0000
00000120: 0400 0000 0400 0000 0400 0000 0400 0000
00000130: 0400 0000 0400 0000 0400 0000 0400 0000
00000140: 54ab ffb2 230f 0c32 d8ab 3432 f194 2db5
00000150: 0400 0000 0400 0000 0400 0000 0400 0000
00000160: 0000 0000 0000 0000 0000 0000 0000 0000
00000170: 0400 0000 0400 0000 0400 0000 0400 0000
00000180: 0400 0000 0400 0000 0400 0000 0400 0000
00000190: 0400 0000 0400 0080 0400 0080 0400 0080
000001a0: 0000 0000 0000 0000 0000 0000 0000 0000
000001b0: 0000 0000 0000 0000 0000 0000 0000 0000
000001c0: 0000 0000 0000 0000 0000 0000 0000 0000
000001d0: 70da 9833 b822 58b0 9873 09af 3826 1baf
000001e0: 99c8 5b35 8979 0436 3a00 4636 1278 c236
000001f0: 7ee5 f935 42e2 9a36 2845 6336 1638 c936
00000200: 0400 0000 0400 0000 0400 0000 0400 0000
00000210: 5b9a 8135 0b84 8236 b19f 6136 0cce 9436
00000220: 0400 0000 0400 0000 0400 0000 0400 0000
00000230: cb03 4e36 5cbf c236 0bce e336 a0e4 0938
00000240: 0400 0000 0400 0000 0400 0000 0400 0000
00000250: 0400 0000 0400 0000 0400 0000 0400 0000
00000260: 0400 0000 0400 0000 0400 0000 0400 0000
00000270: 0400 0000 0400 0000 0400 0000 0400 0000
00000280: 7623 c2b4 7889 b3b4 e2fd aeb5 786c b4b6
00000290: 0000 0000 0000 0000 0000 0000 0000 0000
000002a0: 0000 0000 0000 0000 0000 0000 0000 0000
000002b0: 0400 0000 0400 0000 0400 0000 0400 0000
000002c0: 0000 0000 0000 0000 0000 0000 0000 0000
000002d0: 0400 0000 0400 0000 0400 0000 0400 0000
000002e0: ee9f 9b36 b892 9d36 6890 9136 8d35 4337
000002f0: 0000 0000 0000 0000 0000 0000 0000 0000
00000300: 0400 0000 0400 0000 0400 0000 0400 0000
00000310: 5652 8437 38ac 6e37 ca2f 4b37 283a 8038

exp_avg_sq f4 [50, 4]
0.0 0.0 0.0 0.0 3.65004e-26 1.8350276e-27 6.0640416e-26 3.497911e-23
1.1772424e-09 4.8525464e-09 7.1211796e-09 4.391518e-08 8.491166e-24 2.7971824e-26 4.0817164e-26 3.5330795e-23
2.7990172e-27 9.582796e-29 7.383794e-28 5.725425e-26 0.0 0.0 0.0 0.0
3.283266e-07 2.2322352e-08 3.0148235e-09 5.3077853e-09 1.1744993e-06 1.115299e-08 4.409748e-10 6.6427974e-10
0.0 0.0 0.0 0.0 5.9863265e-07 4.1078508e-08 5.6108975e-09 9.924789e-09
9.9489945e-30 1.2054415e-32 3.8429515e-33 1.13524535e-32 3.686842e-32 1.6322412e-35 4.6494714e-34 5.4140844e-31
1.29043105e-08 7.479677e-09 1.3353496e-08 1.2311854e-06 1.05217e-26 5.3907783e-30 1.1009704e-26 1.3608195e-23
0.0 0.0 0.0 0.0 7e-43 7e-43 7e-43 3.0694e-40
2.1521668e-27 5.510936e-29 5.0626806e-29 4.2042767e-26 0.0 0.0 0.0 0.0
7.509223e-27 5.7332467e-29 3.005445e-29 1.4678255e-26 5.906577e-38 7e-43 5.653e-42 1.4334278e-36
1.5568718e-12 8.97339e-15 4.1911223e-12 1.7467972e-09 2.486721e-23 6.934295e-26 1.9609997e-24 1.4597311e-21
0.0 0.0 0.0 0.0 5.006704e-28 5.7185807e-30 1.2918702e-28 4.1956606e-26
2.0630935e-24 7.454131e-27 2.1678594e-24 2.6595713e-21 7.8867414e-25 3.0473666e-26 3.71064e-27 1.0710857e-26
0.0 0.0 0.0 0.0 0.0 0.0 0.0 0.0
0.0 0.0 0.0 0.0 6.9587225e-10 8.375744e-14 1.7275091e-15 4.891859e-15
1.9215254e-10 1.0276188e-09 1.9971536e-09 7.670703e-09 1.3520238e-09 7.058105e-09 7.965206e-09 3.066373e-08
2.5817398e-26 1.030442e-26 6.068189e-26 7.1483607e-25 6.202842e-10 5.904052e-09 8.4651175e-09 2.6023455e-08
5.6296497e-22 2.047133e-23 2.2928861e-24 3.9608154e-24 9.098854e-09 1.0710562e-08 3.1899255e-08 3.893261e-06
2.7998875e-29 3.3402856e-32 1.155204e-32 3.5745934e-32 1.03041075e-27 4.9138135e-30 1.5824384e-29 1.3409796e-26
4.762386e-30 5.9757343e-33 6.4088646e-32 1.0747187e-28 1.0759094e-28 1.2140978e-30 3.5997177e-30 6.0262415e-28
1.655457e-09 2.0450362e-10 6.04053e-09 1.528103e-06 0.0 0.0 0.0 0.0
0.0 0.0 0.0 0.0 4.797147e-18 4.3404697e-20 1.7065419e-21 2.5482347e-21
0.0 0.0 0.0 0.0 2.4641862e-28 1.2479904e-30 1.1329275e-29 1.09216005e-26
3.7583526e-08 1.0432114e-08 1.553894e-08 1.3979437e-07 0.0 0.0 0.0 0.0
1.9168906e-27 8.713726e-30 1.7711709e-28 2.1322908e-25 9.4993055e-07 1.05868246e-07 1.854126e-07 1.927205e-05
00000000: 0000 0000 0000 0000 0000 0000 0000 0000
00000010: c1bd 3415 c862 1113 6e23 9615 0a26 291a
00000020: 89cc a130 73bb a631 8fae f431 409d 3c33
00000030: 383e 2419 8082 0a15 e71d 4a15 68d9 2a1a
00000040: d0c2 5d13 e7f3 f210 7400 6a12 31c1 8d15
00000050: 0000 0000 0000 0000 0000 0000 0000 0000
00000060: dd44 b034 5fbf bf32 562d 4f31 c65f b631
00000070: 7da3 9d35 5e9b 3f32 b06d f22f 8898 3630
00000080: 0000 0000 0000 0000 0000 0000 0000 0000
00000090: b9b1 2035 4c6e 3033 fac9 c031 af81 2a32
000000a0: 22ca 490f 435c 7a0a 45a1 9f09 ffc7 6b0a
000000b0: 896e 3f0b d591 ad05 5481 1a08 74b2 2f0d
000000c0: c2b1 5d32 f87f 0032 4c69 6532 353f a535
000000d0: 5b67 5014 0bad da0e d511 5a14 429c 8319
000000e0: 0000 0000 0000 0000 0000 0000 0000 0000
000000f0: f401 0000 f401 0000 f401 0000 a057 0300
00000100: 2183 2a13 05b8 8b10 ad5a 8010 8a2f 5015
00000110: 0000 0000 0000 0000 0000 0000 0000 0000
00000120: 49bc 1414 e65a 9110 e864 1810 cc5d 9114
00000130: d5ca a001 f401 0000 c20f 0000 96e2 f303
00000140: 381c db2b 75a6 2128 4676 932c f613 f030
00000150: 3b80 f019 51af ab15 9ab9 1718 9d96 dc1c
00000160: 0000 0000 0000 0000 0000 0000 0000 0000
00000170: 35ab 1e12 23f9 e70e 96c3 2311 51c2 4f15
00000180: c79f 1f18 efa4 1314 e1ba 2718 97f3 481d
00000190: 3415 7417 f6e5 1615 5cfe 9213 7f26 5414
000001a0: 0000 0000 0000 0000 0000 0000 0000 0000
000001b0: 0000 0000 0000 0000 0000 0000 0000 0000
000001c0: 0000 0000 0000 0000 0000 0000 0000 0000
000001d0: a847 3f30 e09a bc29 d6f5 f826 6f3f b027
000001e0: 2246 532f 1f3c 8d30 4c3e 0931 1cc8 0332
000001f0: 1cd2 b930 c083 f231 59d7 0832 21b3 0333
00000200: e1ae ff14 9e19 4c14 b83d 9615 263b 5d17
00000210: 9f80 2a30 97dc ca31 fb6d 1132 2f8a df32
00000220: 4e25 2a1c 8ffc c519 4a67 3118 043a 9918
00000230: 2f51 1c32 8d01 3832 9a01 0933 dba2 8236
00000240: 9ef8 0d10 0370 2d0b 2eed 6f0a 7f9a 390b
00000250: 6d46 a312 f553 c70e 737a a00f dfcd 8414
00000260: 722f c10e e838 f809 3662 a60b 9e3c 0811
00000270: 4263 0811 a6ff c40d 9b05 920e aefa 3e12
00000280: 3786 e330 a7da 602f 108d cf31 3819 cd35
00000290: 0000 0000 0000 0000 0000 0000 0000 0000
000002a0: 0000 0000 0000 0000 0000 0000 0000 0000
000002b0: c6fb b022 0ff9 4c1f 52f1 001d 078a 401d
000002c0: 0000 0000 0000 0000 0000 0000 0000 0000
000002d0: b52f 9c11 7e7f ca0d f6c8 650f 1853 5814
000002e0: 866b 2133 ec38 3332 7e7a 8532 621a 1634
000002f0: 0000 0000 0000 0000 0000 0000 0000 0000
00000300: 29df 1713 41bc 300f c885 6011 7ffb 8316
00000310: bbfe 7e35 af59 e333 d415 4734 6aaa a137

exp_avg f4 [50]
0.0 6e-45 1.3114221e-05 6e-45 6e-45 0.0 -1.8427403e-05 1.3548528e-05
0.0 -2.5410382e-05 6e-45 6e-45 3.094901e-05 6e-45 0.0 6e-45
6e-45 0.0 6e-45 6e-45 -6.577375e-07 6e-45 0.0 6e-45
6e-45 6e-45 0.0 0.0 0.0 7.012545e-08 1.1538853e-05 1.5861144e-05
6e-45 1.2652067e-05 6e-45 4.8539485e-05 6e-45 6e-45 6e-45 6e-45
-7.3768897e-06 0.0 0.0 6e-45 0.0 6e-45 2.5307574e-05 0.0
6e-45 0.00010325423
00000000: 0000 0000 0400 0000 2605 5c37 0400 0000
00000010: 0400 0000 0000 0000 8c94 9ab7 7c4e 6337
00000020: 0000 0000 6128 d5b7 0400 0000 0400 0000
00000030: 3fcf 0138 0400 0000 0000 0000 0400 0000
00000040: 0400 0000 0000 0000 0400 0000 0400 0000
00000050: 608f 30b5 0400 0000 0000 0000 0400 0000
00000060: 0400 0000 0400 0000 0000 0000 0000 0000
00000070: 0000 0000 e097 9633 ff96 4137 8c0d 8537
00000080: 0400 0000 3744 5437 0400 0000 e096 4b38
00000090: 0400 0000 0400 0000 0400 0000 0400 0000
000000a0: 0087 f7b6 0000 0000 0000 0000 0400 0000
000000b0: 0000 0000 0400 0000 9a4b d437 0000 0000
000000c0: 0400 0000 318a d838

exp_avg_sq f4 [50]
0.0 4.0193328e-23 1.5733474e-07 6.2744425e-23 8.6391024e-26 0.0 7.1481423e-07 1.526781e-06
0.0 1.3098445e-06 1.1249499e-29 9.025286e-31 1.9803078e-06 1.5121997e-23 0.0 3.57988e-40
6.3299105e-26 0.0 3.663775e-26 2.0813217e-36 2.021474e-09 1.968692e-21 0.0 5.3608516e-26
2.9487244e-21 1.4103383e-24 0.0 0.0 0.0 7.15312e-10 3.1542754e-08 1.4795594e-07
1.0020354e-24 1.240172e-07 9.446331e-22 5.492512e-06 3.1685782e-29 1.9604531e-26 1.5387428e-28 1.4077714e-27
1.8661784e-06 0.0 0.0 6.1680604e-18 0.0 1.4092957e-26 6.2176275e-07 0.0
2.46609e-25 3.6286678e-05
00000000: 0000 0000 ee5c 421a d8ef 2834 ebb4 971a
00000010: d1e4 d515 0000 0000 a9e1 3f35 cceb cc35
00000020: 0000 0000 eacd af35 bd2a 640f 9271 920d
00000030: 6ee5 0436 4040 9219 0000 0000 ede5 0300
00000040: 93b8 9c15 0000 0000 de6b 3515 2c0f 3104
00000050: 26ea 0a31 0bc0 141d 0000 0000 6fba 8415
00000060: a0cc 5e1d 423d da17 0000 0000 0000 0000
00000070: 0000 0000 9b9f 4430 a079 0733 d2dd 1e34
00000080: b60e 9b17 9729 0534 b9bf 8e1c 524c b836
00000090: 7faa 2010 6427 c214 0f0f 4311 fe11 df12
000000a0: 6779 fa35 0000 0000 0000 0000 af8f e322
000000b0: 0000 0000 e491 8b14 36e7 2635 0000 0000
000000c0: c1a4 9816 8632 1838

exp_avg f4 [4, 50]
0.0 6e-45 -1.03655775e-05 -6e-45 6e-45 0.0 -6.071397e-06 -5.5979726e-06
0.0 -5.945433e-06 0.0 -6e-45 -3.7885547e-05 -6e-45 0.0 -6e-45
6e-45 0.0 6e-45 -6e-45 -1.5425298e-06 6e-45 0.0 6e-45
-6e-45 6e-45 0.0 0.0 0.0 2.3049097e-07 -9.570022e-06 -1.3298983e-05
-6e-45 -2.56744e-06 6e-45 -3.2596516e-05 0.0 -6e-45 -6e-45 -6e-45
3.780322e-06 0.0 0.0 6e-45 0.0 -6e-45 -2.610654e-05 0.0
-6e-45 -4.9705828e-05 0.0 6e-45 -2.740097e-07 -6e-45 6e-45 0.0
-6e-45 -6e-45 0.0 -6e-45 6e-45 -6e-45 -6.1860214e-07 6e-45
0.0 0.0 -6e-45 0.0 -6e-45 0.0 6.063109e-12 6e-45
0.0 6e-45 6e-45 6e-45 0.0 0.0 0.0 -6e-45
-2.0872298e-08 -2.0750622e-07 6e-45 -1.1999971e-08 -6e-45 -5.992694e-07 -6e-45 -6e-45
-6e-45 -6e-45 7.071826e-07 0.0 0.0 6e-45 0.0 6e-45
-3.893399e-07 0.0 -6e-45 -7.4560114e-07 0.0 -6e-45 -7.3281917e-06 6e-45
6e-45 0.0 -1.0313462e-10 -1.3752195e-10 0.0 -1.4378577e-10 6e-45 6e-45
-1.7673608e-05 -6e-45 0.0 0.0 6e-45 0.0 6e-45 0.0
-4.9912153e-08 -6e-45 0.0 6e-45 6e-45 6e-45 0.0 0.0
0.0 6.199949e-13 -8.6259155e-07 -5.294212e-06 -6e-45 -9.1219414e-07 6e-45 -1.61244e-05
6e-45 -6e-45 -6e-45 6e-45 -2.076833e-06 0.0 0.0 6e-45
0.0 -6e-45 -1.1095243e-05 0.0 6e-45 -1.9447427e-05 0.0 6e-45
-6.760613e-07 6e-45 6e-45 0.0 6e-45 6e-45 0.0 6e-45
6e-45 6e-45 -1.6452973e-06 6e-45 0.0 0.0 6e-45 0.0
-6e-45 0.0 4.0435272e-12 6e-45 0.0 6e-45 6e-45 6e-45
0.0 0.0 0.0 6e-45 -2.5774403e-07 -5.956908e-07 -6e-45 -8.904637e-08
6e-45 -1.2375867e-06 6e-45 6e-45 -6e-45 -6e-45 1.0744022e-06 0.0
0.0 6e-45 0.0 -6e-45 -1.1063876e-06 0.0 -6e-45 -1.6560753e-06
00000000: 0000 0000 0400 0000 d1e7 2db7 0400 0080
00000010: 0400 0000 0000 0000 e7b8 cbb6 38d6 bbb6
00000020: 0000 0000 e17e c7b6 0000 0000 0400 0080
00000030: 4ce7 1eb8 0400 0080 0000 0000 0400 0080
00000040: 0400 0000 0000 0000 0400 0000 0400 0080
00000050: ec08 cfb5 0400 0000 0000 0000 0400 0000
00000060: 0400 0080 0400 0000 0000 0000 0000 0000
00000070: 0000 0000 e07c 7734 ee8e 20b7 b21e 5fb7
00000080: 0400 0080 494c 2cb6 0400 0000 3eb8 08b8
00000090: 0000 0000 0400 0080 0400 0080 0400 0080
000000a0: 70b1 7d36 0000 0000 0000 0000 0400 0000
000000b0: 0000 0000 0400 0080 5eff dab7 0000 0000
000000c0: 0400 0080 3a7b 50b8 0000 0000 0400 0000
000000d0: 9b1b 93b4 0400 0080 0400 0000 0000 0000
000000e0: 0400 0080 0400 0080 0000 0000 0400 0080
000000f0: 0400 0000 0400 0080 040e 26b5 0400 0000
00000100: 0000 0000 0000 0000 0400 0080 0000 0000
00000110: 0400 0080 0000 0000 a253 d52c 0400 0000
00000120: 0000 0000 0400 0000 0400 0000 0400 0000
00000130: 0000 0000 0000 0000 0000 0000 0400 0080
00000140: ab4a b3b2 e0ce 5eb4 0400 0000 6e28 4eb2
00000150: 0400 0080 7bdd 20b5 0400 0080 0400 0080
00000160: 0400 0080 0400 0080 38d5 3d35 0000 0000
00000170: 0000 0000 0400 0000 0000 0000 0400 0000
00000180: 7806 d1b4 0000 0000 0400 0080 5225 48b5
00000190: 0000 0000 0400 0080 b0e4 f5b6 0400 0000
000001a0: 0400 0000 0000 0000 a1cb e2ae fd34 17af
000001b0: 0000 0000 1918 1eaf 0400 0000 0400 0000
000001c0: c941 94b7 0400 0080 0000 0000 0000 0000
000001d0: 0400 0000 0000 0000 0400 0000 0000 0000
000001e0: fe5e 56b3 0400 0080 0000 0000 0400 0000
000001f0: 0400 0000 0400 0000 0000 0000 0000 0000
00000200: 0000 0000 5783 2e2b d78c 67b5 efa4 b1b6
00000210: 0400 0080 81dd 74b5 0400 0000 e342 87b7
00000220: 0400 0000 0400 0080 0400 0080 0400 0000
00000230: b85f 0bb6 0000 0000 0000 0000 0400 0000
00000240: 0000 0000 0400 0080 b525 3ab7 0000 0000
00000250: 0400 0000 0823 a3b7 0000 0000 0400 0000
00000260: 947a 35b5 0400 0000 0400 0000 0000 0000
00000270: 0400 0000 0400 0000 0000 0000 0400 0000
00000280: 0400 0000 0400 0000 fcd3 dcb5 0400 0000
00000290: 0000 0000 0000 0000 0400 0000 0000 0000
000002a0: 0400 0080 0000 0000 db44 8e2c 0400 0000
000002b0: 0000 0000 0400 0000 0400 0000 0400 0000
000002c0: 0000 0000 0000 0000 0000 0000 0400 0000
000002d0: 1260 8ab4 8fe7 1fb5 0400 0080 c239 bfb3
000002e0: 0400 0000 281b a6b5 0400 0000 0400 0000
000002f0: 0400 0080 0400 0080 2e34 9035 0000 0000
00000300: 0000 0000 0400 0000 0000 0000 0400 0080
00000310: 307f 94b5 0000 0000 0400 0080 5046 deb5

exp_avg_sq f4 [4, 50]
0.0 2.304591e-22 1.02808514e-07 1.3215941e-21 1.6200633e-24 0.0 2.056153e-07 1.6089342e-07
0.0 2.930218e-07 0.0 3.137354e-34 1.4608062e-06 1.80201e-24 0.0 7e-43
1.973944e-25 0.0 6.061897e-26 9.37e-43 2.5641873e-09 4.291981e-21 0.0 8.04421e-25
1.17386025e-20 6.030964e-24 0.0 0.0 0.0 3.979803e-09 2.1387457e-08 7.936155e-08
2.2238078e-24 1.1257786e-09 2.8498412e-21 8.4343884e-07 0.0 3.7850024e-25 3.1427098e-31 5.002798e-33
1.7994648e-06 0.0 0.0 3.4451039e-18 0.0 5.363266e-26 5.4189246e-07 0.0
2.964969e-24 1.7069232e-06 0.0 2.001438e-27 9.314262e-12 2.411025e-25 2.3454872e-29 0.0
9.300098e-13 1.570868e-12 0.0 1.9098488e-12 9.982671e-32 3.3048504e-35 6.561137e-11 1.6886891e-29
0.0 0.0 1.1255931e-29 0.0 3.836734e-30 0.0 4.458015e-14 4.8833217e-25
0.0 7.2232115e-30 4.8042344e-25 4.75352e-29 0.0 0.0 0.0 1.2493371e-13
1.0145474e-14 2.5985338e-12 1.6958e-29 5.995097e-15 2.0912652e-26 5.571945e-11 2.8070152e-31 1.4459692e-29
1.0048269e-31 1.0639905e-33 4.66306e-11 0.0 0.0 5.87086e-23 0.0 2.3090866e-30
2.2674636e-11 0.0 1.6441498e-29 7.780486e-11 0.0 5.47688e-26 5.7632628e-09 3.8827884e-25
7.228353e-26 0.0 1.8417596e-11 2.0025745e-11 0.0 3.2089154e-11 2.872224e-29 8.982533e-33
3.596135e-08 2.0201118e-27 0.0 0.0 2.668936e-26 0.0 5.119905e-27 0.0
1.7469835e-12 7.8395094e-25 0.0 1.3180776e-26 6.3532515e-25 7.8281495e-27 0.0 0.0
0.0 1.9683052e-14 4.197822e-11 2.6135332e-09 7.005219e-27 5.825384e-11 8.512958e-26 2.8339946e-08
1.4201626e-28 6.03086e-26 3.663389e-28 8.319019e-30 9.317441e-10 0.0 0.0 1.7586536e-22
0.0 1.2377571e-26 1.3712736e-08 0.0 4.5159304e-26 4.0712475e-08 0.0 8.920978e-27
1.9691871e-11 7.866163e-28 2.1671734e-28 0.0 2.7827241e-12 9.933139e-13 0.0 4.3175303e-12
2.8965349e-33 1.7855489e-34 1.531498e-10 3.9714595e-29 0.0 0.0 8.266806e-29 0.0
2.984094e-29 0.0 3.6474516e-14 1.341257e-25 0.0 7.5487456e-29 2.8302034e-25 2.6655445e-29
0.0 0.0 0.0 5.720377e-14 1.6035808e-12 9.518117e-12 2.3427705e-28 1.595577e-13
2.5853082e-29 9.323169e-11 1.2388545e-32 1.4797921e-28 3.2166147e-31 7.178901e-33 3.3792358e-11 0.0
0.0 2.1545628e-29 0.0 3.4983028e-29 6.01342e-11 0.0 1.3865281e-28 1.6903506e-10
00000000: 0000 0000 d24d 8b1b 94c7 dc33 b2b6 c71c
00000010: 52b1 fa17 0000 0000 1ac7 5c34 0cc2 2c34
00000020: 0000 0000 9c50 9d34 0000 0000 5083 d007
00000030: eb10 c435 7c6c 0b18 0000 0000 f401 0000
00000040: c85c 7416 0000 0000 d615 9615 9d02 0000
00000050: a935 3031 7e25 a21d 0000 0000 ccf4 7817
00000060: 66bc 5d1e c64f e918 0000 0000 0000 0000
00000070: 0000 0000 b8be 8831 84b7 b732 796d aa33
00000080: 0d0f 2c18 d0b9 9a30 f253 571d ad68 6235
00000090: 0000 0000 c247 ea16 39f9 cb0c e0ce cf09
000000a0: 2485 f135 0000 0000 0000 0000 2c34 7e22
000000b0: 0000 0000 bdc9 8415 9176 1135 0000 0000
000000c0: 4367 6518 6f19 e535 0000 0000 fc91 1e13
000000d0: b5db 232d 373c 9516 54dc ed0f 0000 0000
000000e0: 22e3 822b 7c14 dd2b 0000 0000 c764 062c
000000f0: 1d95 010c 4bb7 2f06 eb47 902e e040 ab0f
00000100: 0000 0000 0000 0000 234c 640f 0000 0000
00000110: eca2 9b0e 0000 0000 6ac5 4829 a921 1717
00000120: 0000 0000 0f81 120f 11af 1417 3808 7110
00000130: 0000 0000 0000 0000 0000 0000 b1a9 0c2a
00000140: bec3 3628 06db 362c 7cf9 ab0f 03ff d727
00000150: df1b cf14 860e 752e 8a2f b60c 82a3 920f
00000160: 1a6f 020c 27c9 b008 6315 4d2e 0000 0000
00000170: 0000 0000 ddf2 8d1a 0000 0000 da55 3b0e
00000180: be72 c72d 0000 0000 92bc a60f 3e18 ab2e
00000190: 0000 0000 da99 8715 3206 c631 3d55 f016
000001a0: 21f7 b215 0000 0000 bd00 a22d f825 b02d
000001b0: 0000 0000 2d21 0d2e 99a3 1110 568f 3a0a
000001c0: ec73 1a33 bc0c 2013 0000 0000 0000 0000
000001d0: c928 0415 0000 0000 01d2 ca13 0000 0000
000001e0: b7dd f52b fe9e 7217 0000 0000 3d89 8214
000001f0: a59f 4417 6f0d 1b14 0000 0000 0000 0000
00000200: 0000 0000 074a b128 469f 382e c399 3331
00000210: aec0 0a14 ff19 802e 48c5 d215 3370 f332
00000220: e906 3411 1e51 9515 e331 e811 d1ba 280f
00000230: d50e 8030 0000 0000 0000 0000 b19b 541b
00000240: 0000 0000 be29 7514 4095 6b32 0000 0000
00000250: 389e 5f15 d7db 2e33 0000 0000 bcb2 3014
00000260: 2736 ad2d e549 7912 665c 8911 0000 0000
00000270: 1ad1 432c e8cb 8b2b 0000 0000 dbe8 972c
00000280: 7ca2 7009 1557 6d07 d663 282f 7e60 4910
00000290: 0000 0000 0000 0000 a396 d110 0000 0000
000002a0: c14f 1710 0000 0000 4144 2429 220a 2616
000002b0: 0000 0000 2962 bf10 5d2e af16 bf28 0710
000002c0: 0000 0000 0000 0000 0000 0000 bacf 8029
000002d0: 16af e12b ca71 272d a07d 9411 60a5 332a
000002e0: 3817 0310 c704 cd2e 67a6 800a 0096 3b11
000002f0: 2ec5 d00c 9619 150a d09e 142e 0000 0000
00000300: 0000 0000 a67f da0f 0000 0000 9162 3110
00000310: 8c3c 842e 0000 0000 69c3 2f11 24db 392f

exp_avg f4 [4]
-5.597545e-05 1.3886423e-06 -1.9858424e-05 1.918539e-06
00000000: 2fc7 6ab8 6361 ba35 a495 a6b7 40c0 0036

exp_avg_sq f4 [4]
2.3628683e-05 5.2286175e-10 4.7990863e-08 5.926002e-10
00000000: 3636 c637 20b9 0f30 831e 4e33 88e4 2230
