covid.pth (torch, 10241 bytes, 12 tensors)

weight f4 [50, 4]
-0.019916069 -0.08443692 0.43857354 0.17251581 0.19303122 -0.16063118 0.15207994 0.037134647
-0.21868452 -0.5165706 -0.40620932 0.25557715 -0.30637354 0.2734761 -0.1953923 -0.25755608
-0.09128964 0.05080542 -0.18212819 0.18676415 -0.20647287 -0.20074952 -0.21448195 0.22299829
-0.087731875 0.23941188 0.80088747 -0.14258614 -0.5133771 2.5848067 0.64323676 0.22653124
0.2735869 0.7644209 -0.11782428 0.27631903 0.022254637 -1.5336221 0.091866 0.53888863
-0.16567667 0.84396493 0.9260384 -0.35490066 -2.0444188 -4.741657 1.5237622 0.66536427
-0.4211237 -0.01686806 1.1911862 0.1344373 -0.18409383 -0.0049237907 0.058847457 -0.1012311
-0.10834306 -0.41097778 -0.43860954 0.2261717 0.22123952 0.23015606 0.21126695 0.17041443
-0.5649819 0.31282896 1.153728 -0.37795177 0.07613692 -0.19963932 0.105804116 -0.103882834
-0.32019514 0.2641413 0.11779347 -0.057388157 0.15762979 -0.48857257 -0.8326711 0.021796359
0.64740634 -0.18469267 -0.7635854 0.2445914 -0.03636995 -0.0022412837 -0.1504558 0.11246106
0.25445887 -0.5703938 -0.5288731 -0.2268249 -0.8497548 0.44826224 1.2037611 0.2042261
0.019738406 0.059933037 0.22049996 0.0049969256 0.03276204 1.343668 0.65303546 0.04910235
-0.15396948 0.30422708 -1.0585622 0.2918378 0.090239555 0.29620078 -0.27006277 0.24192777
0.110621974 0.42380714 -1.2029171 0.25738806 -0.73244065 1.4852679 1.0089083 0.32998857
-0.31705675 0.12392604 -0.27594095 -0.035677046 -0.24531479 0.6178153 0.8332735 0.15965697
-0.1319732 -0.47869408 -0.20531309 0.3210424 0.1962004 -0.14957611 0.049056143 0.005019456
-0.12635916 0.63951784 0.53917056 0.074245155 -0.1417073 -0.28840396 0.0023699105 0.00606218
-0.05618897 -0.3009704 -0.23304391 0.04641965 0.020691799 -0.11117346 -0.82025385 0.020110225
-0.006576985 0.17678216 0.2955781 -0.053633332 -0.07428315 0.18740967 -0.15667486 -0.26615888
-0.032775998 -0.12726232 -0.25452733 0.096737474 -0.07789546 0.19226235 -0.050395723 -0.098922424
0.16264074 0.028231507 0.2192366 0.30176568 0.1426489 0.072918504 0.22798398 -0.2504995
-0.025432346 -0.23069714 0.3078626 0.28199193 -0.27364117 0.035684466 -0.1445903 0.14666417
0.28312108 -0.61716205 -0.8260822 0.34698382 0.19575587 -0.2858745 0.007346034 0.3114408
0.02498428 -0.07063397 0.057662155 -0.14864169 0.20631465 0.27139524 0.013874918 0.23172167
00000000: 0627 a3bc 44ed acbd b68c e03e fca7 303e
00000010: faa9 453e 807c 24be d8ba 1b3e 801a 183d
00000020: d6ee 5fbe f93d 04bf abfa cfbe 02db 823e
00000030: fedc 9cbe 0f05 8c3e eb14 48be 64de 83be
00000040: 10f6 babd 5819 503d d07f 3abe 1a3f 3f3e
00000050: a06d 53be 4891 4dbe 28a1 5bbe aa59 643e
00000060: c5ac b3bd 6328 753e f606 4d3f 1a02 12be
00000070: ae6c 03bf 796d 2540 2aab 243f cef7 673e
00000080: 9513 8c3e 17b1 433f db4d f1bd b079 8d3e
00000090: 5b4f b63c bb4d c4bf 3e24 bc3d 9bf4 093f
000000a0: 25a7 29be 160e 583f da10 6d3f 8ab5 b5be
000000b0: c2d7 02c0 a7bb 97c0 a40a c33f 5055 2a3f
000000c0: 879d d7be e32e 8abc ca78 983f eea9 093e
000000d0: 1883 3cbe c057 a1bb 080a 713d 4052 cfbd
000000e0: f7e2 ddbd ae6b d2be 6e91 e0be 8e99 673e
000000f0: 9d8c 623e 08ae 6b3e 5d56 583e 1f81 2e3e
00000100: a7a2 10bf 1e2b a03e 5cad 933f e582 c1be
00000110: aced 9b3d 406e 4cbe d4af d83d 86c0 d4bd
00000120: 9ef0 a3be 873d 873e b43d f13d d80f 6bbd
00000130: b469 213e 2f26 fabe ef29 55bf 478e b23c
00000140: 6cbc 253f 1320 3dbe 557a 43bf 2b76 7a3e
00000150: a8f8 14bd 80e2 12bb 1611 1abe fc51 e63d
00000160: 6f48 823e 5405 12bf 3a64 07bf c944 68be
00000170: 8889 59bf a182 e53e d814 9a3f a620 513e
00000180: 70b2 a13c 587c 753d beca 613e 40bd a33b
00000190: 7d31 063d 50fd ab3f 552d 273f 8c1f 493d
000001a0: 2daa 1dbe a7c3 9b3e f77e 87bf c46b 953e
000001b0: 84cf b83d a1a7 973e ab45 8abe eabb 773e
000001c0: c68d e23d 40fd d83e 30f9 99bf 5ec8 833e
000001d0: 3b81 3bbf 421d be3f e823 813f 43f4 a83e
000001e0: 4355 a2be f0cc fd3d 2248 8dbe 1822 12bd
000001f0: cd33 7bbe 2529 1e3f 6951 553f 1e7d 233e
00000200: fc23 07be 6417 f5be 983d 52be ab5f a43e
00000210: c2e8 483e 7b2a 19be 18ef 483d 407a a43b
00000220: 4c64 01be 71b7 233f 1507 0a3f d80d 983d
00000230: b81b 11be afa9 93be 8050 1b3b 40a5 c63b
00000240: 6826 66bd cb18 9abe 10a3 6ebe 8822 3e3d
00000250: d981 a93c e9ae e3bd 28fc 51bf 33be a43c
00000260: c083 d7bb 6206 353e 0356 973e a0ae 5bbd
00000270: c421 98bd 52e8 3f3e 606f 20be fa45 88be
00000280: 2040 06bd 0e51 02be 6851 82be 4c1e c63d
00000290: a887 9fbd 6ce0 443e bf6b 4ebd d797 cabd
000002a0: 4b8b 263e c345 e73c 8f7f 603e 0881 9a3e
000002b0: 8e12 123e 4c56 953d a274 693e 7841 80be
000002c0: 7f57 d0bc df3b 6cbe 2ba0 9d3e 3f61 903e
000002d0: b21a 8cbe e029 123d 7b0f 14be 222f 163e
000002e0: 3ff5 903e 55fe 1dbf 207a 53bf dda7 b13e
000002f0: 3a74 483e 245e 92be 00b7 f03b 2b75 9f3e
00000300: d5ab cc3c 8ba8 90bd 272f 6c3d 8735 18be
00000310: 2644 533e 51f4 8a3e a053 633c 7248 6d3e

bias f4 [50]
0.44624355 -0.22659808 0.3620064 -0.36945468 -0.41680032 -0.3817606 0.5378603 0.2251217
-0.09086563 0.19113201 0.67357165 0.21295393 0.5443262 0.001414895 0.25384313 0.19055608
0.7954458 -0.22190994 -0.28620762 0.36254945 0.14902456 -0.33789414 0.35969162 -0.010211907
-0.35437703 0.40604705 0.21300572 -0.2808879 0.21055172 -0.11991233 -0.28117716 0.35223985
0.20806772 -0.36076218 0.5921791 -0.18770826 -0.085193634 0.253487 -0.35451508 -0.1432885
-0.27112377 -0.057905715 0.38089806 -0.48198897 -0.2944698 -0.21804875 0.3151491 -0.33939654
-0.036593564 -0.49888188
00000000: 097a e43e 5409 68be e758 b93e 2a29 bdbe
00000010: da66 d5be 2076 c3be 36b1 093f 4e86 663e
00000020: c217 babd 1cb8 433e 316f 2c3f 9810 5a3e
00000030: f658 0b3f 0074 b93a baf7 813e 2221 433e
00000040: 56a2 4b3f 5c3c 63be ce89 92be 15a0 b93e
00000050: e599 183e 7600 adbe 8029 b83e d84f 27bc
00000060: e870 b5be 66e5 cf3e 2c1e 5a3e 8ad0 8fbe
00000070: df9a 573e 9894 f5bd 74f6 8fbe c858 b43e
00000080: b40f 553e d2b5 b8be 0d99 173f 9836 40be
00000090: 007a aebd 0cc9 813e 0083 b5be 38ba 12be
000000a0: bcd0 8abe 8b2e 6dbd 1205 c33e 42c7 f6be
000000b0: bfc4 96be 2c48 5fbe 395b a13e 62c5 adbe
000000c0: 22e3 15bd 726d ffbe

weight f4 [4, 50]
-0.27452266 0.22847179 -0.17020674 0.32400754 0.06955385 0.28451088 -0.12628087 -0.19931427
0.5245786 0.5095728 -0.4316364 1.4657267 -0.39935777 -0.14559865 -0.16971986 0.28203982
-0.53096896 0.23636964 -0.25139138 0.12547767 0.483753 0.23190418 0.01816314 -1.5455053
-0.02082932 0.10598269 0.3909665 -0.09904167 0.55636585 -1.8305491 -0.28101343 -0.33285055
-0.3143008 -0.040907472 -0.4053629 -0.032062322 -0.02786836 0.38034856 -0.013084918 -0.323263
0.1802316 0.2886215 -0.16900127 0.07317242 -0.24932691 -0.055245966 -0.048286602 0.30349258
-0.013214905 0.19518533 -0.13411373 -0.19310066 0.15402672 0.21951947 0.22054842 0.027585268
-0.0064494736 -0.42356294 0.39331058 0.46704307 -0.7611901 1.1116092 0.07827744 -0.21086323
0.09688162 -0.18387443 -0.6835568 -0.086027786 -0.12515888 0.08090915 0.19894435 -0.06266311
-0.22328568 -1.3471004 0.26934996 -0.09329069 -0.022485372 0.20770386 0.6444024 -1.4896686
-0.2855438 -0.7614243 -0.45982292 -0.053580433 -0.20879333 -0.18226683 -0.1592811 0.47446433
-0.23689267 0.28339484 -0.072886825 0.1975303 0.37813476 0.27662864 0.28431532 -0.03668058
0.1623137 -0.23688921 0.17684159 -0.013188362 -0.017246753 0.23097983 -0.25198755 0.09024164
-0.32490915 0.044062108 -0.3275577 -0.30838612 0.11768213 0.4647691 -0.24814439 1.42347
-0.46301848 0.046438456 0.13884698 -0.32716733 -0.35401383 -0.18633525 0.24133721 0.061176904
0.275262 -0.19593668 0.171936 -1.6978742 0.07601476 0.068479866 0.30585358 -0.011357874
0.6747552 -1.653446 0.32796946 -0.6974204 0.05947882 0.0569472 -0.06195856 0.11870286
-0.28785264 0.3611781 -0.15214276 -0.30639154 0.076761246 -0.22037844 -0.2622311 -0.20383541
-0.15417826 -0.11029956 -0.0073522013 0.043584466 -0.13983247 0.046386212 -0.2002069 0.050289363
0.22597307 0.15176165 -0.059877604 -0.005866289 -0.17908064 -0.79963 0.26793832 0.2973729
-0.3050373 1.1491199 -0.15568244 -0.23482434 0.23426726 0.05432587 -0.45156154 -0.30047294
-0.20950012 0.18982112 0.6383005 0.07799491 -0.014650857 -0.8833694 0.03838423 -0.12804237
0.28409818 0.09615895 0.47084194 -1.5675505 -0.14772329 -0.38447845 0.013541237 0.29579428
-0.4292388 -0.14824466 0.08676854 0.38805547 -0.06102419 0.005718112 -0.2187634 0.18971696
-0.28310177 -0.12728004 0.24164273 0.03280863 0.08418095 -0.18028355 0.06164232 0.1617423
00000000: 3c8e 8cbe 82f4 693e ad4a 2ebe 51e4 a53e
00000010: 4072 8e3d 69ab 913e c64f 01be 0a19 4cbe
00000020: c84a 063f 5d73 023f 72ff dcbe ef9c bb3f
00000030: 9f78 ccbe d017 15be 0bcb 2dbe 8667 903e
00000040: 95ed 07bf e20a 723e 5fb6 80be 387d 003e
00000050: 79ae f73e 4a78 6d3e deca 943c 1ed3 c5bf
00000060: 40a2 aabc 740d d93d c32c c83e 5cd6 cabd
00000070: fe6d 0e3f 6f4f eabf fee0 8fbe 636b aabe
00000080: 09ec a0be 988e 27bd ba8b cfbe c853 03bd
00000090: 304c e4bc 0cbd c23e 2062 56bc ba82 a5be
000000a0: a28e 383e 32c6 933e ab0e 2dbe 6cdb 953d
000000b0: 8e4f 7fbe 9849 62bd 2cc8 45bd 6163 9b3e
000000c0: 5483 58bc aade 473e 1c55 09be 2ebc 45be
000000d0: 2eb9 1d3e b6c9 603e 72d7 613e 80fa e13c
000000e0: 1b56 d3bb 3edd d8be 0160 c93e 4520 ef3e
000000f0: 5bdd 42bf 3649 8e3f ec4f a03d 88ec 57be
00000100: df69 c63d 9449 3cbe 94fd 2ebf 562f b0bd
00000110: a629 00be b2b3 a53d 11b8 4b3e 8455 80bd
00000120: 00a5 64be c96d acbf 3de8 893e 300f bfbd
00000130: 3e33 b8bc 52b0 543e 8ef7 243f 76ad bebf
00000140: cc32 92be b4ec 42bf e96d ebbe 2877 5bbd
00000150: ebcd 55be 28a4 3abe 961a 23be fdec f23e
00000160: fe93 72be 2119 913e b045 95bd 6245 4a3e
00000170: e19a c13e 45a2 8d3e c791 913e 603e 16bd
00000180: 9035 263e 1693 72be f615 353e 0014 58bc
00000190: 1049 8dbc fa85 6c3e 8304 81be 9cd0 b83d
000001a0: 7e5a a6be 787a 343d a5b5 a7be c9e4 9dbe
000001b0: 5403 f13d 37f6 ed3e 9019 7ebe 4434 b63f
000001c0: c210 edbe 4036 3e3d e72d 0e3e 7a82 a7be
000001d0: 4d41 b5be abce 3ebe 1a21 773e a294 7a3d
000001e0: 24ef 8c3e a0a3 48be fe0f 303e f153 d9bf
000001f0: a0ad 9b3d 2c3f 8c3d d798 9c3e 6016 3abc
00000200: c2bc 2c3f 1ea4 d3bf 9deb a73e 258a 32bf
00000210: 10a0 733d 7841 693d 42c8 7dbd 7c1a f33d
00000220: 6c61 93be 56ec b83e 50cb 1bbe 5adf 9cbe
00000230: 0035 9d3d e3aa 61be 2843 86be 3bba 50be
00000240: e8e0 1dbe bce4 e1bd bcea f0bb a085 323d
00000250: 3e30 0fbe 78ff 3d3d 0a03 4dbe 38fc 4d3d
00000260: 7c65 673e 6867 1b3e 3842 75bd 003a c0bb
00000270: ea60 37be 8db4 4cbf 362f 893e 4341 983e
00000280: d92d 9cbe 5c16 933f 386b 1fbe cb75 70be
00000290: c2e3 6f3e ce84 5e3d 1333 e7be 97d7 99be
000002a0: 3387 56be 7860 423e a967 233f ccbb 9f3d
000002b0: 260a 70bc 7f24 62bf c838 1d3d 8a1d 03be
000002c0: 5175 913e fcee c43d 3212 f13e 7fa5 c8bf
000002d0: c644 17be 5cda c4be 11dc 5d3c 5972 973e
000002e0: 30c5 dbbe 73cd 17be b4b3 b13d 35af c63e
000002f0: 80f4 79bd 005f bb3b 8303 60be 2a45 423e
00000300: b7f2 90be b355 02be 3171 773e 5862 063d
00000310: 1067 ac3d 409c 38be a87c 7c3d c69f 253e

bias f4 [4]
-0.14546387 -0.22349848 -0.12520437 -0.2286965
00000000: 7bf4 14be c9dc 64be 9335 00be 6a2f 6abe

exp_avg f4 [50, 4]
-2.6749848e-07 1.317567e-08 -3.046381e-09 -6.0465445e-06 0.0 0.0 0.0 0.0
-1.810042e-07 -5.9108167e-09 -2.2579815e-08 -3.6499773e-06 0.0 0.0 0.0 0.0
0.0 0.0 0.0 0.0 0.0 0.0 0.0 0.0
-1.3051327e-07 2.8959715e-09 -5.57937e-09 -2.7648114e-06 3.3330886e-07 -4.6124057e-08 1.5457907e-08 -4.5408465e-06
5.0563756e-07 -3.3150442e-08 -6.230991e-09 1.1592829e-05 2.2289615e-07 -3.203989e-07 -1.2964418e-07 1.1131411e-05
-3.9586172e-07 5.334829e-08 4.4494087e-08 -9.674153e-06 -3.3489362e-06 -1.4175957e-06 -1.4849493e-06 3.0041232e-05
-4.092789e-07 3.0177212e-09 -2.7890557e-08 -8.698369e-06 0.0 0.0 0.0 0.0
-1.7188864e-07 -2.556332e-09 -1.8186341e-08 -3.661729e-06 2.8612007e-07 5.5727654e-09 3.2404984e-08 6.1116757e-06
-5.006851e-07 5.0607138e-08 3.2305117e-08 -1.1826913e-05 0.0 0.0 0.0 0.0
0.0 0.0 0.0 0.0 1.2225672e-07 -7.2141626e-09 -4.6739146e-10 2.777804e-06
4.774727e-07 -2.0971349e-08 8.351208e-09 1.0662618e-05 0.0 0.0 0.0 0.0
3.2032595e-08 1.2847725e-08 2.049004e-08 3.2637064e-07 2.9732992e-06 -3.2802865e-07 -2.6220334e-08 -3.4268007e-05
0.0 0.0 0.0 0.0 1.1150881e-07 3.6302792e-09 1.4162053e-08 2.278075e-06
3.9606633e-07 -6.161091e-09 2.2776042e-08 8.5459815e-06 0.0 0.0 0.0 0.0
5.3295594e-07 -4.8697142e-08 -2.7853531e-08 1.2369539e-05 3.5209116e-06 -3.9477422e-07 -4.1029807e-08 -4.0593288e-05
0.0 0.0 0.0 0.0 -3.0408202e-07 5.139092e-08 5.0554615e-08 -7.5155563e-06
-2.893689e-07 3.308849e-08 2.3349294e-08 -7.0028937e-06 0.0 0.0 0.0 0.0
-3.9517792e-07 2.0101744e-08 -3.4732466e-09 -8.940369e-06 0.0 0.0 0.0 0.0
0.0 0.0 0.0 0.0 3.61233e-07 -3.5328497e-08 -2.1921174e-08 8.472769e-06
0.0 0.0 0.0 0.0 0.0 0.0 0.0 0.0
0.0 0.0 0.0 0.0 6e-45 6e-45 6e-45 6e-45
-1.918931e-07 -1.9108773e-08 -4.223109e-08 -3.586416e-06 0.0 0.0 0.0 0.0
6e-45 6e-45 6e-45 6e-45 0.0 0.0 0.0 0.0
-5.6382362e-08 -8.727449e-09 -1.707523e-08 -9.972223e-07 0.0 0.0 0.0 0.0
6e-45 6e-45 6e-45 6e-45 0.0 0.0 0.0 0.0
00000000: b69c 8fb4 365b 6232 8058 51b1 6ce3 cab6
00000010: 0000 0000 0000 0000 0000 0000 0000 0000
00000020: 0e5a 42b4 1818 cbb1 8af5 c1b2 22f2 74b6
00000030: 0000 0000 0000 0000 0000 0000 0000 0000
00000040: 0000 0000 0000 0000 0000 0000 0000 0000
00000050: 0000 0000 0000 0000 0000 0000 0000 0000
00000060: 3723 0cb4 7802 4731 a8b4 bfb1 198b 39b6
00000070: 9ff1 b234 f019 46b3 4cc8 8432 935d 98b6
00000080: 26bb 0735 4c61 0eb3 6018 d6b1 d27e 4237
00000090: 3a55 6f34 4a03 acb4 5234 0bb4 0cc1 3a37
000000a0: d286 d4b4 1121 6533 c419 3f33 2c4e 22b7
000000b0: 49be 60b6 3844 beb5 784e c7b5 0e01 fc37
000000c0: ddba dbb4 5060 4f31 fc93 efb2 36ef 11b7
000000d0: 0000 0000 0000 0000 0000 0000 0000 0000
000000e0: 6490 38b4 78ab 2fb1 3038 9cb2 06bc 75b6
000000f0: 0b9c 9934 907a bf31 a82d 0b33 e512 cd36
00000100: d166 06b5 235b 5933 dabf 0a33 346c 46b7
00000110: 0000 0000 0000 0000 0000 0000 0000 0000
00000120: 0000 0000 0000 0000 0000 0000 0000 0000
00000130: ac45 0334 72e0 f7b1 c079 00b0 4f6a 3a36
00000140: ad2b 0035 7c24 b4b2 0079 0f32 98e3 3237
00000150: 0000 0000 0000 0000 0000 0000 0000 0000
00000160: 3694 0933 e4b8 5c32 1302 b032 0a38 af34
00000170: e488 4736 ea1b b0b4 203b e1b2 feba 0fb8
00000180: 0000 0000 0000 0000 0000 0000 0000 0000
00000190: 9e76 ef33 8c78 7931 5e4d 7332 08e1 1836
000001a0: f1a2 d434 88b1 d3b1 0ca5 c332 b660 0f37
000001b0: 0000 0000 0000 0000 0000 0000 0000 0000
000001c0: 7410 0f35 1327 51b3 9042 efb2 c486 4f37
000001d0: cd48 6c36 5bf1 d3b4 c038 30b3 b642 2ab8
000001e0: 0000 0000 0000 0000 0000 0000 0000 0000
000001f0: b740 a3b4 eab8 5c33 6321 5933 232e fcb6
00000200: 8f5a 9bb4 2e1d 0e33 a491 c832 66fa eab6
00000210: 0000 0000 0000 0000 0000 0000 0000 0000
00000220: d728 d4b4 34ac ac32 00ae 6eb1 98fe 15b7
00000230: 0000 0000 0000 0000 0000 0000 0000 0000
00000240: 0000 0000 0000 0000 0000 0000 0000 0000
00000250: 7cef c134 18bc 17b3 2c4d bcb2 4426 0e37
00000260: 0000 0000 0000 0000 0000 0000 0000 0000
00000270: 0000 0000 0000 0000 0000 0000 0000 0000
00000280: 0000 0000 0000 0000 0000 0000 0000 0000
00000290: 0400 0000 0400 0000 0400 0000 0400 0000
000002a0: 2c0b 4eb4 a324 a4b2 9361 35b3 28ae 70b6
000002b0: 0000 0000 0000 0000 0000 0000 0000 0000
000002c0: 0400 0000 0400 0000 0400 0000 0400 0000
000002d0: 0000 0000 0000 0000 0000 0000 0000 0000
000002e0: 1029 72b3 baef 15b2 d4ac 92b2 4cd8 85b5
000002f0: 0000 0000 0000 0000 0000 0000 0000 0000
00000300: 0400 0000 0400 0000 0400 0000 0400 0000
00000310: 0000 0000 0000 0000 0000 0000 0000 0000

exp_avg_sq f4 [50, 4]
1.0426378e-09 9.392043e-11 4.27003e-10 2.4641733e-07 0.0 0.0 0.0 0.0
3.9159398e-10 3.587925e-11 1.6183672e-10 9.313106e-08 0.0 0.0 0.0 0.0
0.0 0.0 0.0 0.0 0.0 0.0 0.0 0.0
2.2186664e-10 1.9833475e-11 9.047711e-11 5.245518e-08 1.8398622e-10 4.767814e-11 2.2672401e-10 1.3204587e-07
3.81493e-09 3.4427655e-10 1.5650107e-09 9.018612e-07 2.3361335e-09 7.175128e-11 1.2044571e-09 8.402562e-07
2.5938316e-09 2.336471e-10 1.0667474e-09 6.133096e-07 3.4582357e-09 1.2247012e-10 7.3334374e-09 6.8300233e-06
2.1957731e-09 1.9831245e-10 8.9998975e-10 5.199626e-07 0.0 0.0 0.0 0.0
3.892725e-10 3.571601e-11 1.608772e-10 9.239219e-08 1.0977648e-09 9.9145143e-11 4.47947e-10 2.5867166e-07
3.92337e-09 3.5282804e-10 1.6090446e-09 9.269508e-07 0.0 0.0 0.0 0.0
0.0 0.0 0.0 0.0 2.2326498e-10 1.9832653e-11 9.029427e-11 5.2214165e-08
3.28111e-09 2.9278624e-10 1.3325155e-09 7.70751e-07 0.0 0.0 0.0 0.0
4.5691576e-12 4.0916676e-13 1.798849e-12 1.0875139e-09 5.6751337e-09 2.0561086e-09 1.3157062e-08 7.804042e-06
0.0 0.0 0.0 0.0 1.5358304e-10 1.4026079e-11 6.3137e-11 3.6336147e-08
2.1191207e-09 1.9067206e-10 8.65934e-10 5.0058725e-07 0.0 0.0 0.0 0.0
4.3144306e-09 3.8784956e-10 1.7685121e-09 1.0194294e-06 8.062985e-09 2.9278804e-09 1.8510034e-08 1.0974055e-05
0.0 0.0 0.0 0.0 1.5549116e-09 1.3929054e-10 6.382758e-10 3.6720232e-07
1.2297957e-09 1.2123197e-10 5.6132093e-10 3.2248948e-07 0.0 0.0 0.0 0.0
2.2876718e-09 2.0505102e-10 9.330812e-10 5.3900044e-07 0.0 0.0 0.0 0.0
0.0 0.0 0.0 0.0 2.025371e-09 1.8160366e-10 8.282787e-10 4.775387e-07
0.0 0.0 0.0 0.0 0.0 0.0 0.0 0.0
0.0 0.0 0.0 0.0 4.2890086e-25 1.8283555e-24 3.7365693e-25 6.793821e-25
3.9664466e-10 3.5251423e-11 1.5960301e-10 9.316929e-08 0.0 0.0 0.0 0.0
2.282997e-26 2.8127544e-27 2.4059378e-25 5.5295935e-24 0.0 0.0 0.0 0.0
3.0909303e-11 2.847391e-12 1.2727614e-11 7.360293e-09 0.0 0.0 0.0 0.0
3.798966e-21 4.504472e-25 8.9955553e-26 2.2962876e-25 0.0 0.0 0.0 0.0
00000000: 8e4c 8f30 8088 ce2e 54bf ea2f 574b 8434
00000010: 0000 0000 0000 0000 0000 0000 0000 0000
00000020: f447 d72f 72cc 1d2e fdf0 312f 57ff c733
00000030: 0000 0000 0000 0000 0000 0000 0000 0000
00000040: 0000 0000 0000 0000 0000 0000 0000 0000
00000050: 0000 0000 0000 0000 0000 0000 0000 0000
00000060: e8f1 732f 0475 ae2d 16f6 c62e 154b 6133
00000070: 844b 4a2f d0b0 512e 2349 792f 7ec8 0d34
00000080: 7b14 8331 9e44 bd2f eb17 d730 6e17 7235
00000090: b289 2031 61c8 9d2e 118a a530 f78d 6135
000000a0: 2b3f 3231 e872 802f d69c 9230 51a2 2435
000000b0: eda5 6d31 46a8 062f 99f9 fb31 742d e536
000000c0: 73e4 1631 fe0b 5a2f 2663 7730 8f93 0b35
000000d0: 0000 0000 0000 0000 0000 0000 0000 0000
000000e0: 3c01 d62f a714 1d2e e8e2 302f 2569 c633
000000f0: 2ae0 9630 c105 da2e f042 f62f 90df 8a34
00000100: 54ce 8631 22f8 c12f 3925 dd30 93d3 7835
00000110: 0000 0000 0000 0000 0000 0000 0000 0000
00000120: 0000 0000 0000 0000 0000 0000 0000 0000
00000130: 817b 752f 2a73 ae2d 288f c62e 1542 6033
00000140: e679 6131 00f6 a02f b923 b730 9be5 4e35
00000150: 0000 0000 0000 0000 0000 0000 0000 0000
00000160: 50c3 a02c 2557 e62a 5e2a fd2b 7e77 9530
00000170: 01ff c231 724b 0d31 5f09 6232 1bee 0237
00000180: 0000 0000 0000 0000 0000 0000 0000 0000
00000190: c8dd 282f d8bf 762d f9d6 8a2e 0410 1c33
000001a0: f79f 1131 6aa5 512f b006 6e30 1860 0635
000001b0: 0000 0000 0000 0000 0000 0000 0000 0000
000001c0: 223e 9431 f938 d52f fd0f f330 54d3 8835
000001d0: 6285 0a32 d133 4931 ffff 9e32 351d 3837
000001e0: 0000 0000 0000 0000 0000 0000 0000 0000
000001f0: 97b4 d530 cd26 192f ab72 2f30 e723 c534
00000200: 9705 a930 c44b 052f 734b 1a30 9e22 ad34
00000210: 0000 0000 0000 0000 0000 0000 0000 0000
00000220: 2635 1d31 bb74 612f e03d 8030 d4af 1035
00000230: 0000 0000 0000 0000 0000 0000 0000 0000
00000240: 0000 0000 0000 0000 0000 0000 0000 0000
00000250: b42e 0b31 e3ac 472f efac 6330 3630 0035
00000260: 0000 0000 0000 0000 0000 0000 0000 0000
00000270: 0000 0000 0000 0000 0000 0000 0000 0000
00000280: 0000 0000 0000 0000 0000 0000 0000 0000
00000290: 07bd 0417 5076 0d18 4e48 e716 3242 5217
000002a0: c60e da2f 9309 1b2e 417c 2f2f 5c14 c833
000002b0: 0000 0000 0000 0000 0000 0000 0000 0000
000002c0: da18 e214 70d9 5e13 9beb 9416 71ea d518
000002d0: 0000 0000 0000 0000 0000 0000 0000 0000
000002e0: c8f0 072e 095e 482c 14e8 5f2d d2e5 fc31
000002f0: 0000 0000 0000 0000 0000 0000 0000 0000
00000300: 5885 8f1d 1b68 0b17 1bb8 de15 2122 8e16
00000310: 0000 0000 0000 0000 0000 0000 0000 0000

exp_avg f4 [50]
-6.3039133e-06 0.0 -3.859473e-06 0.0 0.0 0.0 -2.898009e-06 -4.2382057e-06
1.20590885e-05 1.0904273e-05 -9.9721765e-06 2.378975e-05 -9.1325255e-06 0.0 -3.8543617e-06 6.4357755e-06
-1.2244691e-05 0.0 0.0 2.89238e-06 1.1127477e-05 0.0 3.9174114e-07 -3.1648957e-05
0.0 2.4073775e-06 8.958665e-06 0.0 1.2825945e-05 -3.75082e-05 0.0 -7.717693e-06
-7.235827e-06 0.0 -9.3189265e-06 0.0 0.0 8.7767585e-06 0.0 0.0
0.0 6e-45 -3.8396506e-06 0.0 6e-45 0.0 -1.0794079e-06 0.0
6e-45 0.0
00000000: 3486 d3b6 0000 0000 9f80 81b6 0000 0000
00000010: 0000 0000 0000 0000 6a7b 42b6 e935 8eb6
00000020: 6451 4a37 7ff1 3637 2c4e 27b7 1990 c737
00000030: e637 19b7 0000 0000 b754 81b6 e4f2 d736
00000040: 8c6e 4db7 0000 0000 0000 0000 b61a 4236
00000050: 26b0 3a37 0000 0000 7e50 d234 cfbe 04b8
00000060: 0000 0000 6e8e 2136 2c4d 1637 0000 0000
00000070: 042f 5737 2052 1db8 0000 0000 3d7b 01b7
00000080: 48cb f2b6 0000 0000 7c58 1cb7 0000 0000
00000090: 0000 0000 e43f 1337 0000 0000 0000 0000
000000a0: 0000 0000 0400 0000 59d6 80b6 0000 0000
000000b0: 0400 0000 0000 0000 2ce0 90b5 0000 0000
000000c0: 0400 0000 0000 0000

exp_avg_sq f4 [50]
3.1058218e-07 0.0 1.1736906e-07 0.0 0.0 0.0 6.609434e-08 1.5876823e-07
1.1367184e-06 1.0091566e-06 7.730781e-07 7.663175e-06 6.5527036e-07 0.0 1.1646435e-07 3.2604297e-07
1.1683402e-06 0.0 0.0 6.580602e-08 9.713629e-07 0.0 1.3670463e-09 9.168699e-06
0.0 4.5795815e-08 6.3086895e-07 0.0 1.284824e-06 1.2898823e-05 0.0 4.6280414e-07
4.0579081e-07 0.0 6.793377e-07 0.0 0.0 6.0187244e-07 0.0 0.0
0.0 1.1851358e-23 1.1737847e-07 0.0 9.151238e-24 0.0 9.275034e-09 0.0
3.9195356e-21 0.0
00000000: 17be a634 0000 0000 530c fc33 0000 0000
00000010: 0000 0000 0000 0000 bfef 8d33 e179 2a34
00000020: 5991 9835 5b72 8735 8685 4f35 1691 0037
00000030: d6e5 2f35 0000 0000 f41a fa33 010b af34
00000040: ddcf 9c35 0000 0000 0000 0000 3e51 8d33
00000050: c65f 8235 0000 0000 aae2 bb30 43d3 1937
00000060: 0000 0000 08b1 4433 fc58 2935 0000 0000
00000070: 3772 ac35 0668 5837 0000 0000 5177 f834
00000080: 77db d934 0000 0000 bb5b 3635 0000 0000
00000090: 0000 0000 5c90 2135 0000 0000 0000 0000
000000a0: 0000 0000 153d 6519 7f11 fc33 0000 0000
000000b0: bc02 3119 0000 0000 0858 1f32 0000 0000
000000c0: 6c13 941d 0000 0000

exp_avg f4 [4, 50]
1.3975059e-05 0.0 1.3625888e-05 0.0 0.0 0.0 9.1356405e-06 1.1453851e-05
4.2113707e-06 1.6547514e-05 7.520777e-06 2.4525696e-05 1.5026388e-05 0.0 1.0616369e-05 8.310903e-06
9.4288525e-06 0.0 0.0 8.8920415e-06 9.360488e-06 0.0 3.5124126e-06 6.102531e-06
0.0 1.04052215e-05 1.1030467e-05 0.0 1.0475881e-05 6.654986e-06 0.0 1.132782e-05
1.1631628e-05 0.0 1.5052333e-05 0.0 0.0 6.2178415e-06 0.0 0.0
0.0 6e-45 1.5470974e-05 0.0 0.0 0.0 1.5029818e-05 0.0
-6e-45 0.0 6.906345e-08 0.0 1.9585248e-07 0.0 0.0 0.0
-6.567177e-08 -8.9359844e-08 2.6504395e-08 2.6813893e-07 -1.5903663e-07 3.781099e-07 1.7765792e-08 0.0
1.6600322e-07 2.9766817e-08 -1.2133475e-07 0.0 0.0 1.4101255e-07 1.3731561e-07 0.0
3.709576e-08 -2.830604e-08 0.0 -7.936578e-08 1.9670347e-07 0.0 1.7815185e-07 -5.157019e-08
0.0 -1.0224902e-08 1.7471082e-07 0.0 8.492506e-09 0.0 0.0 1.1210593e-07
0.0 0.0 0.0 0.0 1.0523043e-07 0.0 0.0 0.0
2.3657583e-07 0.0 0.0 0.0 -3.744969e-09 0.0 -6.2799117e-09 0.0
0.0 0.0 -1.1181935e-09 -1.1912592e-08 5.035279e-10 -7.3523836e-09 3.2886227e-10 -4.190335e-08
-1.0482292e-08 0.0 -4.1215102e-09 4.087557e-10 -5.6986664e-09 0.0 0.0 3.1829543e-09
7.359132e-09 0.0 7.488038e-09 -1.7333964e-08 0.0 -1.6179875e-09 -4.5869584e-09 0.0
1.842082e-11 -1.6916974e-08 0.0 -7.48736e-09 -6.1356555e-09 0.0 -4.243347e-09 0.0
0.0 1.2561561e-09 0.0 0.0 0.0 0.0 -2.4092905e-09 0.0
0.0 0.0 5.912142e-10 0.0 -6e-45 0.0 3.9019266e-08 0.0
3.8600533e-08 0.0 0.0 0.0 2.5137602e-08 2.7707202e-08 1.1781717e-08 4.5691003e-08
2.0441085e-08 5.226714e-08 4.2347754e-08 0.0 3.0047367e-08 2.2983532e-08 2.6226916e-08 0.0
0.0 2.4593016e-08 2.5526678e-08 0.0 9.062436e-09 1.093961e-08 0.0 2.8865088e-08
3.1505248e-08 0.0 2.9548229e-08 1.19543255e-08 0.0 3.1955818e-08 3.3009222e-08 0.0
4.2030695e-08 0.0 0.0 1.7389372e-08 0.0 0.0 0.0 0.0
4.3150578e-08 0.0 6e-45 0.0 4.196418e-08 0.0 0.0 0.0
00000000: 6c76 6a37 0000 0000 be9a 6437 0000 0000
00000010: 0000 0000 0000 0000 4745 1937 ea29 4037
00000020: 664f 8d36 84cf 8a37 fc5a fc36 88bc cd37
00000030: d819 7c37 0000 0000 f51c 3237 0e6f 0b37
00000040: 9d30 1e37 0000 0000 0000 0000 072f 1537
00000050: fd0a 1d37 0000 0000 cab6 6b36 58c4 cc36
00000060: 0000 0000 1692 2e37 7f0f 3937 0000 0000
00000070: 91c1 2f37 e54d df36 0000 0000 9e0c 3e37
00000080: 7625 4337 0000 0000 4789 7c37 0000 0000
00000090: 0000 0000 daa2 d036 0000 0000 0000 0000
000000a0: 0000 0000 0400 0000 aac7 8137 0000 0000
000000b0: 0000 0000 0000 0000 9428 7c37 0000 0000
000000c0: 0400 0080 0000 0000 0850 9433 0000 0000
000000d0: 854b 5234 0000 0000 0000 0000 0000 0000
000000e0: 7007 8db3 18e6 bfb3 c8ab e332 bcf4 8f34
000000f0: a8c3 2ab4 07ff ca34 649b 9832 0000 0000
00000100: 9e3e 3234 ecb1 ff32 3e48 02b4 0000 0000
00000110: 0000 0000 3c69 1734 0771 1334 0000 0000
00000120: 3853 1f33 a425 f3b2 0000 0000 cd6f aab3
00000130: 7035 5334 0000 0000 024a 3f34 067e 5db3
00000140: 0000 0000 98a9 2fb2 2598 3b34 0000 0000
00000150: 70e6 1132 0000 0000 0000 0000 e3be f033
00000160: 0000 0000 0000 0000 0000 0000 0000 0000
00000170: 0afb e133 0000 0000 0000 0000 0000 0000
00000180: 7805 7e34 0000 0000 0000 0000 0000 0000
00000190: 18ad 80b1 0000 0000 b0c6 d7b1 0000 0000
000001a0: 0000 0000 0000 0000 f0ae 99b0 22a8 4cb2
000001b0: a068 0a30 40a0 fcb1 40cb b42f 38f9 33b3
000001c0: 9c15 34b2 0000 0000 309d 8db1 40b7 e02f
000001d0: 00ce c3b1 0000 0000 0000 0000 20bb 5a31
000001e0: 9cdb fc31 0000 0000 bda4 0032 cae5 94b2
000001f0: 0000 0000 e05f deb0 509b 9db1 0000 0000
00000200: 0008 a22d d250 91b2 0000 0000 c2a1 00b2
00000210: ccd1 d2b1 0000 0000 e0cc 91b1 0000 0000
00000220: 0000 0000 10a5 ac30 0000 0000 0000 0000
00000230: 0000 0000 0000 0000 b090 25b1 0000 0000
00000240: 0000 0000 0000 0000 0083 2230 0000 0000
00000250: 0400 0080 0000 0000 2396 2733 0000 0000
00000260: bcc9 2533 0000 0000 0000 0000 0000 0000
00000270: 2cee d732 c800 ee32 8a68 4a32 ca3d 4433
00000280: 6c96 af32 547c 6033 d9e1 3533 0000 0000
00000290: 6e0d 0133 526d c532 9949 e132 0000 0000
000002a0: 0000 0000 9d40 d332 c245 db32 0000 0000
000002b0: 04b1 1b32 eaf0 3b32 0000 0000 00f3 f732
000002c0: 6350 0733 0000 0000 3ed1 fd32 ae5f 4d32
000002d0: 0000 0000 cb3f 0933 06c6 0d33 0000 0000
000002e0: 3d85 3433 0000 0000 0000 0000 a25f 9532
000002f0: 0000 0000 0000 0000 0000 0000 0000 0000
00000300: 9054 3933 0000 0000 0400 0000 0000 0000
00000310: 1b3c 3433 0000 0000 0000 0000 0000 0000

exp_avg_sq f4 [4, 50]
1.5419405e-06 0.0 1.2563111e-06 0.0 0.0 0.0 7.9302987e-07 9.112507e-07
1.3240961e-07 1.7351847e-06 6.457924e-07 2.415791e-06 1.9198258e-06 0.0 7.437094e-07 5.5214707e-07
9.2655677e-07 0.0 0.0 5.091446e-07 5.667825e-07 0.0 8.5356604e-08 1.6617754e-07
0.0 1.0246629e-06 7.6203884e-07 0.0 6.866104e-07 1.9653773e-07 0.0 1.1173523e-06
9.064996e-07 0.0 1.9065104e-06 0.0 0.0 2.3794145e-07 0.0 0.0
0.0 4.0501567e-26 1.8244007e-06 0.0 0.0 0.0 1.473308e-06 0.0
1.2679402e-25 0.0 1.1326156e-11 0.0 7.960825e-12 0.0 0.0 0.0
6.9943894e-12 7.184785e-12 8.3329415e-13 1.0928967e-11 6.64328e-12 1.33516306e-11 1.5275474e-11 0.0
4.5974574e-12 4.04885e-12 8.899533e-12 0.0 0.0 3.0426586e-12 3.3698205e-12 0.0
5.7685085e-13 1.2614195e-12 0.0 8.592192e-12 4.2763675e-12 0.0 3.779904e-12 1.5053416e-12
0.0 8.867413e-12 5.7281202e-12 0.0 1.4581543e-11 0.0 0.0 1.3205587e-12
0.0 0.0 0.0 0.0 1.2856457e-11 0.0 0.0 0.0
8.99071e-12 0.0 0.0 0.0 2.5766422e-12 0.0 2.122038e-12 0.0
0.0 0.0 1.3260844e-12 1.3833498e-12 1.9280619e-13 2.9627102e-12 1.0457936e-12 4.303451e-12
3.3713165e-12 0.0 1.244653e-12 8.9255285e-13 1.6163453e-12 0.0 0.0 8.0051097e-13
8.463776e-13 0.0 1.116538e-13 2.9772652e-13 0.0 1.6273829e-12 1.2121931e-12 0.0
1.0390721e-12 3.180955e-13 0.0 1.8926156e-12 1.541206e-12 0.0 3.1119632e-12 0.0
0.0 3.6533228e-13 0.0 0.0 0.0 0.0 2.9935336e-12 0.0
0.0 0.0 2.390465e-12 0.0 5.499656e-23 0.0 3.4824622e-11 0.0
2.8745803e-11 0.0 0.0 0.0 1.8632351e-11 1.653771e-11 3.117878e-12 4.0852363e-11
1.5858722e-11 5.054876e-11 4.1700733e-11 0.0 1.7103902e-11 1.3641323e-11 1.937884e-11 0.0
0.0 1.4461728e-11 2.0247562e-11 0.0 7.3494015e-12 2.8081552e-12 0.0 2.2820473e-11
1.7250881e-11 0.0 1.602377e-11 3.156226e-12 0.0 2.3499336e-11 2.0875553e-11 0.0
4.174317e-11 0.0 0.0 6.0985266e-12 0.0 0.0 0.0 0.0
4.2163176e-11 0.0 1.5623734e-26 0.0 3.6687448e-11 0.0 0.0 0.0
00000000: acf4 ce35 0000 0000 859e a835 0000 0000
00000010: 0000 0000 0000 0000 99e0 5435 ac9c 7435
00000020: 7a2c 0e34 7ee4 e835 845a 2d35 f91e 2236
00000030: 5bd6 0036 0000 0000 52a3 4735 4237 1435
00000040: 7fb8 7835 0000 0000 0000 0000 27ac 0835
00000050: ff24 1835 0000 0000 4a4d b733 896e 3234
00000060: 0000 0000 2687 8935 e98e 4c35 0000 0000
00000070: 824f 3835 e107 5334 0000 0000 eff7 9535
00000080: 2e56 7335 0000 0000 33e3 ff35 0000 0000
00000090: 0000 0000 d97c 7f34 0000 0000 0000 0000
000000a0: 0000 0000 d68d 4815 eedd f435 0000 0000
000000b0: 0000 0000 0000 0000 7abe c535 0000 0000
000000c0: a1f6 1c16 0000 0000 7940 472d 0000 0000
000000d0: 5e0c 0c2d 0000 0000 0000 0000 0000 0000
000000e0: dc17 f62c caca fc2c 2c8d 6a2b b143 402d
000000f0: 59bd e92c 66e2 6a2d 4f5d 862d 0000 0000
00000100: 37c2 a12c cc74 8e2c ef8f 1c2d 0000 0000
00000110: 0000 0000 aa1b 562c 4a21 6d2c 0000 0000
00000120: 7c5e 222b 6d87 b12b 0000 0000 cb27 172d
00000130: 1876 962c 0000 0000 59fe 842c a6db d32b
00000140: 0000 0000 47ff 1b2d 528a c92c 0000 0000
00000150: b742 802d 0000 0000 0000 0000 24da b92b
00000160: 0000 0000 0000 0000 0000 0000 0000 0000
00000170: 562c 622d 0000 0000 0000 0000 0000 0000
00000180: 8f2a 1e2d 0000 0000 0000 0000 0000 0000
00000190: a950 352c 0000 0000 3d53 152c 0000 0000
000001a0: 0000 0000 0000 0000 3aa1 ba2b 6eb0 c22b
000001b0: 9a14 592a 717b 502c af2e 932b 0a6a 972c
000001c0: 3d3c 6d2c 0000 0000 5a2b af2b 363b 7b2b
000001d0: fa7a e32b 0000 0000 0000 0000 e552 612b
000001e0: ef3b 6e2b 0000 0000 096c fb29 ea9a a72a
000001f0: 0000 0000 a608 e52b dc99 aa2b 0000 0000
00000200: 853c 922b 6512 b32a 0000 0000 552e 052c
00000210: cce7 d82b 0000 0000 25fc 5a2c 0000 0000
00000220: 0000 0000 eea9 cd2a 0000 0000 0000 0000
00000230: 0000 0000 0000 0000 b5a6 522c 0000 0000
00000240: 0000 0000 0000 0000 ca36 282c 0000 0000
00000250: 39f9 841a 0000 0000 0a29 192e 0000 0000
00000260: cbd9 fc2d 0000 0000 0000 0000 0000 0000
00000270: 53e4 a32d 9d77 912d b266 5b2c acab 332e
00000280: ab7e 8b2d d850 5e2e da66 372e 0000 0000
00000290: 9072 962d 0ffb 6f2d 4575 aa2d 0000 0000
000002a0: 0000 0000 d569 7e2d 7519 b22d 0000 0000
000002b0: c34a 012d 3a9b 452c 0000 0000 23bb c82d
000002c0: 88bd 972d 0000 0000 53f2 8c2d 8319 5e2c
000002d0: 0000 0000 cdb3 ce2d 919f b72d 0000 0000
000002e0: a296 372e 0000 0000 0000 0000 a592 d62c
000002f0: 0000 0000 0000 0000 0000 0000 0000 0000
00000300: 846f 392e 0000 0000 dfba 9a14 0000 0000
00000310: 655a 212e 0000 0000 0000 0000 0000 0000

exp_avg f4 [4]
2.28703e-05 1.09409584e-07 -7.4391693e-10 6.3476804e-08
00000000: 98d9 bf37 8ef4 ea33 807c 4cb0 be50 8833

exp_avg_sq f4 [4]
4.09927e-06 2.9513714e-11 6.6252555e-12 9.761949e-11
00000000: 768c 8936 7dcd 012e ff1a e92c e3aa d62e
