covid-test.pth (torch, 5271 bytes, 6 tensors)

fc.0.weight f4 [24, 4]
0	0xbebb4780	-0.36577988
1	0x3eb6a832	0.35675198
2	0xbde3576a	-0.11100657
3	0x3d95e5d3	0.07319226
4	0xbe5d2b89	-0.21598639
5	0x3e7a1fef	0.24426244
6	0x3dccf83f	0.10008287
7	0xbe84d57e	-0.25944132
8	0xbcfaff85	-0.03063942
9	0x3e2b1bf5	0.16709884
10	0x3dc73170	0.09726226
11	0xbecd3b05	-0.4008409
12	0xbddcb5ca	-0.10776861
13	0x3e961793	0.2931486
14	0xbe0c46df	-0.1369891
15	0xbeede885	-0.4646646
16	0x3c6e7ca6	0.014556086
17	0x3e469ca0	0.19395685
18	0x3cacc695	0.021090785
19	0xbc85c1b0	-0.016327709
20	0xbefb3c1d	-0.490693
21	0x3e329185	0.17438324
22	0xbecc3e07	-0.39891073
23	0x3cf31f65	0.029678056
24	0xbc05b4f4	-0.008160818
25	0xbd935121	-0.071932085
26	0xbe8ec194	-0.27882063
27	0xbe8ae37d	-0.27126685
28	0xbda94f37	-0.08267062
29	0x3f071ab8	0.52775145
30	0x3c04a475	0.00809585
31	0xbcfb3697	-0.030665679
32	0xbf2481fe	-0.6426085
33	0xbd599397	-0.05311927
34	0x3d9cbe73	0.07653513
35	0x3e6770c9	0.22601618
36	0x3cc54e40	0.024085164
37	0x3c73a4af	0.014870807
38	0xbe1cb745	-0.15304287
39	0xbd757bc1	-0.059932474
40	0x3d82f497	0.06394308
41	0x3efcdbca	0.49386436
42	0x3d33f41a	0.043933965
43	0xbd6eba65	-0.05828323
44	0x3e1d965c	0.15389389
45	0x3e11572a	0.14193407
46	0x3d6c574d	0.057700444
47	0x3dc408b7	0.09571975
48	0xbf0e3b2c	-0.5555904
49	0x3e8e783d	0.2782611
50	0x3e1bef49	0.15227999
51	0xbee9e82e	-0.45684952
52	0xbef527ee	-0.47882026
53	0x3dc0db94	0.09416881
54	0xbda3d788	-0.08000094
55	0x3dc6c396	0.09705274
56	0xbd794420	-0.060855985
57	0xbe769274	-0.24079305
58	0xbe0c4ec4	-0.13701922
59	0x3a8bc97f	0.0010664909
60	0xbea74243	-0.3266774
61	0xbeebb484	-0.4603616
62	0xbec6d154	-0.3883158
63	0x3d04cb3e	0.03242039
64	0xbefb0fe5	-0.49035564
65	0xbf2dfe73	-0.67966384
66	0xbeea7300	-0.45790863
67	0x3df4792b	0.119371735
68	0xbc637cf6	-0.0138847735
69	0xbda9f3b9	-0.082984395
70	0xbeddca5e	-0.43318456
71	0xbcbbe117	-0.02293448
72	0xbce64c0b	-0.028112432
73	0x3e88eab6	0.2674157
74	0xbe34a207	-0.17639934
75	0x3d0096c9	0.0313938
76	0xbe28c8fa	-0.16482916
77	0xbe82a9fd	-0.25520316
78	0xbe16e2c5	-0.14734943
79	0x3b770505	0.00376922
80	0x3cc5ec5d	0.024160558
81	0x3e0ed0eb	0.13946883
82	0x3cac4ed7	0.021033688
83	0xbc8abd04	-0.016935833
84	0xbe3b66de	-0.1830096
85	0x3e60f54d	0.21968575
86	0xbdbf3aa7	-0.09337359
87	0x3d7b7981	0.061395172
88	0xbdadfd7a	-0.084956124
89	0xbeefb74f	-0.4681954
90	0x3e4bc469	0.19899143
91	0xbf031e95	-0.5121854
92	0x3dc63ea4	0.096799165
93	0xbecebeef	-0.40380046
94	0xbe6bb09f	-0.23016594
95	0xbef6a690	-0.48173952

fc.0.bias f4 [24]
0	0xbee624de	-0.44950002
1	0x3e666f26	0.22503337
2	0x3ec3e093	0.38257274
3	0xbe6c7b10	-0.2309382
4	0x3d4f4f84	0.05061294
5	0xbe4300fb	-0.19043343
6	0xbf44c5ba	-0.76864207
7	0x3eb2b3de	0.34902853
8	0xbda088a0	-0.07838559
9	0xbf39e5da	-0.7261635
10	0xbf25ffc8	-0.64843416
11	0xbe2211f1	-0.15827157
12	0xbdb45ef4	-0.08807173
13	0xbe1c000a	-0.1523439
14	0xbf5da591	-0.8658076
15	0xbf06eaf8	-0.52702284
16	0x3e81c571	0.25345948
17	0xbe04aa45	-0.12955578
18	0xbf1f3e9d	-0.62204915
19	0xbde2d149	-0.11075074
20	0xbe215077	-0.15753351
21	0xbe80a9ac	-0.2512945
22	0xbf008a2f	-0.5021085
23	0x3cd16a76	0.02556346

fc.2.weight f4 [24, 24]
0	0xbd74b111	-0.059739176
1	0xbe32a16b	-0.17444389
2	0x3d1e8a99	0.038706396
3	0x3cae6eb8	0.02129303
4	0xbee40aae	-0.44539398
5	0xbdd0d163	-0.10196187
6	0xbeb935a0	-0.36173725
7	0x39b2f3ec	0.00034132542
8	0x3e0828c6	0.13296804
9	0xbe060352	-0.13087204
10	0xbd9618f1	-0.07328976
11	0xbe9c6490	-0.30545473
12	0x3e0f627a	0.1400241
13	0xbdbe51b3	-0.09292927
14	0xbee94061	-0.4555693
15	0xbddf9629	-0.10917313
16	0x3de99a10	0.11406338
17	0xbe50dc8c	-0.20396632
18	0xbee40ca0	-0.44540882
19	0xbe12116a	-0.14264455
20	0xbe47b50f	-0.19502662
21	0xbcd90e28	-0.026496008
22	0x3e48985a	0.19589368
23	0xbe268f3d	-0.16265579
24	0xbe3473a6	-0.17622241
25	0xbce4fc22	-0.027952258
26	0xbba81441	-0.0051293676
27	0xbd4223e0	-0.047397494
28	0xbbc8a58f	-0.0061232517
29	0x3e46ff8a	0.19433418
30	0xbd9f5308	-0.07779509
31	0x3dc57b54	0.096426636
32	0xbb57273f	-0.003282979
33	0x3dd1e62b	0.10248979
34	0xbe86b720	-0.26311588
35	0xbe411168	-0.18854296
36	0xbd77d23c	-0.06050323
37	0xbd4a99f4	-0.049463227
38	0x3d5c16fe	0.053732865
39	0xbd264fa8	-0.04060331
40	0xbe267570	-0.16255736
41	0x3e039844	0.12851053
42	0xbd3fa397	-0.04678687
43	0xbe501fc6	-0.2032462
44	0x3ddebdf9	0.10876078
45	0xbe3e1163	-0.1856132
46	0xbe6741fe	-0.22583768
47	0xbe4a15f3	-0.19734935
48	0xbec65d5b	-0.387431
49	0xbd373658	-0.04472956
50	0x3e0556bc	0.13021368
51	0xbdd306c5	-0.103040256
52	0xbbda8260	-0.006668374
53	0xbe66fa14	-0.22556335
54	0x3de92d1c	0.11385557
55	0x3de5d254	0.112217575
56	0xbe505de0	-0.2034831
57	0x3db41c00	0.08794403
58	0x3a5bab00	0.0008379668
59	0xbefe4f76	-0.4967
60	0xbcd6d8f0	-0.02622649
61	0xbee4104e	-0.4454369
62	0xbdab1d25	-0.08355168
63	0xbe04cc78	-0.12968624
64	0xbe165de6	-0.14684257
65	0xbdeeb60d	-0.11655817
66	0xbed71f77	-0.42016193
67	0xbe27397f	-0.16330527
68	0xbe33e22b	-0.17566745
69	0xbed78e96	-0.42100972
70	0xbdda0767	-0.10645943
71	0x3db80424	0.08985165
72	0x3d8e7c91	0.06957353
73	0xbd969791	-0.07353128
74	0xbe033a13	-0.12815122
75	0xbea741ff	-0.3266754
76	0xbdbef80a	-0.093246534
77	0x3de9b46c	0.11411366
78	0x3d07a29a	0.033114053
79	0xbcca99cb	-0.024731537
80	0x3d3ebe54	0.04656823
81	0x3cd77965	0.026303003
82	0xbb74a1f8	-0.0037327986
83	0xbc632d87	-0.013865835
84	0x3dfbe8f8	0.12300295
85	0xbd580592	-0.052739687
86	0x3d536bb1	0.051616374
87	0x3d89f79e	0.06736682
88	0xbce8e761	-0.028430643
89	0x3d365339	0.04451296
90	0x3d9cd7d6	0.07658355
91	0xbe5143bc	-0.20435995
92	0x3e153271	0.14570023
93	0xbe558251	-0.20850493
94	0xbe2c0537	-0.16798864
95	0xbbb48dec	-0.0055100825
96	0xbda9786b	-0.08274921
97	0xbe465985	-0.19370086
98	0xbcaf6b83	-0.02141357
99	0xbd295887	-0.041344192
100	0x3e099b48	0.13438141
101	0xbcf8d3e2	-0.030374471
102	0xbe2429d3	-0.1603158
103	0xbeb32423	-0.34988508
104	0xbcfc77bd	-0.030818814
105	0xbe7ecd53	-0.24883012
106	0xbe26dc12	-0.16294888
107	0xbc1e2a4e	-0.009653641
108	0xbe338646	-0.1753169
109	0xbdcfcf36	-0.10146944
110	0xbd1f2da8	-0.0388619
111	0x3bb109a7	0.005402762
112	0xbe2a9593	-0.1665862
113	0xbdf57da7	-0.11986857
114	0xb8ce0102	-9.823033e-05
115	0x3d9e6932	0.07734908
116	0x3d8726b9	0.06599183
117	0x3d96d4c5	0.07364801
118	0x3e4fbde4	0.20287281
119	0xbe01fb41	-0.12693502
120	0x3d315366	0.043292426
121	0x3d49750d	0.049183894
122	0xbd8ca3dc	-0.06867191
123	0x3d613056	0.054977737
124	0xbe071da4	-0.13194901
125	0x3df29cc5	0.11846308
126	0xbda576bf	-0.0807929
127	0x3d833454	0.06406465
128	0x3c318826	0.010835683
129	0x3dd57eea	0.104245976
130	0x3cb22f9d	0.02175122
131	0xbb980695	-0.0046394565
132	0x3d4ef191	0.050523344
133	0xbe14ff05	-0.14550407
134	0x3e2c60e1	0.16833831
135	0x3cb2596e	0.021771159
136	0x3de8d140	0.11368036
137	0xbe2557df	-0.16146801
138	0xbd6a4815	-0.05719765
139	0xbe2aeefd	-0.1669273
140	0xbca4ccdd	-0.020117218
141	0xbda1dd0d	-0.0790349
142	0x3af1021c	0.001838747
143	0xbd1827a0	-0.037147164
144	0xbe8ef30e	-0.2791981
145	0x3d833486	0.064065024
146	0x3e4fd0c5	0.20294483
147	0xbe3ea306	-0.18616876
148	0xbdf9da23	-0.121998094
149	0xbdc6842e	-0.0969318
150	0x3e128a43	0.14310555
151	0x3d569c16	0.05239495
152	0xbe348de3	-0.1763225
153	0xbe412ba7	-0.18864308
154	0x3d558000	0.052124023
155	0xbbbe6220	-0.0058100373
156	0x3dcdd425	0.10050229
157	0xbd9f1379	-0.07767386
158	0xbda125db	-0.078685485
159	0x3d8f9369	0.07010538
160	0x3dedb989	0.11607654
161	0xbc85ca94	-0.016331948
162	0xbe2fa5bd	-0.17153068
163	0xbdc904f0	-0.09815395
164	0xbdbd9d30	-0.09258497
165	0xbd9d9d64	-0.076960355
166	0x3e2bf277	0.16791712
167	0xbc4c7dab	-0.012481133
168	0x3d126f14	0.035750464
169	0xbbebee50	-0.00720004
170	0x3e3139b2	0.17307165
171	0x3e074785	0.13210876
172	0x3da4f13a	0.08053823
173	0xbdca65d1	-0.09882701
174	0x3e196bb7	0.14982496
175	0x3c8a62b9	0.016892778
176	0xbcfbe3e0	-0.030748308
177	0xbd96df44	-0.07366803
178	0xbcc9e959	-0.024647402
179	0xbe116e95	-0.1420234
180	0x3e1420ee	0.14465687
181	0x3d0bcbfc	0.03413008
182	0xbd89c2a2	-0.067265764
183	0x3df126d7	0.11774986
184	0x3d0c7bf8	0.034297913
185	0x3d7f659b	0.062352758
186	0xbe26d70b	-0.1629297
187	0xbde2d728	-0.11076194
188	0xbce2b3db	-0.027673652
189	0x3cc12965	0.023579309
190	0x3e0f4699	0.13991775
191	0xbd8bdcdd	-0.06829236
192	0x3d0a639c	0.0337864
193	0x3d8602b9	0.06543488
194	0xbda7c7fc	-0.08192441
195	0xbd017a10	-0.03161055
196	0x3e023a19	0.12717475
197	0xbe71b4f5	-0.23604186
198	0x3ce02db5	0.027365545
199	0xbe3c9658	-0.18416727
200	0x3dc82c5b	0.09774085
201	0xbe2eb187	-0.17059909
202	0xbe161fe5	-0.14660604
203	0xbe11a388	-0.14222538
204	0xbe018375	-0.12647803
205	0xbbbd9653	-0.0057857423
206	0xbce7f9d9	-0.028317379
207	0xbe462bc4	-0.19352633
208	0x3d980e06	0.0742455
209	0x3d008c71	0.031383935
210	0xbc58a7ed	-0.01322363
211	0x3df3b022	0.11898829
212	0x3ddd3925	0.10801915
213	0xbe72ba70	-0.23703933
214	0x3dfd81c3	0.12378266
215	0xbc5b2574	-0.013375629
216	0xbea3ac76	-0.31967515
217	0xbe042b5c	-0.12907165
218	0x3e1e51e6	0.1546093
219	0x3d960114	0.073244244
220	0xbd312c68	-0.04325524
221	0x3e1d1f6a	0.15344015
222	0xbe50268c	-0.20327204
223	0xbe0a5d7e	-0.13512227
224	0xbd9292c8	-0.071569026
225	0xbdb4b7ef	-0.08824145
226	0xbeba4b48	-0.3638556
227	0xbd930956	-0.07179515
228	0x3e0bf698	0.13668287
229	0xbea9fa0b	-0.3319858
230	0xbe95583a	-0.29168874
231	0xbe18126d	-0.14850779
232	0xbd3e7408	-0.046497375
233	0xbc2b3590	-0.010449782
234	0xbe587660	-0.21138906
235	0x3d1d2474	0.038364843
236	0xbd810322	-0.06299426
237	0xbeabd20e	-0.33558697
238	0x3e4d2d2e	0.20036766
239	0x3dff5e7c	0.12469193
240	0xbda7e69a	-0.08198281
241	0x3d616d88	0.055036098
242	0xbe3c92e1	-0.18415405
243	0xbe3d7353	-0.18501024
244	0xbd633738	-0.055472583
245	0x3e03d2fe	0.12873456
246	0xbe10fc6a	-0.14158788
247	0x3de842dc	0.113408774
248	0x3c9e2838	0.019306287
249	0x3d675360	0.056475997
250	0xbdd93031	-0.10604895
251	0xbe03c8e6	-0.12869605
252	0x3be11140	0.0068685114
253	0xbe460f35	-0.19341739
254	0xbd72abf0	-0.059246004
255	0xbe2c69dc	-0.16837257

fc.2.bias f4 [24]
0	0xbebe03f2	-0.37112385
1	0xbd1c3776	-0.03813883
2	0xbeb41e67	-0.35179445
3	0xbd7f80d0	-0.062378705
4	0x3dbde936	0.09272997
5	0xbe2c2260	-0.16809988
6	0xbbe18689	-0.006882493
7	0x3db113b0	0.08646333
8	0x3d626183	0.055268776
9	0xbd8876b6	-0.06663267
10	0x3da13cb4	0.07872906
11	0xbd811343	-0.06302502
12	0xbdcf71ea	-0.10129149
13	0x3d1ac514	0.037785605
14	0x3db08320	0.0861876
15	0xbdeff6b6	-0.11716978
16	0xbe86bcd8	-0.2631595
17	0xbdd425d4	-0.10358778
18	0xbe2696d3	-0.16268472
19	0xbbc4406b	-0.0059891245
20	0xbe308619	-0.17238654
21	0xbe7be4a4	-0.24598938
22	0xbe747cc2	-0.23875716
23	0x3d13ed15	0.03611477

fc.4.weight f4 [4, 24]
0	0x3e78bf7d	0.24291797
1	0x3ce12793	0.02748469
2	0xbdb0563f	-0.086102
3	0x39a99871	0.0003234777
4	0x3d6cc6cf	0.057806786
5	0x3a87e005	0.0010366446
6	0xbb91be75	-0.004447753
7	0x3c876d45	0.016531596
8	0x3a99ef75	0.0011744337
9	0x3dfe452c	0.12415537
10	0xbdd40a7b	-0.103535615
11	0xbda878e0	-0.0822618
12	0x3aba0d4c	0.0014194637
13	0xbde48b58	-0.1115939
14	0x3e7e3063	0.24823146
15	0x3c6f225b	0.014595593
16	0x3d29d629	0.041464005
17	0x3cbd38a6	0.023098301
18	0x3e815666	0.2526123
19	0x3d86e2b0	0.06586206
20	0x3a31a284	0.0006776231
21	0x3b080670	0.002075579
22	0x3d24df3c	0.040251955
23	0xb8d1db4c	-0.00010006744
24	0xbce0a0ed	-0.027420485
25	0x3cd36570	0.025805205
26	0x3e018f2e	0.12652275
27	0x39910bc7	0.0002766533
28	0x3c9c077c	0.019046538
29	0x3a794dee	0.00095102086
30	0xb87c1151	-6.009761e-05
31	0xbde85540	-0.11344385
32	0x3a453368	0.0007522614
33	0xbc049880	-0.008092999
34	0xbddbcf5a	-0.107329085
35	0xbc8cfe31	-0.017211052
36	0x3a8131a5	0.0009856714
37	0xbdd46b58	-0.10372037
38	0x3dfc9e9a	0.12334938
39	0x3e6c801e	0.23095748
40	0xbcfceb8f	-0.030874042
41	0xbda662b0	-0.08124292
42	0xbe06f7da	-0.13180485
43	0x3d91732d	0.07102046
44	0x3a7d1103	0.0009653719
45	0x3b0eba21	0.0021778422
46	0xbe045243	-0.12922005
47	0xb951c316	-0.00020004468
48	0xbcd63b64	-0.026151367
49	0xbddf144e	-0.10892545
50	0xbe4edaab	-0.20200603
51	0x39985e17	0.00029061802
52	0x3d88c7bc	0.06678721
53	0x3a74d50a	0.00093396066
54	0xb5d8fa12	-1.6166034e-06
55	0x3d6680e4	0.056275263
56	0x3a935a39	0.0011242098
57	0xbe31877d	-0.17336841
58	0x3e123d18	0.14281118
59	0x3e8fa75a	0.28057367
60	0x3a8803d2	0.0010377115
61	0x3e00c802	0.12576297
62	0xbc3104e6	-0.010804391
63	0xbd627033	-0.055282783
64	0x3b9f5e18	0.004863512
65	0x3d983568	0.074320614
66	0x3dd96d8f	0.106166
67	0x3db4d4b7	0.08829635
68	0x39d127b8	0.0003989318
69	0x3afffb48	0.0019529844
70	0x3d7cea39	0.06174681
71	0x399e2da8	0.00030170125
72	0xbe7c8139	-0.2465867
73	0x3e075388	0.13215458
74	0xbdae6ae8	-0.085164845
75	0x399a9b06	0.0002948867
76	0xbdf1fa3d	-0.11815307
77	0x3a864a6f	0.0010245572
78	0xb854c774	-5.0730494e-05
79	0xbe06eda2	-0.13176587
80	0x3aa25ddf	0.0012387595
81	0x3bf61041	0.007509262
82	0xbbbda760	-0.005787775
83	0xbd75e6a1	-0.060034398
84	0x3a704d92	0.00091668323
85	0x3d1b1daf	0.037870105
86	0x3cec2699	0.028826999
87	0x3cf1fcb0	0.029539436
88	0x3c12a707	0.008950955
89	0x3e278ea0	0.16363001
90	0x3d6d77e4	0.057975665
91	0x3e080961	0.13284828
92	0x3a3da4a7	0.0007234313
93	0x3b0a26e0	0.00210803
94	0xbce93f6c	-0.028472625
95	0x3a4d578b	0.00078331743

fc.4.bias f4 [4]
0	0x401b0de6	2.4227233
1	0x401d1dbb	2.4549396
2	0x4020abd8	2.5104885
3	0x401ad065	2.4189694
