covid_last.pth (torch, 10241 bytes, 12 tensors)

weight f4 [50, 4]
0	0xbf203a2e	-0.62588775
1	0xbf20ec3b	-0.6286046
2	0xbea1dac5	-0.3161222
3	0x3b9b66a3	0.00474246
4	0xba72f73a	-0.0009268407
5	0xbd330642	-0.04370714
6	0x3b9bb669	0.0047519696
7	0xbcd66539	-0.026171314
8	0xbf15f285	-0.5857318
9	0xbde681b8	-0.11255211
10	0x3e4232e4	0.18964726
11	0xbe122482	-0.14271739
12	0xbd3d7a1c	-0.04625903
13	0x3cdd9644	0.027049191
14	0xbc667379	-0.014065617
15	0xbe208fa8	-0.156798
16	0xbdb8835c	-0.0900943
17	0x3e2a3e49	0.16625322
18	0xbe08dffe	-0.13366696
19	0xbe108c5c	-0.14116043
20	0xbd3921fc	-0.045198426
21	0x3d79d7d5	0.06099685
22	0xbdd4f9cf	-0.1039921
23	0xba3b34bd	-0.00071413425
24	0xbd4cf190	-0.05003506
25	0x3ccd1fc0	0.025039554
26	0xbc246ffa	-0.010036463
27	0xbb976d4a	-0.0046211826
28	0xbcb6f2d8	-0.022332594
29	0xbd69fcb4	-0.057125762
30	0xbd92369c	-0.07139322
31	0xbc437c3f	-0.011931478
32	0xbdb99d40	-0.09063196
33	0xbe1f63f0	-0.15565467
34	0xbe7f4840	-0.24929905
35	0xbe11067b	-0.14162628
36	0xbe2154f1	-0.15755059
37	0x3e77b87c	0.24191469
38	0xbe330b81	-0.17484857
39	0xbe514d04	-0.20439535
40	0xba396c30	-0.0007073311
41	0xbbb19035	-0.005418802
42	0xba7f3705	-0.00097356766
43	0xb9c4f654	-0.00037567562
44	0xbe6e5a03	-0.23276524
45	0xbe64e1ae	-0.22351715
46	0xbe1361d6	-0.1439279
47	0xbe707838	-0.2348336
48	0xbc2c51e1	-0.010517568
49	0xbd909690	-0.070599675
50	0x3d622f5a	0.05522094
51	0xbc83a570	-0.016070098
52	0xbd0be34b	-0.03415231
53	0x3e0c882c	0.1372382
54	0xbdcd8489	-0.10035045
55	0xbe714a30	-0.23563457
56	0xbbedf11e	-0.0072614094
57	0xbd184f2f	-0.03718489
58	0x3d81538d	0.06314764
59	0xbe94b575	-0.2904469
60	0xbcd85d22	-0.026411597
61	0xbd73027a	-0.059328534
62	0xbd5d46e6	-0.054022692
63	0xbba7fa19	-0.0051262495
64	0xbd02bbe0	-0.031917453
65	0xbe21f120	-0.15814638
66	0x3da0bd0c	0.07848558
67	0xbd68e2b8	-0.05685684
68	0xbe951d76	-0.2912404
69	0x3e9cc290	0.3061719
70	0x3c51e98d	0.0128120305
71	0xbeabb674	-0.33537638
72	0x37441276	1.1686809e-05
73	0x3bd6d518	0.0065561645
74	0x3bbbf080	0.005735457
75	0xbe3cd698	-0.18441236
76	0xba332de1	-0.00068351446
77	0xbcc6e751	-0.024280222
78	0xbd085e4d	-0.033293057
79	0xbcb0b20d	-0.021569276
80	0xbdfb36c2	-0.122663036
81	0xbe000e27	-0.12505399
82	0x3bc1708a	0.0059033083
83	0xbea94407	-0.33059713
84	0xbd63001a	-0.05542002
85	0xbd01fb41	-0.031733755
86	0x3d055250	0.032549202
87	0xbe407019	-0.18792762
88	0xbd850300	-0.06494713
89	0xbe79769b	-0.2436165
90	0xbe5b8a4e	-0.21439478
91	0xbdb86086	-0.090027854
92	0xbebb9bab	-0.36642203
93	0x3d80362a	0.06260331
94	0xbd55e1b4	-0.0522172
95	0xbebb5c7b	-0.36593994
96	0xbe6438c6	-0.22287282
97	0xbe5de81e	-0.21670577
98	0x3da047c0	0.07826185
99	0xbe1bca83	-0.15213971
100	0xbe7edbfa	-0.24888602
101	0x3e6039f7	0.21897112
102	0xbd15177a	-0.036399342
103	0xbe0e73e4	-0.13911396
104	0xbaedc6a9	-0.001814087
105	0xbc99441c	-0.018709235
106	0xbe134246	-0.1438075
107	0xbb4b8dc9	-0.0031059852
108	0xbc2580a6	-0.010101473
109	0xbc197d97	-0.009368322
110	0xbccea771	-0.025226327
111	0xbb935e45	-0.004497322
112	0xbe24866f	-0.16066907
113	0xbeaab154	-0.33338416
114	0x3e3d685b	0.1849684
115	0xbd462fd5	-0.04838546
116	0xbe632475	-0.22181876
117	0xbe7b2fff	-0.24530028
118	0x3cdfef5e	0.027335819
119	0xbe63d0e4	-0.22247654
120	0xbe71f1d6	-0.2362741
121	0xbe83ca8a	-0.25740463
122	0x3e810841	0.2520161
123	0xbe3cb388	-0.1842786
124	0xbe9e07df	-0.3086538
125	0xbcd072f9	-0.025445448
126	0x3e4486d0	0.19192052
127	0xbdbfc2e9	-0.09363348
128	0xbc89c4c5	-0.01681746
129	0xbd1c1bda	-0.0381125
130	0x3d86f4d9	0.0658967
131	0xbea4925a	-0.32142907
132	0xbc30801f	-0.010772734
133	0xbe4e6f6b	-0.2015969
134	0xbe9ed989	-0.3102534
135	0xbbe5ed39	-0.0070168045
136	0xbd1346f8	-0.035956353
137	0x3de39748	0.11112839
138	0xbd765d50	-0.060147583
139	0xbe565808	-0.20932019
140	0xbce1defd	-0.02757215
141	0xbd8fd05c	-0.07022163
142	0xbd9d4909	-0.07679946
143	0xbbe311fd	-0.0069296346
144	0xbda375d1	-0.07981456
145	0xbe899e33	-0.2687851
146	0x3db05176	0.086092874
147	0xbc82238b	-0.015886089
148	0xbe383617	-0.17989384
149	0xbf2ddfc2	-0.6791955
150	0xbd83907a	-0.06424041
151	0xbc2556a9	-0.010091462
152	0xbdd6a950	-0.104815125
153	0x3c8dc750	0.017306954
154	0x3d185d20	0.037198186
155	0xbe8175aa	-0.25285083
156	0xbcd068c1	-0.025440576
157	0xba09c817	-0.0005255951
158	0xbc89939a	-0.016794015
159	0x39e5f983	0.00043864184
160	0xbdef55ac	-0.116862625
161	0xbe98a27f	-0.29811475
162	0x3d26fe40	0.040769815
163	0xbea223ef	-0.3166804
164	0xbd0bec8f	-0.034161147
165	0x3d04be70	0.032408178
166	0xbd19a52a	-0.03751103
167	0xbb1b58d3	-0.0023704066
168	0xbb637865	-0.0034709212
169	0xbd5c3635	-0.053762633
170	0xbdc9ba13	-0.09849944
171	0xbcfb87a9	-0.030704336
172	0xbcbb4e9f	-0.022864638
173	0x3bdaf6ed	0.006682268
174	0x3c638ccd	0.01388855
175	0xbc33383a	-0.010938698
176	0xbe298c05	-0.1655732
177	0xbdd50224	-0.10400799
178	0xbd69450b	-0.05695061
179	0xbec9c364	-0.39406884
180	0xbdc288d9	-0.09498758
181	0x3daee0c6	0.08538966
182	0xbdc195df	-0.09452414
183	0xbc8e9312	-0.017404113
184	0xbe6c74c3	-0.23091416
185	0x3e09a8fa	0.13443366
186	0x3d55df88	0.05221513
187	0xbe06ec0b	-0.13175981
188	0xbc4f5d20	-0.01265648
189	0x3c8d30c0	0.01723516
190	0x3e4645ea	0.19362608
191	0xbe571680	-0.21004677
192	0xbbd593a0	-0.0065178424
193	0xbd9b1254	-0.07571855
194	0xbc46dc14	-0.012137432
195	0xbe18192d	-0.14853354
196	0xbdd9fac1	-0.10643531
197	0xbd9a6318	-0.07538432
198	0xbdda9c55	-0.10674349
199	0x3ad49679	0.0016219161

bias f4 [50]
0	0x3e920f76	0.2852742
1	0x3dfe5709	0.124189444
2	0xbec6007a	-0.3867224
3	0xbdcbd43c	-0.0995259
4	0xbea90afb	-0.3301619
5	0xbde548fa	-0.1119556
6	0x3e3cf785	0.18453796
7	0xbf35acef	-0.70967
8	0x3ef364b8	0.4753778
9	0xbf118386	-0.56841314
10	0xbf237612	-0.63852036
11	0x3e7cc518	0.2468456
12	0xbd065d81	-0.032804016
13	0xbe66b930	-0.22531581
14	0x3e68a4c6	0.22719106
15	0x3bfab383	0.007650794
16	0x3e89baba	0.26900274
17	0x3e696e46	0.22795972
18	0xbea1f004	-0.3162843
19	0xbed9c8ba	-0.42535955
20	0xbf3c280e	-0.7349862
21	0xbe861204	-0.2618562
22	0xbe0ba39c	-0.13636631
23	0xbee1be45	-0.44090477
24	0x3df6a8e0	0.12043929
25	0xbf0e04f0	-0.55476284
26	0xbeb23077	-0.348026
27	0x3e22fd18	0.1591686
28	0xbd9d87b3	-0.07691898
29	0xbecd7ac0	-0.40132713
30	0x3ee160aa	0.4401906
31	0xbe64cb19	-0.223431
32	0xbf099be0	-0.5375347
33	0x3c9fd154	0.019508995
34	0x3dc63165	0.0967739
35	0xbf1680b2	-0.58790123
36	0xbe1c6d90	-0.1527617
37	0xbd9b6f5c	-0.075895995
38	0x3de3d2b8	0.11124176
39	0x3e1de906	0.15420923
40	0xbe44cd10	-0.1921885
41	0x3e301e64	0.17199093
42	0xbe457861	-0.19284202
43	0xbd36651b	-0.044530015
44	0xbe81f836	-0.25384682
45	0x3df66d6b	0.120325886
46	0xbe85f490	-0.2616315
47	0xbd30b380	-0.043139935
48	0x3e33a8d3	0.1754487
49	0x3e7d6fcd	0.2474968

weight f4 [4, 50]
0	0xbb41962e	-0.0029538977
1	0x3bb3e135	0.0054894933
2	0xbd84958f	-0.064738385
3	0x3e4c998f	0.19980453
4	0xb9ad9c2e	-0.00033113494
5	0xbd421339	-0.047381613
6	0xbc8c7088	-0.017143503
7	0xbbe7eb8c	-0.00707764
8	0xbdcfc83c	-0.101456136
9	0x3d07ffa0	0.033202767
10	0x3ce03998	0.027371213
11	0xbe62d130	-0.22150111
12	0x3bd70bbd	0.0065626786
13	0x3dc93818	0.09825152
14	0xbd75b763	-0.059989344
15	0xbc63c690	-0.013902321
16	0xbe979e07	-0.29612753
17	0x3d97ffcf	0.074218385
18	0x3ce5eca0	0.028066933
19	0xbd748d01	-0.059704784
20	0x3dc49173	0.09598055
21	0x3db9c37a	0.09070487
22	0xbea7413b	-0.32666954
23	0xbe15062e	-0.14553139
24	0x3e966507	0.29373953
25	0x3d14f662	0.03636778
26	0x3b07bb94	0.002071117
27	0x3be0a258	0.0068552904
28	0x3d1d5ec0	0.03842044
29	0x3b0e17e4	0.002168172
30	0x3dd23a6c	0.10265049
31	0x3d8c0f69	0.06838877
32	0x3d8f82ba	0.07007356
33	0xbd3fce15	-0.046827395
34	0xbce59bb5	-0.028028348
35	0x3c64eff5	0.013973226
36	0xbddeb562	-0.1087444
37	0x3e60751a	0.2191967
38	0xbea9e236	-0.33180398
39	0x3d3be9fb	0.045877438
40	0xbda53acc	-0.08067855
41	0x3cf50e76	0.029914122
42	0x3d2ab27e	0.04167413
43	0x3b83809e	0.004013135
44	0x3e04ea2f	0.12979959
45	0xbca432bd	-0.020043725
46	0xbe8ac970	-0.2710681
47	0x3e85b6ff	0.26116177
48	0xbca3c36d	-0.019990647
49	0x38e8b6d5	0.00011096677
50	0xbcc6e870	-0.024280757
51	0x3cdfaf90	0.027305394
52	0xbe13d08f	-0.14435028
53	0x3cf17210	0.029473335
54	0x3be543c9	0.006996606
55	0x3b10a169	0.0022068864
56	0xba7ebb06	-0.00097172
57	0xbc258cbe	-0.010104356
58	0x3e2a718a	0.16644874
59	0x3d352ed6	0.04423412
60	0x3ce0b8d8	0.02743189
61	0x3c4bcd60	0.012439102
62	0xba6da832	-0.00090658956
63	0xbdbde9e0	-0.09273124
64	0x3a2dbf2f	0.0006627915
65	0xbc0a1f84	-0.0084303655
66	0x3d84e734	0.06489411
67	0xbdafcf16	-0.085844204
68	0xbbe8b0c5	-0.0071011507
69	0x3c67d5ff	0.014150142
70	0x3bac35be	0.00525543
71	0xbbbf8d8f	-0.0058457325
72	0xbd151278	-0.036394566
73	0xbe0836b7	-0.13302122
74	0x3e6ee2a6	0.23328647
75	0xbe790d28	-0.24321425
76	0x3c289fcd	0.010292006
77	0x3c936373	0.017991757
78	0xbe695f4e	-0.22790262
79	0xbb31c27d	-0.002712398
80	0xbda9407c	-0.082642525
81	0xbcd9c068	-0.026581004
82	0x3ccb5ac5	0.024823556
83	0x3bf73362	0.007543967
84	0x3dd08bcf	0.101829164
85	0x3b1a5175	0.0023547087
86	0xbd8d48a5	-0.068986215
87	0x3d97f0da	0.07418986
88	0xbc9ac640	-0.018893361
89	0x3cbeb68d	0.023280406
90	0xbe7ebf1e	-0.24877593
91	0x3d25d66c	0.04048769
92	0x3c6c0eae	0.014407797
93	0xbbc0e3cc	-0.0058865305
94	0x3c2219bc	0.009893831
95	0x3cedba8e	0.02901962
96	0x3cfb33c0	0.030664325
97	0x3e448046	0.19189557
98	0xbad3aeeb	-0.0016150152
99	0xbc4063ea	-0.011742571
100	0x3e5317c0	0.20614529
101	0xbda6f3bf	-0.0815196
102	0x3c94da88	0.01817061
103	0xbe1bfb66	-0.1523262
104	0x3daf7402	0.085670486
105	0x3cab1581	0.020884277
106	0xbc2cf6e8	-0.010556914
107	0x3c954ec5	0.018226037
108	0x3e576ace	0.21036837
109	0xbda12053	-0.078674935
110	0x3ce07d80	0.027403593
111	0x3dc84d20	0.097803354
112	0x3b49bf84	0.0030784318
113	0x3e03da5d	0.12876268
114	0xbe00400e	-0.12524435
115	0xbd6ef5f1	-0.058340017
116	0x3db881dc	0.09009144
117	0x3e6f1312	0.23347118
118	0xb9a76708	-0.00031929486
119	0x3cf8f49e	0.03039008
120	0x3a3553d0	0.0006917091
121	0x3e0c6926	0.13711986
122	0xbd257628	-0.040395886
123	0xbdda158d	-0.10648642
124	0xbe1bbc63	-0.15208583
125	0xbdc02380	-0.09381771
126	0xbdafc7b5	-0.08583013
127	0xbc0ab9dd	-0.008467165
128	0x3d16b1c9	0.036790643
129	0x3e21be84	0.15795332
130	0x3e89f809	0.26947048
131	0x3d83a45e	0.06427835
132	0x3d1434a7	0.036183026
133	0xbd27c08d	-0.040955115
134	0xbdf04898	-0.11732596
135	0x3c6d4e54	0.014484007
136	0xbd4f798a	-0.050653018
137	0xbdb85dfa	-0.090022996
138	0x3e597e7a	0.21239653
139	0xbdbc9d0a	-0.0920964
140	0xbdd92d4c	-0.10604343
141	0x3cc30999	0.023808287
142	0xbd416af0	-0.047221124
143	0x3bcd28f5	0.006260986
144	0xbd3c7038	-0.046005458
145	0x3cfef353	0.031121885
146	0xbea0bf96	-0.31396168
147	0xbdb59f8c	-0.08868322
148	0xbb0162f6	-0.0019742823
149	0xbb15e8bb	-0.0022874314
150	0x3e841cb7	0.25803158
151	0x3bf16a6c	0.007367423
152	0x3d02677e	0.03183698
153	0xbe7c2fb6	-0.24627575
154	0xbd7a0f95	-0.061050016
155	0xbd831746	-0.064009234
156	0xbd363ece	-0.04449349
157	0xbd6f0442	-0.05835367
158	0xbe57bfc8	-0.21069252
159	0xbd1af112	-0.03782756
160	0x3cdf8f16	0.027289908
161	0xbe05c433	-0.13063125
162	0x3be7e746	0.0070771305
163	0xbd95b7f6	-0.073104784
164	0x3deb3b76	0.11485951
165	0x3cbdaf39	0.023154842
166	0x3e6dffaa	0.2324206
167	0xbd92c070	-0.07165611
168	0x3cd26a0a	0.025685329
169	0xbd255682	-0.040365703
170	0x3ba9ea33	0.0051853894
171	0x3da7f690	0.08201325
172	0xbdac3720	-0.08408952
173	0xbdc34496	-0.09534566
174	0x3e9ef249	0.31044224
175	0x3e8688bd	0.26276198
176	0xbcaeaf17	-0.021323724
177	0x3b686cbd	0.0035465204
178	0xbdbd0311	-0.092291005
179	0x3af74239	0.001886434
180	0xbe960093	-0.29297313
181	0x3da50047	0.080566935
182	0xbcbe23a3	-0.023210352
183	0xbcb2c614	-0.021822967
184	0x3dbb22b4	0.091374785
185	0xbc9b9053	-0.018989718
186	0xbdc8a191	-0.09796441
187	0xbe819bcb	-0.25314173
188	0x3e973721	0.29534248
189	0x3d13ef7b	0.03611706
190	0xbea23cfa	-0.31687146
191	0x3d1cab7c	0.038249478
192	0x3dac4ed1	0.084134705
193	0x3cca3397	0.024682803
194	0xbd988198	-0.07446593
195	0x3c893469	0.016748624
196	0x3e199850	0.14999509
197	0x3d0e7248	0.034776956
198	0xbadb0f17	-0.0016712871
199	0xbc1f90a0	-0.009739071

bias f4 [4]
0	0xbed3c8a5	-0.41364017
1	0xbea71076	-0.32629746
2	0xbeb09b2a	-0.3449338
3	0xbeefb081	-0.4681435

exp_avg f4 [50, 4]
0	0x00000004	6e-45
1	0x00000004	6e-45
2	0x00000004	6e-45
3	0x00000004	6e-45
4	0x00000004	6e-45
5	0x80000004	-6e-45
6	0x80000004	-6e-45
7	0x80000004	-6e-45
8	0x00000004	6e-45
9	0x00000004	6e-45
10	0x00000004	6e-45
11	0x00000004	6e-45
12	0x00000004	6e-45
13	0x00000004	6e-45
14	0x00000004	6e-45
15	0x00000004	6e-45
16	0x00000004	6e-45
17	0x00000004	6e-45
18	0x00000004	6e-45
19	0x00000004	6e-45
20	0x00000004	6e-45
21	0x00000004	6e-45
22	0x00000004	6e-45
23	0x00000004	6e-45
24	0x00000004	6e-45
25	0x00000004	6e-45
26	0x00000004	6e-45
27	0x00000004	6e-45
28	0x00000004	6e-45
29	0x00000004	6e-45
30	0x00000004	6e-45
31	0x00000004	6e-45
32	0x00000000	0.0
33	0x00000000	0.0
34	0x00000000	0.0
35	0x00000000	0.0
36	0x00000004	6e-45
37	0x00000004	6e-45
38	0x00000004	6e-45
39	0x00000004	6e-45
40	0x00000004	6e-45
41	0x00000004	6e-45
42	0x00000004	6e-45
43	0x00000004	6e-45
44	0x00000000	0.0
45	0x00000000	0.0
46	0x00000000	0.0
47	0x00000000	0.0
48	0x00000004	6e-45
49	0x00000004	6e-45
50	0x00000004	6e-45
51	0x00000004	6e-45
52	0x00000004	6e-45
53	0x00000004	6e-45
54	0x00000004	6e-45
55	0x00000004	6e-45
56	0x00000004	6e-45
57	0x00000004	6e-45
58	0x00000004	6e-45
59	0x00000004	6e-45
60	0x00000004	6e-45
61	0x00000004	6e-45
62	0x00000004	6e-45
63	0x00000004	6e-45
64	0x00000000	0.0
65	0x00000000	0.0
66	0x00000000	0.0
67	0x00000000	0.0
68	0x00000004	6e-45
69	0x00000004	6e-45
70	0x00000004	6e-45
71	0x00000004	6e-45
72	0x00000004	6e-45
73	0x00000004	6e-45
74	0x00000004	6e-45
75	0x00000004	6e-45
76	0x00000004	6e-45
77	0x00000004	6e-45
78	0x00000004	6e-45
79	0x00000004	6e-45
80	0x00000004	6e-45
81	0x00000004	6e-45
82	0x00000004	6e-45
83	0x00000004	6e-45
84	0x00000004	6e-45
85	0x00000004	6e-45
86	0x00000004	6e-45
87	0x00000004	6e-45
88	0x00000000	0.0
89	0x00000000	0.0
90	0x00000000	0.0
91	0x00000000	0.0
92	0x00000004	6e-45
93	0x00000004	6e-45
94	0x00000004	6e-45
95	0x00000004	6e-45
96	0x00000000	0.0
97	0x00000000	0.0
98	0x00000000	0.0
99	0x00000000	0.0
100	0x00000004	6e-45
101	0x00000004	6e-45
102	0x00000004	6e-45
103	0x00000004	6e-45
104	0x00000004	6e-45
105	0x00000004	6e-45
106	0x00000004	6e-45
107	0x00000004	6e-45
108	0x00000004	6e-45
109	0x00000004	6e-45
110	0x00000004	6e-45
111	0x00000004	6e-45
112	0x00000004	6e-45
113	0x00000004	6e-45
114	0x00000004	6e-45
115	0x00000004	6e-45
116	0x00000004	6e-45
117	0x00000004	6e-45
118	0x00000004	6e-45
119	0x00000004	6e-45
120	0x00000000	0.0
121	0x00000000	0.0
122	0x00000000	0.0
123	0x00000000	0.0
124	0x00000004	6e-45
125	0x00000004	6e-45
126	0x00000004	6e-45
127	0x00000004	6e-45
128	0x00000004	6e-45
129	0x00000004	6e-45
130	0x00000004	6e-45
131	0x00000004	6e-45
132	0x00000004	6e-45
133	0x00000004	6e-45
134	0x00000004	6e-45
135	0x00000004	6e-45
136	0x00000004	6e-45
137	0x00000004	6e-45
138	0x00000004	6e-45
139	0x00000004	6e-45
140	0x00000004	6e-45
141	0x00000004	6e-45
142	0x00000004	6e-45
143	0x00000004	6e-45
144	0x00000004	6e-45
145	0x00000004	6e-45
146	0x00000004	6e-45
147	0x00000004	6e-45
148	0x00000004	6e-45
149	0x00000004	6e-45
150	0x00000004	6e-45
151	0x00000004	6e-45
152	0x00000000	0.0
153	0x00000000	0.0
154	0x00000000	0.0
155	0x00000000	0.0
156	0x00000004	6e-45
157	0x00000004	6e-45
158	0x00000004	6e-45
159	0x00000004	6e-45
160	0x00000000	0.0
161	0x00000000	0.0
162	0x00000000	0.0
163	0x00000000	0.0
164	0x00000004	6e-45
165	0x00000004	6e-45
166	0x00000004	6e-45
167	0x00000004	6e-45
168	0x00000004	6e-45
169	0x00000004	6e-45
170	0x00000004	6e-45
171	0x00000004	6e-45
172	0x00000004	6e-45
173	0x00000004	6e-45
174	0x00000004	6e-45
175	0x00000004	6e-45
176	0x00000004	6e-45
177	0x00000004	6e-45
178	0x00000004	6e-45
179	0x00000004	6e-45
180	0x00000004	6e-45
181	0x00000004	6e-45
182	0x00000004	6e-45
183	0x00000004	6e-45
184	0x00000000	0.0
185	0x00000000	0.0
186	0x00000000	0.0
187	0x00000000	0.0
188	0x00000000	0.0
189	0x00000000	0.0
190	0x00000000	0.0
191	0x00000000	0.0
192	0x00000004	6e-45
193	0x00000004	6e-45
194	0x00000004	6e-45
195	0x00000004	6e-45
196	0x00000004	6e-45
197	0x00000004	6e-45
198	0x00000004	6e-45
199	0x00000004	6e-45

exp_avg_sq f4 [50, 4]
0	0x1922b0cf	8.41091e-24
1	0x13c6c3ad	5.017518e-27
2	0x17b2125c	1.1507615e-24
3	0x1d4f6988	2.745078e-21
4	0x28aecdb5	1.9407092e-14
5	0x22c5f4e1	5.3656233e-18
6	0x233a7d65	1.01096335e-17
7	0x263c219c	6.527115e-16
8	0x1c2a6909	5.6384036e-22
9	0x1d8d7de8	3.7452573e-21
10	0x1ec4705d	2.079878e-20
11	0x1ffe001b	1.0757336e-19
12	0x14209516	8.107338e-27
13	0x14836d01	1.3270614e-26
14	0x12dfc44f	1.4121672e-27
15	0x13378cd0	2.3167273e-27
16	0x22563b93	2.9033946e-18
17	0x22790cfb	3.3752664e-18
18	0x214bb2a0	6.9015484e-19
19	0x21e9a8e9	1.5833404e-18
20	0x29c61bf0	8.797813e-14
21	0x260d1647	4.8949393e-16
22	0x2628ca2d	5.856071e-16
23	0x2b8d3fc5	1.0036352e-12
24	0x2798f7b7	4.245705e-15
25	0x25014cd7	1.1215001e-16
26	0x258743e5	2.3464774e-16
27	0x2a3edf91	1.6952955e-13
28	0x2da2ec6a	1.8522257e-11
29	0x26902fb6	1.0004939e-15
30	0x295e5d46	4.9374804e-14
31	0x2f1134e7	1.3206468e-10
32	0x00000000	0.0
33	0x00000000	0.0
34	0x00000000	0.0
35	0x00000000	0.0
36	0x28cd7230	2.2809093e-14
37	0x291ff953	3.5521346e-14
38	0x27bdbe13	5.2664117e-15
39	0x282f9d93	9.74862e-15
40	0x2d9f9973	1.8144352e-11
41	0x291a3cad	3.4247497e-14
42	0x2983fa63	5.861004e-14
43	0x2efdddef	1.1544531e-10
44	0x00000000	0.0
45	0x00000000	0.0
46	0x00000000	0.0
47	0x00000000	0.0
48	0x2a09315e	1.2185172e-13
49	0x2715fc25	2.0814592e-15
50	0x27b63420	5.057166e-15
51	0x2a80d822	2.288734e-13
52	0x2667dcfc	8.0443714e-16
53	0x21dbd007	1.4895082e-18
54	0x202db3bb	1.4713138e-19
55	0x21921f11	9.901568e-19
56	0x2e479681	4.5381036e-11
57	0x27daccd7	6.0729243e-15
58	0x2682a21c	9.064502e-16
59	0x289af57c	1.7203896e-14
60	0x2d2c272b	9.785765e-12
61	0x26e5ec89	1.595418e-15
62	0x298957df	6.0992654e-14
63	0x2f84f807	2.4186894e-10
64	0x00000000	0.0
65	0x00000000	0.0
66	0x00000000	0.0
67	0x00000000	0.0
68	0x155654e0	4.328391e-26
69	0x15f42115	9.860301e-26
70	0x1488f234	1.3828023e-26
71	0x14ec1a8e	2.3840384e-26
72	0x37ae7f8b	2.0801808e-05
73	0x321aa9fa	9.002628e-09
74	0x311e85b3	2.3068025e-09
75	0x344a4c8f	1.8840568e-07
76	0x2d52729f	1.1962569e-11
77	0x2915d91d	3.3272962e-14
78	0x2866d398	1.2813447e-14
79	0x2aaf80bf	3.117558e-13
80	0x2bfc371b	1.7920972e-12
81	0x2b5db6a4	7.8768437e-13
82	0x29925ebf	6.500138e-14
83	0x29eb8b3b	1.0460249e-13
84	0x2e80366a	5.830432e-11
85	0x286aa721	1.302585e-14
86	0x270b734e	1.9352632e-15
87	0x28346833	1.0014602e-14
88	0x00000000	0.0
89	0x00000000	0.0
90	0x00000000	0.0
91	0x00000000	0.0
92	0x34102fbe	1.3428414e-07
93	0x3519cf15	5.7298286e-07
94	0x33f9d824	1.1634282e-07
95	0x3461ce77	2.102987e-07
96	0x00000000	0.0
97	0x00000000	0.0
98	0x00000000	0.0
99	0x00000000	0.0
100	0x1674f354	1.9786944e-25
101	0x172d8d73	5.607785e-25
102	0x1748071d	6.4632464e-25
103	0x1810459e	1.8646711e-24
104	0x2450698d	4.5192215e-17
105	0x1e26eb68	8.836648e-21
106	0x1eab482b	1.8135177e-20
107	0x24142c67	3.2129995e-17
108	0x2d13a72c	8.393102e-12
109	0x287bed6d	1.39847825e-14
110	0x29389370	4.098409e-14
111	0x2e8a48f1	6.2884704e-11
112	0x15f96b6f	1.007398e-25
113	0x1425108a	8.333633e-27
114	0x17269e1d	5.383706e-25
115	0x19756981	1.26875095e-23
116	0x280485c5	7.356479e-15
117	0x291faea7	3.545658e-14
118	0x2a99eb1a	2.7341394e-13
119	0x2bb4d661	1.2849271e-12
120	0x00000000	0.0
121	0x00000000	0.0
122	0x00000000	0.0
123	0x00000000	0.0
124	0x1f5e13a0	4.7026562e-20
125	0x1fbdaf5b	8.0334715e-20
126	0x200ff062	1.2192107e-19
127	0x21c8c013	1.3603369e-18
128	0x2f1177c1	1.3230218e-10
129	0x27e61ba8	6.386781e-15
130	0x2703a1ae	1.8267549e-15
131	0x299883cf	6.773021e-14
132	0x25c34361	3.3872766e-16
133	0x1ea1733a	1.7094195e-20
134	0x1f7a283a	5.2972834e-20
135	0x2591aaaf	2.526915e-16
136	0x26a163fb	1.1198719e-15
137	0x216f9ca8	8.118368e-19
138	0x2020e456	1.3628077e-19
139	0x21dcb25f	1.4954994e-18
140	0x2de2c9ab	2.5782784e-11
141	0x271dfe2f	2.192592e-15
142	0x2a017633	1.149851e-13
143	0x2fad401d	3.1514072e-10
144	0x230f71c8	7.77614e-18
145	0x2004c8ff	1.1247339e-19
146	0x220c7368	1.9034634e-18
147	0x25bd718f	3.2863224e-16
148	0x1de10398	5.956072e-21
149	0x153d70b3	3.825715e-26
150	0x1abe8a31	7.880542e-23
151	0x2109a272	4.66324e-19
152	0x00000000	0.0
153	0x00000000	0.0
154	0x00000000	0.0
155	0x00000000	0.0
156	0x295a5ff6	4.8488957e-14
157	0x241c6423	3.3911927e-17
158	0x267d8738	8.7960263e-16
159	0x2bc5ac7f	1.4045569e-12
160	0x00000000	0.0
161	0x00000000	0.0
162	0x00000000	0.0
163	0x00000000	0.0
164	0x29bed94b	8.475389e-14
165	0x25cdb0d4	3.5681655e-16
166	0x26421f60	6.734979e-16
167	0x2bfab79a	1.7814528e-12
168	0x2562a12a	1.965698e-16
169	0x1fc1fb38	8.2154286e-20
170	0x1f3d7557	4.0119368e-20
171	0x23722191	1.3125954e-17
172	0x2e0169b1	2.9425077e-11
173	0x299d3655	6.981626e-14
174	0x292a20fa	3.7776185e-14
175	0x2c89a7a6	3.912387e-12
176	0x44f55659	1962.6984
177	0x440f583d	573.3787
178	0x41e90489	29.127214
179	0x422f6e28	43.857574
180	0x281707db	8.383887e-15
181	0x27ef7636	6.646399e-15
182	0x271558a9	2.0725967e-15
183	0x29efea35	1.06543606e-13
184	0x00000000	0.0
185	0x00000000	0.0
186	0x00000000	0.0
187	0x00000000	0.0
188	0x00000000	0.0
189	0x00000000	0.0
190	0x00000000	0.0
191	0x00000000	0.0
192	0x37fe2e7f	3.0300811e-05
193	0x32502961	1.2116602e-08
194	0x31606029	3.265095e-09
195	0x349184ad	2.710489e-07
196	0x276e3928	3.306012e-15
197	0x2043ef37	1.6596292e-19
198	0x23aebf27	1.8946074e-17
199	0x2a2d7ecf	1.5409482e-13

exp_avg f4 [50]
0	0x00000004	6e-45
1	0x00000004	6e-45
2	0x00000004	6e-45
3	0x00000004	6e-45
4	0x00000004	6e-45
5	0x00000004	6e-45
6	0x00000004	6e-45
7	0x00000004	6e-45
8	0x00000000	0.0
9	0x00000004	6e-45
10	0x00000004	6e-45
11	0x00000000	0.0
12	0x00000004	6e-45
13	0x00000004	6e-45
14	0x00000004	6e-45
15	0x00000004	6e-45
16	0x00000000	0.0
17	0x00000004	6e-45
18	0x00000004	6e-45
19	0x00000004	6e-45
20	0x00000004	6e-45
21	0x00000004	6e-45
22	0x00000000	0.0
23	0x00000004	6e-45
24	0x00000000	0.0
25	0x00000004	6e-45
26	0x00000004	6e-45
27	0x00000004	6e-45
28	0x00000004	6e-45
29	0x00000004	6e-45
30	0x00000000	0.0
31	0x00000004	6e-45
32	0x00000004	6e-45
33	0x00000004	6e-45
34	0x00000004	6e-45
35	0x00000004	6e-45
36	0x00000004	6e-45
37	0x00000004	6e-45
38	0x00000000	0.0
39	0x00000004	6e-45
40	0x00000000	0.0
41	0x00000004	6e-45
42	0x00000004	6e-45
43	0x00000004	6e-45
44	0x00000004	6e-45
45	0x00000004	6e-45
46	0x00000000	0.0
47	0x00000000	0.0
48	0x00000004	6e-45
49	0x00000004	6e-45

exp_avg_sq f4 [50]
0	0x02d3737c	3.1069948e-37
1	0x0e48bac8	2.4741835e-30
2	0x062071d6	3.017629e-35
3	0x000017a7	8.485e-42
4	0x0978ae1f	2.9933785e-33
5	0x1143797a	1.542022e-28
6	0x0fe4a8ef	2.2547607e-29
7	0x14ce6a57	2.0842628e-26
8	0x00000000	0.0
9	0x1001413d	2.5491022e-29
10	0x14b7b822	1.8550905e-26
11	0x00000000	0.0
12	0x10960097	5.9165477e-29
13	0x0becc340	9.119767e-32
14	0x13bcb8b2	4.7639996e-27
15	0x1528eebd	3.411566e-26
16	0x00000000	0.0
17	0x0000afb8	6.3036e-41
18	0x1d41d55a	2.5653637e-21
19	0x12fa8f1d	1.5812498e-27
20	0x12553008	6.727015e-28
21	0x13f3b4c7	6.1520084e-27
22	0x00000000	0.0
23	0x1bdf8b0c	3.6982112e-22
24	0x00000000	0.0
25	0x000c108d	1.107963e-39
26	0x0a81ca12	1.2498259e-32
27	0x144cc0a0	1.03373566e-26
28	0x0017e8d5	2.195741e-39
29	0x11ebe5ba	3.7218042e-28
30	0x00000000	0.0
31	0x07ebf3b2	3.5502101e-34
32	0x1489f1b1	1.3928795e-26
33	0x0be836c6	8.9445563e-32
34	0x0c20bef7	1.2383418e-31
35	0x156c32f1	4.7700006e-26
36	0x0b6decd1	4.58227e-32
37	0x069b9f24	5.8538356e-35
38	0x00000000	0.0
39	0x1175f26a	1.9401792e-28
40	0x00000000	0.0
41	0x11a4e895	2.6017977e-28
42	0x0b12cd5e	2.8273078e-32
43	0x13bb63a5	4.7303694e-27
44	0x2b355944	6.4428e-13
45	0x0fd2b340	2.0776643e-29
46	0x00000000	0.0
47	0x00000000	0.0
48	0x1d8ca3ee	3.722719e-21
49	0x0fcd265d	2.0229338e-29

exp_avg f4 [4, 50]
0	0x00000004	6e-45
1	0x00000004	6e-45
2	0x80000004	-6e-45
3	0x00000004	6e-45
4	0x00000004	6e-45
5	0x80000004	-6e-45
6	0x80000004	-6e-45
7	0x80000004	-6e-45
8	0x00000000	0.0
9	0x00000004	6e-45
10	0x80000004	-6e-45
11	0x00000000	0.0
12	0x00000004	6e-45
13	0x00000004	6e-45
14	0x00000004	6e-45
15	0x80000004	-6e-45
16	0x00000000	0.0
17	0x00000004	6e-45
18	0x00000004	6e-45
19	0x80000004	-6e-45
20	0x80000004	-6e-45
21	0x00000004	6e-45
22	0x00000000	0.0
23	0x00000004	6e-45
24	0x00000000	0.0
25	0x00000004	6e-45
26	0x00000004	6e-45
27	0x00000004	6e-45
28	0x00000000	0.0
29	0x00000004	6e-45
30	0x00000000	0.0
31	0x00000004	6e-45
32	0x00000004	6e-45
33	0x80000004	-6e-45
34	0x80000004	-6e-45
35	0x00000004	6e-45
36	0x80000004	-6e-45
37	0x00000004	6e-45
38	0x00000000	0.0
39	0x00000004	6e-45
40	0x00000000	0.0
41	0x00000004	6e-45
42	0x80000004	-6e-45
43	0x00000004	6e-45
44	0x80000004	-6e-45
45	0x00000004	6e-45
46	0x00000000	0.0
47	0x00000000	0.0
48	0x80000004	-6e-45
49	0x80000004	-6e-45
50	0x00000004	6e-45
51	0x00000004	6e-45
52	0x80000004	-6e-45
53	0x00000000	0.0
54	0x80000004	-6e-45
55	0x00000004	6e-45
56	0x80000004	-6e-45
57	0x00000004	6e-45
58	0x00000000	0.0
59	0x80000004	-6e-45
60	0x00000004	6e-45
61	0x00000000	0.0
62	0x00000004	6e-45
63	0x80000004	-6e-45
64	0x00000004	6e-45
65	0x00000004	6e-45
66	0x00000000	0.0
67	0x00000000	0.0
68	0x80000004	-6e-45
69	0x80000004	-6e-45
70	0x00000004	6e-45
71	0x00000004	6e-45
72	0x00000000	0.0
73	0x00000004	6e-45
74	0x00000000	0.0
75	0x00000000	0.0
76	0x00000004	6e-45
77	0x80000004	-6e-45
78	0x00000000	0.0
79	0x80000004	-6e-45
80	0x00000000	0.0
81	0x00000004	6e-45
82	0x00000004	6e-45
83	0x80000004	-6e-45
84	0x00000004	6e-45
85	0x80000004	-6e-45
86	0x80000004	-6e-45
87	0x80000004	-6e-45
88	0x00000000	0.0
89	0x80000004	-6e-45
90	0x00000000	0.0
91	0x80000004	-6e-45
92	0x80000004	-6e-45
93	0x00000004	6e-45
94	0x80000004	-6e-45
95	0x00000004	6e-45
96	0x00000000	0.0
97	0x00000000	0.0
98	0x00000004	6e-45
99	0x00000004	6e-45
100	0x00000004	6e-45
101	0x80000004	-6e-45
102	0x80000004	-6e-45
103	0x00000000	0.0
104	0x00000004	6e-45
105	0x00000004	6e-45
106	0x00000004	6e-45
107	0x00000004	6e-45
108	0x00000000	0.0
109	0x00000004	6e-45
110	0x00000004	6e-45
111	0x00000000	0.0
112	0x00000004	6e-45
113	0x00000004	6e-45
114	0x00000004	6e-45
115	0x80000004	-6e-45
116	0x00000000	0.0
117	0x00000000	0.0
118	0x00000004	6e-45
119	0x00000004	6e-45
120	0x00000004	6e-45
121	0x00000004	6e-45
122	0x00000000	0.0
123	0x80000004	-6e-45
124	0x00000000	0.0
125	0x00000000	0.0
126	0x80000004	-6e-45
127	0x80000004	-6e-45
128	0x00000004	6e-45
129	0x80000004	-6e-45
130	0x00000000	0.0
131	0x80000004	-6e-45
132	0x80000004	-6e-45
133	0x00000004	6e-45
134	0x80000004	-6e-45
135	0x80000004	-6e-45
136	0x00000004	6e-45
137	0x80000004	-6e-45
138	0x00000000	0.0
139	0x80000004	-6e-45
140	0x00000000	0.0
141	0x00000004	6e-45
142	0x00000004	6e-45
143	0x80000004	-6e-45
144	0x80000004	-6e-45
145	0x00000004	6e-45
146	0x00000000	0.0
147	0x00000000	0.0
148	0x00000004	6e-45
149	0x00000004	6e-45
150	0x00000004	6e-45
151	0x80000004	-6e-45
152	0x80000004	-6e-45
153	0x00000000	0.0
154	0x80000004	-6e-45
155	0x80000004	-6e-45
156	0x80000004	-6e-45
157	0x00000004	6e-45
158	0x00000000	0.0
159	0x00000004	6e-45
160	0x00000004	6e-45
161	0x00000000	0.0
162	0x80000004	-6e-45
163	0x00000004	6e-45
164	0x00000004	6e-45
165	0x00000004	6e-45
166	0x00000000	0.0
167	0x00000000	0.0
168	0x00000004	6e-45
169	0x00000004	6e-45
170	0x00000004	6e-45
171	0x00000004	6e-45
172	0x00000000	0.0
173	0x80000004	-6e-45
174	0x00000000	0.0
175	0x00000004	6e-45
176	0x00000004	6e-45
177	0x80000004	-6e-45
178	0x00000004	6e-45
179	0x00000004	6e-45
180	0x00000000	0.0
181	0x00000004	6e-45
182	0x80000004	-6e-45
183	0x00000004	6e-45
184	0x00000004	6e-45
185	0x80000004	-6e-45
186	0x00000004	6e-45
187	0x80000004	-6e-45
188	0x00000000	0.0
189	0x00000004	6e-45
190	0x00000000	0.0
191	0x00000004	6e-45
192	0x00000004	6e-45
193	0x80000004	-6e-45
194	0x00000004	6e-45
195	0x00000004	6e-45
196	0x00000000	0.0
197	0x00000000	0.0
198	0x00000004	6e-45
199	0x00000004	6e-45

exp_avg_sq f4 [4, 50]
0	0x1b7acd10	2.0745775e-22
1	0x253ebf14	1.6544613e-16
2	0x1c7ca2fa	8.359045e-22
3	0x0fa2963f	1.6032306e-29
4	0x23123f7f	7.928122e-18
5	0x2971ffa7	5.3734493e-14
6	0x2877f953	1.3765318e-14
7	0x2c0432a4	1.878644e-12
8	0x00000000	0.0
9	0x2919ff47	3.4194242e-14
10	0x2c068fb2	1.9122312e-12
11	0x00000000	0.0
12	0x28c0c170	2.1400172e-14
13	0x226866d7	3.1496306e-18
14	0x2a258eb7	1.4704458e-13
15	0x2c69d92e	3.323185e-12
16	0x00000000	0.0
17	0x13fd2ca3	6.3910194e-27
18	0x351d7fe8	5.8673186e-07
19	0x2961b9fb	5.012135e-14
20	0x2a25d38e	1.4728342e-13
21	0x294ad552	4.5038036e-14
22	0x00000000	0.0
23	0x36e90d83	6.945514e-06
24	0x00000000	0.0
25	0x167e6991	2.0551267e-25
26	0x213d8b4c	6.422005e-19
27	0x2b8270b2	9.268335e-13
28	0x00000000	0.0
29	0x28a0b0ab	1.7840186e-14
30	0x00000000	0.0
31	0x2163463c	7.7003546e-19
32	0x2a531c87	1.8750462e-13
33	0x22d123c2	5.6687424e-18
34	0x22323c5c	2.4155452e-18
35	0x2c4c9aa0	2.9075978e-12
36	0x22914dbc	3.9384633e-18
37	0x1d0a926d	1.8339848e-21
38	0x00000000	0.0
39	0x2923e8ca	3.6395183e-14
40	0x00000000	0.0
41	0x29878d13	6.019677e-14
42	0x2061fd96	1.9142146e-19
43	0x2b382df6	6.5433715e-13
44	0x3d28ab52	0.04117901
45	0x28a7df38	1.863753e-14
46	0x00000000	0.0
47	0x00000000	0.0
48	0x34c0db73	3.5922457e-07
49	0x299e43a4	7.028343e-14
50	0x1a1b54a7	3.212163e-23
51	0x27a068e5	4.4522648e-15
52	0x15758168	4.957944e-26
53	0x00000000	0.0
54	0x1fefaa40	1.0150209e-19
55	0x284ef2f6	1.1487981e-14
56	0x26f8ae1f	1.7255652e-15
57	0x2b70d2b2	8.5557527e-13
58	0x00000000	0.0
59	0x1d384142	2.4385935e-21
60	0x2bff58d0	1.814349e-12
61	0x00000000	0.0
62	0x2875de32	1.3648413e-14
63	0x23a90f59	1.8329517e-17
64	0x2c8032a2	3.6436e-12
65	0x2bc49d2b	1.397026e-12
66	0x00000000	0.0
67	0x00000000	0.0
68	0x362a565d	2.5382244e-06
69	0x2b585881	7.686144e-13
70	0x287de26d	1.40934195e-14
71	0x2b90ee30	1.0297926e-12
72	0x00000000	0.0
73	0x1d346ee1	2.3880125e-21
74	0x00000000	0.0
75	0x00000000	0.0
76	0x2248b3ae	2.7200176e-18
77	0x2bdae2aa	1.5552744e-12
78	0x00000000	0.0
79	0x25eb5e74	4.0830006e-16
80	0x00000000	0.0
81	0x1e8d2e18	1.494802e-20
82	0x2ca381c9	4.6471477e-12
83	0x24b38584	7.785506e-17
84	0x23b6fa6e	1.983854e-17
85	0x2bbf4ad7	1.3592138e-12
86	0x224b0d63	2.7518717e-18
87	0x1bfbf385	4.1681838e-22
88	0x00000000	0.0
89	0x2801c182	7.202899e-15
90	0x00000000	0.0
91	0x28719cd8	1.34121975e-14
92	0x2389fffe	1.4961987e-17
93	0x2b89a230	9.779452e-13
94	0x2cd2b5b1	5.9887308e-12
95	0x25043abe	1.1469078e-16
96	0x00000000	0.0
97	0x00000000	0.0
98	0x35b82ef0	1.3722729e-06
99	0x28781a88	1.37725186e-14
100	0x1abc13df	7.778708e-23
101	0x260a03b3	4.788338e-16
102	0x1ae23336	9.3554145e-23
103	0x00000000	0.0
104	0x1daa25a1	4.5037533e-21
105	0x29055d8e	2.9613078e-14
106	0x27fb3e7c	6.973424e-15
107	0x2be124ab	1.5997389e-12
108	0x00000000	0.0
109	0x1c95eaac	9.920654e-22
110	0x2bbb82aa	1.3323416e-12
111	0x00000000	0.0
112	0x27507bc4	2.8932892e-15
113	0x22e71ee7	6.2645395e-18
114	0x2b1427e4	5.263552e-13
115	0x2c4c4deb	2.9033397e-12
116	0x00000000	0.0
117	0x00000000	0.0
118	0x355bd007	8.188658e-07
119	0x2a030b4e	1.163906e-13
120	0x285dd077	1.2313168e-14
121	0x2a32692a	1.5846062e-13
122	0x00000000	0.0
123	0x1f174970	3.203624e-20
124	0x00000000	0.0
125	0x00000000	0.0
126	0x2160acee	7.6123023e-19
127	0x2b1b9995	5.52802e-13
128	0x1848ecb4	2.5968899e-24
129	0x2d07cf9f	7.719963e-12
130	0x00000000	0.0
131	0x1f191384	3.2415153e-20
132	0x2b43f798	6.962152e-13
133	0x230f5d07	7.771745e-18
134	0x23035c36	7.121051e-18
135	0x2c41d966	2.754763e-12
136	0x218e53fe	9.644527e-19
137	0x1d03635e	1.7389077e-21
138	0x00000000	0.0
139	0x28a30154	1.8097211e-14
140	0x00000000	0.0
141	0x2911b010	3.2349178e-14
142	0x22a29d0c	4.4076468e-18
143	0x2b29419d	6.013192e-13
144	0x2b2e351a	6.189091e-13
145	0x26077c0e	4.700566e-16
146	0x00000000	0.0
147	0x00000000	0.0
148	0x34eb09e6	4.3779363e-07
149	0x294046f4	4.2694106e-14
150	0x179f1d8c	1.0282593e-24
151	0x266f4af5	8.302137e-16
152	0x1d111084	1.9199129e-21
153	0x00000000	0.0
154	0x1f0cc3cf	2.9808122e-20
155	0x2927181a	3.7102354e-14
156	0x2836335d	1.0114167e-14
157	0x2be30da2	1.6133104e-12
158	0x00000000	0.0
159	0x235af1f4	1.1869039e-17
160	0x2bf35234	1.7289004e-12
161	0x00000000	0.0
162	0x28550140	1.1824146e-14
163	0x233553ab	9.829747e-18
164	0x2b00549e	4.5592165e-13
165	0x2c4b6caa	2.8908356e-12
166	0x00000000	0.0
167	0x00000000	0.0
168	0x34aaea13	3.183528e-07
169	0x2a09b011	1.222913e-13
170	0x28857b6b	1.481949e-14
171	0x2a0f9c4a	1.2755175e-13
172	0x00000000	0.0
173	0x2378c11b	1.3484999e-17
174	0x00000000	0.0
175	0x163f137a	1.5435003e-25
176	0x21ba23e3	1.2613349e-18
177	0x2b8fe763	1.0224984e-12
178	0x14f8ea30	2.5133971e-26
179	0x2821b6bc	8.9769195e-15
180	0x00000000	0.0
181	0x20c05cc5	3.2587455e-19
182	0x2b290834	6.0052245e-13
183	0x23a9edac	1.8423675e-17
184	0x23145322	8.0407e-18
185	0x2c345b0b	2.5630077e-12
186	0x22cd92d0	5.5720805e-18
187	0x1c1523df	4.9346327e-22
188	0x00000000	0.0
189	0x28be5a51	2.1133406e-14
190	0x00000000	0.0
191	0x292ab0e4	3.790101e-14
192	0x21ec1958	1.599869e-18
193	0x2aa88205	2.9933014e-13
194	0x2b338b75	6.378711e-13
195	0x26ab3798	1.1880577e-15
196	0x00000000	0.0
197	0x00000000	0.0
198	0x345e57dd	2.0707326e-07
199	0x2981edde	5.770014e-14

exp_avg f4 [4]
0	0x37e4386d	2.7205993e-05
1	0xb74f30dc	-1.2349537e-05
2	0x36836d5f	3.9168367e-06
3	0xb996317e	-0.00028647104

exp_avg_sq f4 [4]
0	0x34ff8bed	4.759926e-07
1	0x343c29da	1.752409e-07
2	0x36b85cb0	5.4944176e-06
3	0x34931cfc	2.7401973e-07
