covid.pth (torch, 10191 bytes, 8 tensors)

fc.0.weight f4 [24, 4]
-0.023611248 0.27293122 0.17273766 0.07299572 0.26567426 -0.029049948 -0.41700327 -0.15641518
0.31737736 0.24759392 -0.2691805 0.057298265 -0.07070124 0.27973616 -0.42507184 -0.18286306
-0.05519688 0.185184 0.0060451627 0.22565007 0.33167368 0.51918787 -0.049144737 -0.3283246
-0.14792573 0.34938717 -0.46957356 0.4874013 0.22566289 0.26303688 -0.010754536 -0.2998636
0.20020276 -0.41310352 0.28218594 -0.36815545 0.21312042 0.13858487 0.084487975 0.38250503
-0.27665824 -0.005505562 -0.07540333 -0.1610471 -0.26310158 0.11393899 0.20264769 0.4315396
0.07226939 -0.092633605 -0.46175197 -0.109394476 -0.37424713 0.3899712 0.14955515 -0.07715291
-0.036243096 0.36506823 -0.48840803 0.18949157 0.03222751 0.31972638 -0.390681 0.06669957
-0.24575698 -0.38483185 -0.31784564 -0.48851156 0.2722732 -0.10307347 0.51048356 -0.16419752
0.23315047 0.155953 -0.18192832 -0.44959757 -0.1849317 0.48754442 -0.2417965 0.39561445
-0.29951173 -0.33680242 0.421686 -0.36187297 0.35604918 0.2508897 -0.13042103 0.08855427
0.14779727 -0.0017831036 0.09235668 0.169066 0.40249202 -0.44478482 0.19427766 0.14316835
00000000: 606c c1bc a4bd 8b3e 24e2 303e c87e 953d
00000010: 7506 883e 28fa edbc 7481 d5be 4d2b 20be
00000020: 497f a23e 4389 7d3e 07d2 89be 96b1 6a3d
00000030: d0cb 90bd 9439 8f3e 04a3 d9be 7440 3bbe
00000040: 2016 62bd e0a0 3d3e 8016 c63b d010 673e
00000050: 22d1 a93e 7fe9 043f fe4b 49bd 291a a8be
00000060: d879 17be e0e2 b23e f26b f0be aa8c f93e
00000070: 2c14 673e c5ac 863e cb33 30bc b987 99be
00000080: f401 4d3e 4e82 d3be ad7a 903e df7e bcbe
00000090: 3d3c 5a3e 31e9 0d3e 0808 ad3d b3d7 c33e
000000a0: 26a6 8dbe 0068 b4bb 106d 9abd 88e9 24be
000000b0: 40b5 86be d858 e93d e082 4f3e c2f2 dc3e
000000c0: f901 943d b0b6 bdbd c16a ecbe 360a e0bd
000000d0: 529d bfbe 4eaa c73e fc24 193e 5802 9ebd
000000e0: a473 14bd 39ea ba3e 9e10 fabe 140a 423e
000000f0: fe00 043d 2db3 a33e 5707 c8be c999 883d
00000100: b8a7 7bbe ae08 c5be aabc a2be 301e fabe
00000110: 6567 8b3e 2f18 d3bd 0daf 023f 6523 28be
00000120: ffbe 6e3e 25b2 1f3e 6b4b 3abe a731 e6be
00000130: bc5e 3dbe 6c9f f93e 8099 77be fa8d ca3e
00000140: 9a59 99be 5e71 acbe 3ae7 d73e 6a47 b9be
00000150: 144c b63e 9d74 803e 178d 05be f15b b53d
00000160: 2b58 173e 07b7 e9ba 8025 bd3d a31f 2d3e
00000170: 6f13 ce3e d6ba e3be b9f0 463e b99a 123e

fc.0.bias f4 [24]
0.4948423 0.2432744 0.49268988 -0.46478057 -0.16958052 -0.24660885 0.32796782 -0.19477423
-0.07187221 -0.5404328 0.21786177 -0.09799898 -0.3548636 -0.18589658 -0.20821442 -0.08471316
-0.40430117 -0.41853988 -0.42525077 0.32859546 -0.3918594 -0.19246978 -0.13485657 -0.12414692
00000000: f85b fd3e ed1c 793e d941 fc3e b8f7 edbe
00000010: 84a6 2dbe 0887 7cbe 66eb a73e e572 47be
00000020: bd31 93bd ce59 0abf 2817 5f3e b0b3 c8bd
00000030: afb0 b5be ac5b 3ebe 2936 55be 187e adbd
00000040: 9000 cfbe dc4a d6be 78ba d9be aa3d a83e
00000050: cca1 c8be cc16 45be d717 0abe be40 febd

fc.2.weight f4 [48, 24]
-0.17775166 0.09490026 0.12807383 -0.19552235 0.042722613 -0.13372242 -0.11434353 -0.21879892
-0.0259234 -0.1541786 0.117439985 0.048770398 -0.2272128 0.05644396 0.04155638 0.05372868
-0.0072561502 -0.22945163 0.07802114 0.06404093 0.18692076 -0.044102773 -0.17281732 -0.005701674
-0.05193661 0.14777002 0.17747033 0.06962749 0.10865423 -0.11309313 -0.12189492 0.007099971
0.1468119 0.012333214 0.13700229 -0.030384094 0.038383856 -0.13439056 0.054183215 0.1662615
0.1126802 -0.14519472 -0.19825575 -0.14803454 0.1267499 -0.049139664 0.1434688 -0.13460357
-0.0023766458 -0.01492716 0.08941046 -0.045297563 0.030977711 -0.1213379 0.16054007 0.01929105
0.028162437 0.100897744 0.09094033 0.18987578 -0.047251087 0.003963098 -0.07559755 -0.039732043
0.17404759 0.03079649 -0.0519018 -0.19711769 0.09991777 0.13173589 0.10267682 0.11244633
0.14612877 -0.15389979 -0.1770921 0.18079346 0.072506726 -0.039655864 -0.10426211 -0.104563996
0.14417753 0.088523 -0.1952307 -0.070138544 -0.13495922 0.15028483 -0.20362753 0.1477836
0.10035196 0.14540839 0.06409776 -0.14443944 -0.046632096 0.02300544 0.16609102 -0.17334314
-0.1624178 0.17994209 0.13595985 -0.17902893 -0.02227445 0.2558701 -0.14937663 0.22176386
0.22304644 0.24211735 -0.059157014 -0.11613589 0.118815705 0.20203424 0.020224888 0.23957266
-0.07576129 0.13591106 0.050954703 0.007898331 -0.14124247 -0.067174174 -0.050000396 0.08066567
0.030872434 -0.07623703 0.0151057355 -0.14042759 0.120750904 -0.030098151 -0.05224046 -0.2523675
0.108749315 0.12471649 0.15386191 0.1309475 -0.16298726 -0.18759143 -0.12389449 -0.077615224
0.19609728 -0.22992465 0.12005162 -0.14668965 -0.07329932 -0.22824681 -0.17878316 -0.020983461
0.041307032 0.0046949214 0.09545161 -0.047944218 0.0120381415 0.053604886 -0.14867695 -0.0613642
-0.06964017 0.26212996 -0.005656898 -0.080376625 -0.105538815 0.028138712 0.01753413 0.16277988
-0.038688555 0.14357021 0.2336917 -0.11442804 0.074168116 -0.051891893 -0.026876207 0.068088256
0.19697672 0.23984149 -0.12260862 -0.1947662 -0.067133054 0.03601447 -0.05226372 0.005485399
0.088531375 0.15149523 0.044144616 -0.18489437 0.13136835 5.635619e-05 0.0195303 0.018055264
0.04183176 0.1121748 0.15894009 0.18660632 0.19038203 0.096486606 0.12775062 0.15465826
0.17157775 -0.13817859 0.048571717 -0.1775394 -0.015027031 -0.045431703 -0.13239485 -0.22712708
-0.20454031 -0.17540312 0.07279545 -0.06977767 0.110605404 0.03940028 -0.25920215 0.11257375
0.06493223 -0.13934147 -0.105237 -0.12538315 -0.045706406 0.0012181534 -0.21757178 0.094623655
-0.1727375 0.03824924 -0.08268507 0.03552337 0.022262573 0.17714441 -0.100447014 0.11826372
-0.12764777 -0.19631118 0.035028085 -0.0685496 -0.17769822 0.149295 -0.023857817 -0.1978938
0.12541205 0.20135477 -0.05292292 0.1195395 0.17898473 0.010003671 -0.061334446 -0.0699276
-0.20269668 0.066673785 0.098089695 0.11510575 -0.18454148 -0.18248306 0.081329316 -0.16656253
-0.094755456 0.19581968 -0.15729636 -0.16756865 -0.16835886 -0.011890978 0.11540395 0.0017775148
00000000: 8804 36be 115b c23d c925 033e 0337 48be
00000010: e8fd 2e3d 88ee 08be f12c eabd d30c 60be
00000020: 4f5d d4bc ffe0 1dbe 6084 f03d 78c3 473d
00000030: 79aa 68be c831 673d 0637 2a3d 9b12 5c3d
00000040: 00c5 edbb 5ef5 6abe 8cc9 9f3d e427 833d
00000050: 2868 3f3e 1ca5 34bd 06f7 30be 1cd5 babb
00000060: 7cbb 54bd 0651 173e c8ba 353e dc98 8e3d
00000070: 1c86 de3d 5f9d e7bd 0ba4 f9bd e0a6 e83b
00000080: dc55 163e 4011 4a3c 544a 0c3e 10e8 f8bc
00000090: 6438 1d3d ae9d 09be 38ef 5d3d 7440 2a3e
000000a0: e0c4 e63d edad 14be 8e03 4bbe 5e96 17be
000000b0: baca 013e ac46 49bd 7ce9 123e 85d5 09be
000000c0: 80c1 1bbb 0c91 74bc d51c b73d f089 39bd
000000d0: f8c4 fd3c 0180 f8bd 9e64 243e 4408 9e3c
000000e0: e9b4 e63c 7aa3 ce3d ec3e ba3d cc6e 423e
000000f0: 5b8a 41bd e0dc 813b e3d2 9abd 11be 22bd
00000100: 8839 323e ec48 fc3c fb96 54bd 38d9 49be
00000110: b0a1 cc3d c6e5 063e 3948 d23d 434a e63d
00000120: c8a2 153e e897 1dbe a257 35be ec21 393e
00000130: 687e 943d 306e 22bd 6087 d5bd a625 d6bd
00000140: 46a3 133e 8c4b b53d 8eea 47be cca4 8fbd
00000150: c032 0abe 44e4 193e bc83 50be 9654 173e
00000160: 5485 cd3d f0e5 143e b045 833d efe7 13be
00000170: 4c01 3fbd e875 bc3c c413 2a3e dd80 31be
00000180: da50 26be bd42 383e 0f39 0b3e 5c53 37be
00000190: e878 b6bc 6801 833e 30f6 18be 1116 633e
000001a0: 4966 643e 9ced 773e a04e 72bd a7d8 edbd
000001b0: a655 f33d 10e2 4e3e aaae a53c 8952 753e
000001c0: bc28 9bbd 452c 0b3e e1b5 503d 0068 013c
000001d0: dea1 10be 9d92 89bd 37cd 4cbd 0b34 a53d
000001e0: 30e8 fc3c 2922 9cbd 0c7e 773c 40cc 0fbe
000001f0: 404c f73d 6690 f6bc 18fa 55bd 5036 81be
00000200: f6b7 de3d 5c6b ff3d fa8d 1d3e 1a17 063e
00000210: 22e6 26be f817 40be 65bc fdbd bbf4 9ebd
00000220: bacd 483e 5e71 6bbe a0dd f53d d035 16be
00000230: f41d 96bd 88b9 69be ef12 37be 82e5 abbc
00000240: 9031 293d dbd7 993b 227c c33d 2861 44bd
00000250: a03b 453c cc90 5b3d c53e 18be 0759 7bbd
00000260: 819f 8ebd e635 863e 805d b9bb 809c a4bd
00000270: bc24 d8bd 2883 e63c bca3 8f3c c5af 263e
00000280: e477 1ebd 1204 133e e14c 6f3e 4059 eabd
00000290: 74e5 973d 988c 54bd 7e2b dcbc db71 8b3d
000002a0: 44b4 493e 0299 753e 3a1a fbbd ca70 47be
000002b0: 0e7d 89bd e983 133d 7c12 56bd ddbe b33b
000002c0: f04f b53d 9121 1b3e fcd0 343d f354 3dbe
000002d0: 6d85 063e 0060 6c38 02fe 9f3c a2e8 933c
000002e0: c857 2b3d e7bb e53d 31c1 223e ba15 3f3e
000002f0: 82f3 423e c59a c53d 0fd1 023e bc5e 1e3e
00000300: 14b2 2f3e b07e 0dbe 23f3 463d e3cc 35be
00000310: f033 76bc 9816 3abd 8492 07be 0094 68be
00000320: 0473 51be e09c 33be c815 953d 98e7 8ebd
00000330: 1685 e23d 3062 213d 25b6 84be 118d e63d
00000340: 30fb 843d 88af 0ebe 7f86 d7bd 7164 00be
00000350: a436 3bbd 72aa 9f3a 23cb 5ebe 0cca c13d
00000360: 19e2 30be 3cab 1c3d ca56 a9bd f480 113d
00000370: 0060 b63c 5865 353e 2ab7 cdbd 4034 f23d
00000380: 19b6 02be cc05 49be 9c79 0f3d bc63 8cbd
00000390: 86f6 35be cae0 183e 7871 c3bc aca4 4abe
000003a0: 046c 003e f22f 4e3e b4c5 58bd 20d1 f43d
000003b0: c647 373e 70e6 233c d439 7bbd 3436 8fbd
000003c0: b88f 4fbe 448c 883d 40e3 c83d 90bc eb3d
000003d0: 71f8 3cbe d7dc 3abe fc8f a63d 5e8f 2abe
000003e0: 260f c2bd f484 483e 4c12 21be 1e97 2bbe
000003f0: 4466 2cbe 60d2 42bc e858 ec3d 80fb e83a

fc.2.bias f4 [48]
-0.12413476 0.17927548 0.12780209 0.16139683 0.08351843 0.11273995 0.14188485 -0.089475065
-0.20183578 -0.165035 0.074585736 -0.18220289 -0.078129455 -4.2124862e-05 -0.04327461 -0.17542234
0.08654058 -0.016817808 0.10660946 -0.059459683 -0.048979744 0.18283755 -0.24216408 -0.14817648
0.1518809 0.105925076 -0.0200013 0.17184919 0.23242295 0.10813985 -0.2615187 0.24106242
0.17997983 0.16221753 0.16448721 0.0975219 -0.13268739 -0.24639519 -0.2035048 -0.10439714
0.073629916 -0.06117806 -0.0020967126 0.24314676 -0.054605186 0.037332475 -0.1875394 -0.14675926
00000000: 5d3a febd fe93 373e 8dde 023e 3645 253e
00000010: b60b ab3d 34e4 e63d 434a 113e b43e b7bd
00000020: 0aae 4ebe effe 28be 68c0 983d 6593 3abe
00000030: 5602 a0bd 3aaf 30b8 b840 31bd eaa1 33be
00000040: 303c b13d 80c5 89bc 1056 da3d ff8b 73bd
00000050: fc9e 48bd c439 3b3e dcf9 77be 93bb 17be
00000060: ab86 1b3e 3fef d83d c4d9 a3bc 3cf9 2f3e
00000070: 4800 6e3e 6d78 dd3d c7e5 85be 11d9 763e
00000080: a24c 383e 5a1c 263e 566f 283e 90b9 c73d
00000090: 34df 07be 054f 7cbe 9063 50be 2bce d5bd
000000a0: 48cb 963d d895 7abd 0069 09bb 77fb 783e
000000b0: b0a9 5fbd f0e9 183d 540a 40be 0f48 16be

fc.4.weight f4 [12, 48]
0.10256985 0.11970669 -0.108486935 -0.09573911 0.034245044 0.10240038 0.064725265 -0.12653534
-0.1362497 -0.069202594 -0.047975138 0.0166042 -0.08121035 -0.037668668 -0.077433296 0.12172705
-0.10395567 0.05327551 0.064161256 0.06190346 -0.0490494 0.13719699 -0.040216208 0.0035069734
-0.035649188 -0.10312137 0.10366073 -0.077189244 -0.102194056 -0.020407677 -0.06678937 0.14111283
-0.048826315 -0.045837983 -0.09021486 -0.03687723 -0.11592892 -0.07811432 -0.05839864 0.05085151
-0.041227825 -0.14161432 -0.10437462 0.09253198 -0.12583311 0.04417345 -0.066351734 0.06649931
0.13932425 -0.020531945 0.03859742 -0.0420394 0.08711751 -0.03055039 0.12126532 -0.101056
-0.023719475 0.08262639 0.12016675 -0.092233464 -0.018012732 -0.13089702 0.021304443 -0.04629922
0.11059478 -0.056998506 0.034571365 -0.060525812 -0.12888746 0.040441096 0.049361527 -0.073153265
0.118774176 -0.090047106 -0.002162233 -0.06016121 -0.11473492 -0.039795376 0.11499184 -0.05091519
-0.1242932 -0.11341727 -0.1317248 0.074356824 0.11325815 -0.018955097 0.0914723 0.1069715
0.120140344 -0.13881943 -0.006432742 0.008540317 0.1242615 0.08510971 0.083621785 -0.01533097
-0.11217877 -0.06249422 -0.13043335 -0.038600877 0.071351826 0.1221464 -0.07960559 0.14374122
0.031890646 0.09676261 0.053259835 0.09614918 0.070458025 0.09133996 -0.054724574 0.123450845
0.07319057 -0.14028557 -0.10204837 -0.02405727 0.004824117 0.13595581 0.047723085 -0.109407365
0.09036432 0.020981357 0.084896 -0.08655079 0.04589723 -0.019735582 0.0924685 0.048658416
-0.021036878 -0.018657506 -0.13814373 0.06872988 0.08037074 0.10344602 0.12822029 -0.007323876
0.05811298 0.08599794 -0.02715414 -0.109090246 -0.049352847 0.057839066 -0.13764252 -0.12940376
-0.06424762 0.059977114 0.13218942 0.14102909 0.11202577 -0.018008351 -0.0031394362 -0.13650197
0.10313441 -0.08296159 -0.04955437 0.08070432 -0.08104257 -0.079448804 -0.098479 -0.06091421
-0.034583993 -0.12197352 0.09181517 -0.07279948 -0.085035115 0.059062183 -0.107718036 -0.08420244
-0.12343849 0.015912548 0.09392235 -0.09495493 0.06643118 0.057129294 -0.113871485 -0.02488999
0.015976772 -0.11130987 -0.04100796 -0.1342965 0.027004063 -0.13938117 -0.0376701 -0.13261312
0.06816621 -0.07380883 0.081301704 -0.014543757 -0.043205082 0.09989074 -0.12626281 -0.018594578
0.08695249 -0.03728065 -0.13936822 -0.11706093 -0.066647686 0.007153511 0.080858454 0.1278635
-0.00023959577 0.12758967 0.041065246 0.11569309 0.1277321 -0.036958165 -0.021636419 -0.040343262
-0.060517468 -0.04881981 0.051332444 -0.03260296 -0.08688846 -0.08195353 0.07106091 -0.046546645
-0.0067873 -0.06773773 -0.14065495 -0.053319678 0.10213888 -0.02140893 -0.104405195 -0.056140505
-0.14237234 -0.07302241 -0.03365714 0.12601548 0.05031924 0.12519786 -0.023687057 -0.086951815
0.067608416 0.026290163 0.08616172 0.014441222 0.09653416 -0.12956478 0.1099042 0.07918586
-0.11840323 -0.051873498 -0.127967 0.07809499 -0.048984945 -0.017456084 0.14240652 0.018732175
0.11760184 -0.04026547 -0.07229693 0.071057126 0.112330616 0.07373166 0.024322435 -0.077376395
00000000: 2410 d23d c828 f53d 662e debd de12 c4bd
00000010: 8844 0c3d 4ab7 d13d ae8e 843d 7b92 01be
00000020: 0b85 0bbe 17ba 8dbd 9481 44bd 8805 883c
00000030: 9d51 a6bd 764a 1abd 5995 9ebd 084c f93d
00000040: b6e6 d4bd 6c37 5a3d fa66 833d 7c8e 7d3d
00000050: 06e8 48bd 5e7d 0c3e c0b9 24bd 40d5 653b
00000060: e204 12bd 4c31 d3bd 144c d43d 6515 9ebd
00000070: 1e4b d1bd 002e a7bc ddc8 88bd e27f 103e
00000080: 1afe 47bd 9cc0 3bbd 92c2 b8bd 940c 17bd
00000090: 246c edbd 67fa 9fbd 6a33 6fbd ac49 503d
000000a0: 82de 28bd 5803 11be 5cc2 d5bd 6881 bd3d
000000b0: 65da 00be 38ef 343d 6be3 87bd ca30 883d
000000c0: 04ab 0e3e 9c32 a8bc 5418 1e3d 8231 2cbd
000000d0: aa6a b23d d044 fabc f459 f83d 73f6 cebd
000000e0: 584f c2bc 0638 a93d fc19 f63d e6e4 bcbd
000000f0: 708f 93bc de09 06be a886 ae3c 40a4 3dbd
00000100: 847f e23d 4477 69bd b49a 0d3d eae9 77bd
00000110: 13fb 03be 90a5 253d 502f 4a3d 61d1 95bd
00000120: e03f f33d 9e6a b8bd 40b4 0dbb 9a6b 76bd
00000130: 24fa eabd 7a00 23bd d880 eb3d 728c 50bd
00000140: 6f8d febd 5047 e8bd dee2 06be 6448 983d
00000150: e4f3 e73d b847 9bbc d455 bb3d e013 db3d
00000160: 240c f63d ae26 0ebe c0c9 d2bb b0ec 0b3c
00000170: d07c fe3d 004e ae3d e641 ab3d c02e 7bbc
00000180: fcbd e5bd f0f9 7fbd 5290 05be f41b 1ebd
00000190: e820 923d e427 fa3d 4108 a3bd e630 133e
000001a0: c49f 023d 7a2b c63d fc26 5a3d dce9 c43d
000001b0: 4c4c 903d 7210 bb3d e026 60bd ccd3 fc3d
000001c0: f0e4 953d 05a7 0fbe bcfe d0bd c013 c5bc
000001d0: a013 9e3b 0038 0b3e 4879 433d f810 e0bd
000001e0: ee10 b93d 18e1 ab3c f4dd ad3d 8a41 b1bd
000001f0: bcfe 3b3d 84ac a1bc 2060 bd3d 0c4e 473d
00000200: 8855 acbc a0d7 98bc 8d75 0dbe 40c2 8c3d
00000210: 6a99 a43d 82db d33d 2e4c 033e 20fd efbb
00000220: e007 6e3d b01f b03d 5c72 debc b56a dfbd
00000230: 3626 4abd a8e8 6c3d 29f2 0cbe 6b82 04be
00000240: 4294 83bd 90aa 753d aa5c 073e ee69 103e
00000250: c46d e53d 4086 93bc 00bf 4dbb 2cc7 0bbe
00000260: 2238 d33d c4e7 a9bd 86f9 4abd 4e48 a53d
00000270: a6f9 a5bd 0eb6 a2bd 5caf c9bd 2e81 79bd
00000280: f2a7 0dbd 41cd f9bd 9809 bc3d e517 95bd
00000290: e426 aebd 30eb 713d 469b dcbd 5472 acbd
000002a0: 52cd fcbd 085b 823c 5c5a c03d bb77 c2bd
000002b0: 120d 883d 6800 6a3d 7435 e9bd 18e6 cbbc
000002c0: b8e1 823c 6ef6 e3bd f6f7 27bd 0685 09be
000002d0: a037 dd3c f0b9 0ebe f64b 1abd bccb 07be
000002e0: ba9a 8b3d 1529 97bd 8281 a63d f048 6ebc
000002f0: d0f7 30bd 8493 cc3d 0a4b 01be a853 98bc
00000300: 2614 b23d 98b3 18bd 8bb6 0ebe a4bd efbd
00000310: 957e 88bd 0068 ea3b 1e99 a53d a6ee 023e
00000320: 003c 7bb9 dea6 023e 0834 283d 80f0 ec3d
00000330: 34cc 023e 7261 17bd dc3e b1bc fa3e 25bd
00000340: 2ae1 77bd 48f7 47bd f841 523d ae8a 05bd
00000350: 94f2 b1bd 41d7 a7bd 6288 913d b2a7 3ebd
00000360: 0068 debb 14ba 8abd da07 10be bc65 5abd
00000370: 302e d13d c861 afbc 64d2 d5bd 96f3 65bd
00000380: 0eca 11be c68c 95bd 12dc 09bd 340a 013e
00000390: 8c1b 4e3d de33 003e 5c0b c2bc cb13 b2bd
000003a0: 4876 8a3d 785e d73c 8e75 b03d e09a 6c3c
000003b0: b4b3 c53d a1ac 04be 7415 e13d 322c a23d
000003c0: 657d f2bd 4e79 54bd c809 03be 44f0 9f3d
000003d0: 70a4 48bd 1000 8fbc 04d3 113e 3874 993c
000003e0: 3cd9 f03d 68ed 24bd 6a10 94bd 6686 913d
000003f0: 980d e63d a000 973d d83f c73c 8477 9ebd

fc.4.bias f4 [12]
0.0913351 -0.1437892 -0.14258032 0.05402583 -0.10294874 -0.14199567 0.00902082 0.07130918
0.004268667 -0.030189656 -0.047958344 -0.13392241
00000000: e60d bb3d 7a3d 13be 9300 12be 304a 5d3d
00000010: cad6 d2bd 5067 11be 10cc 133c 8c0a 923d
00000020: 2de0 8b3b 4c50 f7bc f86f 44bd f522 09be

fc.6.weight f4 [4, 12]
0.118691206 -0.1351018 -0.116629854 0.05455184 0.22607607 -0.1952768 -0.11645171 -0.23666163
0.11683601 0.007718116 0.020302206 0.1342729 0.26978922 -0.16940427 -0.2837064 -0.065187335
-0.123965114 -0.0051220953 -0.17452313 0.062287778 0.20703486 -0.1516481 -0.2372117 0.14666745
-0.1682207 -0.16828214 -0.11017403 0.11282903 -0.12948932 -0.050826162 -0.27583456 -0.0726836
-0.015895646 0.14130887 0.2713002 0.1116082 0.07327202 -0.06373772 -0.21387704 0.0309335
0.23740983 0.07960126 0.10420287 0.10510495 0.32532033 -0.1951118 0.048097312 0.05196906
00000000: 6014 f33d 2058 0abe a2db eebd c071 5f3d
00000010: 7c80 673e a4f6 47be 3c7e eebd 6d57 72be
00000020: b847 ef3d 40e8 fc3b d050 a63c d67e 093e
00000030: d021 8a3e 5078 2dbe f741 91be f080 85bd
00000040: 6ce1 fdbd 40d7 a7bb 31b6 32be 7821 7f3d
00000050: f200 543e a449 1bbe a0e7 72be fe2f 163e
00000060: 0c42 2cbe 2752 2cbe eca2 e1bd e812 e73d
00000070: d998 04be 182f 50bd 303a 8dbe 24db 94bd
00000080: 9637 82bc 46b3 103e dce7 8a3e d792 e43d
00000090: a40f 963d ec88 82bd 9502 5bbe 4068 fd3c
000000a0: 901b 733e fc05 a33d 5068 d53d 4441 d73d
000000b0: 6390 a63e 63cb 47be b001 453d 82dd 543d

fc.6.bias f4 [4]
-0.35550487 -0.28175414 -0.48989314 -0.263345
00000000: bc04 b6be 1442 90be 46d3 fabe 28d5 86be
