covid_.pth (torch, 10241 bytes, 12 tensors)

weight f4 [50, 4]
-0.07929525 -0.1938173 0.1513537 -0.037999034 -0.0038467254 -0.3247271 0.17186823 -0.043787766
-0.5160767 0.3569732 -0.45112264 0.010402893 -0.3605295 0.07178412 -0.05460253 -0.004882397
-0.3356903 -0.5246566 -0.5196359 0.0070626847 -0.3398621 0.011763275 -0.4532476 -0.010402918
-0.0021328556 -0.39081213 -0.029257886 -0.0028834154 -0.3554368 0.030703947 0.3419959 -0.17581853
-0.48211423 -0.44222927 0.14457645 -0.014166985 -0.545606 0.32475537 -0.51781344 0.011287281
-0.6226352 0.30766225 0.16372922 -0.36207604 -0.0005090301 -0.37954396 -0.39919534 -0.6006573
-0.068231694 0.33695197 -0.011371425 -0.78454566 -0.0028226557 -0.7602231 -0.36708033 -0.0075648143
-0.14315797 0.38907295 -0.027706357 -0.66323465 -0.37779278 -0.0241251 0.10254246 -0.28399897
-0.0023973125 -0.13161884 0.22339857 -0.2171233 -0.010733683 -0.21499482 -0.33253753 -0.47153774
-0.027647622 -0.5401561 -0.19450471 -0.0016972523 -1.1629925 0.11338394 0.6168512 -0.22278552
-0.0010956717 -0.14748402 0.2186507 -0.50678843 -0.5310126 0.112543724 -0.06839129 0.010870826
-0.010332396 0.10898149 -0.04076726 -0.3491864 -0.06529086 0.1545976 -0.31555417 -0.0020413045
-0.45881587 -0.30501688 0.19117713 -0.21043044 -0.0041582133 0.05230684 -0.35818943 -0.30397865
-7.105621e-05 -0.14987402 -0.8219949 -0.6609246 -0.008391914 -0.08839109 0.08934493 -0.027144697
-0.07619804 -0.46338585 0.2349369 -0.09624844 -0.1330991 -0.006034971 -0.0182838 0.002584509
-0.08866092 -1.8938615 -0.008661358 0.010807287 -0.3317083 -0.17205048 -0.06983322 -0.084721565
-0.011051535 -0.1661596 -0.25789106 -0.6662094 -0.008003794 -0.009819026 -0.11275707 -0.07076741
-0.00733556 -0.11898035 0.36813065 -0.25463268 -0.6440235 0.2149078 -0.05145414 0.0024148196
-0.19052662 0.3876003 -0.4334886 -0.4464831 -0.00092080154 0.03982498 -0.17891894 -0.047175687
-0.48881364 -0.15868974 -0.32502967 -0.20805162 -0.123832226 0.16810477 -0.06820184 -0.2835263
-0.32659072 -0.33493206 0.02975996 0.002616299 -0.47657746 -0.13773043 0.0040546353 0.0085288
-0.26878902 0.18275772 0.26673558 -0.3631709 -0.08979967 -0.08486635 0.06923814 -0.02007825
-0.45033434 0.123059295 -0.52624255 0.008901072 -0.16746587 0.043777525 -0.1874296 -0.47273642
-0.2783943 0.08202055 0.008775015 -0.016074799 -0.025840199 0.1873794 -0.510022 -0.09564433
-0.0069982074 -0.73221713 -0.21675171 -0.07672873 -0.33546776 -0.2775094 -0.33437735 -0.062545836
00000000: 8c65 a2bd 0b78 46be 77fc 1a3e e0a4 1bbd
00000010: 5819 7cbb a142 a6be 3afe 2f3e cd5a 33bd
00000020: 9a1d 04bf 31c5 b63e 8cf9 e6be e570 2a3c
00000030: 5397 b8be 8d03 933d e7a6 5fbd 84fc 9fbb
00000040: 99df abbe e54f 06bf dc06 05bf 186e e73b
00000050: 6802 aebe c0ba 403c 1210 e8be 0071 2abc
00000060: 61c7 0bbb 8718 c8be 3cae efbc aff7 3cbb
00000070: d0fb b5be d886 fb3c 161a af3e c609 34be
00000080: add7 f6be e06b e2be d90b 143e a41c 68bc
00000090: d6ac 0bbf 5646 a63e 6c8f 04bf 4aee 383c
000000a0: 0565 1fbf e885 9d3e a2a8 273e 0862 b9be
000000b0: 6f70 05ba 9653 c2be 5563 ccbe adc4 19bf
000000c0: 0fbd 8bbd f884 ac3e 374f 3abc fcd7 48bf
000000d0: 4efc 38bb fb9d 42bf f4f1 bbbe 43e2 f7bb
000000e0: 0198 12be 9234 c73e 71f8 e2bc bfc9 29bf
000000f0: 0e6e c1be 00a2 c5bc c801 d23d 5068 91be
00000100: 3b1c 1dbb 17c7 06be 98c2 643e 9255 5ebe
00000110: 54dc 2fbc 9a27 5cbe 5c42 aabe 656d f1be
00000120: 447d e2bc ac47 0abf 3e2c 47be 5676 deba
00000130: f0dc 94bf d735 e83d f6e9 1d3f e321 64be
00000140: a49c 8fba 0d06 17be f8e5 5f3e e3bc 01bf
00000150: 71f0 07bf 537d e63d bc10 8cbd 8d1b 323c
00000160: 3649 29bc b031 df3d 92fb 26bd 8fc8 b2be
00000170: 37b7 85bd d54e 1e3e 5190 a1be 68c7 05bb
00000180: eae9 eabe 2c2b 9cbe f0c3 433e 147b 57be
00000190: 9f41 88bb b23f 563d 9b64 b7be 17a3 9bbe
000001a0: 0304 95b8 9378 19be 426e 52bf 5b32 29bf
000001b0: 3d7e 09bc 6306 b5bd 7afa b63d 8e5e debc
000001c0: b80d 9cbd e940 edbe 4c93 703e e71d c5bd
000001d0: 214b 08be 02c1 c5bb e8c7 95bc de60 293b
000001e0: db93 b5bd 0e6a f2bf 5ee8 0dbc 0c11 313c
000001f0: acd5 a9be 002e 30be b804 8fbd 8082 adbd
00000200: 7f11 35bc be25 2abe 4c0a 84be b38c 2abf
00000210: 5822 03bc fbdf 20bc 2eed e6bd 81ee 90bd
00000220: 235f f0bb f8ab f3bd 9f7b bc3e 375f 82be
00000230: b9de 24bf ca10 5c3e 94c1 52bd f341 1e3b
00000240: 6919 43be 8c73 c63e 38f2 ddbe 6f99 e4be
00000250: f261 71ba 851f 233d 8736 37be 4b3b 41bd
00000260: c845 fabe 907f 22be 4a6a a6be 7c0b 55be
00000270: c09b fdbd a823 2c3e 68ad 8bbd 5c2a 91be
00000280: e636 a7be 377c abbe 29cb f33c 3776 2b3b
00000290: f601 f4be 3509 0dbe bfdc 843b 61bc 0b3c
000002a0: b79e 89be d724 3b3e 9191 883e 89f1 b9be
000002b0: e4e8 b7bd 69ce adbd bacc 8d3d 247b a4bc
000002c0: 3992 e6be 8306 fc3d d5b7 06bf cdd5 113c
000002d0: 2c7c 2bbe 1050 333d 8ced 3fbe 820a f2be
000002e0: b389 8ebe 64fa a73d 15c5 0f3c 4caf 83bc
000002f0: d3ae d3bc 63e0 3f3e cd90 02bf 2de1 c3bd
00000300: 3851 e5bb 9572 3bbf 29f4 5dbe f423 9dbd
00000310: 6ec2 abbe b615 8ebe 8233 abbe 0818 80bd

bias f4 [50]
-0.5620926 0.24172778 -0.5470695 -0.28460598 -0.020033067 -0.16554463 -0.30771977 -0.60787624
0.21762833 0.25937644 -0.51460934 -0.34601244 0.09412685 0.15524746 0.41757482 0.2948069
-0.3531038 -0.23687427 -0.35052076 -0.0032026237 -0.6636141 -0.11511757 -0.12970385 -0.06663369
0.3530993 -0.19648187 -0.29026273 -0.77078927 -0.3404358 -0.35217327 -0.8418953 0.33219802
0.13153702 -0.15684827 -0.75485504 0.06753562 0.36628222 -0.1422416 0.49628615 -0.3806106
-0.7868188 -0.23140663 -0.439093 -0.78650767 -0.4007022 -0.3848921 0.0013879047 -0.10902781
-0.46168104 -0.44649196
00000000: 4de5 0fbf 7d87 773e bf0c 0cbf e0b7 91be
00000010: 631c a4bc 8884 29be 728d 9dbe c79d 1bbf
00000020: f6d9 5e3e fdcc 843e 70bd 03bf 8b28 b1be
00000030: 94c5 c03d 31f9 1e3e 5ecc d53e eef0 963e
00000040: 05ca b4be 2b8f 72be 7577 b3be 1ce3 51bb
00000050: 9de2 29bf c3c2 ebbd 16d1 04be 3e77 88bd
00000060: 6ec9 b43e 8b32 49be 519d 94be 7252 45bf
00000070: 9a4d aebe 0e50 b4be 7386 57bf dc15 aa3e
00000080: a4b1 063e d59c 20be 2e3e 41bf 1d50 8a3d
00000090: 5889 bb3e c8a7 11be 3819 fe3e 64df c2be
000000a0: f56c 49bf dcf5 6cbe ccd0 e0be 9158 49bf
000000b0: d728 cdbe 9410 c5be 5bea b53a f949 dfbd
000000c0: 7561 ecbe 989a e4be

weight f4 [4, 50]
0.00028056465 -6.638144e-05 0.002886552 0.0069179684 -0.030439723 -0.08991695 -0.0117252655 0.0028924171
0.07756922 -0.016357534 0.03844284 0.011211891 0.031361476 -0.016148385 -0.0004708361 0.13619821
-0.056787293 0.00045645435 0.02945617 0.047948193 -0.015540045 -0.0037961996 -0.0048326417 0.0010317978
0.05251926 -0.010826278 0.0056324606 0.0008335576 -0.028033236 -0.0028530625 0.021801153 -0.13829081
-0.008842053 0.032864626 0.0025990943 -0.00011210507 -0.02477622 0.0028497372 -0.055592924 0.066522
0.11929133 0.079364456 -0.03175435 -0.007370247 0.008267955 0.053819418 0.006867789 0.006402066
0.022630522 0.1387835 0.014587509 0.0008722307 -0.010395231 0.0019763527 -0.01912723 -0.06744093
0.0060175452 -0.08339599 0.06348248 -0.001466747 0.13665734 0.0002184027 0.1652681 0.002811664
-0.06411423 0.11693467 0.033805143 0.030962067 0.049417596 0.026599012 0.0021647278 -0.009874697
0.0047710873 -0.012284938 0.0009097159 0.0184243 6.4808155e-05 0.0005886083 0.010670818 0.0031694304
0.013795391 0.10840008 -0.006380093 0.00028364034 -0.014477561 0.017890131 -0.06921007 -0.00010707493
-0.07254328 0.12811948 0.021442734 0.09313963 0.09736399 0.008356016 -0.0047887843 0.075232506
0.0019734188 0.027798878 0.0031355927 0.019620836 0.007837385 0.0024227982 -0.013449718 0.002304795
-0.0011891356 0.04728566 0.010992363 0.00997507 -0.039877072 -0.00037740613 0.12383185 0.0023021002
0.038384903 0.0060726935 0.005787457 0.108410105 -0.015192094 0.06079948 -0.008210042 0.0176504
0.0045962646 -0.0064086574 0.0032923594 -0.0067417687 -0.08443661 0.012078368 0.0013737864 0.0010459346
0.11147313 -0.008853897 0.022584306 0.09317413 0.02109323 -0.005646169 0.02184337 0.012875597
0.041330546 0.0007011409 -0.12556715 -0.08772287 0.02528412 -0.048843972 -0.04806778 -4.322113e-05
-0.027825166 0.095501155 0.007642899 0.035494614 0.019560004 -0.044613928 -0.0016940084 0.002088696
-0.038559727 0.0029036321 -0.03826864 0.13777505 -0.015063758 -0.009035647 0.0017899198 0.0095505295
0.035704542 0.00047413533 0.060952667 -0.00040835264 0.0068785264 -0.03681767 0.04489879 0.022213342
-0.0046842615 0.07554982 0.001612834 0.010810952 0.0053848363 0.008843743 -0.04449153 -0.005036134
-0.00029751673 0.0007521003 0.026979484 -0.044456005 0.020921342 0.05261822 0.063030854 0.011423637
-0.0072334036 0.0076067066 0.071929455 -0.0030003663 0.13446184 0.071036085 0.0016173493 -0.0015404897
-0.060534105 0.0047722086 0.018409906 0.024257183 0.0064245323 -0.14988022 0.0149480235 -0.05741807
00000000: c018 9339 4436 8bb8 4e2c 3d3b 20b0 e23b
00000010: ba5c f9bc 6126 b8bd 541b 40bc b58e 3d3b
00000020: 9cdc 9e3d 3c00 86bc 3d76 1d3d 14b2 373c
00000030: e474 003d 9e49 84bc 8dda f6b9 8b77 0b3e
00000040: cb99 68bd 4450 ef39 114e f13c 5365 443d
00000050: ac9b 7ebc a9c9 78bb 235b 9ebb 643d 873a
00000060: 701e 573d b360 31bc 8190 b83b 1b83 5a3a
00000070: f5a5 e5bc 72fa 3abb 5598 b23c 1b9c 0dbe
00000080: 42de 10bc 0f9d 063d 9155 2a3b f319 ebb8
00000090: 80f7 cabc a8c2 3a3b 68b5 63bd b03c 883d
000000a0: 034f f43d d589 a23d d910 02bd 1d82 f1bb
000000b0: 5176 073c c071 5c3d 310b e13b 6cc8 d13b
000000c0: a563 b93c 431d 0e3e 7300 6f3c 69a6 643a
000000d0: c250 2abc b285 013b b5b0 9cbc 781e 8abd
000000e0: d42e c53b 84cb aabd 1a03 823d dd3f c0ba
000000f0: e7ef 0b3e 0703 6539 0a3c 293e e543 383b
00000100: 524e 83bd 727b ef3d 4377 0a3d 29a4 fd3c
00000110: 1b6a 4a3d 2ce6 d93c 1bde 0d3b 7bc9 21bc
00000120: c856 9c3b c446 49bc 007a 6e3a 8fee 963c
00000130: 9de9 8738 d64c 1a3a a8d4 2e3c 38b6 4f3b
00000140: 1006 623c dc00 de3d 1910 d1bb 90b5 9439
00000150: 4b33 6dbc 538e 923c 02be 8dbd 6a8d e0b8
00000160: 9291 94bd c131 033e aca8 af3c febf be3d
00000170: c666 c73d ace7 083c 3ceb 9cbb 8013 9a3d
00000180: 7954 013b 79ba e33c 847e 4d3b e0bb a03c
00000190: 6068 003c cfc7 1e3b 355c 5cbc 0b0c 173b
000001a0: c5dc 9bba 9cae 413d 5019 343c 7a6e 233c
000001b0: 2456 23bd 98de c5b9 8e9b fd3d d5de 163b
000001c0: 7d39 1d3d 72fd c63b b5a4 bd3b 1e06 de3d
000001d0: 43e8 78bc e008 793d 6983 06bc 9297 903c
000001e0: 439c 963b b7ff d1bb a0c4 573b 0eea dcbb
000001f0: 1aed acbd 59e4 453c 9f10 b43a be17 893a
00000200: 064c e43d f00f 11bc b902 b93c 14d2 be3d
00000210: b6cb ac3c 8003 b9bb def0 b23c 2bf4 523c
00000220: 384a 293d c5cc 373a ad94 00be 0ca8 b3bd
00000230: a520 cf3c 9e10 48bd b8e2 44bd 5648 35b8
00000240: 9af1 e3bc 1c96 c33d 4971 fa3b cd62 113d
00000250: 4d3c a03c 18bd 36bd 7d09 deba 81e2 083b
00000260: cef0 1dbd dd4a 3e3b 94bf 1cbd e714 0d3e
00000270: fbcd 76bc 400a 14bc be9b ea3a d379 1c3c
00000280: ed3e 123d 5e95 f839 81a9 793d 2a18 d6b9
00000290: 4365 e13b 20ce 16bd cbe7 373d c1f8 b53c
000002a0: 6f7e 99bb ddb9 9a3d bb65 d33a 6b20 313c
000002b0: 4873 b03b 59e5 103c c03c 36bd 2706 a5bb
000002c0: 05fc 9bb9 9928 453a 1404 dd3c 8017 36bd
000002d0: 3c63 ab3c 3486 573d 5216 813d 352a 3b3c
000002e0: 3006 edbb ae41 f93b c04f 933d cba1 44bb
000002f0: 5db0 093e 5e7b 913d 3dfd d33a 42ea c9ba
00000300: 9cf2 77bd 3060 9c3b 5fd0 963c 00b7 c63c
00000310: e284 d23b 337a 19be 8ee8 743c 362f 6bbd

bias f4 [4]
1.3363022 1.3566271 1.3673835 1.3520135
00000000: f30b ab3f f5a5 ad3f 6c06 af3f c70e ad3f

exp_avg f4 [50, 4]
6e-45 6e-45 6e-45 6e-45 6e-45 6e-45 6e-45 6e-45
6e-45 6e-45 6e-45 6e-45 6e-45 6e-45 6e-45 6e-45
6e-45 6e-45 6e-45 6e-45 0.0 0.0 0.0 0.0
6e-45 6e-45 6e-45 6e-45 6e-45 6e-45 6e-45 6e-45
6e-45 6e-45 6e-45 6e-45 6e-45 6e-45 6e-45 6e-45
6e-45 6e-45 6e-45 6e-45 6e-45 6e-45 6e-45 6e-45
6e-45 6e-45 6e-45 6e-45 6e-45 6e-45 6e-45 6e-45
6e-45 6e-45 6e-45 6e-45 0.0 0.0 0.0 0.0
6e-45 6e-45 6e-45 6e-45 6e-45 6e-45 6e-45 6e-45
6e-45 6e-45 6e-45 6e-45 134.53821 421.32852 520.9515 946.5934
6e-45 6e-45 6e-45 6e-45 6e-45 6e-45 6e-45 6e-45
4.5571756 1.4363872 0.28880644 0.35477588 6e-45 6e-45 6e-45 6e-45
0.0 0.0 0.0 0.0 6e-45 6e-45 6e-45 6e-45
6e-45 6e-45 6e-45 6e-45 6e-45 6e-45 6e-45 6e-45
6e-45 6e-45 6e-45 6e-45 6e-45 6e-45 6e-45 6e-45
2518.0059 6.75016 296.5135 27239.719 0.0 0.0 0.0 0.0
6e-45 6e-45 6e-45 6e-45 6e-45 6e-45 6e-45 6e-45
6e-45 6e-45 6e-45 6e-45 6e-45 6e-45 6e-45 6e-45
6e-45 6e-45 6e-45 6e-45 6e-45 6e-45 6e-45 6e-45
0.0 0.0 0.0 0.0 0.0 0.0 0.0 0.0
6e-45 6e-45 6e-45 6e-45 6e-45 6e-45 6e-45 6e-45
6e-45 6e-45 6e-45 6e-45 6e-45 6e-45 6e-45 6e-45
6e-45 -6e-45 -6e-45 6e-45 0.0 0.0 0.0 0.0
6e-45 6e-45 6e-45 6e-45 6e-45 6e-45 6e-45 6e-45
6e-45 6e-45 6e-45 6e-45 0.0 0.0 0.0 0.0
00000000: 0400 0000 0400 0000 0400 0000 0400 0000
00000010: 0400 0000 0400 0000 0400 0000 0400 0000
00000020: 0400 0000 0400 0000 0400 0000 0400 0000
00000030: 0400 0000 0400 0000 0400 0000 0400 0000
00000040: 0400 0000 0400 0000 0400 0000 0400 0000
00000050: 0000 0000 0000 0000 0000 0000 0000 0000
00000060: 0400 0000 0400 0000 0400 0000 0400 0000
00000070: 0400 0000 0400 0000 0400 0000 0400 0000
00000080: 0400 0000 0400 0000 0400 0000 0400 0000
00000090: 0400 0000 0400 0000 0400 0000 0400 0000
000000a0: 0400 0000 0400 0000 0400 0000 0400 0000
000000b0: 0400 0000 0400 0000 0400 0000 0400 0000
000000c0: 0400 0000 0400 0000 0400 0000 0400 0000
000000d0: 0400 0000 0400 0000 0400 0000 0400 0000
000000e0: 0400 0000 0400 0000 0400 0000 0400 0000
000000f0: 0000 0000 0000 0000 0000 0000 0000 0000
00000100: 0400 0000 0400 0000 0400 0000 0400 0000
00000110: 0400 0000 0400 0000 0400 0000 0400 0000
00000120: 0400 0000 0400 0000 0400 0000 0400 0000
00000130: c889 0643 0daa d243 e53c 0244 faa5 6c44
00000140: 0400 0000 0400 0000 0400 0000 0400 0000
00000150: 0400 0000 0400 0000 0400 0000 0400 0000
00000160: 62d4 9140 89db b73f 70de 933e 2fa5 b53e
00000170: 0400 0000 0400 0000 0400 0000 0400 0000
00000180: 0000 0000 0000 0000 0000 0000 0000 0000
00000190: 0400 0000 0400 0000 0400 0000 0400 0000
000001a0: 0400 0000 0400 0000 0400 0000 0400 0000
000001b0: 0400 0000 0400 0000 0400 0000 0400 0000
000001c0: 0400 0000 0400 0000 0400 0000 0400 0000
000001d0: 0400 0000 0400 0000 0400 0000 0400 0000
000001e0: 1860 1d45 5001 d840 ba41 9443 70cf d446
000001f0: 0000 0000 0000 0000 0000 0000 0000 0000
00000200: 0400 0000 0400 0000 0400 0000 0400 0000
00000210: 0400 0000 0400 0000 0400 0000 0400 0000
00000220: 0400 0000 0400 0000 0400 0000 0400 0000
00000230: 0400 0000 0400 0000 0400 0000 0400 0000
00000240: 0400 0000 0400 0000 0400 0000 0400 0000
00000250: 0400 0000 0400 0000 0400 0000 0400 0000
00000260: 0000 0000 0000 0000 0000 0000 0000 0000
00000270: 0000 0000 0000 0000 0000 0000 0000 0000
00000280: 0400 0000 0400 0000 0400 0000 0400 0000
00000290: 0400 0000 0400 0000 0400 0000 0400 0000
000002a0: 0400 0000 0400 0000 0400 0000 0400 0000
000002b0: 0400 0000 0400 0000 0400 0000 0400 0000
000002c0: 0400 0000 0400 0080 0400 0080 0400 0000
000002d0: 0000 0000 0000 0000 0000 0000 0000 0000
000002e0: 0400 0000 0400 0000 0400 0000 0400 0000
000002f0: 0400 0000 0400 0000 0400 0000 0400 0000
00000300: 0400 0000 0400 0000 0400 0000 0400 0000
00000310: 0000 0000 0000 0000 0000 0000 0000 0000

exp_avg_sq f4 [50, 4]
0.2172727 0.1015217 0.26805305 24.99731 115.927765 0.3509548 2.4643629 202.74988
3.4940197 0.04024519 0.24370971 984.38245 23.886604 8.878435 21.323372 5536.543
4.441457 0.00041560738 0.32936078 1111.3086 0.0 0.0 0.0 0.0
7.1466484 0.021453515 0.35264528 340.13196 0.04164518 0.118130274 0.115579665 0.36993834
0.00034215592 1.229926e-05 0.00030869455 0.09223304 0.859203 0.028531132 0.122097276 233.40414
2.90235e-05 0.00012726281 5.4294895e-05 0.00012813475 6.134627 0.010499896 0.0004339926 0.00083756424
0.14814778 0.016165515 0.0009912851 0.0015918951 1.2005358 0.00023489169 0.006178644 13.819698
1.5788003 0.6755104 0.08189447 0.14681199 0.0 0.0 0.0 0.0
8.672921 0.070556596 0.0058826446 0.011433342 0.0036884504 6.9364664e-06 2.4924438e-07 3.6814984e-07
3.0073552 0.006169838 0.0365962 69.2532 885692.75 1.2565485e+07 2.3044704e+07 7.1975016e+07
13.986417 0.11335694 0.011450971 0.020736018 1.4202812 0.021818409 0.33987185 291.4214
8.035141e+07 643949.4 28794.21 46061.664 21.416498 1.3413025 1.2506949 853.86176
0.0 0.0 0.0 0.0 2.0607812 0.024250763 0.0028021433 0.0050847665
37.39367 0.04721153 0.0024788033 0.0054893848 193.5424 2.7947967 10.044921 982.96246
2.0461419e-05 8.463887e-06 0.00021641028 0.0025600921 10.962965 0.045685433 1.3144729 1316.4354
1.5983864e+09 4936.602 4.3172304e+07 3.2890316e+11 0.0 0.0 0.0 0.0
0.5033323 0.0012207981 5.609411e-05 9.556658e-05 29.424171 0.12333949 0.009522962 1.2890105
0.011221901 0.00018530368 0.00023673063 0.00071971933 3.869024 7.528643 8.869025 535.91675
7.5580574e-05 0.0001881622 3.167315e-05 5.6086214e-05 0.8128534 0.009143581 0.0008591851 0.10448462
0.0 0.0 0.0 0.0 0.0 0.0 0.0 0.0
0.017088292 0.00026773004 0.0046376335 4.2159796 0.072526276 0.00036936984 0.014166745 18.091764
0.00021697526 0.0007888074 0.00015334376 0.00027826388 244.58473 17.523777 228.58946 16380.43
1.5354612 0.00034190953 0.138065 407.79858 0.0 0.0 0.0 0.0
4.305099 0.50442153 1.4034456 743.08124 0.80787253 0.002428151 0.0008686588 0.75622916
1.4318343 0.0028403166 0.0014068267 8.11971 0.0 0.0 0.0 0.0
00000000: bc7c 5e3e 9cea cf3d 403e 893e 7efa c741
00000010: 04db e742 59b0 b33e 1fb8 1d40 f8bf 4a43
00000020: 059e 5f40 24d8 243d 0a8f 793e 7a18 7644
00000030: c417 bf41 120e 0e41 4496 aa41 5804 ad45
00000040: 6a20 8e40 e1e5 d939 faa1 a83e e0e9 8a44
00000050: 0000 0000 0000 0000 0000 0000 0000 0000
00000060: 58b1 e440 48bf af3c ec8d b43e e410 aa43
00000070: 2394 2a3d 49ee f13d 08b5 ec3d 8f68 bd3e
00000080: 6463 b339 eb58 4e37 48d8 a139 ade4 bc3d
00000090: baf4 5b3f 1fba e93c 230e fa3d 7667 6943
000000a0: 7e77 f337 da71 0539 b3ba 6338 e95b 0639
000000b0: dd4e c440 c107 2c3c 8089 e339 fc8f 5b3a
000000c0: 0db4 173e 8b6d 843c 02ee 813a 23a7 d03a
000000d0: 28ab 993f 424d 7639 3976 ca3b 7c1d 5d41
000000e0: 2116 ca3f 40ee 2c3f 4ab8 a73d e255 163e
000000f0: 0000 0000 0000 0000 0000 0000 0000 0000
00000100: 49c4 0a41 fa7f 903d 33c3 c03b e952 3b3c
00000110: eeb9 713b cbbf e836 e3cf 8534 21a6 c534
00000120: 8278 4040 5a2c ca3b e6e5 153d a381 8a42
00000130: cc3b 5849 edbb 3f4b 30d1 af4b 0d48 894c
00000140: 5dc8 5f41 af27 e83d da9c 3b3c 95de a93c
00000150: c6cb b53f 85bc b23c af03 ae3e f0b5 9143
00000160: 1642 994c d636 1d49 6cf4 e046 aaed 3347
00000170: fd54 ab41 cdaf ab3f c516 a03f 2777 5544
00000180: 0000 0000 0000 0000 0000 0000 0000 0000
00000190: d7e3 0340 89a9 c63c 2aa4 373b 1d9e a63b
000001a0: 1e93 1542 e160 413d 6b73 223b 4ce0 b33b
000001b0: db8a 4143 f3dd 3240 ffb7 2041 99bd 7544
000001c0: 90a4 ab37 1e00 0e37 31ec 6239 38c7 273b
000001d0: 4e68 2f41 a620 3b3d a640 a83f ef8d a444
000001e0: e28a be4e d144 9a45 74b0 244c 5028 9952
000001f0: 0000 0000 0000 0000 0000 0000 0000 0000
00000200: 63da 003f 3003 a03a 9846 6b38 eb6a c838
00000210: b464 eb41 6a99 fc3d 3306 1c3c 4cfe a43f
00000220: 10dc 373c 144e 4239 e53a 7839 8cab 3c3a
00000230: 179e 7740 a5ea f040 87e7 0d41 acfa 0544
00000240: 0381 9e38 684d 4539 c9d8 0438 1d3e 6b38
00000250: 2917 503f f5ce 153c f03a 613a 08fc d53d
00000260: 0000 0000 0000 0000 0000 0000 0000 0000
00000270: 0000 0000 0000 0000 0000 0000 0000 0000
00000280: bffc 8b3c 1e5e 8c39 4af7 973b 4ee9 8640
00000290: a888 943d fba7 c139 a31b 683c efbb 9041
000002a0: da83 6339 f8c7 4e3a e7ca 2039 f2e3 9139
000002b0: b195 7443 b230 8c41 e796 6443 b8f1 7f46
000002c0: fe89 c43f 5242 b339 e960 0d3e 38e6 cb43
000002d0: 0000 0000 0000 0000 0000 0000 0000 0000
000002e0: 5fc3 8940 c521 013f 1ba4 b33f 33c5 3944
000002f0: bcd0 4e3f 9d21 1f3b b5b6 633a 3c98 413f
00000300: 5946 b73f 9b24 3a3b 4565 b83a 55ea 0141
00000310: 0000 0000 0000 0000 0000 0000 0000 0000

exp_avg f4 [50]
6e-45 6e-45 6e-45 6e-45 6e-45 0.0 6e-45 6e-45
6e-45 6e-45 6e-45 6e-45 6e-45 6e-45 6e-45 0.0
6e-45 6e-45 6e-45 2.0234118e-05 6e-45 6e-45 6.6371435e-08 6e-45
0.0 6e-45 6e-45 6e-45 6e-45 6e-45 0.0003006099 0.0
6e-45 6e-45 6e-45 6e-45 6e-45 6e-45 0.0 0.0
6e-45 6e-45 6e-45 6e-45 6e-45 0.0 6e-45 6e-45
6e-45 0.0
00000000: 0400 0000 0400 0000 0400 0000 0400 0000
00000010: 0400 0000 0000 0000 0400 0000 0400 0000
00000020: 0400 0000 0400 0000 0400 0000 0400 0000
00000030: 0400 0000 0400 0000 0400 0000 0000 0000
00000040: 0400 0000 0400 0000 0400 0000 70bc a937
00000050: 0400 0000 0400 0000 1588 8e33 0400 0000
00000060: 0000 0000 0400 0000 0400 0000 0400 0000
00000070: 0400 0000 0400 0000 2e9b 9d39 0000 0000
00000080: 0400 0000 0400 0000 0400 0000 0400 0000
00000090: 0400 0000 0400 0000 0000 0000 0000 0000
000000a0: 0400 0000 0400 0000 0400 0000 0400 0000
000000b0: 0400 0000 0000 0000 0400 0000 0400 0000
000000c0: 0400 0000 0000 0000

exp_avg_sq f4 [50]
3.5913604e-15 5.231517e-14 1.1344786e-13 6.977409e-13 1.2951162e-13 0.0 4.3376608e-14 2.139153e-16
1.1371518e-17 2.7252277e-14 1.193245e-19 6.623177e-16 3.2086058e-17 1.879332e-15 7.1682635e-16 0.0
1.0577059e-15 4.0082283e-19 9.206764e-15 3.1510336e-08 1.6583668e-15 3.5788206e-14 9.229937e-09 1.1595363e-13
0.0 2.5495496e-16 3.955242e-15 1.9178916e-13 5.2873137e-19 1.6386671e-13 3.8251434e-05 0.0
5.5620445e-17 3.6722864e-15 1.6998361e-18 7.6843086e-14 1.2499498e-19 1.1847258e-16 0.0 0.0
5.099364e-16 2.1581313e-15 5.163829e-19 2.4227155e-12 4.746193e-14 0.0 9.3632235e-14 1.8646423e-16
1.0969399e-15 0.0
00000000: 7464 8127 499b 6b29 3d76 ff29 8865 442b
00000010: 2fd1 112a 0000 0000 d359 4329 a7a0 7625
00000020: 7ac4 5123 7977 f528 9edf 0c20 6ce6 3e26
00000030: 88f8 1324 8e6b 0727 739c 4e26 0000 0000
00000040: 766e 9826 a29a ec20 b4da 2528 fb55 0733
00000050: f0fe ee26 fe2c 2129 b191 1e32 5c8d 022a
00000060: 0000 0000 b6f8 9225 ab80 8e27 76ef 572a
00000070: d00d 1c21 5d7f 382a 2a70 2038 0000 0000
00000080: 8440 8024 dd4e 8427 fed9 fa21 0609 ad29
00000090: 6a91 1320 ef96 0825 0000 0000 0000 0000
000000a0: aafa 1226 7f82 1b27 ca68 1821 c37b 2a2c
000000b0: e1bf 5529 0000 0000 4fd7 d229 87fa 5625
000000c0: f015 9e26 0000 0000

exp_avg f4 [4, 50]
-6e-45 -6e-45 -6e-45 6e-45 -6e-45 0.0 -6e-45 6e-45
6e-45 -6e-45 -6e-45 6e-45 6e-45 -6e-45 6e-45 0.0
-6e-45 6e-45 6e-45 390.92963 6e-45 -6e-45 5.4555583 6e-45
0.0 6e-45 6e-45 6e-45 -6e-45 6e-45 -10150.015 0.0
-6e-45 6e-45 6e-45 6e-45 -6e-45 6e-45 0.0 0.0
6e-45 6e-45 -6e-45 6e-45 -6e-45 0.0 6e-45 6e-45
6e-45 0.0 6e-45 6e-45 -6e-45 6e-45 -6e-45 0.0
6e-45 6e-45 6e-45 -6e-45 0.0 -6e-45 6e-45 6e-45
0.0 0.0 6e-45 6e-45 6e-45 6e-45 6e-45 -6e-45
-6e-45 -6e-45 0.0 6e-45 6e-45 6e-45 -6e-45 -6e-45
13266.942 0.0 6e-45 6e-45 -6e-45 6e-45 0.0 6e-45
0.0 0.0 6e-45 6e-45 0.0 -6e-45 -6e-45 0.0
6e-45 6e-45 -6e-45 0.0 6e-45 -6e-45 -6e-45 6e-45
-6e-45 0.0 6e-45 6e-45 6e-45 -6e-45 0.0 6e-45
-6e-45 -6e-45 6e-45 0.0 -6e-45 6e-45 -6e-45 6e-45
6e-45 -6e-45 6e-45 -6e-45 0.0 6e-45 6e-45 6e-45
-6e-45 -6e-45 8547.256 0.0 6e-45 6e-45 6e-45 -6e-45
0.0 6e-45 0.0 0.0 6e-45 -6e-45 0.0 6e-45
-6e-45 0.0 6e-45 6e-45 6e-45 0.0 6e-45 6e-45
-6e-45 6e-45 -6e-45 0.0 -6e-45 6e-45 6e-45 6e-45
6e-45 6e-45 6e-45 -6e-45 6e-45 0.0 6e-45 6e-45
-6e-45 28.527733 6e-45 -6e-45 6e-45 6e-45 0.0 6e-45
6e-45 6e-45 -6e-45 -6e-45 -1485.5659 0.0 6e-45 6e-45
-6e-45 6e-45 0.0 -6e-45 0.0 0.0 6e-45 6e-45
0.0 6e-45 -6e-45 0.0 -6e-45 -6e-45 6e-45 0.0
00000000: 0400 0080 0400 0080 0400 0080 0400 0000
00000010: 0400 0080 0000 0000 0400 0080 0400 0000
00000020: 0400 0000 0400 0080 0400 0080 0400 0000
00000030: 0400 0000 0400 0080 0400 0000 0000 0000
00000040: 0400 0080 0400 0000 0400 0000 fe76 c343
00000050: 0400 0000 0400 0080 ef93 ae40 0400 0000
00000060: 0000 0000 0400 0000 0400 0000 0400 0000
00000070: 0400 0080 0400 0000 0f98 1ec6 0000 0000
00000080: 0400 0080 0400 0000 0400 0000 0400 0000
00000090: 0400 0080 0400 0000 0000 0000 0000 0000
000000a0: 0400 0000 0400 0000 0400 0080 0400 0000
000000b0: 0400 0080 0000 0000 0400 0000 0400 0000
000000c0: 0400 0000 0000 0000 0400 0000 0400 0000
000000d0: 0400 0080 0400 0000 0400 0080 0000 0000
000000e0: 0400 0000 0400 0000 0400 0000 0400 0080
000000f0: 0000 0000 0400 0080 0400 0000 0400 0000
00000100: 0000 0000 0000 0000 0400 0000 0400 0000
00000110: 0400 0000 0400 0000 0400 0000 0400 0080
00000120: 0400 0080 0400 0080 0000 0000 0400 0000
00000130: 0400 0000 0400 0000 0400 0080 0400 0080
00000140: c54b 4f46 0000 0000 0400 0000 0400 0000
00000150: 0400 0080 0400 0000 0000 0000 0400 0000
00000160: 0000 0000 0000 0000 0400 0000 0400 0000
00000170: 0000 0000 0400 0080 0400 0080 0000 0000
00000180: 0400 0000 0400 0000 0400 0080 0000 0000
00000190: 0400 0000 0400 0080 0400 0080 0400 0000
000001a0: 0400 0080 0000 0000 0400 0000 0400 0000
000001b0: 0400 0000 0400 0080 0000 0000 0400 0000
000001c0: 0400 0080 0400 0080 0400 0000 0000 0000
000001d0: 0400 0080 0400 0000 0400 0080 0400 0000
000001e0: 0400 0000 0400 0080 0400 0000 0400 0080
000001f0: 0000 0000 0400 0000 0400 0000 0400 0000
00000200: 0400 0080 0400 0080 068d 0546 0000 0000
00000210: 0400 0000 0400 0000 0400 0000 0400 0080
00000220: 0000 0000 0400 0000 0000 0000 0000 0000
00000230: 0400 0000 0400 0080 0000 0000 0400 0000
00000240: 0400 0080 0000 0000 0400 0000 0400 0000
00000250: 0400 0000 0000 0000 0400 0000 0400 0000
00000260: 0400 0080 0400 0000 0400 0080 0000 0000
00000270: 0400 0080 0400 0000 0400 0000 0400 0000
00000280: 0400 0000 0400 0000 0400 0000 0400 0080
00000290: 0400 0000 0000 0000 0400 0000 0400 0000
000002a0: 0400 0080 cc38 e441 0400 0000 0400 0080
000002b0: 0400 0000 0400 0000 0000 0000 0400 0000
000002c0: 0400 0000 0400 0000 0400 0080 0400 0080
000002d0: 1cb2 b9c4 0000 0000 0400 0000 0400 0000
000002e0: 0400 0080 0400 0000 0000 0000 0400 0080
000002f0: 0000 0000 0000 0000 0400 0000 0400 0000
00000300: 0000 0000 0400 0000 0400 0080 0000 0000
00000310: 0400 0080 0400 0080 0400 0000 0000 0000

exp_avg_sq f4 [4, 50]
1.1687809 91.406815 2.6593757 1438.0219 13.841212 0.0 44.824387 0.6588754
0.045485403 2.2038155 0.0010362875 37.27734 0.11097233 5.2548237 1.3916057 0.0
7.787301 0.047547985 47.13244 7.957245e+07 44.59741 59.047573 1.2449265e+07 173.24014
0.0 16.032877 60.27009 452.0041 1.4317004e-07 259.36154 5.43032e+09 0.0
9.655541 39.757557 5.1008697 107.35444 1.2884152e-05 1.5082976 0.0 0.0
1.0894418 1.3968757 0.0003124824 3696.0034 3.4369707 0.0 42.097095 16.288504
11.375654 0.0 1.1719873 75.2714 4.326938 1205.8113 24.170938 0.0
37.658134 0.00020149413 0.041095298 3.9879751 0.0 4.536463 3.8501308e-05 1.5253543
0.0 0.0 0.50945276 0.000103451894 47.065414 0.012072295 6.090848 93.20975
495392.22 181.76523 0.0 0.48652044 12.153972 617.6223 3.525408e-07 415.56662
6.927999e+09 0.0 0.14937592 9.333572 0.015525278 92.04414 0.0 0.018441001
0.0 0.0 1.7727907 2.3230748 0.0 3874.6318 5.954385 0.0
51.77715 0.14160033 0.5567227 0.0 1.8242534 64.091446 4.1617856 1533.4012
28.113626 0.0 47.458252 0.009899996 0.049341723 3.5526447 0.0 4.2974124
2.2373262e-05 1.5561448 6.4480205e-06 0.0 0.47017533 5.4560016e-05 58.898647 0.4070904
6.168366 118.27567 645315.2 233.24846 0.0 0.47261792 10.758845 698.6386
7.014034e-07 503.20782 4.434768e+09 0.0 0.12675056 8.86316 0.010437384 115.65398
0.0 0.015824111 0.0 0.0 1.9552457 2.2909048 0.0 4311.2646
5.9444575 0.0 66.222534 0.11046976 0.41605654 0.0 358.8802 54.323963
590.07904 9764.339 1987.6725 0.0 3340.3442 0.18209325 59.952736 872.9234
3.8780845e-06 2.4969473 7.5847165e-05 586.4267 0.00013639504 0.0 0.37064537 0.0001644912
8278.355 15441.888 3.1314905 8368.898 551308.7 7078.9395 0.0 0.49071255
6.0443816 15298.692 0.0007575076 10121.755 5.7968696e+09 0.0 0.2352673 3.816771
0.031631026 7567.212 0.0 4.050308 0.0 0.0 1295.5463 1209.9595
0.0 18933.402 1118.7268 0.0 3740.8225 1.2755458 0.78733855 0.0
00000000: 9d9a 953f 4ad0 b642 3633 2a40 b3c0 b344
00000010: 9b75 5d41 0000 0000 2c4c 3342 0fac 283f
00000020: e74e 3a3d 500b 0d40 0ad4 873a ff1b 1542
00000030: 7645 e33d 8427 a840 2320 b23f 0000 0000
00000040: 9231 f940 adc1 423d 9e87 3c42 bcc5 974c
00000050: bf63 3242 b730 6c42 f1f5 3d4b 7a3d 2d43
00000060: 0000 0000 5543 8041 9214 7142 8600 e243
00000070: 48ba 1934 47ae 8143 0ed6 a14f 0000 0000
00000080: 197d 1a41 bd07 1f42 533a a340 79b5 d642
00000090: 0329 5837 e50f c13f 0000 0000 0000 0000
000000a0: d472 8b3f d3cc b23f aed4 a339 0e00 6745
000000b0: 54f7 5b40 0000 0000 6d63 2842 db4e 8241
000000c0: ae02 3641 0000 0000 ae03 963f f58a 9642
000000d0: 4776 8a40 f6b9 9644 155e c141 0000 0000
000000e0: eea1 1642 2b48 5339 8b53 283d fc3a 7f40
000000f0: 0000 0000 b42a 9140 777c 2138 cf3e c33f
00000100: 0000 0000 0000 0000 7f6b 023f 50f4 d838
00000110: fc42 3c42 e0ca 453c 3ae8 c240 646b ba42
00000120: 07e4 f148 e6c3 3543 0000 0000 3519 f93e
00000130: ab76 4241 d467 1a44 d744 bd34 87c8 cf43
00000140: 7078 ce4f 0000 0000 00f6 183e 5056 1541
00000150: bc5d 7e3c 9a16 b842 0000 0000 9511 973c
00000160: 0000 0000 0000 0000 ceea e23f 42ad 1440
00000170: 0000 0000 1c2a 7245 528a be40 0000 0000
00000180: cd1b 4f42 adff 103e 6185 0e3f 0000 0000
00000190: 2381 e93f d22e 8042 592d 8540 d7ac bf44
000001a0: b5e8 e041 0000 0000 40d5 3d42 9833 223c
000001b0: 8c1a 4a3d 885e 6340 0000 0000 6784 8940
000001c0: 37ae bb37 c12f c73f 135c d836 0000 0000
000001d0: d2ba f03e 5fd7 6438 3798 6b42 276e d03e
000001e0: 4163 c540 258d ec42 338c 1d49 9b3f 6943
000001f0: 0000 0000 fafa f13e 3b24 2c41 dfa8 2e44
00000200: 1348 3c35 9a9a fb43 982a 844f 0000 0000
00000210: e6ca 013e 81cf 0d41 9001 2b3c d64e e742
00000220: 0000 0000 91a1 813c 0000 0000 0000 0000
00000230: 7e45 fa3f 2f9e 1240 0000 0000 1eba 8645
00000240: ff38 be40 0000 0000 f071 8442 f83d e23d
00000250: 5d05 d53e 0000 0000 aa70 b343 bd4b 5942
00000260: 0f85 1344 5b91 1846 8575 f844 0000 0000
00000270: 82c5 5045 a776 3a3e 9acf 6f42 193b 5a44
00000280: 7e20 8236 fccd 1f40 2310 9f38 4f9b 1244
00000290: 4405 0f39 0000 0000 3bc5 bd3e 457b 2c39
000002a0: 6c59 0146 8d47 7146 576a 4840 98c3 0246
000002b0: cb98 0649 8437 dd45 0000 0000 ad3e fb3e
000002c0: 936b c140 c50a 6f46 7993 463a 0527 1e46
000002d0: 9bc2 ac4f 0000 0000 e9e9 703e fa45 7440
000002e0: 898f 013d b279 ec45 0000 0000 209c 8140
000002f0: 0000 0000 0000 0000 7bf1 a144 b43e 9744
00000300: 0000 0000 ceea 9346 42d7 8b44 0000 0000
00000310: 29cd 6945 1645 a33f 058f 493f 0000 0000

exp_avg f4 [4]
-0.001841831 0.029239777 0.020686617 0.008270782
00000000: 9869 f1ba 4288 ef3c fb76 a93c 2d82 073c

exp_avg_sq f4 [4]
0.017701339 0.020669112 0.013623344 0.018976897
00000000: 6602 913c 4552 a93c 7234 5f3c 7075 9b3c
