test_model/covid20.pth (torch, 16239 bytes, 18 tensors)

weight f4 [24, 4]
000000 96 05 0d b8 6c f6 5e 3e 5e 6b 5e 3e be 39 97 3e
       -3.3622222e-05 0.2177369 0.21720645 0.2953624
000010 dd 96 60 3c a4 4b ba be 01 cc 58 3e 49 ed 28 3e
       0.013707844 -0.36385834 0.21171571 0.16496767
000020 d5 99 4c be ab fd 0b 3e 9c ca 53 be 81 d3 35 3e
       -0.19980557 0.13670985 -0.20682758 0.17756464
000030 e3 98 db bd 74 25 ae 3e f4 83 ab 3e 5d 49 ed 3c
       -0.1072252 0.3401295 0.3349911 0.028965646
000040 8b 79 88 3e 9e ad 1c 3d f4 09 9c 3e fe e5 61 3e
       0.2665523 0.03825151 0.30476344 0.22060391
000050 15 ef dc 3e 6c 78 43 be d2 b0 a6 be 78 52 a9 3d
       0.43151155 -0.19088906 -0.32556778 0.08267683
000060 6b 0a 0f 3e fb 39 8c 3e 8a 0c 05 bf b9 39 ed be
       0.13968818 0.27387986 -0.5197226 -0.463331
000070 4d b5 a1 3e bd 4b e3 3e 3c 85 6b be fc 61 ca be
       0.31583634 0.4439372 -0.23000044 -0.3952788
000080 9e 5f cc be a8 5d f3 bd 78 44 82 be 10 87 ee bd
       -0.399167 -0.11883098 -0.25442863 -0.11646855
000090 ab 87 01 3c a4 84 2c be 5f 3a 91 3d a4 48 0f 3e
       0.007905881 -0.16847473 0.070912115 0.13992554
0000a0 32 04 ac bc f4 05 47 3e fd f4 98 3d d6 9e 69 3e
       -0.020998094 0.19435865 0.07468603 0.22814497
0000b0 04 9b af be c8 1c 15 3e 66 69 a7 be 88 88 99 bd
       -0.34297955 0.1456176 -0.326976 -0.074967444
0000c0 69 32 bc 3e cf f6 86 bd 04 2f 41 3e 11 e5 51 bc
       0.3675721 -0.06590044 0.18865591 -0.012810961
0000d0 5a 21 ad be 62 22 ef be 14 c1 ba be 04 17 9c be
       -0.33814508 -0.4670592 -0.36475432 -0.3048631
0000e0 fd 76 18 be 1c 72 e0 bd 52 ad 11 3e f7 14 73 3d
       -0.1488914 -0.10959265 0.14226273 0.059346166
0000f0 75 3a a7 3e f1 74 14 be 3a 15 f6 3e 33 04 01 be
       0.32661787 -0.14497735 0.4806307 -0.12599258
000100 83 c9 87 3a d4 b0 eb 3d e0 44 ca 3e e9 e2 c7 3e
       0.0010359738 0.11508337 0.39505672 0.39040306
000110 73 7b f4 3e 2e 8d a9 be ef 90 0c be 90 12 1b be
       0.47750434 -0.33115524 -0.13727163 -0.151438
000120 90 0b fa 3e 6c 75 d9 3e e5 ae d4 be 3d 27 b4 be
       0.48836946 0.42472398 -0.41539684 -0.35186186
000130 96 7b 18 3d 49 cf 98 3e e9 39 3a 3e 3e 2a 0d 3d
       0.037227236 0.29845646 0.18186153 0.034464113
000140 d7 9b 88 3e 6f ed 8d 3e 20 c3 4d 3e 17 7e c2 3d
       0.26681396 0.2772021 0.20093966 0.09496706
000150 e8 68 f4 be c4 f6 29 3e b0 91 1f 3e c4 35 e0 be
       -0.47736287 0.1659804 0.15582919 -0.4379102
000160 14 7c d6 be 28 58 3f 3e 1c a8 74 3e 0c 95 e7 be
       -0.4189154 0.18685973 0.23892254 -0.452309
000170 10 8e 7a bd 80 a5 05 3c 34 58 d2 be 48 86 d5 be
       -0.061170638 0.008157134 -0.4108292 -0.4170401

bias f4 [24]
000000 11 b2 f1 3e 99 72 df be ff 1d 00 3f f3 69 f2 3e
       0.47206166 -0.4364212 0.5004577 0.47346458
000010 57 21 89 3d ce 4a dc bd c7 2a 2d 3d dd 46 c7 3e
       0.06695812 -0.10756455 0.042277124 0.38921252
000020 7c 30 71 3e 0f 2c 94 be f1 b5 05 bb 00 3d 8e bc
       0.23553652 -0.28939864 -0.0020402635 -0.017363071
000030 75 7a c7 bd 34 67 6a 3e bb bd e0 3e a2 37 e5 3e
       -0.09740154 0.22890931 0.43894753 0.44769007
000040 d9 9c 80 be d4 0e a3 be 4e c6 28 3d 5a 75 a4 bc
       -0.25119665 -0.3184725 0.041204743 -0.020075489
000050 fe 5d ad 3e a0 19 36 3d 6c ae a4 3e 62 34 a6 3e
       0.33860773 0.04445803 0.32164323 0.3246184

weight f4 [24, 24]
000000 56 34 fb 3d 90 12 ed bd 7d dd e8 3c 4e cf 1d be
       0.12265842 -0.11575806 0.028425926 -0.15411112
000010 df e1 41 3d 78 65 03 be 73 d8 37 3e cd 8c af bd
       0.047334548 -0.12831676 0.17953663 -0.085717775
000020 84 4b 72 bd 7b 4b 58 3d 45 2a e4 3d f0 22 cb 3c
       -0.05915405 0.05280636 0.11140875 0.024796933
000030 01 ba 70 bd dc 06 c3 3d aa 30 08 be 49 e0 9a 3d
       -0.058771137 0.09522793 -0.13299814 0.0756231
000040 50 ff 77 3d ff 6d cb bd 8c e1 13 3e d3 a7 b4 bb
       0.06054622 -0.099330895 0.14441508 -0.0055131703
000050 33 e0 d1 bc 38 4c 4e be 86 85 ad bd 18 9c 08 3e
       -0.025619602 -0.20146263 -0.08472733 0.13340795
000060 bf f9 f5 3d f8 6e 14 be 7c 1a 95 bd 0f ac 29 3e
       0.12010526 -0.14495456 -0.07280442 0.16569541
000070 92 99 88 bd ef d6 94 3d fb bb af bd ad 34 8b 3d
       -0.06669916 0.07267558 -0.08580776 0.067971565
000080 da c8 9d bd 0a a8 86 3d d4 72 2e 3e ee 04 d5 bd
       -0.07704325 0.0657502 0.17035991 -0.10401331
000090 36 08 1d be 00 a4 67 3b 0f 95 17 3d 03 41 2a 3e
       -0.15335163 0.0035345554 0.037007388 0.16626363
0000a0 7c 71 4a be 08 7e f5 bc 28 ae fe bd a3 22 ff 3c
       -0.19769853 -0.029967323 -0.124355614 0.031144446
0000b0 5c e2 8c 3d 09 27 af bd d4 58 43 3e 68 72 a2 bc
       0.06879112 -0.08552367 0.19076854 -0.019829944
0000c0 f9 74 b7 bd d2 16 09 be 60 ac 20 3e 64 b9 0a bd
       -0.08957858 -0.13387612 0.15690756 -0.03386821
0000d0 69 26 a3 3c dd 16 31 3e 66 a0 51 bc 3c 99 27 3e
       0.019915776 0.17293878 -0.01279459 0.16367048
0000e0 88 ef 3b 3e 67 d1 f5 bd ed 4b 3f be 00 d9 1a 3e
       0.18353093 -0.12002831 -0.18681307 0.15121841
0000f0 c3 77 db 3d d0 8a d3 3d e8 e3 a3 3d 7a 6b 4a be
       0.10716202 0.10329211 0.08002454 -0.19767562
000100 cc 21 a2 bd 6d 55 7d 3d b4 d5 ca bd 54 f0 71 bd
       -0.079166025 0.061849046 -0.09904042 -0.059067085
000110 70 91 4d be 12 7c 34 be 2f 10 34 be fc 19 f1 3d
       -0.20075011 -0.17625454 -0.17584299 0.11772534
000120 ed fb 14 3e 19 67 0a 3e 2b 8a be 3d 8b 23 3d 3e
       0.14549227 0.13515891 0.09303697 0.1847059
000130 d5 32 02 be d3 2d 02 bd c1 fe 62 3d 49 6d 1d be
       -0.12714703 -0.031781983 0.055418734 -0.1537372
000140 20 ca 69 3d e3 d6 97 bd cf 37 53 be b0 80 6a bd
       0.057077527 -0.07414033 -0.20626758 -0.057251632
000150 14 ac a0 3d c7 1c 3c be 16 05 3f 3e 02 ea 22 3e
       0.07845321 -0.18370353 0.18654284 0.1590958
000160 75 6c 21 be 5e 5b a7 bd 36 24 4c 3d ef 21 03 3e
       -0.1576403 -0.08171724 0.04983922 0.12805913
000170 1c 51 32 3e 0c 5e 9c bd e0 8c 00 3e 70 68 80 3d
       0.17413753 -0.076351255 0.1255374 0.0626992
000180 d0 d3 55 3d 7f 21 e6 bd c1 8a af bc b2 5b 06 be
       0.052203953 -0.112368576 -0.021428468 -0.13120916
000190 4c e4 e8 bc 99 dc 0c 3e 1e b0 b8 3d 91 9b 49 bd
       -0.028429173 0.13756026 0.09017967 -0.049220625
0001a0 70 8e 16 3c 64 60 10 3e 5e 6a b5 3c 68 00 11 be
       0.009189233 0.1409927 0.022145446 -0.14160311
0001b0 03 91 33 3e 1c 31 7b bd af 2e a7 bb 35 68 52 be
       0.17535786 -0.06132613 -0.0051020007 -0.20547564
0001c0 92 05 12 3e 8d ae c2 bd 47 44 12 be 64 41 3b be
       0.14259937 -0.09505949 -0.14283858 -0.18286663
0001d0 be 78 ab 3d d0 31 ec 3d 5a 01 ad bd 40 99 11 3c
       0.08372639 0.115329385 -0.084475234 0.008886635
0001e0 a1 95 fd 3d 3a de 91 bd 21 30 0e be 2d 7b 08 be
       0.12382055 -0.071224645 -0.13885547 -0.13328238
0001f0 a4 20 d4 bd 78 ad 3e be e8 a3 49 be 40 78 45 bd
       -0.10357788 -0.1862086 -0.19691432 -0.048210382
000200 e0 ea ca 3d ec 1b d8 bd da 32 4e 3e 9e dc 0c 3e
       0.0990808 -0.10552201 0.20136586 0.13756034
000210 9c 47 93 bc d7 59 ff bd 2d 4b 80 3d a0 f2 e3 bb
       -0.017978482 -0.124683075 0.06264339 -0.0069564134
000220 6d b2 4d 3e 47 4c 32 3e 22 54 fb 3c 62 58 8c 3d
       0.20087595 0.1741191 0.030679766 0.06852795
000230 b7 0b 1e be b4 48 98 3d 62 0b 19 3e 88 46 bd 3d
       -0.15434156 0.07435742 0.14945748 0.092419684
000240 f4 0d 8a 3d 1c 14 46 3e b2 53 71 be a3 24 89 3d
       0.067409426 0.19343609 -0.23567083 0.06696441
000250 6d 10 d9 3d f3 de 9f bd 7a fb 13 3d c6 db 05 3e
       0.10598836 -0.07806196 0.0361285 0.13072118
000260 d4 59 bb bd 56 8f a8 bd 31 53 a9 3d 74 8c 6f bd
       -0.09147993 -0.08230464 0.082678206 -0.058483556
000270 c4 19 fc 3d d8 45 8e bd 17 46 1f be a9 28 11 be
       0.12309602 -0.069469154 -0.15554081 -0.14175667
000280 ac 91 50 be d6 0e 8d bc 89 60 33 be 91 67 f0 3d
       -0.2036807 -0.017218988 -0.17517294 0.11738504
000290 a4 2d 91 3d 6e 7e 4b 3e e0 97 35 3e fe 52 22 3e
       0.070887834 0.19872448 0.17733717 0.15851972
0002a0 68 6b e7 3d bc 30 11 3e d0 37 3c bd b2 84 d1 bd
       0.11299783 0.14178747 -0.045951664 -0.10230388
0002b0 d5 b1 4d be 8d 18 30 be ee ce a1 bd 74 cb 01 3e
       -0.20087369 -0.17196865 -0.07900797 0.12675267
0002c0 18 9f e6 bc 6e d2 47 be 90 a1 38 3d e0 5f 3c 3e
       -0.028152034 -0.19513866 0.045075953 0.18395948
0002d0 74 c2 8d bd b8 a6 b6 3c 2c 96 1e bd bc 59 3a 3e
       -0.069218546 0.022296295 -0.038717434 0.18198293
0002e0 a0 48 d8 bd 37 08 cd bd 28 9e 20 bd 64 00 1f be
       -0.10560727 -0.100113325 -0.03921333 -0.15527493
0002f0 40 26 8f bb a8 e4 ca 3d 98 ed 8b 3d 96 9f 36 3e
       -0.0043685734 0.09906894 0.06832427 0.17834315
000300 4a a3 97 bc 35 7f 89 bc 26 76 71 be bf d8 30 3e
       -0.01851048 -0.01678429 -0.23580226 0.17270182
000310 33 fa 02 be b1 3a 1c bd 20 8a b5 bd 19 62 d1 bd
       -0.12790756 -0.03814191 -0.08864236 -0.10223789
000320 50 00 ad 3c f9 89 54 3c 29 77 43 bd dc ef 0d 3e
       0.021118313 0.012972348 -0.04772106 0.1386103
000330 8f 15 b1 3d d2 28 b4 bd 93 4d 24 bd 82 39 05 3b
       0.0864669 -0.08796848 -0.040113043 0.0020328467
000340 41 4c bd 3d 17 04 58 bd 74 c3 fb bc 0b 9c ec 3d
       0.0924306 -0.052738275 -0.030732848 0.115532
000350 b9 20 fc 3d 0c f3 ef 3d 40 7f 1b 3d 5a 8b 18 3e
       0.12310929 0.117162794 0.037963152 0.14896908
000360 d7 44 bf 3d db 71 0e 3e 71 4b 10 3e 60 86 0e be
       0.09339302 0.1391062 0.14091279 -0.13918447
000370 c1 88 1e bd 2e ea b4 3d 3c 7c 6b bd ba 1b 49 be
       -0.038704637 0.08833729 -0.057491526 -0.19639483
000380 7c 8b 1d bd 85 ae c9 bd 57 f9 e2 bd 34 f4 99 bd
       -0.0384631 -0.0984774 -0.11082714 -0.07517281
000390 ea 00 4a 3e be 9d 1b be 3a 21 dd bd c7 b8 82 bc
       0.19726911 -0.15196893 -0.10797353 -0.01595725
0003a0 35 de 4b bd 99 93 3d be b5 37 14 3b c4 02 7f 3d
       -0.04977246 -0.18513335 0.0022616212 0.062258497
0003b0 40 47 c0 bd c4 83 cf 3d f8 66 e5 3d 40 62 67 bd
       -0.0938859 0.10132554 0.1120128 -0.056490183
0003c0 56 fc 19 be 4e 4b 4c be f8 6f 18 bd 48 4a 5b bd
       -0.15037665 -0.19950601 -0.037216157 -0.053537637
0003d0 f8 e6 6b bd 08 85 e9 3c 47 47 24 be 00 3e 9a ba
       -0.057593316 0.028505817 -0.16042815 -0.0011767745
0003e0 f4 30 28 3e 02 24 27 3e 58 3b 86 bc b8 8d 98 3d
       0.16424924 0.1632233 -0.01638572 0.07448906
0003f0 24 b2 f2 3d 34 16 82 bd b8 76 3d 3e 4b bd 4e be
       0.11850384 -0.06351891 0.18502319 -0.20189397

bias f4 [24]
000000 0e c6 06 3d 53 8e c5 3d 55 91 16 3e b2 ad 1d 3e
       0.032903723 0.09646287 0.14703877 0.15398291
000010 50 77 39 3c 16 15 21 3e 31 a6 5f 3d 84 51 97 3d
       0.01131995 0.157307 0.05460185 0.07388595
000020 e5 d9 c2 3d dc 05 15 3e f8 b8 0f be 9a ac f5 bd
       0.09514216 0.14553016 -0.14035404 -0.11995812
000030 30 33 bf bc 84 d2 c6 3d 2d 65 ad b8 ea 97 e9 bd
       -0.023339838 0.097081214 -8.268128e-05 -0.114059284
000040 10 f8 25 bc 03 8c db bc aa db 27 3e 1e cb 30 3e
       -0.0101299435 -0.026800161 0.16392389 0.17264983
000050 cb 86 2e be 59 f4 57 3e d0 7b 05 3e 53 18 2f be
       -0.17043607 0.21089305 0.13035512 -0.17099123

weight f4 [4, 24]
000000 83 4d 30 3e 3b d5 e3 3d 69 af 51 3d 56 ca 3e bd
       0.17217068 0.11124655 0.051192675 -0.04657968
000010 8c 6f a5 3d a8 fa be bb a9 74 22 3e 32 40 e0 bd
       0.080779165 -0.0058282204 0.15864815 -0.10949744
000020 00 77 f1 3d 69 2b 0e 3d ec cc 04 3d c5 8d b5 3d
       0.117902756 0.034709368 0.03242199 0.08864931
000030 c0 11 14 bc fd 9d 11 be a1 3c d1 bd f8 3a 9a bd
       -0.009037435 -0.14220424 -0.10216642 -0.07530779
000040 98 3f 83 3c 0e b6 e5 bc a9 0f 68 bc 07 80 c3 3d
       0.016021535 -0.028040912 -0.01416389 0.09545904
000050 77 65 c1 3d 59 1b 15 3d ed 0c f1 3d c2 10 c8 3d
       0.09443181 0.036403034 0.117700435 0.09768821
000060 fd 5c 58 3b d0 a8 45 bd 81 c0 9f bc 72 de ba 3d
       0.003301441 -0.048256695 -0.019500973 0.09124459
000070 40 5c 43 be 26 cb 4c bd 37 88 3f 3e c4 64 20 3d
       -0.1907816 -0.049998425 0.18704306 0.039158598
000080 e2 ce 14 bc 7f 44 21 be f2 0f 09 be cf b4 ca bd
       -0.009082528 -0.15748785 -0.13384989 -0.09897768
000090 2a e6 25 3e 19 75 a2 bd 29 7b 09 3e 22 0f c0 bd
       0.16201082 -0.07932491 0.13425888 -0.09377886
0000a0 7c 36 d1 3d 6f e7 99 3d c1 32 46 3e 91 49 25 bc
       0.1021547 0.075148456 0.19355299 -0.01008834
0000b0 1d b8 3e 3d 2b d0 87 3c e0 dc 72 3d bf 68 c5 bc
       0.046562303 0.016578754 0.059292674 -0.024097798
0000c0 6f be b8 bd 1b e5 39 bd 68 17 b5 3c 33 25 bd bd
       -0.09020697 -0.045384508 0.022105888 -0.09235611
0000d0 5d 44 87 bd 9e fc 21 3d d2 95 14 3e b0 5b c3 3d
       -0.06604836 0.039547555 0.14510277 0.095389724
0000e0 66 e1 f3 3d 22 43 fc 3d 52 c8 93 bd 21 4d 56 3d
       0.11908226 0.12317492 -0.072159424 0.05231965
0000f0 a8 19 39 3e 40 b3 d9 bc 4a 1c b5 bd 9c 8b ba 3d
       0.18076193 -0.02657473 -0.08843286 0.091086596
000100 1e ff 06 3e 9d b9 f6 3d 95 49 69 bd 51 73 09 bd
       0.13183257 0.12047122 -0.05695494 -0.03355724
000110 20 38 d6 bc 7e d5 11 3e 4f c9 35 3d 73 bc 92 bc
       -0.02614981 0.14241597 0.044381436 -0.017912125
000120 02 da d4 bd 43 64 64 3e fa 32 0a 3e 93 b8 e7 3d
       -0.10393144 0.22303872 0.13496009 0.113145016
000130 ea 6c be bd fe b9 6f 3d 6c 76 bc bd 34 bc cf 3d
       -0.092981175 0.058526985 -0.09202275 0.10143319
000140 6c 8f 9e 3e d2 a7 42 bd 58 1d 65 3d 43 45 ff 3d
       0.30968797 -0.047523327 0.055936188 0.124643825
000150 68 19 a3 3c 64 fb f9 3d cb 48 00 3d 3e 51 a6 3d
       0.019909576 0.12206152 0.03131942 0.081209645
000160 48 30 ea 3c 79 c4 d7 bd 31 6b 36 3e 46 45 3e be
       0.028587475 -0.10535521 0.17814328 -0.18581113
000170 e2 6f 5f bd e2 7a 6b 3d f0 cb af bd b6 21 21 3e
       -0.05455006 0.057490237 -0.0858382 0.15735516

bias f4 [4]
000000 53 00 e8 3d 1e af 30 3e 33 9b 57 3e 54 56 cd 3d
       0.11328187 0.17254302 0.21055298 0.100262314

exp_avg f4 [24, 4]
000000 28 c8 96 c5 1c 62 98 44 26 05 81 44 32 43 20 47
       -4825.0195 1219.0659 1032.1609 41027.195
000010 10 ad df 45 38 8e 9f c3 b0 44 f0 42 e0 3a 3e 44
       7157.633 -319.11108 120.134155 760.9199
000020 59 ea 66 c6 5e 09 da 44 d2 87 0e 45 fc e7 9d c7
       -14778.587 1744.2927 2280.4888 -80847.97
000030 d3 a3 02 46 5a 4e 9a 44 ab c0 0a c5 6e 3c 39 46
       8360.956 1234.4485 -2220.0417 11855.107
000040 e8 95 69 c6 ae aa 5c c5 68 8f 67 c5 12 64 3f c7
       -14949.477 -3530.6675 -3704.963 -48996.07
000050 9e a4 1d c6 6c bc 0a c3 73 65 be 44 3c 03 02 c7
       -10089.154 -138.73602 1523.1703 -33283.234
000060 35 79 3a c5 a2 7d 39 44 cf ba 21 44 d8 e9 71 44
       -2983.5754 741.963 646.9189 967.6538
000070 b2 38 1d 47 39 1e 31 45 52 f8 70 44 90 bf cc c4
       40248.695 2833.889 963.88 -1637.9863
000080 00 00 00 00 00 00 00 00 00 00 00 00 00 00 00 00
       0.0 0.0 0.0 0.0
000090 f6 f1 4b 46 74 20 d7 44 ae 45 f3 44 5c f1 3b 47
       13052.49 1721.0142 1946.1775 48113.36
0000a0 a5 3b c1 c6 79 45 0b c5 72 89 66 c5 1e 7b 86 c6
       -24733.822 -2228.342 -3688.5903 -17213.559
0000b0 00 00 00 00 00 00 00 00 00 00 00 00 00 00 00 00
       0.0 0.0 0.0 0.0
0000c0 10 fe 93 44 43 be 62 44 5b 58 9c 41 da 9c 4c c7
       1183.9395 906.97284 19.543142 -52380.85
0000d0 00 00 00 00 00 00 00 00 00 00 00 00 00 00 00 00
       0.0 0.0 0.0 0.0
0000e0 1d e2 82 46 fa 7a ff 43 5d cf 84 45 6b 89 b5 47
       16753.057 510.96075 4249.9204 92946.836
0000f0 80 76 16 c4 a8 7a 3b 45 d0 74 06 45 8c 60 f6 c5
       -601.85156 2999.666 2151.3008 -7884.0684
000100 88 5c 9f 46 b0 31 8e c2 20 a3 c5 44 34 74 a4 47
       20398.266 -71.097046 1581.0977 84200.41
000110 c6 6b 63 47 c0 f9 99 41 af 9a f6 c4 3a 04 2c 47
       58219.773 19.246948 -1972.8339 44036.227
000120 b2 95 a3 c6 9b 06 95 c4 fa ea a2 44 9e 58 c9 45
       -20938.848 -1192.2064 1303.343 6443.077
000130 93 98 82 c7 be e5 a2 c5 1c 38 2f c6 52 a1 33 c8
       -66865.15 -5212.718 -11214.027 -183941.28
000140 ed 21 82 46 77 9d 1f 45 0c 4d a8 44 e2 69 5e 47
       16656.963 2553.8416 1346.4077 56937.883
000150 00 00 00 00 00 00 00 00 00 00 00 00 00 00 00 00
       0.0 0.0 0.0 0.0
000160 00 00 00 00 00 00 00 00 00 00 00 00 00 00 00 00
       0.0 0.0 0.0 0.0
000170 00 00 00 00 00 00 00 00 00 00 00 00 00 00 00 00
       0.0 0.0 0.0 0.0

exp_avg_sq f4 [24, 4]
000000 b5 41 25 53 1a 75 3a 4c e8 4b c8 4d 03 8e 1d 53
       7.09772e+11 4.8878696e+07 4.2005222e+08 6.766924e+11
000010 46 15 74 52 43 7a bf 4b c1 79 a9 4d eb 09 dc 52
       2.6208223e+11 2.509735e+07 3.554161e+08 4.725296e+11
000020 52 9f d8 4e 42 3b 4c 4c 7b 23 40 4d a0 dc 3d 51
       1.81716e+09 5.3538056e+07 2.0147192e+08 5.0965643e+10
000030 ad 7b b9 4f 04 78 ab 4d d4 7f d3 4d 66 1c 8b 50
       6.2237804e+09 3.5959616e+08 4.4354624e+08 1.8671153e+10
000040 2e f3 62 52 86 14 03 4d 12 11 d6 4d e9 40 9d 52
       2.4368562e+11 1.3744752e+08 4.4893037e+08 3.3769944e+11
000050 23 da 87 50 30 70 e2 4c 48 b4 44 4d 26 8c 99 51
       1.823376e+10 1.1871885e+08 2.0625933e+08 8.243516e+10
000060 08 b3 b9 50 03 f9 ea 4b 1f 0e 52 4a d1 5d d5 4a
       2.4924144e+10 3.0798342e+07 3.4415438e+06 6.9915925e+06
000070 84 8b 7d 51 18 27 d2 4c b0 c3 e6 4c fc d6 95 50
       6.8060463e+10 1.1018054e+08 1.2098701e+08 2.0111155e+10
000080 00 00 00 00 00 00 00 00 00 00 00 00 00 00 00 00
       0.0 0.0 0.0 0.0
000090 8f e5 c6 51 69 56 86 4b 5e 06 0c 4d 51 f8 2f 52
       1.0678186e+11 1.760789e+07 1.4682672e+08 1.8894633e+11
0000a0 ce 7a cf 51 82 d3 0b 4d 8e f4 d7 4d 16 ae a9 52
       1.1138982e+11 1.466184e+08 4.5289107e+08 3.6438508e+11
0000b0 00 00 00 00 00 00 00 00 00 00 00 00 00 00 00 00
       0.0 0.0 0.0 0.0
0000c0 43 78 e7 51 7c 34 19 4d 0e f5 1d 4c 77 67 40 51
       1.2426939e+11 1.606471e+08 4.1407544e+07 5.16481e+10
0000d0 00 00 00 00 00 00 00 00 00 00 00 00 00 00 00 00
       0.0 0.0 0.0 0.0
0000e0 56 b0 65 4f d4 94 b2 4b ab 6e 55 4d 29 7c 16 52
       3.8535388e+09 2.3407016e+07 2.2379998e+08 1.6158204e+11
0000f0 f4 28 46 52 5b 3e c5 4c 59 fa 39 4d a8 d0 00 52
       2.1277265e+11 1.0341244e+08 1.9501198e+08 1.3831412e+11
000100 af 2a 50 53 86 e8 dd 4c e0 b3 72 4e 7b e3 5c 53
       8.940693e+11 1.1634386e+08 1.01796864e+09 9.487093e+11
000110 76 71 9d 52 e1 32 b1 4c b2 19 1c 4d 3a a7 86 52
       3.381067e+11 9.2903176e+07 1.636831e+08 2.891656e+11
000120 f8 48 0b 52 1c bd fb 4c 54 2a a1 4c 6a 5a 34 51
       1.4955617e+11 1.3198358e+08 8.449706e+07 4.841319e+10
000130 84 80 51 52 03 0b 93 4d d0 a9 b4 4e 6d 3c 16 53
       2.2495107e+11 3.0837155e+08 1.5155139e+09 6.452589e+11
000140 d2 61 7e 51 f0 cc 8d 4c 05 26 23 4d 6f e8 12 52
       6.8285178e+10 7.434432e+07 1.7107362e+08 1.577412e+11
000150 00 00 00 00 00 00 00 00 00 00 00 00 00 00 00 00
       0.0 0.0 0.0 0.0
000160 00 00 00 00 00 00 00 00 00 00 00 00 00 00 00 00
       0.0 0.0 0.0 0.0
000170 00 00 00 00 00 00 00 00 00 00 00 00 00 00 00 00
       0.0 0.0 0.0 0.0

exp_avg f4 [24]
000000 45 9b c9 39 2c e4 a1 38 e7 20 70 ba 6e a5 49 39
       0.00038453392 7.7195786e-05 -0.0009160176 0.00019230481
000010 e2 98 3a ba 4b 23 dc b9 20 66 d2 b6 b0 57 de 39
       -0.0007118118 -0.00041987965 -6.2703766e-06 0.00042408472
000020 00 00 00 00 b4 f4 29 3a 6c f2 fa b9 00 00 00 00
       0.0 0.0006483302 -0.00047864334 0.0
000030 e8 c7 03 ba 00 00 00 00 a9 06 96 3a b0 e0 0b b8
       -0.0005027042 0.0 0.0011446077 -3.334944e-05
000040 26 14 8b 3a e7 77 83 3a 78 d5 16 b9 48 22 2f bb
       0.0010610863 0.001003024 -0.00014384638 -0.0026723314
000050 19 26 4b 3a 00 00 00 00 00 00 00 00 00 00 00 00
       0.00077495124 0.0 0.0 0.0

exp_avg_sq f4 [24]
000000 02 12 93 39 87 8f 12 39 c6 d2 d1 36 29 51 b8 36
       0.00028051442 0.00013977113 6.2532226e-06 5.4930756e-06
000010 c1 a0 f1 38 f6 28 88 37 da b7 38 36 c3 69 88 37
       0.00011521718 1.6231537e-05 2.7525152e-06 1.6261713e-05
000020 00 00 00 00 8a ce 6c 38 4a fb ac 38 00 00 00 00
       0.0 5.645914e-05 8.248405e-05 0.0
000030 c0 bb da 37 00 00 00 00 25 83 be 37 37 ed 95 38
       2.6075053e-05 0.0 2.2710834e-05 7.1490584e-05
000040 de f7 c3 39 84 c2 01 39 0a 98 14 38 cf f6 1f 39
       0.00037377974 0.00012374861 3.5427547e-05 0.00015255365
000050 06 b6 2c 38 00 00 00 00 00 00 00 00 00 00 00 00
       4.1177518e-05 0.0 0.0 0.0

exp_avg f4 [24, 24]
000000 dc 50 63 47 d0 e3 f4 46 5b eb 8a 46 b8 0b a3 45
       58192.86 31345.906 17781.678 5217.465
000010 c9 7c 72 47 72 e8 1a 47 e4 71 24 c3 5d 7e 27 c5
       62076.785 39656.445 -164.44489 -2679.8977
000020 00 00 00 00 3b 22 cf 46 ac c0 27 47 00 00 00 00
       0.0 26513.115 42944.67 0.0
000030 0f 9f bc 46 00 00 00 00 50 35 a0 44 8c 6b c0 45
       24143.53 0.0 1281.666 6157.4434
000040 d2 06 96 47 ab 3d 95 45 60 8e 94 c4 ff eb 43 46
       76813.64 4775.7085 -1188.4492 12538.999
000050 90 a4 1a 47 00 00 00 00 00 00 00 00 00 00 00 00
       39588.562 0.0 0.0 0.0
000060 9c 9b 6a 45 b2 e5 20 44 a0 e5 13 43 79 60 24 45
       3753.7256 643.589 147.89697 2630.0295
000070 66 5f 70 45 14 36 88 43 d8 78 34 43 a1 75 57 44
       3845.9624 272.4225 180.47205 861.83795
000080 00 00 00 00 78 f1 18 44 6a b8 21 45 00 00 00 00
       0.0 611.77295 2587.526 0.0
000090 3c de e6 44 00 00 00 00 7b e2 55 42 42 e0 cf 44
       1846.9448 0.0 53.471172 1663.008
0000a0 1b a8 8d 45 07 18 35 c3 fb e0 61 44 dc 6c 1b 45
       4533.013 -181.09386 903.5153 2486.8037
0000b0 32 f1 6e 45 00 00 00 00 00 00 00 00 00 00 00 00
       3823.0747 0.0 0.0 0.0
0000c0 76 c8 66 43 c0 d9 25 44 00 00 00 00 b5 24 04 18
       230.78305 663.40234 0.0 1.7079132e-24
0000d0 b4 d7 73 46 66 b1 c2 46 bc f6 ff 45 2d a2 91 46
       15605.926 24920.7 8190.842 18641.088
0000e0 00 00 00 00 28 04 c4 43 1c 3a 63 41 00 00 00 00
       0.0 392.03247 14.201687 0.0
0000f0 62 e9 a6 46 00 00 00 00 00 00 00 00 dd e1 93 46
       21364.691 0.0 0.0 18928.932
000100 24 d0 81 43 82 dd d6 46 df 84 df 46 7d c8 16 45
       259.6261 27502.754 28610.436 2412.5305
000110 2e 5f 76 46 00 00 00 00 00 00 00 00 00 00 00 00
       15767.795 0.0 0.0 0.0
000120 02 d0 20 46 f7 3d 38 45 b5 1a ad c3 d4 6f 46 45
       10292.002 2947.8728 -346.20865 3174.9893
000130 dc d8 9f 46 d8 a0 8e 46 00 aa 46 45 32 65 1e 46
       20460.43 18256.422 3178.625 10137.299
000140 00 00 00 00 de 26 1f 45 1c 3d d1 45 00 00 00 00
       0.0 2546.4292 6695.6387 0.0
000150 d5 8e 8e 46 00 00 00 00 cc ce a9 c3 a3 5b 71 46
       18247.416 0.0 -339.6156 15446.909
000160 46 b4 4a 46 58 78 79 46 e8 2a 73 46 3b c3 cf 45
       12973.068 15966.086 15562.727 6648.404
000170 f2 97 94 46 00 00 00 00 00 00 00 00 00 00 00 00
       19019.973 0.0 0.0 0.0
000180 cc f1 d0 46 90 0b 51 46 a8 3e 20 46 7a 67 2b 45
       26744.898 13378.891 10255.664 2742.4673
000190 c8 9a cf 46 40 35 4b 46 06 f9 df 19 f2 ce 3d 44
       26573.39 13005.3125 2.315824e-23 759.2335
0001a0 00 00 00 00 7c 8a 34 46 3c 77 9a 46 00 00 00 00
       0.0 11554.621 19771.617 0.0
0001b0 aa d9 08 46 00 00 00 00 90 8e d2 43 72 bc a4 45
       8758.416 0.0 421.11377 5271.5557
0001c0 98 33 0a 47 98 8c d3 44 50 fe a9 44 dc cf c6 45
       35379.594 1692.3936 1359.9473 6361.9824
0001d0 ba f6 82 46 00 00 00 00 00 00 00 00 00 00 00 00
       16763.363 0.0 0.0 0.0
0001e0 23 d6 07 46 32 1e c4 45 e3 0f af 45 fa 45 fc c3
       8693.534 6275.7744 5601.986 -504.5467
0001f0 3b 71 c5 45 0c 17 8b 45 00 00 00 00 4f e9 83 c2
       6318.154 4450.881 0.0 -65.95568
000200 00 00 00 00 e9 cf 9f 45 f6 cd d7 45 00 00 00 00
       0.0 5113.989 6905.745 0.0
000210 f0 80 7f c4 00 00 00 00 7a 7c fc 44 23 ad 37 c5
       -1022.01465 0.0 2019.8899 -2938.821
000220 4c 60 38 46 28 ae a2 44 0c 25 85 c4 fc 1f de c3
       11800.074 1301.4424 -1065.1577 -444.24988
000230 f8 4f bd 44 00 00 00 00 00 00 00 00 00 00 00 00
       1514.499 0.0 0.0 0.0
000240 88 b8 dd c6 4b e0 67 c6 34 e9 9f c5 9a 09 b0 c5
       -28380.266 -14840.073 -5117.1504 -5633.2
000250 80 b8 0a c7 c7 7f a8 c6 2c 3e 1d c2 69 58 d6 c4
       -35512.5 -21567.889 -39.310715 -1714.7628
000260 00 00 00 00 34 33 36 c6 e1 b8 98 c6 00 00 00 00
       0.0 -11660.801 -19548.44 0.0
000270 df 5b 96 c6 00 00 00 00 07 80 9d c4 46 0e 3e c6
       -19245.936 0.0 -1260.0009 -12163.568
000280 bc 20 16 c7 dd 4b 3d c6 37 a0 4b c5 99 16 0a c6
       -38432.734 -12114.966 -3258.0134 -8837.649
000290 ae 20 c4 c6 00 00 00 00 00 00 00 00 00 00 00 00
       -25104.34 0.0 0.0 0.0
0002a0 00 00 00 00 00 00 00 00 00 00 00 00 00 00 00 00
       0.0 0.0 0.0 0.0
0002b0 00 00 00 00 00 00 00 00 00 00 00 00 00 00 00 00
       0.0 0.0 0.0 0.0
0002c0 00 00 00 00 00 00 00 00 00 00 00 00 00 00 00 00
       0.0 0.0 0.0 0.0
0002d0 00 00 00 00 00 00 00 00 00 00 00 00 00 00 00 00
       0.0 0.0 0.0 0.0
0002e0 00 00 00 00 00 00 00 00 00 00 00 00 00 00 00 00
       0.0 0.0 0.0 0.0
0002f0 00 00 00 00 00 00 00 00 00 00 00 00 00 00 00 00
       0.0 0.0 0.0 0.0
000300 62 46 1b c6 66 fd 91 c5 e6 bd d5 42 b7 6b 85 c5
       -9937.596 -4671.675 106.870895 -4269.4644
000310 08 18 56 c6 5c 1c 71 c5 9d 98 3f 43 b4 eb c2 45
       -13702.008 -3857.7725 191.59615 6237.463
000320 00 00 00 00 ff df 45 c5 23 c5 be c5 00 00 00 00
       0.0 -3165.9998 -6104.642 0.0
000330 ed 65 07 c6 00 00 00 00 06 dd e5 43 f2 1b 13 c6
       -8665.481 0.0 459.72675 -9414.986
000340 0a 50 5a c6 c2 a6 22 c4 aa 33 5e 44 9d bc 9c c5
       -13972.01 -650.6056 888.80725 -5015.5767
000350 ea 09 25 c6 00 00 00 00 00 00 00 00 00 00 00 00
       -10562.479 0.0 0.0 0.0
000360 7b 3e 96 c7 11 44 2b c7 61 1e 11 c7 ea 04 79 c5
       -76924.96 -43844.066 -37150.38 -3984.3071
000370 ad cd 8a c7 fe 49 33 c7 00 00 00 00 3a 36 6f ad
       -71067.35 -45897.992 0.0 -1.3597618e-11
000380 00 00 00 00 f2 0d 11 c7 16 75 64 c7 00 00 00 00
       0.0 -37133.945 -58485.086 0.0
000390 91 e9 6d c6 00 00 00 00 d9 67 21 c6 ae f7 e9 c4
       -15226.392 0.0 -10329.962 -1871.74
0003a0 65 2d c6 c7 48 73 f1 c5 df 6a 03 c4 44 89 1d c6
       -101466.79 -7726.41 -525.66986 -10082.316
0003b0 ea 7f 15 c7 00 00 00 00 00 00 00 00 00 00 00 00
       -38271.914 0.0 0.0 0.0
0003c0 00 00 00 00 00 00 00 00 00 00 00 00 00 00 00 00
       0.0 0.0 0.0 0.0
0003d0 00 00 00 00 00 00 00 00 00 00 00 00 00 00 00 00
       0.0 0.0 0.0 0.0
0003e0 00 00 00 00 00 00 00 00 00 00 00 00 00 00 00 00
       0.0 0.0 0.0 0.0
0003f0 00 00 00 00 00 00 00 00 00 00 00 00 00 00 00 00
       0.0 0.0 0.0 0.0

exp_avg_sq f4 [24, 24]
000000 a1 7a 01 52 8c b5 21 51 ae 5a c3 50 3a c7 a4 4e
       1.3902704e+11 4.3408474e+10 2.622e+10 1.38226e+09
000010 ce 1c ef 51 7f 87 2e 51 13 45 15 4c e1 84 da 4d
       1.28372556e+11 4.6849847e+10 3.9130188e+07 4.5826768e+08
000020 00 00 00 00 5a 0a e6 50 1b bb 93 51 00 00 00 00
       0.0 3.0875505e+10 7.931241e+10 0.0
000030 8a 1c 22 50 00 00 00 00 35 4c 0b 4f 15 71 d1 4e
       1.0879117e+10 0.0 2.3370273e+09 1.7569245e+09
000040 f4 62 62 52 6d e5 3e 4f 18 9e 8f 4e d7 c3 76 4f
       2.4308069e+11 3.2027067e+09 1.2047514e+09 4.1400297e+09
000050 d8 48 1d 51 00 00 00 00 00 00 00 00 00 00 00 00
       4.222075e+10 0.0 0.0 0.0
000060 08 ee b7 4d d3 82 a1 4c 01 99 1d 4c d8 e8 84 4c
       3.8572877e+08 8.4678296e+07 4.1313284e+07 6.968288e+07
000070 9d cd b2 4d 87 16 8e 4c 1a 39 8e 49 9c 77 83 4c
       3.7497744e+08 7.449503e+07 1.1650912e+06 6.892669e+07
000080 00 00 00 00 19 4c 72 4c a8 0e 4b 4d 00 00 00 00
       0.0 6.3516772e+07 2.1292096e+08 0.0
000090 1a 21 a1 4c 00 00 00 00 93 ab 88 4a cf 58 72 4c
       8.447816e+07 0.0 4.4784095e+06 6.3529788e+07
0000a0 09 8d 11 4e ef 77 3d 4b 59 a2 e7 4c fc dd 93 4c
       6.104848e+08 1.2417007e+07 1.21443016e+08 7.752496e+07
0000b0 e0 7f 78 4d 00 00 00 00 00 00 00 00 00 00 00 00
       2.6057062e+08 0.0 0.0 0.0
0000c0 23 dc 50 4c a7 ac f7 4b 00 00 00 00 b1 48 1b 44
       5.4751372e+07 3.2463182e+07 0.0 621.1358
0000d0 40 fe 90 50 b4 43 37 51 b5 5b 95 4f 53 2a c6 50
       1.9460653e+10 4.919468e+10 5.0116306e+09 2.65973e+10
0000e0 00 00 00 00 a4 dd 4a 4b 28 5f 17 4a 00 00 00 00
       0.0 1.3295012e+07 2.480074e+06 0.0
0000f0 18 c7 02 51 00 00 00 00 00 00 00 00 fd a4 cc 50
       3.5105374e+10 0.0 0.0 2.7466918e+10
000100 2e d4 ee 4b 6a a9 50 51 fd ef 6a 51 6b 49 01 4e
       3.1303772e+07 5.601222e+10 6.3065543e+10 5.422681e+08
000110 32 6a 96 50 00 00 00 00 00 00 00 00 00 00 00 00
       2.0188336e+10 0.0 0.0 0.0
000120 df e1 c8 50 e7 02 11 50 f0 d4 a9 4a 91 ae e1 4c
       2.6961967e+10 9.731546e+09 5.565048e+06 1.1832231e+08
000130 f0 5f b7 51 a7 f3 f8 51 7f 4a 4a 4f 30 1b 8d 50
       9.844857e+10 1.3365496e+11 3.3938798e+09 1.8938954e+10
000140 00 00 00 00 ce 52 d1 4f 78 e4 3e 50 00 00 00 00
       0.0 7.0237297e+09 1.2810576e+10 0.0
000150 3f 64 92 51 00 00 00 00 8e 13 d1 4a 1e 18 1d 51
       7.8593384e+10 0.0 6.851015e+06 4.2169655e+10
000160 ec ba 29 51 bd 7c 99 51 cb d9 5c 51 47 df 21 4f
       4.5561594e+10 8.2402845e+10 5.9284173e+10 2.7157645e+09
000170 70 53 76 51 00 00 00 00 00 00 00 00 00 00 00 00
       6.6122613e+10 0.0 0.0 0.0
000180 87 fd f2 52 32 bd 29 52 77 25 6e 50 93 5b 23 4e
       5.218178e+11 1.8225591e+11 1.5981731e+10 6.851719e+08
000190 f8 1a 93 53 88 50 99 53 53 3a 75 49 d6 2f f3 4d
       1.2636253e+12 1.3169622e+12 1.0044532e+06 5.099998e+08
0001a0 00 00 00 00 7d 8e f4 51 40 41 7d 52 00 00 00 00
       0.0 1.3129532e+11 2.7193036e+11 0.0
0001b0 28 7a 17 53 00 00 00 00 8e f5 87 4e 12 72 5f 52
       6.505895e+11 0.0 1.1405084e+09 2.3992287e+11
0001c0 34 41 51 53 89 ed ee 52 39 99 0f 52 12 c6 e5 50
       8.987421e+11 5.130937e+11 1.5418774e+11 3.0839706e+10
0001d0 89 0c 21 53 00 00 00 00 00 00 00 00 00 00 00 00
       6.9170004e+11 0.0 0.0 0.0
0001e0 ce d5 cd 50 10 1e 03 50 38 70 82 4f e7 d9 4d 4d
       2.762673e+10 8.799142e+09 4.376785e+09 2.1585061e+08
0001f0 25 be d5 50 46 de 48 50 00 00 00 00 9f 68 85 47
       2.8688067e+10 1.348004e+10 0.0 68305.24
000200 00 00 00 00 14 46 bc 4f f5 f1 6a 50 00 00 00 00
       0.0 6.3174185e+09 1.5766902e+10 0.0
000210 07 99 6c 4f 00 00 00 00 5f 6e b0 4d 83 ea da 4d
       3.9694518e+09 0.0 3.700029e+08 4.5910026e+08
000220 95 09 34 51 4a 99 84 4e 91 04 89 4c 0c bb 43 4e
       4.832843e+10 1.1123192e+09 7.183681e+07 8.2095386e+08
000230 58 10 17 50 00 00 00 00 00 00 00 00 00 00 00 00
       1.0137723e+10 0.0 0.0 0.0
000240 9a 02 34 52 23 90 75 51 e8 61 06 4f 22 31 01 4e
       1.9328444e+11 6.5917825e+10 2.2545633e+09 5.418702e+08
000250 30 90 cc 52 cf d2 bf 52 5c ba f6 4a af 3e 8c 4d
       4.392962e+11 4.1193777e+11 8.084782e+06 2.9411478e+08
000260 00 00 00 00 8d c7 2e 51 86 f2 bb 51 00 00 00 00
       0.0 4.6917014e+10 1.0090347e+11 0.0
000270 2b 3e 3c 52 00 00 00 00 b5 4c 36 4c cd 6b 75 51
       2.0212421e+11 0.0 4.7788756e+07 6.5879724e+10
000280 5c 8e 9b 52 c2 1a 00 52 f7 0b e1 50 3c 16 32 50
       3.3405416e+11 1.3755118e+11 3.0205262e+10 1.1951206e+10
000290 82 29 59 52 00 00 00 00 00 00 00 00 00 00 00 00
       2.3317607e+11 0.0 0.0 0.0
0002a0 00 00 00 00 00 00 00 00 00 00 00 00 00 00 00 00
       0.0 0.0 0.0 0.0
0002b0 00 00 00 00 00 00 00 00 00 00 00 00 00 00 00 00
       0.0 0.0 0.0 0.0
0002c0 00 00 00 00 00 00 00 00 00 00 00 00 00 00 00 00
       0.0 0.0 0.0 0.0
0002d0 00 00 00 00 00 00 00 00 00 00 00 00 00 00 00 00
       0.0 0.0 0.0 0.0
0002e0 00 00 00 00 00 00 00 00 00 00 00 00 00 00 00 00
       0.0 0.0 0.0 0.0
0002f0 00 00 00 00 00 00 00 00 00 00 00 00 00 00 00 00
       0.0 0.0 0.0 0.0
000300 dd 2f 0f 50 ba cf 01 4f c8 2d 2b 4d b1 43 74 4e
       9.609115e+09 2.1778744e+09 1.7949402e+08 1.02451923e+09
000310 ed 38 59 50 0a 6e 80 4f ba c2 2a 4b 45 d4 0c 4e
       1.4577546e+10 4.3093903e+09 1.119097e+07 5.906804e+08
000320 00 00 00 00 d0 cd 9c 4e 95 b6 84 4f 00 00 00 00
       0.0 1.3153669e+09 4.4531164e+09 0.0
000330 43 0a 85 4f 00 00 00 00 3b dd fa 4c 98 4d 14 4f
       4.4640845e+09 0.0 1.3152508e+08 2.4881132e+09
000340 56 51 75 50 69 ec b3 4e 1d 71 b5 4e 84 b1 b9 4e
       1.6462993e+10 1.5093075e+09 1.5220445e+09 1.5577093e+09
000350 09 45 00 50 00 00 00 00 00 00 00 00 00 00 00 00
       8.608032e+09 0.0 0.0 0.0
000360 e7 53 31 51 21 53 69 50 0b 5e b5 4f a2 6c a8 4c
       4.7601054e+10 1.5658157e+10 6.0856786e+09 8.830286e+07
000370 57 e6 67 51 42 47 23 51 00 00 00 00 1f 48 c9 49
       6.225012e+10 4.38297e+10 0.0 1.6488999e+06
000380 00 00 00 00 d6 61 2b 50 27 ba c5 50 00 00 00 00
       0.0 1.1501263e+10 2.653849e+10 0.0
000390 a8 bb 78 50 00 00 00 00 7c 86 9f 4d b8 de 5d 4f
       1.6692191e+10 0.0 3.3454886e+08 3.7223608e+09
0003a0 fd 8e 9a 51 5d 91 ec 4f d0 55 01 4f f1 a9 b3 4e
       8.297799e+10 7.937899e+09 2.1698847e+09 1.5071295e+09
0003b0 ae b0 c0 50 00 00 00 00 00 00 00 00 00 00 00 00
       2.5862435e+10 0.0 0.0 0.0
0003c0 00 00 00 00 00 00 00 00 00 00 00 00 00 00 00 00
       0.0 0.0 0.0 0.0
0003d0 00 00 00 00 00 00 00 00 00 00 00 00 00 00 00 00
       0.0 0.0 0.0 0.0
0003e0 00 00 00 00 00 00 00 00 00 00 00 00 00 00 00 00
       0.0 0.0 0.0 0.0
0003f0 00 00 00 00 00 00 00 00 00 00 00 00 00 00 00 00
       0.0 0.0 0.0 0.0

exp_avg f4 [24]
000000 e0 68 30 3b 7f d7 48 39 40 37 1b 3a 8a 6c 64 3a
       0.002691798 0.00019153765 0.00059210137 0.00087136833
000010 9a 5c 99 3a b2 00 8f 39 d2 55 c4 ba 00 00 00 00
       0.0011700571 0.00027275603 -0.001497919 0.0
000020 5d 15 13 ba 1a 62 4c bb 00 00 00 00 c9 db 2b 3b
       -0.00056107884 -0.0031186403 0.0 0.0026223531
000030 00 00 00 00 00 00 00 00 c8 41 5f 39 01 c4 9b ba
       0.0 0.0 0.00021291443 -0.0011883975
000040 00 00 00 00 b2 de b7 bb c1 65 84 3b aa a7 bb b9
       0.0 -0.005611264 0.0040404503 -0.0003579234
000050 3c ab 34 3a 55 c7 66 ba 4a 81 50 ba 85 b0 d1 3b
       0.0006891971 -0.00088035065 -0.0007953836 0.0063992166

exp_avg_sq f4 [24]
000000 04 1d 7e 39 6f 12 53 35 69 8d eb 37 ba 2f 26 39
       0.00024234137 7.863045e-07 2.8080032e-05 0.00015848773
000010 58 fd 09 3b 0e 49 5d 38 2a 4b 41 3a 00 00 00 00
       0.0021055546 5.2758543e-05 0.0007373566 0.0
000020 34 06 de 37 c5 22 e9 38 00 00 00 00 8c af 2f 3a
       2.646735e-05 0.00011116782 0.0 0.0006701879
000030 00 00 00 00 00 00 00 00 37 3c 94 3a bc e4 20 3a
       0.0 0.0 0.0011309449 0.00061375997
000040 00 00 00 00 9d 84 11 3a 4e 4f a9 3a 1c 85 8b 38
       0.0 0.0005551072 0.0012917311 6.65283e-05
000050 32 b8 15 39 29 b7 55 39 67 db c1 39 a2 93 a2 39
       0.00014278365 0.00020381495 0.00036975296 0.00031009043

exp_avg f4 [4, 24]
000000 80 d6 62 47 ec f3 de 44 3c 60 27 46 80 a4 81 46
       58070.5 1783.6226 10712.059 16594.25
000010 c1 6f 08 48 fd 08 e9 46 b7 a0 1f 46 00 00 00 00
       139711.02 29828.494 10216.179 0.0
000020 66 58 f6 44 25 b4 6b 46 00 00 00 00 84 00 ab 47
       1970.7625 15085.036 0.0 87553.03
000030 00 00 00 00 00 00 00 00 b0 ac 2e 48 e4 1e 91 47
       0.0 0.0 178866.75 74301.78
000040 00 00 00 00 55 ca 52 48 ce 4a d0 47 a0 71 d0 46
       0.0 215849.33 106645.61 26680.812
000050 7c 31 46 47 d8 70 c2 47 ad 3b 7c 46 9f fa 04 48
       50737.484 99553.69 16142.919 136170.48
000060 20 f8 42 c6 5d 74 f6 43 a5 85 3a ab 54 9b 86 c4
       -12478.031 492.9091 -6.6265943e-13 -1076.854
000070 60 4f 8b c5 af 25 3c c6 b0 01 ab c4 00 00 00 00
       -4457.922 -12041.421 -1368.0527 0.0
000080 75 77 47 c5 00 20 f7 42 00 00 00 00 f0 25 de c5
       -3191.466 123.5625 0.0 -7108.742
000090 00 00 00 00 00 00 00 00 80 ab e2 c5 20 7b ca c5
       0.0 0.0 -7253.4375 -6479.3906
0000a0 00 00 00 00 30 7c 4d c6 74 15 29 c6 8c 99 25 c5
       0.0 -13151.047 -10821.363 -2649.5967
0000b0 48 18 2e 45 12 79 87 c6 50 67 12 c5 f8 d3 45 c6
       2785.5176 -17340.535 -2342.457 -12660.992
0000c0 75 67 8f c7 30 c9 96 c5 00 00 00 00 93 bf 28 c6
       -73422.914 -4825.1484 0.0 -10799.894
0000d0 7b b1 0d c8 cc 2a 2c c7 6a d3 6d c6 00 00 00 00
       -145093.92 -44074.797 -15220.854 0.0
0000e0 76 0f 7a c6 e0 3c 1f c6 00 00 00 00 e1 b0 1a c7
       -16003.865 -10191.219 0.0 -39600.88
0000f0 00 00 00 00 00 00 00 00 16 e9 0f c8 ad 21 80 c7
       0.0 0.0 -147364.34 -65603.35
000100 00 00 00 00 19 70 44 c8 8c b3 e1 c7 b2 13 5f c4
       0.0 -201152.39 -115559.09 -892.30774
000110 96 59 21 c6 16 6b ff c7 bb fa a0 c6 a3 2c c5 c7
       -10326.396 -130774.17 -20605.365 -100953.27
000120 e6 5e 70 47 23 a7 2f 43 2d 31 e8 45 34 d0 60 46
       61534.9 175.65288 7430.147 14388.051
000130 2e 13 15 48 6d d5 4c 47 34 fc d7 45 00 00 00 00
       152652.72 52437.426 6911.5254 0.0
000140 a9 84 65 c5 ef 7c d4 45 00 00 00 00 56 38 b6 47
       -3672.2913 6799.6167 0.0 93296.67
000150 00 00 00 00 00 00 00 00 30 a7 3d 48 f9 b1 ae 47
       0.0 0.0 194204.75 89443.945
000160 00 00 00 00 3e b4 6e 48 37 95 01 48 f8 09 a9 46
       0.0 244432.97 132692.86 21636.984
000170 14 6d 44 47 88 28 fd 47 21 24 88 46 58 f8 1c 48
       50285.08 129617.06 17426.064 160737.38

exp_avg_sq f4 [4, 24]
000000 59 fc 66 51 89 d1 43 4c c1 2d 8a 4e b0 c1 1d 4f
       6.200476e+10 5.1332644e+07 1.1591272e+09 2.6467164e+09
000010 cb b2 42 52 f4 b5 08 51 3c 11 fd 4d 00 00 00 00
       2.0905583e+11 3.6698014e+10 5.3072064e+08 0.0
000020 94 cd 3c 4d 18 5a c3 4d 00 00 00 00 68 4a 48 51
       1.9797434e+08 4.096827e+08 0.0 5.376511e+10
000030 00 00 00 00 00 00 00 00 cf 31 8f 52 79 8a 76 51
       0.0 0.0 3.07508e+11 6.618032e+10
000040 00 00 00 00 e7 31 ed 52 9f a1 03 52 ef cc 97 4f
       0.0 5.0937224e+11 1.4133807e+11 5.0935803e+09
000050 5e 48 c5 50 93 f1 45 52 58 4f 99 4f 7d d5 2e 52
       2.6478834e+10 2.1254038e+11 5.144228e+09 1.8772651e+11
000060 7d 36 b1 50 26 8d 57 4a 39 f7 fe 49 be d2 b2 50
       2.3785105e+10 3.5315935e+06 2.0886791e+06 2.4001245e+10
000070 f3 22 d2 53 2a 5e 2b 4f 0d ff 25 50 00 00 00 00
       1.805059e+12 2.875075e+09 1.1139823e+10 0.0
000080 83 b2 08 4d 99 31 e9 4e 00 00 00 00 81 bb 73 53
       1.4333752e+08 1.9561709e+09 0.0 1.04682285e+12
000090 00 00 00 00 00 00 00 00 54 e3 a8 54 f0 83 2e 53
       0.0 0.0 5.8029475e+12 7.4953785e+11
0000a0 00 00 00 00 2d b3 a5 54 5d a3 10 52 01 90 36 4e
       0.0 5.6934054e+12 1.5530402e+11 7.657227e+08
0000b0 85 40 e8 52 cf fe 34 52 a7 9a 14 52 47 3e f0 53
       4.9875744e+11 1.9434227e+11 1.5956245e+11 2.063674e+12
0000c0 ed 7d 20 52 23 58 bd 4c 00 00 00 00 9a e9 fb 4d
       1.7232686e+11 9.9270936e+07 0.0 5.282988e+08
0000d0 59 00 b5 52 ad fb db 51 c4 f2 90 4e 00 00 00 00
       3.8869746e+11 1.1810253e+11 1.2159145e+09 0.0
0000e0 4d 2e b4 4e 24 40 3a 4c 00 00 00 00 55 02 21 50
       1.5114666e+09 4.8824464e+07 0.0 1.0805138e+10
0000f0 00 00 00 00 00 00 00 00 e0 83 b2 52 0f cc d6 51
       0.0 0.0 3.8335834e+11 1.1531832e+11
000100 00 00 00 00 d8 7e 46 53 4c d2 96 52 6e 52 c4 49
       0.0 8.525316e+11 3.2388665e+11 1.6082698e+06
000110 b9 e9 fb 4e de 56 04 53 ca db 11 50 9d 15 65 52
       2.1131992e+09 5.683931e+11 9.788402e+09 2.4597753e+11
000120 9e 71 d7 51 e8 2b 20 4b a1 b2 d5 50 dd 84 ae 50
       1.1566552e+11 1.0497e+07 2.868203e+10 2.3423543e+10
000130 7e 44 d4 52 97 f4 64 51 bf f5 a4 4e 00 00 00 00
       4.558411e+11 6.1459755e+10 1.3837843e+09 0.0
000140 76 b1 65 4d 91 04 b5 4e 00 00 00 00 36 78 4e 52
       2.4085078e+08 1.5184877e+09 0.0 2.2169502e+11
000150 00 00 00 00 00 00 00 00 a7 21 23 53 a6 ed f0 51
       0.0 0.0 7.0064426e+11 1.293474e+11
000160 00 00 00 00 d0 77 76 53 9d 2e 93 52 a3 ce 05 51
       0.0 1.0585721e+12 3.1607112e+11 3.591859e+10
000170 6c ec e8 51 52 7f ba 52 de f2 d0 4f ee 68 e3 52
       1.25049864e+11 4.005e+11 7.011155e+09 4.88359e+11

exp_avg f4 [4]
000000 d6 44 af 3c c0 79 c8 ba 08 43 a3 bc 40 30 c8 3c
       0.021395128 -0.0015295073 -0.019929424 0.02443707

exp_avg_sq f4 [4]
000000 97 e8 98 3b 6e 3d 5b 3d 11 c7 f9 3b 9f 13 1e 3c
       0.0046663987 0.05352538 0.0076226075 0.009648233
