test_model/covid339.pth (torch, 16239 bytes, 18 tensors)

weight f4 [24, 4]
0	0xbccc0631	-0.024905296
1	0x3d1e713f	0.03868222
2	0x3e401c61	0.18760826
3	0x3e40f66c	0.18844002
4	0xbd3c9fce	-0.04605084
5	0xbe2c28e7	-0.16812478
6	0x3deb24a4	0.11481598
7	0x3e27c054	0.16381961
8	0xbe3d3cc7	-0.18480216
9	0x3e799df8	0.24376667
10	0x3c318cd9	0.010836803
11	0x3dd7d2dc	0.10538265
12	0xbdaededb	-0.085386
13	0x3e06384b	0.13107412
14	0x3dcd94fb	0.100381814
15	0x3d78e2dc	0.060763225
16	0x3e348f54	0.176328
17	0xbe3c9ed0	-0.18419957
18	0x3e35777c	0.17721361
19	0x3e007f1b	0.12548487
20	0x3e9eb1e9	0.3099511
21	0xbe3b2002	-0.18273929
22	0xb7e7361b	-2.756254e-05
23	0xbd063f42	-0.03277517
24	0x3e234d55	0.15947469
25	0x3e56cdf0	0.20976996
26	0xbe9e632c	-0.30935037
27	0xbed25332	-0.41079098
28	0x3e97417e	0.29542154
29	0x3e95c5af	0.29252383
30	0xbec3bfb2	-0.3823219
31	0xbedd4ae3	-0.43221197
32	0xbecc5f9e	-0.399167
33	0xbdf35da8	-0.11883098
34	0xbe824478	-0.25442863
35	0xbdee8710	-0.11646855
36	0xbd3dd961	-0.046349887
37	0xbe0e459a	-0.13893738
38	0x3de01bbd	0.10942791
39	0x3dac69cf	0.08418619
40	0xbd5ff3a7	-0.054675724
41	0x3d9f72d9	0.07785577
42	0x3d93b602	0.072124496
43	0x3e3ec426	0.18629512
44	0xbeaf9b04	-0.34297955
45	0x3e151cc8	0.1456176
46	0xbea76966	-0.326976
47	0xbd998888	-0.074967444
48	0x3e8929fd	0.26789847
49	0xbd5f0f0b	-0.054457705
50	0xbcd3cbed	-0.025854075
51	0xbcbaadca	-0.022787947
52	0xbead215a	-0.33814508
53	0xbeef2262	-0.4670592
54	0xbebac114	-0.36475432
55	0xbe9c1704	-0.3048631
56	0xbe1e1d9f	-0.15440987
57	0x3c0f9342	0.008763136
58	0xbc1338b9	-0.008985692
59	0x3d08b995	0.03338011
60	0x3e8b9f86	0.27270144
61	0xbdb4ba1b	-0.08824559
62	0x3dce7e05	0.1008263
63	0xbdf22386	-0.11823182
64	0xbca247dc	-0.019809656
65	0x3b7f3c07	0.0038945691
66	0x3e919ed3	0.28441486
67	0x3e9b7a71	0.30366853
68	0x3edd6925	0.4324428
69	0xbd8db1c1	-0.069186695
70	0x3ba53ff7	0.0050430256
71	0xbe0e9525	-0.13924082
72	0x3ef27ab9	0.47359255
73	0x3e4db96b	0.20090263
74	0xbf2a9ca6	-0.66645277
75	0xbec80c32	-0.39071804
76	0x3d01e4ca	0.03171233
77	0x3d429482	0.04750491
78	0x3d2311aa	0.039811768
79	0x3cf83a57	0.030301256
80	0x3e03ec7a	0.12883177
81	0x3e72ab2a	0.23698106
82	0x3b0493a6	0.0020229607
83	0x3cf7c7cb	0.030246636
84	0xbef468e8	-0.47736287
85	0x3e29f6c4	0.1659804
86	0x3e1f91b0	0.15582919
87	0xbee035c4	-0.4379102
88	0xbed67c14	-0.4189154
89	0x3e3f5828	0.18685973
90	0x3e74a81c	0.23892254
91	0xbee7950c	-0.452309
92	0xbd7a8e10	-0.061170638
93	0x3c05a580	0.008157134
94	0xbed25834	-0.4108292
95	0xbed58648	-0.4170401

bias f4 [24]
0	0x3ec6b89f	0.3881273
1	0xbee560e3	-0.4480048
2	0x3ee7ed00	0.45298004
3	0x3efd08cd	0.49420777
4	0xbd0ce13a	-0.03439448
5	0xbe6d61f6	-0.231819
6	0x3d80d47a	0.06290527
7	0x3eba6160	0.36402416
8	0x3e71307c	0.23553652
9	0xbeb0313f	-0.34412572
10	0xbd37e779	-0.044898484
11	0xbc8e3d00	-0.017363071
12	0xbe1641ac	-0.1467349
13	0x3e6a6734	0.22890931
14	0x3ed2e3fc	0.41189563
15	0x3eca8aee	0.3955912
16	0xbea6adef	-0.32554576
17	0xbeaf3417	-0.3421943
18	0x3c148ffe	0.009067534
19	0xbd04afdf	-0.032394286
20	0x3e831cfb	0.25608048
21	0x3d3619a0	0.04445803
22	0x3ea4ae6c	0.32164323
23	0x3ea63462	0.3246184

weight f4 [24, 24]
0	0x3db9749d	0.09055445
1	0xbe17b694	-0.14815742
2	0x3be1d799	0.0068921563
3	0xbe101e11	-0.1407397
4	0x3caa95ce	0.020823386
5	0xbe0964a0	-0.13417292
6	0x3d3591e7	0.044328596
7	0xbd9c5b99	-0.07634658
8	0xbd724b84	-0.05915405
9	0x3bdb7b8c	0.0066980775
10	0x3d86fc52	0.06591095
11	0x3ccb22f0	0.024796933
12	0xbd968702	-0.073499694
13	0x3dc306dc	0.09522793
14	0xbe044d35	-0.12920077
15	0x3e045860	0.12924337
16	0x3cd7c4af	0.026338903
17	0xbd9dbf66	-0.07702522
18	0x3e0cc8c9	0.13748468
19	0xbbb7dbda	-0.005610925
20	0xbd4e9f38	-0.05044481
21	0xbe4e4c38	-0.20146263
22	0xbdad8586	-0.08472733
23	0x3e089c18	0.13340795
24	0x3de39a4c	0.11113414
25	0xbe810f69	-0.2520707
26	0xbdd20467	-0.10254746
27	0x3e2ece67	0.17070924
28	0xbdc97fcb	-0.09838828
29	0x3d462ff4	0.048385575
30	0xbd10fc0e	-0.035396628
31	0x3d19916e	0.03749221
32	0xbd9dc8da	-0.07704325
33	0x3ca4d110	0.02011922
34	0x3e1e5d3b	0.15465252
35	0xbdd504ee	-0.10401331
36	0xbe4d9919	-0.20077933
37	0x3b67a400	0.0035345554
38	0x3ee779e5	0.45210186
39	0x3e06ed47	0.13176452
40	0xbe5b2c03	-0.21403508
41	0xbd869065	-0.0657051
42	0xbdf597e7	-0.11991864
43	0x3d25a10e	0.040436797
44	0x3d36776a	0.044547476
45	0xbdaf2709	-0.08552367
46	0x3e4358d4	0.19076854
47	0xbca27268	-0.019829944
48	0x3d54becb	0.051939767
49	0xbe4640d3	-0.19360666
50	0x3e20ac60	0.15690756
51	0xbd0ab964	-0.03386821
52	0xbcd02eef	-0.025413005
53	0x3dfb7bab	0.12279447
54	0xbd860e47	-0.06545692
55	0x3df0cc44	0.117577106
56	0x3e3bef88	0.18353093
57	0xbe163f94	-0.1467269
58	0xbdec50d5	-0.11538855
59	0x3e1ad900	0.15121841
60	0x3d70a03f	0.058746573
61	0x3dd38ad0	0.10329211
62	0x3da3e3e8	0.08002454
63	0xbe7c6653	-0.24648409
64	0x3db45e1f	0.08807015
65	0x3c2a31a9	0.0103878165
66	0xbe1615b2	-0.14656714
67	0xbda27f57	-0.079344444
68	0xbe79ede8	-0.2440716
69	0xbe347c12	-0.17625454
70	0xbe34102f	-0.17584299
71	0x3df119fc	0.11772534
72	0x3e1bc8f2	0.15213373
73	0xbaf7a0df	-0.0018892548
74	0x3e0adeb8	0.13561523
75	0x3d72e29e	0.05929815
76	0xbe061f43	-0.13097863
77	0xbd668cd4	-0.056286648
78	0x3c9d843f	0.019228099
79	0xbe5541ac	-0.20825833
80	0x3d69ca20	0.057077527
81	0xbe164563	-0.14674906
82	0xbe5034e4	-0.20332676
83	0xbd6a80b0	-0.057251632
84	0x3d95d223	0.07315471
85	0xbe3c1cc7	-0.18370353
86	0x3e6b7387	0.22993289
87	0x3e11d2c1	0.14240552
88	0xbe20c085	-0.1569844
89	0xbdad189b	-0.08451959
90	0xbd0e784c	-0.034782693
91	0x3e140e29	0.14458527
92	0x3e354596	0.17702326
93	0xbd9c5e0c	-0.076351255
94	0x3e008ce0	0.1255374
95	0x3d806870	0.0626992
96	0x3cf30952	0.02966753
97	0xbe037ae2	-0.12839845
98	0xbcf6c13e	-0.030121442
99	0xbdf75d52	-0.12078346
100	0xbd4510e6	-0.04811182
101	0x3dfbfd8b	0.12304219
102	0x3e587884	0.21139723
103	0xbb993e39	-0.004676607
104	0x3c168e70	0.009189233
105	0x3dd2cdb7	0.10293143
106	0xbc5f686a	-0.013635734
107	0xbe110068	-0.14160311
108	0x3deb8680	0.11500263
109	0xbd7b311c	-0.06132613
110	0x3d26f22b	0.040758293
111	0xbdf8ddc5	-0.12151674
112	0x3de8d03e	0.11367844
113	0xbde03950	-0.109484315
114	0xbde19eb9	-0.11016602
115	0xbe4cb7d7	-0.19992004
116	0x3d81027f	0.06299304
117	0x3dec31d0	0.115329385
118	0xbdad015a	-0.084475234
119	0x3c119940	0.008886635
120	0x3da0f86c	0.07859883
121	0xbdfee9ea	-0.12446959
122	0xbe41ff3d	-0.18945022
123	0xbe3af355	-0.18256886
124	0xbe1d86a7	-0.15383397
125	0xbe7c45b7	-0.24635969
126	0xbef3f947	-0.4765112
127	0xbdd62f72	-0.10458268
128	0x3dcaeae0	0.0990808
129	0xbe1f447f	-0.15553473
130	0x3e1ae8c4	0.15127856
131	0x3e0cdc9e	0.13756034
132	0xbd3986e1	-0.045294646
133	0xbdff59d7	-0.124683075
134	0xbca4d42b	-0.0201207
135	0x3e5e694c	0.21719855
136	0x3e19e822	0.15029958
137	0x3dca9339	0.09891362
138	0x3cfc41b3	0.030793047
139	0x3ca9d195	0.02072982
140	0xbe47d24a	-0.19513813
141	0x3d9848b4	0.07435742
142	0x3e190b62	0.14945748
143	0x3dbd4688	0.092419684
144	0x3d63218c	0.055451915
145	0x3e368541	0.1782427
146	0xbe5e188b	-0.2168905
147	0x3d845b7e	0.06462763
148	0x3dbce7dd	0.09223912
149	0xbd98e737	-0.07465976
150	0xbedffb98	-0.43746638
151	0x3e43d244	0.19123179
152	0xbdbb59d4	-0.09147993
153	0xbdc9b80a	-0.09849556
154	0x3da3bd23	0.07995059
155	0xbd6f8c74	-0.058483556
156	0x3e088e5c	0.13335556
157	0xbd8e45d8	-0.069469154
158	0xbe97d861	-0.29657272
159	0xbe2dc416	-0.16969332
160	0xbe5abe53	-0.21361665
161	0x3c1a111c	0.009403493
162	0xbe73008f	-0.23730682
163	0x3db47daa	0.08813031
164	0x3d9ee1a8	0.07757884
165	0x3e4b7e6e	0.19872448
166	0x3e3597e0	0.17733717
167	0x3e2252fe	0.15851972
168	0x3de76b68	0.11299783
169	0x3e1130bc	0.14178747
170	0xbd3c37d0	-0.045951664
171	0xbdd184b2	-0.10230388
172	0xbe4db1d5	-0.20087369
173	0xbe30188d	-0.17196865
174	0xbda1ceee	-0.07900797
175	0x3e01cb74	0.12675267
176	0xbce69f18	-0.028152034
177	0xbe47d26e	-0.19513866
178	0x3d38a190	0.045075953
179	0x3e3c5fe0	0.18395948
180	0xbd8dc274	-0.069218546
181	0x3cb6a6b8	0.022296295
182	0xbd1e962c	-0.038717434
183	0x3e3a59bc	0.18198293
184	0xbdd848a0	-0.10560727
185	0xbdcd0837	-0.100113325
186	0xbd209e28	-0.03921333
187	0xbe1f0064	-0.15527493
188	0xbb8f2640	-0.0043685734
189	0x3dcae4a8	0.09906894
190	0x3d8bed98	0.06832427
191	0x3e369f96	0.17834315
192	0xbca6f699	-0.020381259
193	0xbcb7142d	-0.022348488
194	0xbe4922c2	-0.19642165
195	0x3df6efe3	0.120574735
196	0xbe066597	-0.13124691
197	0x3c71a53c	0.014748868
198	0xbebee35f	-0.37282845
199	0xbe67260b	-0.22573106
200	0x3cad0050	0.021118313
201	0x3cf48849	0.029850142
202	0xbd117296	-0.03550967
203	0x3e0defdc	0.1386103
204	0x3d32ccc0	0.043652296
205	0xbdb428d2	-0.08796848
206	0x3e743423	0.23848014
207	0x3a0d95c7	0.00054010417
208	0x3db0427f	0.08606433
209	0xbd4dc8d7	-0.050240364
210	0x3e05ca51	0.13065459
211	0x3db7394f	0.089464776
212	0x3dc2da24	0.09514263
213	0x3deff30c	0.117162794
214	0x3d1b7f40	0.037963152
215	0x3e188b5a	0.14896908
216	0x3dbf0fcb	0.09329184
217	0x3e0da584	0.1383267
218	0x3e060c75	0.1309069
219	0xbba1ccb1	-0.004937731
220	0xbd258477	-0.04040953
221	0x3da60d6b	0.08108028
222	0xbde018cb	-0.10942229
223	0xbea5822a	-0.3232587
224	0xbd1d8b7c	-0.0384631
225	0xbdd6bd8a	-0.104853705
226	0xbdfa349c	-0.12217066
227	0xbd99f434	-0.07517281
228	0x3e25ea5f	0.16202687
229	0xbe1b9dbe	-0.15196893
230	0xbd4e0742	-0.05029989
231	0x3da1144a	0.07865198
232	0xbd625df9	-0.0552654
233	0xbe5f7831	-0.21823193
234	0x3d8f2ecb	0.06991347
235	0x3d461624	0.04836096
236	0xbdba6805	-0.091018714
237	0x3dcf83c4	0.10132554
238	0x3de566f8	0.1120128
239	0xbd676240	-0.056490183
240	0xbe19fc56	-0.15037665
241	0xbe4c4b4e	-0.19950601
242	0xbd186ff8	-0.037216157
243	0xbd5b4a48	-0.053537637
244	0xbd6be6f8	-0.057593316
245	0x3ce98508	0.028505817
246	0xbe244747	-0.16042815
247	0xba9a3e00	-0.0011767745
248	0x3e2830f4	0.16424924
249	0x3e272402	0.1632233
250	0xbc863b58	-0.01638572
251	0x3d988db8	0.07448906
252	0x3df2b224	0.11850384
253	0xbd821634	-0.06351891
254	0x3e3d76b8	0.18502319
255	0xbe4ebd4b	-0.20189397

bias f4 [24]
0	0x3b5beee9	0.003355915
1	0x3d944782	0.072402015
2	0x3dd69a0e	0.10478602
3	0x3e1db5ef	0.15401433
4	0xbc884e8e	-0.01663902
5	0x3dda3071	0.10653771
6	0x3d5528e0	0.052040935
7	0x3d975184	0.07388595
8	0x3daaa191	0.083315976
9	0x3e10dda5	0.1414705
10	0xbe0fb8f8	-0.14035404
11	0xbdf2888f	-0.11842453
12	0xbd55e7c3	-0.05222298
13	0x3d8e64ec	0.06952843
14	0xbcb9c95d	-0.022679025
15	0xbe09cb9a	-0.13456574
16	0xbd234d52	-0.03986866
17	0xbd8dd89a	-0.06926079
18	0x3e17bccd	0.14818116
19	0x3e26ba35	0.1628197
20	0xbe2cc497	-0.16871868
21	0x3e2f39ce	0.17111894
22	0x3e069613	0.13143186
23	0xbe492bce	-0.19645616

weight f4 [4, 24]
0	0x3cac7ce0	0.021055639
1	0x3dc535a7	0.09629374
2	0x3d0b5514	0.034016684
3	0xbc92ee43	-0.017935878
4	0x3d045ca2	0.032314904
5	0xbb83cddc	-0.004022343
6	0x3c45436e	0.012040002
7	0xbde04032	-0.10949744
8	0x3d08bc32	0.033382602
9	0xbaa2e1d4	-0.0012426921
10	0x3d04ccec	0.03242199
11	0x3cb4f1f0	0.022088021
12	0x3c8150b8	0.01578556
13	0xbde8dc23	-0.11370113
14	0xbd0cec92	-0.0344053
15	0xbc39b9c2	-0.011335792
16	0xbc503c2f	-0.012709661
17	0xb9adbc6c	-0.00033137517
18	0x39bb80d4	0.00035763404
19	0x3b8115be	0.0039393594
20	0x3cc9815f	0.024597822
21	0x3c494b61	0.012286038
22	0x3cfb5063	0.03067798
23	0x3bf71a02	0.007540942
24	0x3c226494	0.009911675
25	0xbdaab126	-0.0833457
26	0x3d95ea04	0.073200256
27	0xbc26934f	-0.010166957
28	0xbe04a0ad	-0.12951918
29	0x3c4d798b	0.012541185
30	0x3d0c6eb8	0.034285277
31	0x3d2064c4	0.039158598
32	0xbb5846ab	-0.0033001106
33	0xbad8111b	-0.001648459
34	0xbe090ff2	-0.13384989
35	0xbc1830d4	-0.009288985
36	0x3e422540	0.18959522
37	0xbd42cdd3	-0.04755957
38	0x3d6ab4ab	0.057301205
39	0xbb9db886	-0.0048132567
40	0x3d90919b	0.07059022
41	0x3c9aa94e	0.018879559
42	0x3de8eb6c	0.11373028
43	0xbb489e40	-0.0030611902
44	0x3bc8a0a0	0.0061226636
45	0xbbbde6ed	-0.0057953508
46	0x3d24d168	0.040238768
47	0x3bef90ab	0.007310947
48	0xbd25e691	-0.04050309
49	0x3d30b087	0.0431371
50	0xbc46574f	-0.012105777
51	0xbd42b755	-0.04753812
52	0xbc9d0bf4	-0.019170739
53	0xbaa90876	-0.0012896198
54	0x3cedb0f2	0.029015038
55	0x3dc35bb0	0.095389724
56	0x3ce6c46b	0.028169831
57	0x3c5d1801	0.0134944925
58	0xbd93c852	-0.072159424
59	0x3cae5ee5	0.021285484
60	0x3e1b25fc	0.15151209
61	0x3baa1611	0.005190619
62	0xbd2be876	-0.04196974
63	0x3c2b67f9	0.010461801
64	0x3dcd595a	0.10026808
65	0x3d7e76a3	0.06212486
66	0xbc8db11f	-0.017296372
67	0xbc810b49	-0.015752451
68	0x3cbde23b	0.023179164
69	0x3d58ec2a	0.0529596
70	0x3cde7bbc	0.02715861
71	0xbc8c2102	-0.017105583
72	0xbc60ae69	-0.013713458
73	0x3db64035	0.08898965
74	0x3dacca98	0.08437079
75	0xbc9ef196	-0.019402307
76	0xbd7c1386	-0.061542057
77	0xbbb842bf	-0.005623191
78	0x3bc1bf3e	0.0059126904
79	0x3dcfbc34	0.10143319
80	0x3cfa12ce	0.030526545
81	0xbc28e352	-0.010308104
82	0x3d651d58	0.055936188
83	0x3cb21497	0.021738334
84	0x3d42891c	0.04749404
85	0x3db8ed34	0.09029618
86	0x3bb30eb6	0.0054644
87	0x3c0723a9	0.008248248
88	0xbb4d3b17	-0.0031315738
89	0xbd5944fa	-0.053044297
90	0x3de3d887	0.11125284
91	0xbc69102e	-0.014225049
92	0x3b09eb09	0.0021044633
93	0x3cc04a02	0.02347279
94	0x3d293e3a	0.04131911
95	0x3bbb3580	0.005713165

bias f4 [4]
0	0x3e004694	0.12526923
1	0x3e2e2ec4	0.17010027
2	0x3e5b00f2	0.2138708
3	0x3dd64362	0.10462071

exp_avg f4 [24, 4]
0	0x4571cc3b	3868.7644
1	0x4409f728	551.8618
2	0x44c40ca9	1568.3956
3	0x470013e2	32787.883
4	0x462f845a	11233.088
5	0x43fe3114	508.38342
6	0x4511a51a	2330.3188
7	0x477d5452	64852.32
8	0x4553820e	3384.1284
9	0xc4290dd8	-676.2163
10	0x4454f7f2	851.87415
11	0x46cb0c72	25990.223
12	0x44b5be96	1453.9558
13	0xc31594e2	-149.58157
14	0x4314bf9c	148.74847
15	0x45e3e192	7292.1963
16	0xc696f244	-19321.133
17	0xc0aa114c	-5.3146114
18	0x43645f24	228.37164
19	0xc0618600	-3.5238037
20	0xc534a87c	-2890.5303
21	0x435e385c	222.22015
22	0x42a3bdf0	81.87097
23	0x44549674	850.3508
24	0xc5ba38b0	-5959.086
25	0xc347f175	-199.94319
26	0xc2f3c204	-121.87894
27	0xc3835628	-262.6731
28	0x46f380c6	31168.387
29	0x4297cf08	75.90436
30	0x43883e1a	272.48517
31	0x456cb834	3787.5127
32	0x00000000	0.0
33	0x00000000	0.0
34	0x00000000	0.0
35	0x00000000	0.0
36	0xc590a046	-4628.034
37	0xc3d9e841	-435.81448
38	0xc4a726bc	-1337.2104
39	0xc7280cda	-43020.85
40	0xc5b5b024	-5814.0176
41	0xc42b9e9f	-686.47845
42	0xc51c155a	-2497.3345
43	0xc7454c3e	-50508.242
44	0x00000000	0.0
45	0x00000000	0.0
46	0x00000000	0.0
47	0x00000000	0.0
48	0xc6947754	-19003.664
49	0x429347df	73.64037
50	0x4398b8ea	305.44464
51	0x461fd011	10228.017
52	0x00000000	0.0
53	0x00000000	0.0
54	0x00000000	0.0
55	0x00000000	0.0
56	0x4460f238	899.78467
57	0x430cce83	140.80669
58	0x43820ff3	260.1246
59	0x45d03a41	6663.2817
60	0xc4fd6927	-2027.286
61	0xc40707c3	-540.1213
62	0xc3aa4cd7	-340.6003
63	0xc46201c4	-904.0276
64	0x44c359fa	1562.8118
65	0x43df527a	446.64435
66	0xc3f23cca	-484.4749
67	0xc697d760	-19435.688
68	0xc3d0d6e0	-417.6787
69	0x4323d33e	163.82516
70	0x429c4644	78.13724
71	0x432710cd	167.06563
72	0x45acc31d	5528.389
73	0xc29f6458	-79.695984
74	0x410a3df8	8.640129
75	0x44429b24	778.4241
76	0x461c0a4f	9986.577
77	0xc3047c5b	-132.48576
78	0xc445b0d9	-790.76324
79	0xc58b480e	-4457.007
80	0x450e9a34	2281.6377
81	0x43e3b224	455.39172
82	0x440b4486	557.0707
83	0x460f1b4c	9158.824
84	0x00000000	0.0
85	0x00000000	0.0
86	0x00000000	0.0
87	0x00000000	0.0
88	0x00000000	0.0
89	0x00000000	0.0
90	0x00000000	0.0
91	0x00000000	0.0
92	0x00000000	0.0
93	0x00000000	0.0
94	0x00000000	0.0
95	0x00000000	0.0

exp_avg_sq f4 [24, 4]
0	0x4fa0fc98	5.401817e+09
1	0x4bdbd78d	2.881513e+07
2	0x4ddbf8e7	4.613153e+08
3	0x52963d30	3.2263583e+11
4	0x502ecbae	1.1730336e+10
5	0x4c3563e1	4.755034e+07
6	0x4e57aca9	9.046042e+08
7	0x532ebdb5	7.5050707e+11
8	0x4f2a47e1	2.8568374e+09
9	0x4b952f4a	1.955394e+07
10	0x4d5ada58	2.294839e+08
11	0x522fb9b1	1.8868367e+11
12	0x4e998189	1.2877016e+09
13	0x4b2ef617	1.1466263e+07
14	0x4caa28c2	8.921243e+07
15	0x518cc323	7.557116e+10
16	0x4f8e39b5	4.772293e+09
17	0x4b03edc8	8.646088e+06
18	0x4c9c7ee4	8.20488e+07
19	0x513fe1e6	5.1508044e+10
20	0x4fa73ee6	5.6118344e+09
21	0x4ae4fac1	7.5032005e+06
22	0x4b2b4303	1.1223811e+07
23	0x4fa30936	5.4705797e+09
24	0x5003926d	8.829646e+09
25	0x4aa5a3d9	5.4276925e+06
26	0x49776233	1.0132832e+06
27	0x4a3248b5	2.9210052e+06
28	0x5049b879	1.353724e+10
29	0x4a6a044d	3.8341312e+06
30	0x49cb1bb7	1.6638629e+06
31	0x4e0611d8	5.623291e+08
32	0x00000000	0.0
33	0x00000000	0.0
34	0x00000000	0.0
35	0x00000000	0.0
36	0x501db88e	1.0584472e+10
37	0x4c76ebdb	6.472894e+07
38	0x4e5b2367	9.191326e+08
39	0x53378849	7.882655e+11
40	0x5022132a	1.087666e+10
41	0x4cb48574	9.464515e+07
42	0x4e822e86	1.0920435e+09
43	0x531b0fdf	6.659862e+11
44	0x00000000	0.0
45	0x00000000	0.0
46	0x00000000	0.0
47	0x00000000	0.0
48	0x4f8444fa	4.438226e+09
49	0x4ab18cf7	5.8179795e+06
50	0x4c05d857	3.5086684e+07
51	0x506e681c	1.5999201e+10
52	0x00000000	0.0
53	0x00000000	0.0
54	0x00000000	0.0
55	0x00000000	0.0
56	0x4c99b63e	8.05893e+07
57	0x498c1de7	1.1478369e+06
58	0x4b3024ec	1.1543788e+07
59	0x4fb4fefa	6.073218e+09
60	0x4de0cbb5	4.7143082e+08
61	0x4a99f810	5.045256e+06
62	0x4a5cc71b	3.6172228e+06
63	0x4c80a7b5	6.745233e+07
64	0x4f694890	3.9138468e+09
65	0x4b98e467	2.0039886e+07
66	0x4d10b7d3	1.5174789e+08
67	0x51daefe7	1.1754097e+11
68	0x4f8f8265	4.815375e+09
69	0x4b0b30a0	9.121952e+06
70	0x4a41baa0	3.174056e+06
71	0x4dae3a8f	3.6538416e+08
72	0x4e660590	9.6478106e+08
73	0x4a7d2c5c	4.147991e+06
74	0x49548a2e	870562.9
75	0x4becf350	3.1057568e+07
76	0x500c7e28	9.428312e+09
77	0x4bda1070	2.8582112e+07
78	0x4d6b65b4	2.4683194e+08
79	0x5215b0c9	1.6072902e+11
80	0x4e195e26	6.4327104e+08
81	0x4b125f77	9.592695e+06
82	0x4c6f50a5	6.2734996e+07
83	0x50d81622	2.9002633e+10
84	0x00000000	0.0
85	0x00000000	0.0
86	0x00000000	0.0
87	0x00000000	0.0
88	0x00000000	0.0
89	0x00000000	0.0
90	0x00000000	0.0
91	0x00000000	0.0
92	0x00000000	0.0
93	0x00000000	0.0
94	0x00000000	0.0
95	0x00000000	0.0

exp_avg f4 [24]
0	0x39cb4d78	0.00038776896
1	0x3a4ee511	0.000789241
2	0x399aed58	0.00029550004
3	0x38b76710	8.745317e-05
4	0xb9484b72	-0.00019101592
5	0xb791a230	-1.7360871e-05
6	0xb8893a94	-6.54358e-05
7	0x39b918a0	0.00035304297
8	0x00000000	0.0
9	0xba018e7e	-0.00049421925
10	0xba1bfdd8	-0.00059506064
11	0x00000000	0.0
12	0xb8b016b5	-8.3965635e-05
13	0x00000000	0.0
14	0x38a70464	7.963998e-05
15	0xb81fe36a	-3.812035e-05
16	0xb93bceaf	-0.00017910705
17	0xb3b9c400	-8.650386e-08
18	0x3882c5f7	6.235757e-05
19	0x384133ef	4.6063153e-05
20	0x39029411	0.00012452925
21	0x00000000	0.0
22	0x00000000	0.0
23	0x00000000	0.0

exp_avg_sq f4 [24]
0	0x383907d9	4.4114746e-05
1	0x38d364c3	0.000100800324
2	0x37d5151b	2.5401407e-05
3	0x372bd778	1.0242562e-05
4	0x3700fc95	7.688203e-06
5	0x35c8afd4	1.4952334e-06
6	0x357b5ed6	9.364279e-07
7	0x35f4ae2c	1.8230107e-06
8	0x00000000	0.0
9	0x38dbca44	0.00010480409
10	0x38c0411f	9.167403e-05
11	0x00000000	0.0
12	0x364285cf	2.898614e-06
13	0x00000000	0.0
14	0x35584a77	8.057463e-07
15	0x33a6fe16	7.776195e-08
16	0x37890cfd	1.633772e-05
17	0x352af0c7	6.368031e-07
18	0x340b9d7e	1.3002679e-07
19	0x37c06e56	2.2939563e-05
20	0x36874d2a	4.0322966e-06
21	0x00000000	0.0
22	0x00000000	0.0
23	0x00000000	0.0

exp_avg f4 [24, 24]
0	0xc5078f80	-2168.9688
1	0xc5055345	-2133.2043
2	0xc4381cca	-736.4498
3	0xc3cba922	-407.32135
4	0xc4f43d97	-1953.9247
5	0xc2cc7713	-102.23257
6	0x0749117e	1.51267e-34
7	0x07c76985	3.000421e-34
8	0x00000000	0.0
9	0xc48208d1	-1040.2755
10	0xc4f7c538	-1982.1631
11	0x00000000	0.0
12	0xc2922f74	-73.09268
13	0x00000000	0.0
14	0xc31e025c	-158.00922
15	0x4189cef8	17.226059
16	0xc55c5267	-3525.1501
17	0x42665568	57.583405
18	0x0806d09e	4.0569387e-34
19	0xc3b7cfe8	-367.62427
20	0xc3426767	-194.40392
21	0x00000000	0.0
22	0x00000000	0.0
23	0x00000000	0.0
24	0x00000004	6e-45
25	0x00000004	6e-45
26	0x00000004	6e-45
27	0x00000004	6e-45
28	0x00000004	6e-45
29	0x80000004	-6e-45
30	0x00000004	6e-45
31	0x00000004	6e-45
32	0x00000000	0.0
33	0x00000004	6e-45
34	0x00000004	6e-45
35	0x00000000	0.0
36	0x00000004	6e-45
37	0x00000000	0.0
38	0x00000004	6e-45
39	0x00000004	6e-45
40	0x00000004	6e-45
41	0x00000004	6e-45
42	0x00000004	6e-45
43	0x00000004	6e-45
44	0x00000004	6e-45
45	0x00000000	0.0
46	0x00000000	0.0
47	0x00000000	0.0
48	0x80000004	-6e-45
49	0x00000004	6e-45
50	0x00000000	0.0
51	0x00000004	6e-45
52	0x00000004	6e-45
53	0x00000004	6e-45
54	0x00000004	6e-45
55	0x00000004	6e-45
56	0x00000000	0.0
57	0x00000004	6e-45
58	0x80000004	-6e-45
59	0x00000000	0.0
60	0x00000004	6e-45
61	0x00000000	0.0
62	0x00000000	0.0
63	0x00000004	6e-45
64	0x80000004	-6e-45
65	0x00000004	6e-45
66	0x00000004	6e-45
67	0x00000004	6e-45
68	0x00000004	6e-45
69	0x00000000	0.0
70	0x00000000	0.0
71	0x00000000	0.0
72	0xc3b23016	-356.37567
73	0x1582312e	5.2584174e-26
74	0xc39353c1	-294.65433
75	0xc37297b4	-242.59259
76	0xc31360b7	-147.37779
77	0xc18aef98	-17.36699
78	0x00000004	6e-45
79	0xc0cda652	-6.426553
80	0x00000000	0.0
81	0x145d0dbb	1.11603565e-26
82	0xc397acff	-303.35153
83	0x00000000	0.0
84	0xc2da6b12	-109.20912
85	0x00000000	0.0
86	0x120ca751	4.4382444e-28
87	0xc2665362	-57.58143
88	0xc3f9bae0	-499.45996
89	0xc301097c	-129.03705
90	0xbf4ed931	-0.8080016
91	0xc316deaa	-150.86978
92	0xc3e99b4e	-467.21332
93	0x00000000	0.0
94	0x00000000	0.0
95	0x00000000	0.0
96	0xc74ca4b6	-52388.71
97	0xc72d3c64	-44348.39
98	0xc6b11ce3	-22670.443
99	0xc65ea87f	-14250.124
100	0xc723c9e5	-41929.895
101	0xc542e024	-3118.0088
102	0x80000004	-6e-45
103	0x41059609	8.34913
104	0x00000000	0.0
105	0xc6aaee6f	-21879.217
106	0xc73ffe36	-49150.21
107	0x00000000	0.0
108	0xc55b53f4	-3509.247
109	0x00000000	0.0
110	0xc580caf5	-4121.3696
111	0xc40557e8	-533.37354
112	0xc7a4de39	-84412.445
113	0xc4282617	-672.59515
114	0x3fb7ad6e	1.4349802
115	0xc619edd9	-9851.462
116	0xc649bc5c	-12911.09
117	0x00000000	0.0
118	0x00000000	0.0
119	0x00000000	0.0
120	0x090e49f5	1.7127403e-33
121	0x08f27025	1.459121e-33
122	0x088b63ca	8.3892185e-34
123	0x081ddf4a	4.7507944e-34
124	0x08d72814	1.2949264e-33
125	0x04b27ce9	4.196231e-36
126	0x00000004	6e-45
127	0x00000004	6e-45
128	0x00000000	0.0
129	0x087258c6	7.292858e-34
130	0x0909788b	1.6547454e-33
131	0x00000000	0.0
132	0x0472133c	2.8455795e-36
133	0x00000000	0.0
134	0x079322cf	2.213856e-34
135	0x00000004	6e-45
136	0x096600f5	2.7685693e-33
137	0x00000004	6e-45
138	0x00000004	6e-45
139	0x07cc2f87	3.0722443e-34
140	0x080ba56b	4.202324e-34
141	0x00000000	0.0
142	0x00000000	0.0
143	0x00000000	0.0
144	0xa2b1d8dc	-4.8205555e-18
145	0xa2882fed	-3.6913617e-18
146	0xa18cfe2f	-9.554051e-19
147	0xa19cc706	-1.0623652e-18
148	0xa2ba98bc	-5.0577115e-18
149	0xa2108032	-1.9583505e-18
150	0x00000004	6e-45
151	0x00000004	6e-45
152	0x00000000	0.0
153	0xa20e699d	-1.93005e-18
154	0xa296e7c1	-4.090296e-18
155	0x00000000	0.0
156	0xa1f8a774	-1.6849458e-18
157	0x00000000	0.0
158	0x00000004	6e-45
159	0xa0176201	-1.2822624e-19
160	0xa3112b08	-7.869578e-18
161	0xa10ff1c8	-4.877028e-19
162	0x03949fd3	8.735352e-37
163	0xa1a9835b	-1.1486655e-18
164	0xa2100bde	-1.9521922e-18
165	0x00000000	0.0
166	0x00000000	0.0
167	0x00000000	0.0
168	0x00000000	0.0
169	0x00000000	0.0
170	0x00000000	0.0
171	0x00000000	0.0
172	0x00000000	0.0
173	0x00000000	0.0
174	0x00000000	0.0
175	0x00000000	0.0
176	0x00000000	0.0
177	0x00000000	0.0
178	0x00000000	0.0
179	0x00000000	0.0
180	0x00000000	0.0
181	0x00000000	0.0
182	0x00000000	0.0
183	0x00000000	0.0
184	0x00000000	0.0
185	0x00000000	0.0
186	0x00000000	0.0
187	0x00000000	0.0
188	0x00000000	0.0
189	0x00000000	0.0
190	0x00000000	0.0
191	0x00000000	0.0
192	0xc2f26174	-121.19034
193	0xc44c311a	-816.7672
194	0x43e5fa6d	459.95645
195	0x439cb648	313.42407
196	0xc3a6e5fe	-333.7968
197	0x4398885d	305.06534
198	0x3bb69322	0.005571739
199	0x43829a76	261.20673
200	0x00000000	0.0
201	0xc3eb722e	-470.89203
202	0xc305a9df	-133.66356
203	0x00000000	0.0
204	0x43dc1322	440.14948
205	0x00000000	0.0
206	0xc1e30734	-28.378517
207	0x43e8535b	464.6512
208	0xc3b4bdf4	-361.484
209	0x4457bb8b	862.93036
210	0x440bd949	559.3951
211	0x4351f9da	209.97598
212	0x4483581c	1050.7534
213	0x00000000	0.0
214	0x00000000	0.0
215	0x00000000	0.0
216	0x3fa4fcb9	1.2889625
217	0x3f89e455	1.0772806
218	0x3ee2250b	0.44168887
219	0x3e993241	0.29921153
220	0x3f96509f	1.1743354
221	0x3e8eb516	0.27872533
222	0x00000004	6e-45
223	0x80000004	-6e-45
224	0x00000000	0.0
225	0x3f066b09	0.5250707
226	0x3f9d081d	1.2268101
227	0x00000000	0.0
228	0x3e8d5f16	0.27611607
229	0x00000000	0.0
230	0xb01d20c8	-5.716285e-10
231	0xa803e73c	-7.322102e-15
232	0x40076251	2.1153758
233	0xb24ca3c3	-1.1911598e-08
234	0x00000004	6e-45
235	0x3e886aac	0.26643884
236	0x3ed620e0	0.41821957
237	0x00000000	0.0
238	0x00000000	0.0
239	0x00000000	0.0
240	0x00000000	0.0
241	0x00000000	0.0
242	0x00000000	0.0
243	0x00000000	0.0
244	0x00000000	0.0
245	0x00000000	0.0
246	0x00000000	0.0
247	0x00000000	0.0
248	0x00000000	0.0
249	0x00000000	0.0
250	0x00000000	0.0
251	0x00000000	0.0
252	0x00000000	0.0
253	0x00000000	0.0
254	0x00000000	0.0
255	0x00000000	0.0

exp_avg_sq f4 [24, 24]
0	0x50e8fd1c	3.1271215e+10
1	0x509720e2	2.0284117e+10
2	0x4fcb8f45	6.8303283e+09
3	0x4f02177b	2.182577e+09
4	0x5092bbfb	1.9694344e+10
5	0x4e00e6bf	5.4065146e+08
6	0x49b04826	1.4441008e+06
7	0x4aaddbd8	5.697004e+06
8	0x00000000	0.0
9	0x4fa93813	5.678049e+09
10	0x50c7d544	2.682114e+10
11	0x00000000	0.0
12	0x4d47a2e0	2.0933376e+08
13	0x00000000	0.0
14	0x4dc64be4	4.158578e+08
15	0x4a9ab759	5.0697405e+06
16	0x51977b07	8.1325515e+10
17	0x4b1735e3	9.909731e+06
18	0x4b49cdbf	1.3225407e+07
19	0x4e6b8d68	9.8797824e+08
20	0x4f243c43	2.7554127e+09
21	0x00000000	0.0
22	0x00000000	0.0
23	0x00000000	0.0
24	0x474f5fd0	53087.812
25	0x442ccde5	691.2171
26	0x46b5489c	23204.305
27	0x470fd56e	36821.43
28	0x46a86b72	21557.723
29	0x451d223f	2514.1404
30	0x44ad0bd4	1384.3696
31	0x46018e29	8291.54
32	0x00000000	0.0
33	0x443b8b01	750.17194
34	0x46ac3a3b	22045.115
35	0x00000000	0.0
36	0x466802dd	14848.716
37	0x00000000	0.0
38	0x442e0570	696.08496
39	0x461ae4b1	9913.173
40	0x478d3e13	72316.15
41	0x458fbefb	4599.8726
42	0x462f83c3	11232.94
43	0x463518ff	11590.249
44	0x477770f1	63344.94
45	0x00000000	0.0
46	0x00000000	0.0
47	0x00000000	0.0
48	0x43d69162	429.1358
49	0x40c1da97	6.0579333
50	0x00000000	0.0
51	0x38218829	3.85122e-05
52	0x4ba0cf48	2.1077648e+07
53	0x4c718997	6.3317596e+07
54	0x4b786b3c	1.628038e+07
55	0x4c5635a9	5.6153764e+07
56	0x00000000	0.0
57	0x3f9f2e91	1.2436086
58	0x3f7bc2f3	0.98344344
59	0x00000000	0.0
60	0x4c370b86	4.798415e+07
61	0x00000000	0.0
62	0x00000000	0.0
63	0x4c2e690a	4.5720616e+07
64	0x44c64177	1586.0458
65	0x4ce0f937	1.17950904e+08
66	0x4d02eeab	1.3729246e+08
67	0x491a7d8b	632792.7
68	0x4b3360f9	1.1755769e+07
69	0x00000000	0.0
70	0x00000000	0.0
71	0x00000000	0.0
72	0x4a002998	2.099814e+06
73	0x46cb388f	26012.28
74	0x497176d1	989037.06
75	0x4966aa64	944806.25
76	0x49344fce	738556.9
77	0x4877c621	253720.52
78	0x470f39a6	36665.65
79	0x4887f172	278411.56
80	0x00000000	0.0
81	0x45de718e	7118.1943
82	0x49974064	1.2390525e+06
83	0x00000000	0.0
84	0x49430cab	798922.7
85	0x00000000	0.0
86	0x444076ac	769.85425
87	0x489f4a71	326227.53
88	0x4a6db5d6	3.8946455e+06
89	0x494e01f4	843807.25
90	0x48f78353	506906.6
91	0x48d4062b	434225.34
92	0x4a4dc6eb	3.3714508e+06
93	0x00000000	0.0
94	0x00000000	0.0
95	0x00000000	0.0
96	0x530e357d	6.1078274e+11
97	0x52c0d943	4.141394e+11
98	0x51e83ef2	1.2468606e+11
99	0x512ac811	4.5843812e+10
100	0x52b4f2aa	3.8858267e+11
101	0x4fcf0e2e	6.947626e+09
102	0x46f3a4fb	31186.49
103	0x487a44f2	256275.78
104	0x00000000	0.0
105	0x51cd36ac	1.1017319e+11
106	0x52fbbaae	5.4058438e+11
107	0x00000000	0.0
108	0x4f654ef9	3.847158e+09
109	0x00000000	0.0
110	0x4fc84973	6.7205135e+09
111	0x4c703e75	6.2978516e+07
112	0x53ba3c8b	1.5997593e+12
113	0x4d240275	1.7197653e+08
114	0x4b037c0e	8.616974e+06
115	0x509ad90a	2.0783321e+10
116	0x512e58a1	4.6800703e+10
117	0x00000000	0.0
118	0x00000000	0.0
119	0x00000000	0.0
120	0x4df66b84	5.1678016e+08
121	0x4da3be52	3.4339488e+08
122	0x4d02d9ab	1.3720645e+08
123	0x4c038147	3.4473244e+07
124	0x4d8b3b69	2.9199082e+08
125	0x4abb5b7a	6.139325e+06
126	0x42f2d6a3	121.41921
127	0x45516125	3350.0715
128	0x00000000	0.0
129	0x4cbfb608	1.0051181e+08
130	0x4dd86a52	4.538558e+08
131	0x00000000	0.0
132	0x4939eb95	761529.3
133	0x00000000	0.0
134	0x4b439938	1.2818744e+07
135	0x482562b9	169354.89
136	0x4e9f8fef	1.3385051e+09
137	0x48c455cf	402094.47
138	0x4811283d	148640.95
139	0x4b48694e	1.3134158e+07
140	0x4c12abfd	3.844914e+07
141	0x00000000	0.0
142	0x00000000	0.0
143	0x00000000	0.0
144	0x4d6c87a1	2.4801947e+08
145	0x4cf9d486	1.3098296e+08
146	0x4b3a56f5	1.2211957e+07
147	0x4a8461bc	4.337886e+06
148	0x4da52526	3.463344e+08
149	0x4d0f980d	1.5056917e+08
150	0x4326b659	166.7123
151	0x46d8d5b0	27754.844
152	0x00000000	0.0
153	0x4be4a293	2.9967654e+07
154	0x4d233702	1.711432e+08
155	0x00000000	0.0
156	0x4cc5d831	1.03727496e+08
157	0x00000000	0.0
158	0x40b56cf1	5.6695485
159	0x4b95b3fc	1.962188e+07
160	0x4e1c6a58	6.5605376e+08
161	0x4c7dec42	6.656436e+07
162	0x4901b5e4	531294.25
163	0x4b5aff26	1.4352166e+07
164	0x4cb2374f	9.3436536e+07
165	0x00000000	0.0
166	0x00000000	0.0
167	0x00000000	0.0
168	0x00000000	0.0
169	0x00000000	0.0
170	0x00000000	0.0
171	0x00000000	0.0
172	0x00000000	0.0
173	0x00000000	0.0
174	0x00000000	0.0
175	0x00000000	0.0
176	0x00000000	0.0
177	0x00000000	0.0
178	0x00000000	0.0
179	0x00000000	0.0
180	0x00000000	0.0
181	0x00000000	0.0
182	0x00000000	0.0
183	0x00000000	0.0
184	0x00000000	0.0
185	0x00000000	0.0
186	0x00000000	0.0
187	0x00000000	0.0
188	0x00000000	0.0
189	0x00000000	0.0
190	0x00000000	0.0
191	0x00000000	0.0
192	0x4d155213	1.56574e+08
193	0x4c139146	3.868393e+07
194	0x4bff07fb	3.3427446e+07
195	0x4beec1c6	3.1294348e+07
196	0x4cc807ce	1.0487358e+08
197	0x4bbcc37b	2.4741622e+07
198	0x45aa55a4	5450.705
199	0x4a2ea977	2.8616618e+06
200	0x00000000	0.0
201	0x4b378572	1.202725e+07
202	0x4cb26bb7	9.3543864e+07
203	0x00000000	0.0
204	0x4bc6acab	2.6040662e+07
205	0x00000000	0.0
206	0x486214d8	231507.38
207	0x4b46c1c7	1.3025735e+07
208	0x4dac96b0	3.6194458e+08
209	0x4bf92bad	3.265929e+07
210	0x4b8c0fd2	1.835818e+07
211	0x4b52055c	1.3763932e+07
212	0x4c7555b0	6.4313024e+07
213	0x00000000	0.0
214	0x00000000	0.0
215	0x00000000	0.0
216	0x4e62534d	9.492775e+08
217	0x4e026dd4	5.4705894e+08
218	0x4d1715f0	1.5842483e+08
219	0x4c064d20	3.520627e+07
220	0x4e354297	7.6026003e+08
221	0x4cb3ef89	9.433812e+07
222	0x3d579c00	0.052639008
223	0x437c40c7	252.25304
224	0x00000000	0.0
225	0x4d195f01	1.6082126e+08
226	0x4e2e0e68	7.300449e+08
227	0x00000000	0.0
228	0x4c1b20c6	4.066588e+07
229	0x00000000	0.0
230	0x4a98c5d2	5.006057e+06
231	0x48aee7ec	358207.38
232	0x4f10ea6e	2.4312827e+09
233	0x497544eb	1.0046227e+06
234	0x472bed88	44013.53
235	0x4bed4bb4	3.1102824e+07
236	0x4d133321	1.543501e+08
237	0x00000000	0.0
238	0x00000000	0.0
239	0x00000000	0.0
240	0x00000000	0.0
241	0x00000000	0.0
242	0x00000000	0.0
243	0x00000000	0.0
244	0x00000000	0.0
245	0x00000000	0.0
246	0x00000000	0.0
247	0x00000000	0.0
248	0x00000000	0.0
249	0x00000000	0.0
250	0x00000000	0.0
251	0x00000000	0.0
252	0x00000000	0.0
253	0x00000000	0.0
254	0x00000000	0.0
255	0x00000000	0.0

exp_avg f4 [24]
0	0xb8f1c810	-0.0001152904
1	0x00000004	6e-45
2	0x00000004	6e-45
3	0xb82579ff	-3.9452683e-05
4	0xbb4eec80	-0.003157407
5	0x00011199	9.8148e-41
6	0x96db02e3	-3.538318e-25
7	0x00000000	0.0
8	0x3841ad52	4.6176203e-05
9	0x33ba5f7b	8.678668e-08
10	0x00000000	0.0
11	0xba061519	-0.0005114838
12	0x00000004	6e-45
13	0x00000004	6e-45
14	0x3a4033ec	0.0007331956
15	0x397f703e	0.00024360509
16	0x00000004	6e-45
17	0xba8402ac	-0.0010071597
18	0x3b434dbe	0.0029800977
19	0x00000004	6e-45
20	0xb8507378	-4.9698603e-05
21	0xba5ba920	-0.00083793886
22	0xba16524b	-0.00057343085
23	0x39030692	0.00012495581

exp_avg_sq f4 [24]
0	0x38dccd59	0.000105286665
1	0x2f76a0a7	2.2430645e-10
2	0x33869f91	6.268886e-08
3	0x32bfca3d	2.2327294e-08
4	0x3b0da98f	0.0021615957
5	0x35cb1198	1.5129799e-06
6	0x35cbdd0c	1.5189012e-06
7	0x00000000	0.0
8	0x3570befa	8.9684875e-07
9	0x366a97bc	3.4957038e-06
10	0x00000000	0.0
11	0x384b320e	4.844559e-05
12	0x274ebdf6	2.869122e-15
13	0x2facf34c	3.145949e-10
14	0x39caffec	0.0003871912
15	0x37f48d07	2.9152738e-05
16	0x284768fb	1.1069483e-14
17	0x392d77e8	0.00016543234
18	0x3af6c1f3	0.0018826112
19	0x34cfdd6c	3.871786e-07
20	0x356ba0f1	8.777852e-07
21	0x3889ce4b	6.571094e-05
22	0x36893a21	4.0896853e-06
23	0x3755c28b	1.2741085e-05

exp_avg f4 [4, 24]
0	0xc5f38518	-7792.6367
1	0x00000004	6e-45
2	0x80000004	-6e-45
3	0x454ffb7f	3327.7185
4	0xc6b1c5cb	-22754.896
5	0x87bfa186	-2.883342e-34
6	0xa1c51a90	-1.335627e-18
7	0x00000000	0.0
8	0x450bcb44	2236.704
9	0xbe3d83bc	-0.18507284
10	0x00000000	0.0
11	0xc5151208	-2385.127
12	0x80000004	-6e-45
13	0x80000004	-6e-45
14	0xc62432c9	-10508.696
15	0xc586d3f1	-4314.4927
16	0x00000004	6e-45
17	0xc6b5fe8c	-23295.273
18	0xc703a9cd	-33705.8
19	0x80000004	-6e-45
20	0xc47af8f7	-1003.8901
21	0xc6a70530	-21378.594
22	0x429f68f0	79.704956
23	0xc49fc499	-1278.1437
24	0x45566e42	3430.891
25	0x80000004	-6e-45
26	0x00000004	6e-45
27	0x00000004	6e-45
28	0x46062865	8586.099
29	0x0823214e	4.909018e-34
30	0x9f28daf3	-3.5756494e-20
31	0x00000000	0.0
32	0xc51a9cb2	-2473.7935
33	0x3d218c1c	0.03944026
34	0x00000000	0.0
35	0xc714ab1c	-38059.11
36	0x80000004	-6e-45
37	0x80000004	-6e-45
38	0xc6016b95	-8282.8955
39	0xc4808b67	-1028.3563
40	0x00000004	6e-45
41	0x460b1415	8901.0205
42	0x467b6d21	16091.282
43	0x80000004	-6e-45
44	0xc6c35618	-25003.047
45	0x460c57bf	8981.937
46	0xc68ff5ac	-18426.836
47	0x446d7356	949.8021
48	0xc55d9505	-3545.3137
49	0x00000004	6e-45
50	0x00000004	6e-45
51	0x80000004	-6e-45
52	0xc62786b8	-10721.68
53	0x86e14987	-8.474363e-35
54	0x00000004	6e-45
55	0x00000000	0.0
56	0xc3a74866	-334.5656
57	0x3d351a2e	0.04421442
58	0x00000000	0.0
59	0x4497c9ee	1214.3103
60	0x00000004	6e-45
61	0x80000004	-6e-45
62	0xc561de21	-3613.883
63	0xc4ad0662	-1384.1995
64	0x00000004	6e-45
65	0xc602f709	-8381.759
66	0xc6453288	-12620.633
67	0x80000004	-6e-45
68	0x44359eae	726.4794
69	0xc5cd7b49	-6575.4106
70	0x44824929	1042.2863
71	0xc4455e63	-789.4748
72	0x450ca6f4	2250.4346
73	0x00000004	6e-45
74	0x00000004	6e-45
75	0x2306d27a	7.308725e-18
76	0x45a619af	5315.2104
77	0x072776a1	1.2598546e-34
78	0x0627cf16	3.1561352e-35
79	0x00000000	0.0
80	0x43535cb4	211.36212
81	0x3c57cff5	0.013172139
82	0x00000000	0.0
83	0xc553ba74	-3387.6533
84	0x80000004	-6e-45
85	0x00000004	6e-45
86	0xc47689a8	-986.1509
87	0x44c7ddd4	1598.9321
88	0x00000004	6e-45
89	0x4585bea0	4279.828
90	0x4634922a	11556.541
91	0x80000004	-6e-45
92	0xc4edc5ca	-1902.1809
93	0x45d4a93e	6805.1553
94	0xc2cd1e58	-102.559265
95	0x4443ec6a	783.694

exp_avg_sq f4 [4, 24]
0	0x4fbb2641	6.279693e+09
1	0x472ff482	45044.508
2	0x47822d6c	66650.84
3	0x4c19067d	4.0114676e+07
4	0x518b69c6	7.484688e+10
5	0x4e200c1e	6.712872e+08
6	0x4c9a2e7e	8.083557e+07
7	0x00000000	0.0
8	0x4c7565fa	6.4329704e+07
9	0x4e216879	6.769946e+08
10	0x00000000	0.0
11	0x4fba81fa	6.2581606e+09
12	0x3c7183c3	0.014740887
13	0x43cdbb0b	411.46127
14	0x505a4d59	1.4650009e+10
15	0x4f5a6246	3.6638735e+09
16	0x3cf565cc	0.029955767
17	0x5163671d	6.104297e+10
18	0x5187633e	7.26857e+10
19	0x4ca0f248	8.438227e+07
20	0x4cc7271c	1.0441341e+08
21	0x50faf074	3.3680499e+10
22	0x4b95c754	1.9631784e+07
23	0x4eeeb5e2	2.0024486e+09
24	0x50029cf5	8.765298e+09
25	0x3e96b44b	0.29434428
26	0x48bf18e2	391367.06
27	0x46183b0c	9742.762
28	0x5182f8c4	7.031492e+10
29	0x4da86d23	3.5321558e+08
30	0x4ccffe9a	1.0904904e+08
31	0x00000000	0.0
32	0x4d95f9ff	3.1452362e+08
33	0x4dd561e1	4.474952e+08
34	0x00000000	0.0
35	0x50add4f9	2.3331326e+10
36	0x37c27f6c	2.3185938e-05
37	0x44d1208d	1673.0172
38	0x507d0de3	1.6982183e+10
39	0x4f6a35f8	3.9294054e+09
40	0x3c419842	0.011816086
41	0x51664660	6.181395e+10
42	0x5187d507	7.292432e+10
43	0x4d5b37ab	2.2986616e+08
44	0x5031d3cb	1.1933789e+10
45	0x51091c9f	3.680567e+10
46	0x5054c32c	1.4278242e+10
47	0x4f110cca	2.4335345e+09
48	0x4f104377	2.4203405e+09
49	0x42cff63d	103.980934
50	0x47f52586	125515.05
51	0x47e2fea0	116221.25
52	0x5102d0c4	3.5115516e+10
53	0x4da591ef	3.4722557e+08
54	0x4d824c11	2.732529e+08
55	0x00000000	0.0
56	0x4b60a9f5	1.4723573e+07
57	0x4d7d536d	2.6563144e+08
58	0x00000000	0.0
59	0x5040a277	1.2927491e+10
60	0x3b901586	0.004397097
61	0x448b132e	1112.5994
62	0x502a3700	1.1422925e+10
63	0x4f2441d8	2.7557786e+09
64	0x3c264d47	0.01015026
65	0x50dab103	2.935227e+10
66	0x50d99193	2.920157e+10
67	0x4c8af267	7.2848184e+07
68	0x4e678191	9.7100704e+08
69	0x50570232	1.4428981e+10
70	0x4d942549	3.1068394e+08
71	0x4ea19c6f	1.3556919e+09
72	0x4f342eb4	3.0229596e+09
73	0x43778d81	247.55275
74	0x489cfbb8	321501.75
75	0x498bf9dd	1.1466836e+06
76	0x51082340	3.6544184e+10
77	0x4e0091a6	5.392572e+08
78	0x4c49e48b	5.2924972e+07
79	0x00000000	0.0
80	0x4c45f58f	5.189382e+07
81	0x4db40797	3.7754954e+08
82	0x00000000	0.0
83	0x5006c576	9.044351e+09
84	0x38c3fbb3	9.345207e-05
85	0x44f2a943	1941.2894
86	0x500a0494	9.262223e+09
87	0x4eefac26	2.0105183e+09
88	0x3d2b191e	0.041772
89	0x50dd2fd8	2.9687202e+10
90	0x50f764de	3.3204662e+10
91	0x4ce5c25b	1.2045999e+08
92	0x4e0657e0	5.634765e+08
93	0x507242d8	1.6257868e+10
94	0x4bc94068	2.6378448e+07
95	0x4eb36111	1.5047415e+09

exp_avg f4 [4]
0	0xbcf90e57	-0.030402346
1	0xbbb978ea	-0.005660166
2	0xbc36ebba	-0.0111646
3	0x3bb7b45c	0.0056062173

exp_avg_sq f4 [4]
0	0x3d51b985	0.051202316
1	0x3d6ceedc	0.05784498
2	0x3c982966	0.018574428
3	0x3cc6a2cc	0.02424755
