test_model/covid5.pth (torch, 6807 bytes, 6 tensors)

weight f4 [24, 4]
0.27866888 0.48008245 0.2044118 -0.27746892 0.44439334 -0.3759793 0.3376028 -0.48686647
0.4324454 -0.055961788 0.40490085 0.27915782 0.20635515 -0.0041103363 -0.1343844 0.16648042
0.42348415 -0.4077847 -0.36330783 -0.10309821 0.24805355 0.28207135 -0.2743957 -0.38285333
0.31490302 0.28937215 -0.20970654 0.43143815 -0.06279874 0.4150458 0.052142143 -0.06538987
-0.20795232 0.4857087 -0.099665284 0.14447725 0.49880564 0.16879517 -0.32994086 -0.09794426
-0.21141875 -0.19093895 0.07501894 0.22085547 0.18715793 -0.07833934 -0.48879904 -0.2586515
-0.15251404 0.036670446 0.15036637 0.060720026 -0.110082924 0.426584 -0.2801752 -0.0042902827
0.14491218 0.17424661 -0.27907717 0.28456342 0.13429248 0.24219722 0.05240041 0.016895294
0.16463655 0.47608882 0.41330123 -0.1509636 -0.21914089 0.06505674 0.11575252 -0.058002114
0.07398212 -0.06286055 0.34040046 0.3382542 -0.41762018 0.043786466 -0.118579686 0.38686758
-0.032715082 0.0008727908 0.35794282 -0.17084748 0.07682413 -0.14963001 -0.42003554 0.02042228
-0.08259994 -0.4430623 0.41395068 -0.03129214 -0.15553367 0.0865435 0.38274986 -0.35655642
00000000: b0ad 8e3e 5ecd f53e 5451 513e 6810 8ebe
00000010: 8687 e33e 5c80 c0be 46da ac3e 9046 f9be
00000020: 7c69 dd3e 3038 65bd 2a4f cf3e c6ed 8e3e
00000030: c44e 533e 00b0 86bb 109c 09be d879 2a3e
00000040: ead2 d83e 28c9 d0be 7c03 babe 2825 d3bd
00000050: c001 7e3e a86b 903e 987d 8cbe 5a05 c4be
00000060: f83a a13e 9628 943e 50bd 56be 76e5 dc3e
00000070: a09c 80bd e280 d43e 0093 553d 20eb 85bd
00000080: 74f1 54be d0ae f83e 501d ccbd d8f1 133e
00000090: 7463 ff3e a4d8 2c3e 02ee a8be 0097 c8bd
000000a0: 287e 58be 8085 43be 88a3 993d f027 623e
000000b0: 54a6 3f3e 6070 a0bd de43 fabe f86d 84be
000000c0: a42c 1cbe c033 163d a4f9 193e 90b5 783d
000000d0: 2873 e1bd 3869 da3e 2073 8fbe 8095 8cbb
000000e0: dc63 143e b46d 323e 34e3 8ebe 4cb2 913e
000000f0: f883 093e 8c02 783e d0a1 563d 0068 8a3c
00000100: 7c96 283e eac1 f33e 389c d33e 3496 1abe
00000110: 7866 60be 783c 853d a80f ed3d a093 6dbd
00000120: f083 973d 08bd 80bd f848 ae3e a82f ad3e
00000130: 50d2 d5be 7059 333d e8d9 f2bd 8213 c63e
00000140: 4000 06bd 00cc 643a 4844 b73e a4f2 2ebe
00000150: f855 9d3d 9c38 19be e60e d7be a04c a73c
00000160: 282a a9bd 10d9 e2be 58f1 d33e 302c 00bd
00000170: 3844 1fbe b83d b13d caf7 c33e 908e b6be

bias f4 [24]
-0.3930393 -0.3838594 -0.39351892 0.23196119 -0.27987736 0.025250494 -0.3948701 -0.38724172
0.37477785 -0.43803895 0.4053744 -0.32365686 -0.16065353 -0.49371636 -0.17708337 -0.3428235
0.096421 -0.12893546 -0.31860858 0.4913203 -0.20210171 0.24859995 0.18315977 -0.24575341
00000000: 723c c9be 3889 c4be 507b c9be 3c87 6d3e
00000010: 164c 8fbe 20da ce3c 6a2c cabe 8c44 c6be
00000020: e2e2 bf3e a446 e0be 3c8d cf3e 5ab6 a5be
00000030: 5c82 24be 64c8 fcbe 5855 35be 9086 afbe
00000040: 6078 c53d a807 04be aa20 a3be 568e fb3e
00000050: c0f3 4ebe fc90 7e3e 3c8e 3b3e c8a6 7bbe

weight f4 [24, 24]
-0.16270107 -0.05384952 0.16884169 -0.059047714 0.16549233 -0.0733777 -0.15185578 0.12273857
0.051938683 -0.100333765 0.19686562 0.17789689 -0.19296442 -0.13256118 -0.18146273 0.09735158
0.018584177 0.042103395 0.14962515 0.1789473 0.12129831 0.14112657 -0.18933764 -0.04273218
0.049806297 -0.1490285 -0.18330942 -0.03424029 -0.121973395 -0.1840408 -0.056505755 -0.028754935
0.16509289 0.17700583 0.07625067 0.04447806 -0.035808206 -0.11586384 0.01850015 -0.020635024
0.16433391 0.008970812 0.097626925 -0.029517472 0.13113284 -0.039579675 -0.16354255 0.07854074
-0.14109147 -0.166455 0.16729641 0.058492035 -0.095398225 -0.0061909556 0.09553313 0.069095254
0.08708641 0.102448136 -0.016996503 0.03686665 0.076915175 -0.06815289 -0.17839216 -0.07246354
-0.1764411 0.041129664 0.06295866 0.16114655 -0.11112803 -0.072248995 0.0481382 0.02691406
-0.07271181 -0.027583137 0.061670393 -0.0010223985 0.07870367 -0.015006974 0.107474834 0.1564992
0.07800925 0.018096253 0.11931932 0.18204269 -0.008244157 0.14606914 -0.092394814 0.12210217
0.06355861 -0.120736845 -0.017305225 0.08933085 -0.13874735 0.06390396 0.02789414 -0.08563714
0.16185236 0.19144225 -0.1812112 -0.16315305 -0.021089718 0.04207979 0.14422792 0.16388452
-0.05756937 -0.06650689 0.09734765 -0.08729408 -0.17407036 -0.001962304 -0.08793585 -0.039656997
0.09346905 -0.096236885 0.17269787 -0.15526459 -0.024472296 -0.17759424 0.17420131 0.1179989
0.18848675 -0.14386159 0.1798091 0.076539665 -0.12055906 -0.008663192 0.15519747 -0.19777262
-0.18215245 0.10032603 0.09487286 -0.0048103184 0.17197126 0.14059451 0.06641191 -0.028046936
0.15866518 -0.031358704 0.007954687 0.05237487 0.017874703 0.00906457 -0.12111469 0.16728663
0.011229366 0.05151537 -0.17794569 -0.17748791 -0.09329289 0.11446497 0.0072943717 -0.023336262
0.09102717 -0.11314204 0.19274259 -0.109783195 0.12546542 0.18932006 0.19570339 0.07943085
-0.04807143 0.011958912 0.11052039 0.17944509 -0.08604443 0.019596174 0.045028985 -0.17307694
-0.027737558 0.036685348 -0.08031197 0.17308229 0.20001239 0.16035861 -0.036139384 0.17707813
-0.0027878433 0.12899193 -0.19775778 0.0033744425 0.10282236 0.046450227 -0.07106748 0.20303196
0.100435615 -0.06565417 0.017244712 0.09016189 -0.18206197 -0.007135093 -0.10210709 -0.12090307
0.004777372 0.16514042 0.14503059 -0.1626679 -0.12506789 0.1522963 -0.19859205 -0.005243674
-0.053235725 -0.1424655 -0.11647707 -0.04255064 0.112645805 -0.041808322 0.17860502 -0.062026173
-0.12573576 0.06928152 -0.07503919 -0.059460968 0.19015855 0.11203712 -0.05759482 -0.019253507
0.07734588 -0.03128384 -0.17371234 -0.07363926 0.021696568 0.17964053 -0.080064744 0.17095971
-0.06288357 -0.11356944 -0.12977564 -0.18985946 0.20376208 -0.15706001 -0.032984644 0.09063545
-0.057765424 -0.14188217 0.039701194 0.020821929 -0.07705404 0.16448367 -0.116617136 0.1271705
0.15068898 0.087032676 -0.08356621 0.12691367 -0.16647667 -0.055637613 -0.17432988 0.058190584
-0.19239497 -0.13623928 -0.18835072 -0.09348941 -0.11611557 -0.14233571 0.13110462 -0.18997802
00000000: 1c9b 26be 5091 5cbd d6e4 2c3e 04dc 71bd
00000010: d276 293e 0c47 96bd 1580 1bbe 5c5e fb3d
00000020: a8bd 543d ca7b cdbd 2497 493e 9a2a 363e
00000030: 7798 45be 1ebe 07be 5ed1 39be 4460 c73d
00000040: d83d 983c 9c74 2c3d 5637 193e f63d 373e
00000050: 406b f83d 7c83 103e bae1 41be f007 2fbd
00000060: b001 4c3d ed9a 18be 77b5 3bbe 8c3f 0cbd
00000070: 30cd f9bd 3175 3cbe 9472 67bd 788f ebbc
00000080: 1c0e 293e 0441 353e 5029 9c3d a02e 363d
00000090: a0ab 12bd 054a edbd a08d 973c c80a a9bc
000000a0: 2647 283e 50fa 123c a0f0 c73d a0ce f1bc
000000b0: b047 063e 4c1e 22bd b377 27be f8d9 a03d
000000c0: 487a 10be 2e73 2abe c04f 2b3e 5895 6f3d
000000d0: 2560 c3bd 80dd cabb e0a6 c33d d081 8d3d
000000e0: 5c5a b23d 54d0 d13d 403c 8bbc 7c01 173d
000000f0: b485 9d3d be93 8bbd 6fac 36be c467 94bd
00000100: faac 34be 9477 283d 78f0 803d 9a03 253e
00000110: 1897 e3bd 48f7 93bd 902c 453d e07a dc3c
00000120: eee9 94bd 08f6 e1bc 189a 7c3d 0002 86ba
00000130: 642f a13d d0df 75bc c41b dc3d 5441 203e
00000140: 50c3 9f3d 983e 943c b05d f43d 6669 3a3e
00000150: 8012 07bc 2693 153e 7e39 bdbd b410 fa3d
00000160: 042b 823d e144 f7bd b0c3 8dbc 18f3 b63d
00000170: c913 0ebe 14e0 823d 4082 e43c 8662 afbd
00000180: a0bc 253e 7009 443e 6e8f 39be 9811 27be
00000190: 58c4 acbc dc5b 2c3d 7cb0 133e 58d1 273e
000001a0: dccd 6bbd c434 88bd 345e c73d 3dc7 b2bd
000001b0: 803f 32be 009a 00bb b617 b4bd 606f 22bd
000001c0: b46c bf3d d817 c5bd b6d7 303e aefd 1ebe
000001d0: 207a c8bc 44db 35be d461 323e 68a9 f13d
000001e0: ac02 413e 7450 13be e01f 383e d4c0 9c3d
000001f0: abe7 f6bd 10f0 0dbc 16ec 1e3e e884 4abe
00000200: 2c86 3abe bc77 cd3d b44c c23d e09f 9dbb
00000210: 3c19 303e 02f8 0f3e f802 883d b0c2 e5bc
00000220: 2079 223e fc71 00bd 6054 023c 0887 563d
00000230: f86d 923c 9083 143c fb0a f8bd 304d 2b3e
00000240: 60fb 373c c801 533d 6537 36be 64bf 35be
00000250: 5810 bfbd 9c6c ea3d a005 ef3b b02b bfbc
00000260: 746c ba3d 04b7 e7bd 505e 453e 03d6 e0bd
00000270: 027a 003e 1edd 413e 7866 483e a4ac a23d
00000280: 8ce6 44bd 50ef 433c 8458 e23d 74c0 373e
00000290: 1038 b0bd 2888 a03c 5070 383d 153b 31be
000002a0: e039 e3bc 6043 163d 9a7a a4bd 7c3c 313e
000002b0: 0cd0 4c3e 0c35 243e e406 14bd f853 353e
000002c0: 40b4 36bb 7616 043e 0481 4abe c025 5d3b
000002d0: 8894 d23d 9842 3e3d d48b 91bd 9ce7 4f3e
000002e0: 30b1 cd3d b275 86bd c844 8d3c cca6 b83d
000002f0: 746e 3abe 80cd e9bb 861d d1bd 079c f7bd
00000300: 808b 9c3b 921a 293e e682 143e 6a92 26be
00000310: cc11 00be 90f3 1b3e b75b 4bbe 20d3 abbb
00000320: b40d 5abd 7ae2 11be 888b eebd 9449 2ebd
00000330: d8b2 e63d 343f 2bbd 3ce4 363e 280f 7ebd
00000340: e0c0 00be 78e3 8d3d 26ae 99bd 588d 73bd
00000350: ecb8 423e b873 e53d 8ce8 6bbd 88b9 9dbc
00000360: 8467 9e3d 7c23 00bd a6e1 31be 2ed0 96bd
00000370: 00bd b13c b0f3 373e fcf8 a3bd 1010 2f3e
00000380: 1ac9 80bd 1897 e8bd e8e3 04be 856a 42be
00000390: 02a7 503e 57d4 20be e81a 07bd 149f b93d
000003a0: 709b 6cbd 8f49 11be b89d 223d c092 aa3c
000003b0: 82ce 9dbd 686e 283e f7d4 eebd fc38 023e
000003c0: 364e 1a3e 303e b23d c324 abbd a8f5 013e
000003d0: dc78 2abe 44e4 63bd 8883 32be 4059 6e3d
000003e0: 3003 45be 4f82 0bbe 03df 40be 6077 bfbd
000003f0: 00ce edbd 74c0 11be 4a40 063e 9989 42be

bias f4 [24]
-0.020904273 -0.17245689 0.104182124 -0.13523751 -0.1416496 -0.11463181 -0.05564396 -0.05012922
0.1708354 -0.010505274 0.0077940226 0.09324175 0.0016223937 0.12001547 -0.027875796 0.05389905
0.14911377 0.08198616 0.07809764 0.19432732 -0.13694036 0.04482396 -0.11387198 0.1962522
00000000: 703f abbc 8a98 30be 705d d53d b47b 0abe
00000010: 980c 11be 15c4 eabd ecea 63bd 4c54 4dbd
00000020: 7aef 2e3e 501e 2cbc 0065 ff3b 88f5 be3d
00000030: 80a6 d43a acca f53d c85b e4bc 40c5 5c3d
00000040: 48b1 183e 5ce8 a73d a8f1 9f3d befd 463e
00000050: 183a 0cbe 5499 373d b635 e9bd 56f6 483e

weight f4 [4, 24]
-0.015816972 0.13388368 0.09205559 0.12551478 0.026695475 -0.09496225 -0.101353385 -0.12020068
-0.061221376 0.012376845 0.0361021 -0.050263822 0.067877054 0.17733267 -0.07037687 0.17744428
-0.036911964 0.03227225 0.10718542 0.032446206 -0.06443083 0.05347112 -0.031816065 0.03173141
-0.19745329 -0.09635516 -0.014162511 -0.03933166 0.10825929 0.032317027 0.07968688 -0.023877874
0.08006355 -0.07348572 0.104554206 0.19178408 -0.12970418 0.08281556 0.12836602 -0.13252667
-0.061624527 -0.15385841 -0.018574685 0.04327579 0.014244199 0.06974748 0.13157403 -0.024619564
0.1556556 0.07829386 -0.17392907 -0.086179554 -0.09254515 0.10023549 -0.08876689 0.060651988
0.041957512 0.07715508 -0.14297584 -0.065221965 0.110438585 0.053434342 0.18716034 0.10191667
0.14895484 -0.16692676 -0.12515286 0.0063547343 -0.18766016 0.089766115 -0.10882744 -0.10314389
0.11563641 0.06709623 -0.19965146 -0.13025467 -0.011563569 -0.088270776 0.07469773 -0.046463594
-0.17686269 0.14992017 0.06302318 -0.05924578 0.017803237 -0.17065278 0.0869247 -0.089993075
0.17386761 -0.084657595 0.084851444 0.093645185 -0.17689213 -0.15914465 0.17748478 0.10800561
00000000: 9892 81bc ce18 093e a487 bc3d f286 003e
00000010: 78b0 da3c 917b c2bd 5d92 cfbd c62b f6bd
00000020: 44c3 7abd 40c8 4a3c ccdf 133d 70e1 4dbd
00000030: 2003 8b3d b296 353e c021 90bd f4b3 353e
00000040: 0031 17bd e82f 043d 0884 db3d 50e6 043d
00000050: 50f4 83bd 8804 5b3d 9051 02bd ccf8 013d
00000060: 3231 4abe db55 c5bd e009 68bc 3c1a 21bd
00000070: 0cb7 dd3d dc5e 043d e032 a33d 889b c3bc
00000080: 5cf8 a33d ae7f 96bd 8420 d63d 0c63 443e
00000090: 2cd1 04be 349b a93d 6272 033e 12b5 07be
000000a0: 006a 7cbd 0f8d 1dbe f029 98bc f441 313d
000000b0: 8060 693c c4d7 8e3d 58bb 063e f8ae c9bc
000000c0: 2e64 1f3e 8858 a03d 761a 32be e87e b0bd
000000d0: 5088 bdbd 4448 cd3d 6acb b5bd 386e 783d
000000e0: a4db 2b3d 7c03 9e3d 4268 12be 1893 85bd
000000f0: a02d e23d f8dd 5a3d f6a6 3f3e b0b9 d03d
00000100: 9e87 183e d9ee 2abe 1228 00be 603b d03b
00000110: fc29 40be 4cd7 b73d ece0 debd 1b3d d3bd
00000120: c8d2 ec3d c069 893d 6f71 4cbe 7b61 05be
00000130: 2075 3dbc 4fc7 b4bd 20fb 983d 9c50 3ebd
00000140: 7e1b 35be ac84 193e 4c12 813d b4ab 72bd
00000150: 18d8 913c 9abf 2ebe 9405 b23d 4a4e b8bd
00000160: 5a0a 323e f660 adbd 98c6 ad3d 0cc9 bf3d
00000170: 3623 35be d1f6 22be 92be 353e 0c32 dd3d

bias f4 [4]
0.09887618 -0.1820911 -0.13342884 0.095829874
00000000: 987f ca3d 1776 3abe 92a1 08be 7442 c43d
