test_model/covid938.pth (torch, 16239 bytes, 18 tensors)

weight f4 [24, 4]
00000000: 7127 27bd 63b2 ddbb 512b 493e 6e31 353e
00000010: 0c18 35bd 183c 24be d512 1d3e 022c 183e
00000020: b265 34be d6f0 773e 0d85 6a3a d456 e03d
00000030: 96c2 49bd 63bb d53d 6bfd a73d 4cb2 963d
00000040: 0a28 013e 45e2 31be 80f3 173e 67a1 b03d
00000050: 97a6 853e 9812 81be 18e1 bdbd c045 99bd
00000060: c17d 1c3e bbfa 753e 6aab 92be f896 e0be
00000070: 63b8 913e b5b7 623e e6a8 e4be 9190 d6be
00000080: 9e5f ccbe a85d f3bd 7844 82be 1087 eebd
00000090: 64b6 1bbd 165e f9bd ce33 c03d 5826 bb3d
000000a0: 4d00 46bd e02d ba3d 234f 9f3d c9ed 493e
000000b0: 049b afbe c81c 153e 6669 a7be 8888 99bd
000000c0: 99ac 5a3e 046c 35be 1a59 9ebd f7e3 96bd
000000d0: 5a21 adbe 6222 efbe 14c1 babe 0417 9cbe
000000e0: 7298 10be 834e 993c 2c83 ed3c ada2 423c
000000f0: ba61 793e 343e 25be 4674 183e c0f9 10be
00000100: 3239 20bd 4520 853c 6023 6a3e 49b5 913e
00000110: 2565 c93e eb04 05be 1005 e5bd dac1 24be
00000120: 83ab f53e 1aa9 d33d daba 19bf 897e a7be
00000130: 701b 9d3c 3aca 5dbc 8aa5 633d 106d 023d
00000140: f7a4 513d 08a4 273e 5019 1bbc d941 82bc
00000150: e868 f4be c4f6 293e b091 1f3e c435 e0be
00000160: 147c d6be 2858 3f3e 1ca8 743e 0c95 e7be
00000170: 108e 7abd 80a5 053c 3458 d2be 4886 d5be
-0.0408091 -0.00676565 0.1964543 0.17694637 -0.044212386 -0.16038549 0.15339215 0.14860538
-0.17616919 0.24212965 0.0008946218 0.10954061 -0.049257837 0.10436132 0.082026325 0.07358226
0.1261293 -0.17371471 0.14838982 0.08624535 0.2610366 -0.25209498 -0.09271449 -0.07484007
0.15282346 0.24021427 -0.28646404 -0.4386518 0.28460988 0.22140391 -0.4466011 -0.4190717
-0.399167 -0.11883098 -0.25442863 -0.11646855 -0.038015738 -0.121761486 0.09384881 0.09138173
-0.04834013 0.09090781 0.07778766 0.19719614 -0.34297955 0.1456176 -0.326976 -0.074967444
0.21354903 -0.17716986 -0.077318385 -0.073676996 -0.33814508 -0.4670592 -0.36475432 -0.3048631
-0.14120653 0.018714195 0.028993212 0.011879605 0.24353686 -0.1613701 0.14888105 -0.14157772
-0.039117046 0.016250739 0.22865057 0.28458622 0.3933498 -0.12990157 -0.11182606 -0.16089574
0.47982416 0.10334988 -0.6005074 -0.32713726 0.019178122 -0.013536984 0.055577792 0.03184229
0.051182713 0.16371167 -0.009466484 -0.01590054 -0.47736287 0.1659804 0.15582919 -0.4379102
-0.4189154 0.18685973 0.23892254 -0.452309 -0.061170638 0.008157134 -0.4108292 -0.4170401

bias f4 [24]
00000000: 4a74 c13e 02fd eabe 4080 ea3e cd82 013f
00000010: 0769 a5bd 4a8a 93be 79bf 683d efd9 b43e
00000020: 7c30 713e 10d8 acbe 060b 10bd 003d 8ebc
00000030: ff4e 54be 3467 6a3e 88e0 ca3e 3d97 be3e
00000040: a0e5 b0be f07e c2be fe8e 803c 307e 0fbd
00000050: 1164 4e3e a019 363d 6cae a43e 6234 a63e
0.37784034 -0.45896155 0.45800972 0.5059021 -0.08076673 -0.28816444 0.056823228 0.3532252
0.23553652 -0.33758593 -0.035166763 -0.017363071 -0.2073326 0.22890931 0.3962443 0.3722476
-0.3455019 -0.3798747 0.015693184 -0.03503245 0.2015536 0.04445803 0.32164323 0.3246184

weight f4 [24, 24]
00000000: 3b58 9c3d 75cc 24be 2d54 9ebb b2ae 24be
00000010: 4b98 fc3b 3c1d 06be fed1 7a3c 461d b6bd
00000020: 844b 72bd b931 c1bb 6933 4c3d f022 cb3c
00000030: 51f1 9fbd dc06 c33d c8d2 0abe 5c9b 443d
00000040: beac 463c b0ea e2bd 032a f03d 54a2 b9bc
00000050: 6573 82bd 384c 4ebe 8685 adbd 189c 083e
00000060: c308 9e3d 690f 81be d24c 10be 6daa 0c3e
00000070: 683f ecbd f42f 463d 0efc 10bd 4826 193d
00000080: dac8 9dbd 10d1 a43c 042c f03d ee04 d5bd
00000090: 929c 54be 00a4 673b e579 e73e a7a5 e83d
000000a0: 2f9a 7fbe 268d b0bd e797 f5bd 94e3 373c
000000b0: 26e5 fe3b 0927 afbd d458 433e 6872 a2bc
000000c0: cbbe 543d d340 46be 60ac 203e 64b9 0abd
000000d0: ef2e d0bc ab7b fb3d 470e 86bd 44cc f03d
000000e0: 88ef 3b3e 943f 16be d550 ecbd 00d9 1a3e
000000f0: 3fa0 703d d08a d33d e8e3 a33d 5366 7cbe
00000100: 1f5e b43d a931 2a3c b215 16be 577f a2bd
00000110: e8ed 79be 127c 34be 2f10 34be fc19 f13d
00000120: ac91 f23d df02 2abd 1b53 9f3d fd48 973c
00000130: ebb5 02be 0a10 0ebd 57d6 1dbc 09c0 57be
00000140: 20ca 693d 2392 22be 34ba 75be b080 6abd
00000150: 499d c33d c71c 3cbe 8773 6b3e 1000 2d3e
00000160: 1073 41be b8dd 73bd 8738 25bd 03a0 023e
00000170: 76a6 1b3e 0c5e 9cbd e08c 003e 7068 803d
00000180: a36c aa3c eada 07be 2fb0 2cbd 1ea1 11be
00000190: 20e5 61bd 922b b73d 477b 6e3e 6953 88bd
000001a0: 708e 163c cfcd bf3d 2f70 d9bc 6800 11be
000001b0: 62cd 953d 1c31 7bbd 17b8 313d 17bd b3bd
000001c0: cbd7 d23d 5ac3 bdbd 6205 c5bd a2e1 54be
000001d0: 2de3 1e3d d031 ec3d 5a01 adbd 4099 113c
000001e0: 5392 1d3d 1e9f 26be 4374 66be 2cf2 69be
000001f0: e79e 48be fadf 83be 47f9 f3be 722f d6bd
00000200: e0ea ca3d dfce 44be 96e2 e33d 9edc 0c3e
00000210: bbec 97bd d759 ffbd c599 bdbc 385d 2a3e
00000220: e783 e13d 31ff 493d 39a1 f03c f00d dbbc
00000230: a7f0 57be b448 983d 620b 193e 8846 bd3d
00000240: 5bef 243d 1a69 263e 8763 7ebe d3f3 303d
00000250: d533 9f3d 2c2a a6bd 98fb dfbe 44d2 433e
00000260: d459 bbbd 9ee2 e0bd 0a59 873d 748c 6fbd
00000270: e0d2 ec3d d845 8ebd 61d8 97be 7686 40be
00000280: 8a34 67be b151 dc3c 8f00 73be e731 993d
00000290: 760f 753d 6e7e 4b3e e097 353e fe52 223e
000002a0: 686b e73d bc30 113e d037 3cbd b284 d1bd
000002b0: d5b1 4dbe 8d18 30be eece a1bd 74cb 013e
000002c0: 189f e6bc 6ed2 47be 90a1 383d e05f 3c3e
000002d0: 74c2 8dbd b8a6 b63c 2c96 1ebd bc59 3a3e
000002e0: a048 d8bd 3708 cdbd 289e 20bd 6400 1fbe
000002f0: 4026 8fbb a8e4 ca3d 98ed 8b3d 969f 363e
00000300: 2952 63bd fb24 a3bc 9a50 63be b4fd ae3d
00000310: dcdf 34be c668 08bd 8a35 a6be 1001 4fbe
00000320: 5000 ad3c 5ef4 343d 4253 95bd dcef 0d3e
00000330: a8d8 8dbc d228 b4bd dda8 773e 98f2 80bd
00000340: d0ef 483d a96a debd 5920 f93d ba89 223d
00000350: c15c 833c 0cf3 ef3d 407f 1b3d 5a8b 183e
00000360: 43da b93d 73e8 093e a146 fc3d 1d7a 26bc
00000370: 6811 26bd aed1 af3d cb18 e0bd 2a82 a5be
00000380: 7c8b 1dbd e51b ddbd b00a 01be 34f4 99bd
00000390: 1b09 2c3e be9d 1bbe 87ca 7cbd 0317 a13d
000003a0: e6ad 6cbd 7cd3 5dbe cb2e 8f3d cbb4 443d
000003b0: 1cad b6bd c483 cf3d f866 e53d 4062 67bd
000003c0: 56fc 19be 4e4b 4cbe f86f 18bd 484a 5bbd
000003d0: f8e6 6bbd 0885 e93c 4747 24be 003e 9aba
000003e0: f430 283e 0224 273e 583b 86bc b88d 983d
000003f0: 24b2 f23d 3416 82bd b876 3d3e 4bbd 4ebe
0.07634016 -0.16093619 -0.004831812 -0.16082266 0.0077085844 -0.1309709 0.015308855 -0.08892302
-0.05915405 -0.00589582 0.049853716 0.024796933 -0.07809699 0.09522793 -0.13556969 0.047999725
0.012126146 -0.11079919 0.11726763 -0.022660412 -0.06369666 -0.20146263 -0.08472733 0.13340795
0.07716515 -0.2520707 -0.14091805 0.13736887 -0.11535531 0.048385575 -0.035396628 0.037390023
-0.07704325 0.02011922 0.11727145 -0.10401331 -0.20762852 0.0035345554 0.45210186 0.11359721
-0.2496116 -0.08620672 -0.11991864 0.011223692 0.0077787815 -0.08552367 0.19076854 -0.019829944
0.051939767 -0.19360666 0.15690756 -0.03386821 -0.025413005 0.12279447 -0.06545692 0.117577106
0.18353093 -0.1467269 -0.11538855 0.15121841 0.058746573 0.10329211 0.08002454 -0.24648409
0.08807015 0.0103878165 -0.14656714 -0.079344444 -0.2440716 -0.17625454 -0.17584299 0.11772534
0.11844191 -0.041506644 0.07779523 0.01846742 -0.12764709 -0.034683265 -0.009633622 -0.2106935
0.057077527 -0.15876059 -0.23996812 -0.057251632 0.09551484 -0.18370353 0.22993289 0.16894555
-0.18891549 -0.05953762 -0.04033711 0.12756352 0.15200219 -0.076351255 0.1255374 0.0626992
0.020803755 -0.13267103 -0.04216021 -0.14221618 -0.05515015 0.08943857 0.23289214 -0.06656534
0.009189233 0.09365427 -0.026542751 -0.14160311 0.07314564 -0.06132613 0.043388452 -0.087763004
0.102950655 -0.09265776 -0.09620167 -0.20789197 0.03879087 0.115329385 -0.084475234 0.008886635
0.038469624 -0.16271636 -0.22505288 -0.22846287 -0.19591866 -0.25756818 -0.4765112 -0.10458268
0.0990808 -0.1921954 0.11127202 0.13756034 -0.074182 -0.124683075 -0.023144612 0.16637123
0.110114865 0.049315635 0.029373752 -0.026740044 -0.21087895 0.07435742 0.14945748 0.092419684
0.04026733 0.1625103 -0.24842654 0.04320128 0.07773558 -0.081135124 -0.43746638 0.19123179
-0.09147993 -0.10980724 0.0660878 -0.058483556 0.11563659 -0.069469154 -0.29657272 -0.18801293
-0.22578636 0.026894422 -0.23730682 0.07480221 0.059829198 0.19872448 0.17733717 0.15851972
0.11299783 0.14178747 -0.045951664 -0.10230388 -0.20087369 -0.17196865 -0.07900797 0.12675267
-0.028152034 -0.19513866 0.045075953 0.18395948 -0.069218546 0.022296295 -0.038717434 0.18198293
-0.10560727 -0.100113325 -0.03921333 -0.15527493 -0.0043685734 0.09906894 0.06832427 0.17834315
-0.055498276 -0.019915095 -0.22198716 0.08544484 -0.1766352 -0.033303045 -0.32462722 -0.20215249
0.021118313 0.04417836 -0.07291271 0.1386103 -0.017315224 -0.08796848 0.2418551 -0.06296271
0.049056828 -0.108601876 0.12164373 0.039682128 0.01603544 0.117162794 0.037963152 0.14896908
0.09074833 0.13467579 0.12318159 -0.01016095 -0.040543944 0.08584915 -0.10942229 -0.3232587
-0.0384631 -0.10796336 -0.12601733 -0.07517281 0.16800348 -0.15196893 -0.061716583 0.07865717
-0.05778303 -0.21662706 0.06991347 0.04802398 -0.08919737 0.10132554 0.1120128 -0.056490183
-0.15037665 -0.19950601 -0.037216157 -0.053537637 -0.057593316 0.028505817 -0.16042815 -0.0011767745
0.16424924 0.1632233 -0.01638572 0.07448906 0.11850384 -0.06351891 0.18502319 -0.20189397

bias f4 [24]
00000000: be79 80bc a447 073d 0e9a d63d 2871 043e
00000010: 6f05 09bd 133b 763d eb3a 1c3d 8451 973d
00000020: ef9c dd3c 4a08 103e f8b8 0fbe a03f 1bbe
00000030: c3e7 55bd ec64 8e3d a00a f7bc d1d0 29be
00000040: 524d 23bd b576 eabd d6bc 0a3e 5be8 213e
00000050: fb12 54be b751 0e3e 962b d83d 1fbb 68be
-0.015683051 0.033027306 0.10478602 0.1293379 -0.033452448 0.06011493 0.038142126 0.07388595
0.02705237 0.14065662 -0.14035404 -0.1516099 -0.05222298 0.06952843 -0.030156434 -0.16583563
-0.03986866 -0.11448423 0.13548598 0.15811293 -0.20710365 0.13898359 0.10555188 -0.22727631

weight f4 [4, 24]
00000000: 6c32 01bb 5f2b ad3d 1455 0b3d 98dd a53b
00000010: 7552 e53c 7981 40bb c1fd 41bb 3240 e0bd
00000020: f814 fd38 d387 89ba eccc 043d afdd 9abb
00000030: b850 813c 23dc e8bd 5ea9 213a 21c5 48b9
00000040: 2f3c 50bc 13dc d9bc 8790 08ba dc81 803b
00000050: c6bb 033b a518 3239 c2ee 9d39 7367 dabb
00000060: 20b1 90b8 26b1 aabd 04ea 953d 4f93 26bc
00000070: ce99 2bbd 7a0c a0bc 790c 8abb c464 203d
00000080: 88c0 d0ba 7ca3 96bb f20f 09be e40c b9bb
00000090: 4025 423e d3cd 42bd 4d52 27ba d12b dc39
000000a0: 9b91 903d 290c 2dba 40b5 bb3b d96c 19bb
000000b0: 900a 703b 9fb9 6639 f90a 2abb 0ee8 6e3b
000000c0: 0bcd d83c 87b0 303d 4f57 46bc 4c0f 2cbd
000000d0: 5c3b 2ebb c532 f63c 2f8a 673a b05b c33d
000000e0: 8dfc ce3a e06e 37bb 52c8 93bd ba61 8cba
000000f0: fc25 1b3e 1116 aa3b c6d7 cf3a d837 f6ba
00000100: 5a59 cd3d f833 673b a13e 7b3b 490b 81bc
00000110: dfb0 90bb bf6d e3bb 78ac 0f3b 2667 473b
00000120: f198 043a 3540 b63d 98ca ac3d 03e9 b73c
00000130: b36a 6abb ed63 d5bb 24db 02bb 34bc cf3d
00000140: 4873 d2bc 72ea 2a3a 581d 653d 25c3 c4ba
00000150: 1c89 423d 34ed b83d 2c06 3fbc 9d99 bb3a
00000160: 173b 4dbb 5f77 bdb8 b35f 303c eb69 62bc
00000170: 2fb9 f838 cbc0 1836 7fc1 d4bb b191 7a3b
-0.0019713892 0.08455538 0.034016684 0.0050618164 0.02799342 -0.0029374047 -0.0029600712 -0.10949744
0.00012067886 -0.0010492749 0.03242199 -0.004726134 0.01578556 -0.11370113 0.00061669 -0.00019146923
-0.012709661 -0.026594197 -0.00052095245 0.0039217304 0.0020100935 0.00016984584 0.00030123262 -0.006665164
-6.899447e-05 -0.0833457 0.073200256 -0.010166957 -0.041894726 -0.0195372 -0.0042129126 0.039158598
-0.0015926519 -0.0045971256 -0.13384989 -0.0056472886 0.18959522 -0.04755957 -0.0006382808 0.00041994316
0.07059022 -0.0006601238 0.005728394 -0.0023410826 0.003662739 0.00022003659 -0.0025946482 0.0036454233
0.02646496 0.0431371 -0.012105777 -0.042006776 -0.0026585674 0.030053506 0.00088325416 0.095389724
0.0015791819 -0.002798967 -0.072159424 -0.0010710277 0.15151209 0.005190619 0.0015857152 -0.0018784953
0.10026808 0.0035278779 0.003833689 -0.015752451 -0.004415616 -0.006940573 0.0021922868 0.0030426471
0.00050581904 0.08898965 0.08437079 0.022449976 -0.0035769164 -0.006512156 -0.0019967044 0.10143319
-0.025689736 0.00065199204 0.055936188 -0.0015011771 0.04749404 0.09029618 -0.011659186 0.0014312748
-0.0031315738 -9.034457e-05 0.010765004 -0.013819198 0.00011860055 2.2761985e-06 -0.006492793 0.0038233812

bias f4 [4]
00000000: b1e4 a4be 3596 9bbe b3fe a0be 1aa9 90be
-0.32205728 -0.30388036 -0.3144432 -0.28254014

exp_avg f4 [24, 4]
00000000: 0400 0000 0400 0000 0400 0000 0400 0000
00000010: 0400 0080 0400 0080 0400 0080 0400 0080
00000020: 0400 0000 0400 0000 0400 0000 0400 0000
00000030: 0400 0080 0400 0080 0400 0080 0400 0080
00000040: 0400 0000 0400 0000 0400 0000 0400 0000
00000050: 0400 0080 0400 0080 0400 0080 0400 0080
00000060: 0400 0000 0400 0000 0400 0000 0400 0000
00000070: 0400 0080 0400 0080 0400 0080 0400 0080
00000080: 0000 0000 0000 0000 0000 0000 0000 0000
00000090: 0400 0080 0400 0080 0400 0080 0400 0080
000000a0: 0400 0000 0400 0000 0400 0000 0400 0000
000000b0: 0000 0000 0000 0000 0000 0000 0000 0000
000000c0: 0400 0000 0400 0000 0400 0000 0400 0000
000000d0: 0000 0000 0000 0000 0000 0000 0000 0000
000000e0: 0400 0080 0400 0080 0400 0080 0400 0080
000000f0: 0400 0080 0400 0080 0400 0080 0400 0080
00000100: 0400 0080 0400 0080 0400 0080 0400 0080
00000110: 0400 0080 0400 0080 0400 0080 0400 0080
00000120: 0400 0000 0400 0000 0400 0000 0400 0000
00000130: 0400 0080 0400 0080 0400 0080 0400 0080
00000140: 0400 0000 0400 0000 0400 0000 0400 0000
00000150: 0000 0000 0000 0000 0000 0000 0000 0000
00000160: 0000 0000 0000 0000 0000 0000 0000 0000
00000170: 0000 0000 0000 0000 0000 0000 0000 0000
6e-45 6e-45 6e-45 6e-45 -6e-45 -6e-45 -6e-45 -6e-45
6e-45 6e-45 6e-45 6e-45 -6e-45 -6e-45 -6e-45 -6e-45
6e-45 6e-45 6e-45 6e-45 -6e-45 -6e-45 -6e-45 -6e-45
6e-45 6e-45 6e-45 6e-45 -6e-45 -6e-45 -6e-45 -6e-45
0.0 0.0 0.0 0.0 -6e-45 -6e-45 -6e-45 -6e-45
6e-45 6e-45 6e-45 6e-45 0.0 0.0 0.0 0.0
6e-45 6e-45 6e-45 6e-45 0.0 0.0 0.0 0.0
-6e-45 -6e-45 -6e-45 -6e-45 -6e-45 -6e-45 -6e-45 -6e-45
-6e-45 -6e-45 -6e-45 -6e-45 -6e-45 -6e-45 -6e-45 -6e-45
6e-45 6e-45 6e-45 6e-45 -6e-45 -6e-45 -6e-45 -6e-45
6e-45 6e-45 6e-45 6e-45 0.0 0.0 0.0 0.0
0.0 0.0 0.0 0.0 0.0 0.0 0.0 0.0

exp_avg_sq f4 [24, 4]
00000000: 3bf9 2f42 8fcc d53e b08b ab3e 88bb b141
00000010: 2080 7041 cf00 af3d 4480 aa3d f063 4641
00000020: cf2f b83e 26c2 663d 0e4e 943c e6c2 ef3f
00000030: de81 be3f 3283 f13d 4bc4 153d 0276 2a41
00000040: 9114 0142 4f05 ca3e 1a42 983e 8565 2041
00000050: d27f 433f 89e8 3b3d b4c4 e73c 50df 233f
00000060: 74f1 4a40 420e e03d 66c7 0f3d 2b05 d63d
00000070: 5512 a141 7039 9e3e 1c2c 063e ec9d 9640
00000080: 0000 0000 0000 0000 0000 0000 0000 0000
00000090: 1706 9d40 e88f 763b dcf7 333d 1562 5c41
000000a0: deae 3142 b5ec ca3e b760 ba3e c0e1 b341
000000b0: 0000 0000 0000 0000 0000 0000 0000 0000
000000c0: a0f4 1441 a7cb ac3d b740 c03d 9cd8 ae40
000000d0: 0000 0000 0000 0000 0000 0000 0000 0000
000000e0: a882 3239 caad 5036 4d7b 5738 3335 0d3d
000000f0: cbd6 1f3f cd59 ce3b f7a6 023c 35b4 833f
00000100: be04 a340 5028 373e f344 a33d 77e8 b040
00000110: aaf6 3f41 f0c2 5f3e 7a34 fc3d 1e6e 3f40
00000120: 0eb3 7542 cdeb 383f 811a c93e cdc3 6241
00000130: c915 0640 1362 343d 58fc 073d b526 8240
00000140: ade1 5f41 48fb 2b3e 923d d23d d864 c440
00000150: 0000 0000 0000 0000 0000 0000 0000 0000
00000160: 0000 0000 0000 0000 0000 0000 0000 0000
00000170: 0000 0000 0000 0000 0000 0000 0000 0000
43.99339 0.41757628 0.3350501 22.216568 15.0312805 0.08545076 0.08325246 12.399399
0.35973975 0.056337498 0.018103626 1.8731353 1.4883382 0.11792602 0.036564153 10.6538105
32.270084 0.39457175 0.2973793 10.024785 0.76366913 0.04587606 0.028292038 0.6401262
3.1709871 0.109402195 0.03510227 0.104502045 20.133951 0.30903196 0.13102764 4.7067776
0.0 0.0 0.0 0.0 4.9069934 0.0037622396 0.04393755 13.773946
44.42077 0.39633718 0.36401913 22.48523 0.0 0.0 0.0 0.0
9.309723 0.08437281 0.093873434 5.4639416 0.0 0.0 0.0 0.0
0.00017024076 3.1095574e-06 5.1374827e-05 0.034474563 0.62437123 0.006297326 0.007974378 1.028937
5.094329 0.17886472 0.079721354 5.528377 11.997721 0.21851707 0.123146966 2.991096
61.42486 0.72234803 0.39278033 14.172803 2.0950797 0.044038843 0.033199638 4.067225
13.992597 0.16795075 0.1026565 6.13731 0.0 0.0 0.0 0.0
0.0 0.0 0.0 0.0 0.0 0.0 0.0 0.0

exp_avg f4 [24]
00000000: 0400 0000 0400 0080 0400 0000 0400 0080
00000010: 0400 0000 0400 0080 0400 0000 0400 0080
00000020: 0000 0000 0400 0080 0400 0000 0000 0000
00000030: 0400 0000 0000 0000 0400 0080 0400 0080
00000040: 0400 0080 0400 0080 0400 0000 0400 0080
00000050: 0400 0000 0000 0000 0000 0000 0000 0000
6e-45 -6e-45 6e-45 -6e-45 6e-45 -6e-45 6e-45 -6e-45
0.0 -6e-45 6e-45 0.0 6e-45 0.0 -6e-45 -6e-45
-6e-45 -6e-45 6e-45 -6e-45 6e-45 0.0 0.0 0.0

exp_avg_sq f4 [24]
00000000: 6a75 7128 69b2 c027 9be1 f525 9f88 0927
00000010: d46b 2128 8871 c525 de00 4126 568d b827
00000020: 0000 0000 beb9 6527 42ea 7328 0000 0000
00000030: fcdc 6027 0000 0000 2844 9d22 aa39 c325
00000040: e79f 2327 6fca 6727 ab15 8c28 49c3 a026
00000050: 5b23 9027 0000 0000 0000 0000 0000 0000
1.34036476e-14 5.3484138e-15 4.2653601e-16 1.9086632e-15 8.960677e-15 3.4250984e-16 6.69615e-16 5.1223496e-15
0.0 3.1880825e-15 1.3540006e-14 0.0 3.120604e-15 0.0 4.26271e-18 3.3866182e-16
2.2707477e-15 3.216743e-15 1.555252e-14 1.1155162e-15 4.000636e-15 0.0 0.0 0.0

exp_avg f4 [24, 24]
00000000: 0400 0000 0400 0000 0400 0000 0400 0000
00000010: 0400 0000 0400 0000 0400 0000 0400 0000
00000020: 0000 0000 0400 0000 0400 0000 0000 0000
00000030: 0400 0000 0000 0000 0400 0000 0400 0000
00000040: 0400 0000 0400 0000 0400 0000 0400 0000
00000050: 0400 0000 0000 0000 0000 0000 0000 0000
00000060: 0400 0000 0400 0000 0400 0000 0400 0000
00000070: 0400 0000 0400 0080 0400 0000 0400 0000
00000080: 0000 0000 0400 0000 0400 0000 0000 0000
00000090: 0400 0000 0000 0000 0400 0000 0400 0000
000000a0: 0400 0000 0400 0000 0400 0000 0400 0000
000000b0: 0400 0000 0000 0000 0000 0000 0000 0000
000000c0: 0400 0080 0400 0000 0000 0000 0400 0000
000000d0: 0400 0000 0400 0000 0400 0000 0400 0000
000000e0: 0000 0000 0400 0000 0400 0080 0000 0000
000000f0: 0400 0000 0000 0000 0000 0000 0400 0000
00000100: 0400 0080 0400 0000 0400 0000 0400 0000
00000110: 0400 0000 0000 0000 0000 0000 0000 0000
00000120: 0400 0000 0400 0000 0400 0000 0400 0000
00000130: 0400 0000 0400 0000 0400 0000 0400 0000
00000140: 0000 0000 0400 0080 0400 0000 0000 0000
00000150: 0400 0000 0000 0000 0400 0000 0400 0000
00000160: 0400 0000 0400 0000 0400 0000 0400 0000
00000170: 0400 0000 0000 0000 0000 0000 0000 0000
00000180: 0400 0000 0400 0000 0400 0000 0400 0000
00000190: 0400 0000 0400 0000 0400 0080 0400 0080
000001a0: 0000 0000 0400 0000 0400 0000 0000 0000
000001b0: 0400 0000 0000 0000 0400 0000 0400 0000
000001c0: 0400 0000 0400 0000 0400 0000 0400 0000
000001d0: 0400 0000 0000 0000 0000 0000 0000 0000
000001e0: 0400 0000 0400 0000 0400 0000 0400 0000
000001f0: 0400 0000 0400 0000 0400 0000 0400 0000
00000200: 0000 0000 0400 0000 0400 0000 0000 0000
00000210: 0400 0000 0000 0000 0400 0000 0400 0000
00000220: 0400 0000 0400 0000 0400 0000 0400 0000
00000230: 0400 0000 0000 0000 0000 0000 0000 0000
00000240: 0400 0000 0400 0000 0400 0000 0400 0000
00000250: 0400 0000 0400 0000 0400 0000 0400 0000
00000260: 0000 0000 0400 0000 0400 0000 0000 0000
00000270: 0400 0000 0000 0000 0400 0000 0400 0000
00000280: 0400 0000 0400 0000 0400 0000 0400 0000
00000290: 0400 0000 0000 0000 0000 0000 0000 0000
000002a0: 0000 0000 0000 0000 0000 0000 0000 0000
000002b0: 0000 0000 0000 0000 0000 0000 0000 0000
000002c0: 0000 0000 0000 0000 0000 0000 0000 0000
000002d0: 0000 0000 0000 0000 0000 0000 0000 0000
000002e0: 0000 0000 0000 0000 0000 0000 0000 0000
000002f0: 0000 0000 0000 0000 0000 0000 0000 0000
00000300: 0400 0000 0400 0000 0400 0000 0400 0000
00000310: 0400 0000 0400 0000 0400 0000 0400 0000
00000320: 0000 0000 0400 0000 0400 0000 0000 0000
00000330: 0400 0000 0000 0000 0400 0000 0400 0000
00000340: 0400 0000 0400 0000 0400 0000 0400 0000
00000350: 0400 0000 0000 0000 0000 0000 0000 0000
00000360: 0400 0000 0400 0000 0400 0000 0400 0000
00000370: 0400 0000 0400 0080 0400 0000 0400 0080
00000380: 0000 0000 0400 0000 0400 0000 0000 0000
00000390: 0400 0080 0000 0000 0400 0000 0400 0080
000003a0: 0400 0000 0400 0000 0400 0000 0400 0000
000003b0: 0400 0000 0000 0000 0000 0000 0000 0000
000003c0: 0000 0000 0000 0000 0000 0000 0000 0000
000003d0: 0000 0000 0000 0000 0000 0000 0000 0000
000003e0: 0000 0000 0000 0000 0000 0000 0000 0000
000003f0: 0000 0000 0000 0000 0000 0000 0000 0000
6e-45 6e-45 6e-45 6e-45 6e-45 6e-45 6e-45 6e-45
0.0 6e-45 6e-45 0.0 6e-45 0.0 6e-45 6e-45
6e-45 6e-45 6e-45 6e-45 6e-45 0.0 0.0 0.0
6e-45 6e-45 6e-45 6e-45 6e-45 -6e-45 6e-45 6e-45
0.0 6e-45 6e-45 0.0 6e-45 0.0 6e-45 6e-45
6e-45 6e-45 6e-45 6e-45 6e-45 0.0 0.0 0.0
-6e-45 6e-45 0.0 6e-45 6e-45 6e-45 6e-45 6e-45
0.0 6e-45 -6e-45 0.0 6e-45 0.0 0.0 6e-45
-6e-45 6e-45 6e-45 6e-45 6e-45 0.0 0.0 0.0
6e-45 6e-45 6e-45 6e-45 6e-45 6e-45 6e-45 6e-45
0.0 -6e-45 6e-45 0.0 6e-45 0.0 6e-45 6e-45
6e-45 6e-45 6e-45 6e-45 6e-45 0.0 0.0 0.0
6e-45 6e-45 6e-45 6e-45 6e-45 6e-45 -6e-45 -6e-45
0.0 6e-45 6e-45 0.0 6e-45 0.0 6e-45 6e-45
6e-45 6e-45 6e-45 6e-45 6e-45 0.0 0.0 0.0
6e-45 6e-45 6e-45 6e-45 6e-45 6e-45 6e-45 6e-45
0.0 6e-45 6e-45 0.0 6e-45 0.0 6e-45 6e-45
6e-45 6e-45 6e-45 6e-45 6e-45 0.0 0.0 0.0
6e-45 6e-45 6e-45 6e-45 6e-45 6e-45 6e-45 6e-45
0.0 6e-45 6e-45 0.0 6e-45 0.0 6e-45 6e-45
6e-45 6e-45 6e-45 6e-45 6e-45 0.0 0.0 0.0
0.0 0.0 0.0 0.0 0.0 0.0 0.0 0.0
0.0 0.0 0.0 0.0 0.0 0.0 0.0 0.0
0.0 0.0 0.0 0.0 0.0 0.0 0.0 0.0
6e-45 6e-45 6e-45 6e-45 6e-45 6e-45 6e-45 6e-45
0.0 6e-45 6e-45 0.0 6e-45 0.0 6e-45 6e-45
6e-45 6e-45 6e-45 6e-45 6e-45 0.0 0.0 0.0
6e-45 6e-45 6e-45 6e-45 6e-45 -6e-45 6e-45 -6e-45
0.0 6e-45 6e-45 0.0 -6e-45 0.0 6e-45 -6e-45
6e-45 6e-45 6e-45 6e-45 6e-45 0.0 0.0 0.0
0.0 0.0 0.0 0.0 0.0 0.0 0.0 0.0
0.0 0.0 0.0 0.0 0.0 0.0 0.0 0.0

exp_avg_sq f4 [24, 24]
00000000: 88a3 f73a 9e1c a83a 1552 ca39 593b 2f39
00000010: c028 973a 82a2 8a37 dae1 5233 c5a4 5134
00000020: 0000 0000 3bdd b539 50a6 de3a 0000 0000
00000030: 523c ea36 0000 0000 181c ab37 9371 e134
00000040: f603 a13b dc97 b534 1419 f534 2594 8938
00000050: 33d7 f738 0000 0000 0000 0000 0000 0000
00000060: 462f e631 c6c9 b12d ce3f d131 4939 9831
00000070: 08ce 5b30 dbaa a12e e309 322e da4a 852f
00000080: 0000 0000 a6f3 c02d e53e 9c31 0000 0000
00000090: 2186 f82f 0000 0000 c90a b32d 3080 e52f
000000a0: e5bb 3f32 4c3d 5b2f 2294 b42f 8ab8 5e30
000000b0: 3c4f 5a32 0000 0000 0000 0000 0000 0000
000000c0: 38c2 5c2d 4e72 472a 0000 0000 4b31 a621
000000d0: 9272 2535 6d81 f835 2696 ff34 ac63 dc35
000000e0: 0000 0000 30c6 2329 fc82 0129 0000 0000
000000f0: 7753 bc35 0000 0000 0000 0000 2b71 b335
00000100: 4df9 4b2e be76 6736 a4b5 8636 a6f2 9e32
00000110: ce8d b834 0000 0000 0000 0000 0000 0000
00000120: 04eb 0a34 e221 9c30 5112 9833 972b 6933
00000130: 9d0a 2533 fbad 3c32 6bfb 9b30 f53d 3032
00000140: 0000 0000 bfd8 682f bf26 b433 0000 0000
00000150: 4cad 1933 0000 0000 1a04 c62d a49b 9b32
00000160: 63c7 8434 786a 4133 0474 9132 99c8 bb32
00000170: 1ef8 7934 0000 0000 0000 0000 0000 0000
00000180: b4f9 ac3e 7e07 803e 2ddd 983d a92e 1a3d
00000190: edd5 473e c185 813a 9cba 9632 5ae0 3a33
000001a0: 0000 0000 2545 823d 97fc a53e 0000 0000
000001b0: 056d 723a 0000 0000 92a1 d93a 9c9b 9c38
000001c0: a7e7 623f 41c4 a039 6e29 1837 d1c8 313c
000001d0: 8a76 7d3c 0000 0000 0000 0000 0000 0000
000001e0: 425e b73d 13d0 923d adde ac3c 49dd 633c
000001f0: c7e0 133d 2624 5334 24d8 792c 526b d72e
00000200: 0000 0000 df68 b63c c291 e23d 0000 0000
00000210: 172d 4133 0000 0000 d909 ce34 81b6 ba33
00000220: cb85 863e bb62 fd33 197d 9531 a52c 883b
00000230: 7ef1 ad35 0000 0000 0000 0000 0000 0000
00000240: 922f f03f 7d0a c23f 7952 2f3b 2ea0 233e
00000250: 0074 2040 dfa3 ae3e cc85 ab2c 3617 5f30
00000260: 0000 0000 968f 893e 4b30 ec3f 0000 0000
00000270: 7b15 a13e 0000 0000 8ca8 3a2a 1969 443c
00000280: 0a2b ac40 ac6b d93e 9173 8532 16e9 073e
00000290: 9048 283e 0000 0000 0000 0000 0000 0000
000002a0: 0000 0000 0000 0000 0000 0000 0000 0000
000002b0: 0000 0000 0000 0000 0000 0000 0000 0000
000002c0: 0000 0000 0000 0000 0000 0000 0000 0000
000002d0: 0000 0000 0000 0000 0000 0000 0000 0000
000002e0: 0000 0000 0000 0000 0000 0000 0000 0000
000002f0: 0000 0000 0000 0000 0000 0000 0000 0000
00000300: 64cb c13c 8365 5c38 f462 8f3a a83e 313c
00000310: 60e4 a53c cbf0 4e3a ec46 3434 81a3 b938
00000320: 0000 0000 c76f 5a37 90c8 f83c 0000 0000
00000330: 5769 b03a 0000 0000 9d28 2734 0181 753c
00000340: 8cf2 6d3d 6918 223d 64b8 cd3c 7658 bb3b
00000350: 1774 f03c 0000 0000 0000 0000 0000 0000
00000360: 1f99 0738 b628 a337 0cc2 af36 ef6c bb35
00000370: 2a82 d837 2c0f 4336 63d4 dd26 b6c3 012d
00000380: 0000 0000 015d b936 2088 d737 0000 0000
00000390: e399 b535 0000 0000 cbc1 2734 b6f3 3332
000003a0: b121 af38 a218 fd32 59e3 b030 c354 9135
000003b0: a1e4 a036 0000 0000 0000 0000 0000 0000
000003c0: 0000 0000 0000 0000 0000 0000 0000 0000
000003d0: 0000 0000 0000 0000 0000 0000 0000 0000
000003e0: 0000 0000 0000 0000 0000 0000 0000 0000
000003f0: 0000 0000 0000 0000 0000 0000 0000 0000
0.0018893341 0.0012825911 0.00038589598 0.00016711409 0.001153253 1.6526556e-05 4.9099846e-08 1.9524585e-07
0.0 0.0003468784 0.0016986821 0.0 6.9807656e-06 0.0 2.039787e-05 4.1992152e-07
0.0049138023 3.382437e-07 4.5653053e-07 6.560263e-05 0.00011817962 0.0 0.0 0.0
6.6992554e-09 2.0212176e-11 6.0899543e-09 4.430295e-09 7.9964524e-10 7.3517824e-11 4.0481295e-11 2.4245744e-10
0.0 2.1936074e-11 4.547348e-09 0.0 4.5206242e-10 0.0 2.0354734e-11 4.174594e-10
1.11603855e-08 1.9939711e-10 3.2847064e-10 8.1025375e-10 1.2707286e-08 0.0 0.0 0.0
1.2548677e-11 1.7714408e-13 0.0 1.1261645e-18 6.163401e-07 1.8515108e-06 4.76067e-07 1.6420286e-06
0.0 3.636517e-14 2.8757365e-14 0.0 1.4031383e-06 0.0 0.0 1.3369475e-06
4.637828e-11 3.44908e-06 4.014657e-06 1.8503965e-08 3.4375847e-07 0.0 0.0 0.0
1.293775e-07 1.1360124e-09 7.081383e-08 5.4289185e-08 3.842671e-08 1.0982599e-08 1.1349192e-09 1.0258636e-08
0.0 2.1177281e-10 8.388951e-08 0.0 3.57807e-08 0.0 2.2511815e-11 1.8115152e-08
2.473199e-07 4.5033147e-08 1.693298e-08 2.1860886e-08 2.3280197e-07 0.0 0.0 0.0
0.33784258 0.25005716 0.07464061 0.037642155 0.195152 0.0009881781 1.7547158e-08 4.3510546e-08
0.0 0.063608445 0.32419273 0.0 0.00092478126 0.0 0.0016603938 7.467644e-05
0.88634723 0.000306638 9.069552e-06 0.010851101 0.015470156 0.0 0.0 0.0
0.08953525 0.07168593 0.021102274 0.013907739 0.036103036 1.9664057e-07 3.550501e-12 9.796132e-11
0.0 0.022266803 0.11062957 0.0 4.4977323e-08 0.0 3.8377655e-07 8.694497e-08
0.2627395 1.17991895e-07 4.3506927e-09 0.0041557127 1.2959788e-06 0.0 0.0 0.0
1.8764517 1.5159451 0.0026752038 0.15979072 2.50708 0.341094 4.8749667e-12 8.115991e-10
0.0 0.2686736 1.8452238 0.0 0.314617 0.0 1.6578595e-13 0.011987948
5.380254 0.4246496 1.5535791e-08 0.13272509 0.1643393 0.0 0.0 0.0
0.0 0.0 0.0 0.0 0.0 0.0 0.0 0.0
0.0 0.0 0.0 0.0 0.0 0.0 0.0 0.0
0.0 0.0 0.0 0.0 0.0 0.0 0.0 0.0
0.023656555 5.2546628e-05 0.0010939525 0.010818161 0.0202505 0.00078941573 1.6789608e-07 8.8519424e-05
0.0 1.3019838e-05 0.030369073 0.0 0.0013459128 0.0 1.5567862e-07 0.01498437
0.05809264 0.03957406 0.025112338 0.0057173325 0.029352231 0.0 0.0 0.0
3.2329113e-05 1.9450072e-05 5.2379964e-06 1.396429e-06 2.5809819e-05 2.9066096e-06 1.5392523e-15 7.376258e-12
0.0 5.5242567e-06 2.5693385e-05 0.0 1.3530338e-06 0.0 1.5623588e-07 1.0474585e-08
8.350926e-05 2.9464278e-08 1.2870301e-09 1.0828011e-06 4.7949875e-06 0.0 0.0 0.0
0.0 0.0 0.0 0.0 0.0 0.0 0.0 0.0
0.0 0.0 0.0 0.0 0.0 0.0 0.0 0.0

exp_avg f4 [24]
00000000: 0400 0000 0400 0000 0400 0000 0400 0000
00000010: 0400 0000 0400 0000 0400 0000 0000 0000
00000020: 0400 0000 0400 0000 0000 0000 0400 0000
00000030: 0400 0000 0400 0000 0400 0000 0400 0000
00000040: 0400 0000 0400 0000 0400 0000 0400 0000
00000050: 0400 0000 0400 0000 0400 0000 0400 0000
6e-45 6e-45 6e-45 6e-45 6e-45 6e-45 6e-45 0.0
6e-45 6e-45 0.0 6e-45 6e-45 6e-45 6e-45 6e-45
6e-45 6e-45 6e-45 6e-45 6e-45 6e-45 6e-45 6e-45

exp_avg_sq f4 [24]
00000000: e0ef 0323 f54c ab1a f381 0a1d 939a eb1c
00000010: 67ab c726 1a1c e425 3061 a428 0000 0000
00000020: 6a0a 7e26 0a75 1220 0000 0000 98b8 db2a
00000030: efb4 d410 acf0 3119 7ec9 4929 bfcf da22
00000040: 9f29 cd11 ceca 1b27 87ff 4a29 a9a0 591e
00000050: 8ac1 6b21 a69c 7724 2cef d828 006a 1627
7.15232e-18 7.0848273e-23 1.833133e-21 1.5590952e-21 1.3854858e-15 3.9570738e-16 1.8249806e-14 0.0
8.8138066e-16 1.2405406e-19 0.0 3.9030302e-13 8.389803e-29 9.199289e-24 4.4805732e-14 5.930898e-18
3.2368948e-28 2.1620512e-15 4.5074645e-14 1.1521108e-20 7.9877244e-19 5.3692274e-17 2.4084542e-14 2.0874144e-15

exp_avg f4 [4, 24]
00000000: 0400 0080 0400 0000 0400 0080 0400 0000
00000010: 0400 0080 0400 0000 0400 0000 0000 0000
00000020: 0400 0000 0400 0080 0000 0000 0400 0000
00000030: 0400 0080 0400 0080 0400 0080 0400 0080
00000040: 0400 0000 0400 0000 0400 0000 0400 0000
00000050: 0400 0080 0400 0000 0400 0000 0400 0000
00000060: 0400 0000 0400 0080 0400 0000 0400 0000
00000070: 0400 0080 0400 0000 0400 0000 0000 0000
00000080: 0400 0000 0400 0080 0000 0000 0400 0000
00000090: 0400 0080 0400 0080 0400 0000 0400 0080
000000a0: 0400 0000 0400 0000 0400 0080 0400 0080
000000b0: 0400 0080 0400 0080 0400 0000 0400 0000
000000c0: 0400 0080 0400 0000 0400 0000 0400 0080
000000d0: 0400 0080 0400 0080 0400 0000 0000 0000
000000e0: 0400 0000 0400 0080 0000 0000 0400 0000
000000f0: 0400 0000 0400 0080 0400 0080 0400 0000
00000100: 0400 0000 0400 0000 0400 0080 0400 0080
00000110: 0400 0000 0400 0000 0400 0080 0400 0000
00000120: 0400 0000 0400 0000 0400 0000 0400 0000
00000130: 0400 0000 0400 0000 0400 0000 0000 0000
00000140: 0400 0000 0400 0080 0000 0000 0400 0000
00000150: 0400 0080 0400 0000 0400 0000 0400 0080
00000160: 0400 0000 0400 0000 0400 0080 0400 0080
00000170: 0400 0000 0400 0080 0400 0000 0400 0000
-6e-45 6e-45 -6e-45 6e-45 -6e-45 6e-45 6e-45 0.0
6e-45 -6e-45 0.0 6e-45 -6e-45 -6e-45 -6e-45 -6e-45
6e-45 6e-45 6e-45 6e-45 -6e-45 6e-45 6e-45 6e-45
6e-45 -6e-45 6e-45 6e-45 -6e-45 6e-45 6e-45 0.0
6e-45 -6e-45 0.0 6e-45 -6e-45 -6e-45 6e-45 -6e-45
6e-45 6e-45 -6e-45 -6e-45 -6e-45 -6e-45 6e-45 6e-45
-6e-45 6e-45 6e-45 -6e-45 -6e-45 -6e-45 6e-45 0.0
6e-45 -6e-45 0.0 6e-45 6e-45 -6e-45 -6e-45 6e-45
6e-45 6e-45 -6e-45 -6e-45 6e-45 6e-45 -6e-45 6e-45
6e-45 6e-45 6e-45 6e-45 6e-45 6e-45 6e-45 0.0
6e-45 -6e-45 0.0 6e-45 -6e-45 6e-45 6e-45 -6e-45
6e-45 6e-45 -6e-45 -6e-45 6e-45 -6e-45 6e-45 6e-45

exp_avg_sq f4 [4, 24]
00000000: 93ab e639 ffc4 bd30 f3ee 0531 e577 8136
00000010: dc4b 6d3d 3662 a537 9fe4 3d40 0000 0000
00000020: 4a85 f939 4bb6 ec37 0000 0000 677d f740
00000030: 707b f825 6daa 532d 8e39 0a3e 41f7 343a
00000040: 0b7a 7c26 1acc 6a3f f363 a541 d896 2536
00000050: 4911 063a 640b 873c 4cb8 ee3e 04b7 3e41
00000060: 9a25 2d3a 530d 1b28 059c 4432 5e9f 9c2f
00000070: 627c 273c c12c 1338 5944 1e41 0000 0000
00000080: 6700 d338 f533 9437 0000 0000 fcf5 a944
00000090: ee1b 4821 1429 572e 9f99 0443 2d1b 203b
000000a0: 292e c725 3a82 c13d ce84 ee41 92aa e136
000000b0: 8a96 073c 6cd3 5f3d cdda 1543 0b05 863a
000000c0: f89b 9c3a 22f6 552c 6f37 7c31 fcf8 6f31
000000d0: e4cd 043c 98e8 d73b 98f3 2541 0000 0000
000000e0: ad34 da3a 1351 2437 0000 0000 b1ce 2c44
000000f0: 8e3d 1425 5f16 0f2e f981 5c42 d129 d33a
00000100: 3e19 ab25 0361 a93e 138c ca41 85f4 0e36
00000110: b94a ee3a cd14 823d 203a 9642 d3f5 223c
00000120: 0f53 f339 45b1 fe2c 2c83 2132 3313 8433
00000130: e3da bc3b 0efe 8437 65be 7f40 0000 0000
00000140: 6020 1240 0dbe 4a37 0000 0000 506d bb42
00000150: aca2 4922 6ba9 792e e05e 5640 8f26 873a
00000160: cc08 b026 872f ed3d a3e1 b641 b267 6c36
00000170: 1d9c aa3a 5eca 7f3c b75d 8d41 44ea dc3b
0.0004399685 1.380755e-09 1.9489874e-09 3.858457e-06 0.057933673 1.9715266e-05 2.967079 0.0
0.0004759229 2.821828e-05 0.0 7.734058 4.3104787e-16 1.20318035e-11 0.13498518 0.0006903299
8.759546e-16 0.91717684 20.673803 2.4674719e-06 0.000511427 0.016484924 0.46624982 11.919682
0.00066050293 8.607118e-15 1.1444176e-08 2.8489472e-10 0.010222526 3.508921e-05 9.891686 0.0
0.00010061339 1.766717e-05 0.0 1359.687 6.77996e-19 4.8921825e-11 132.60008 0.002443026
3.4552277e-16 0.09448667 29.814846 6.7253795e-06 0.008275637 0.054644987 149.85469 0.0010224892
0.0011948338 3.0405752e-12 3.6702337e-09 3.4920609e-09 0.008105729 0.0065890066 10.371971 0.0
0.0016647779 9.794038e-06 0.0 691.22955 1.2857809e-16 3.2534305e-11 55.126926 0.0016110485
2.9680876e-16 0.33081827 25.318396 2.1301978e-06 0.0018180228 0.06351624 75.113525 0.009946304
0.00046410455 7.238795e-12 9.401258e-09 6.150221e-08 0.005763398 1.585393e-05 3.9959958 0.0
2.283226 1.2084388e-05 0.0 93.7135 2.7326697e-18 5.676652e-11 3.3495407 0.0010311174
1.2214838e-15 0.11581331 22.860174 3.52271e-06 0.0013016496 0.015612213 17.67076 0.006741794

exp_avg f4 [4]
00000000: e087 8bb7 22cf fd38 64b7 06b7 75bf cab9
-1.6633363e-05 0.000121025616 -8.029721e-06 -0.0003867109

exp_avg_sq f4 [4]
00000000: 32f9 8d34 3743 8235 7045 3b34 58c3 4934
2.644461e-07 9.705317e-07 1.7440993e-07 1.879065e-07
