test_model/covid19.pth (torch, 16239 bytes, 18 tensors)

weight f4 [24, 4]
0	0x3989c8fa	0.00026280415
1	0x3e63ee86	0.22258958
2	0x3e604ebb	0.21905033
3	0x3e974627	0.2954571
4	0x3c679dc2	0.0141367335
5	0xbeba2baa	-0.36361438
6	0x3e576b87	0.21037112
7	0x3e28c362	0.16480783
8	0xbe4c4978	-0.19949901
9	0x3e0c1dd5	0.13683255
10	0xbe50f35b	-0.20405333
11	0x3e370ff3	0.17877178
12	0xbdd4f31f	-0.10397934
13	0x3eaf4f93	0.34240398
14	0x3eaaeb3c	0.33382595
15	0x3d00d1e2	0.03145016
16	0x3e88b39f	0.2669954
17	0x3d19941d	0.037494767
18	0x3e9f4df1	0.31114152
19	0x3e623fb3	0.22094612
20	0x3edd22b0	0.43190527
21	0xbe40b1ea	-0.18817869
22	0xbeaa7d29	-0.33298615
23	0x3daaa86b	0.083329044
24	0x3e0fd75b	0.14046995
25	0x3e8f20cc	0.2795471
26	0xbf028cb8	-0.5099597
27	0xbee812d0	-0.45326853
28	0x3ea19bd0	0.31564188
29	0x3ee23a3c	0.44185054
30	0xbe6e6af4	-0.23282987
31	0xbecb0982	-0.3965569
32	0xbecc5f9e	-0.399167
33	0xbdf35da8	-0.11883098
34	0xbe824478	-0.25442863
35	0xbdee8710	-0.11646855
36	0x3bf69080	0.00752455
37	0xbe2b95be	-0.16756341
38	0x3d945640	0.072430134
39	0x3e0fbef4	0.14037687
40	0xbcad4454	-0.021150745
41	0x3e4424ee	0.19154713
42	0x3da4c3d2	0.08045162
43	0x3e69b1ae	0.22821686
44	0xbeaf9b04	-0.34297955
45	0x3e151cc8	0.1456176
46	0xbea76966	-0.326976
47	0xbd998888	-0.074967444
48	0x3ebbe33a	0.36696798
49	0xbd843a36	-0.06456415
50	0x3e3b1aa7	0.18271886
51	0xbc59614a	-0.013267824
52	0xbead215a	-0.33814508
53	0xbeef2262	-0.4670592
54	0xbebac114	-0.36475432
55	0xbe9c1704	-0.3048631
56	0xbe151714	-0.14559585
57	0xbddef6db	-0.10886928
58	0x3e18cf9e	0.1492295
59	0x3d78bf7b	0.060729485
60	0x3ea7540c	0.3268131
61	0xbe10c7df	-0.14138745
62	0x3ef5d387	0.48012945
63	0xbe00d702	-0.12582019
64	0x3a79eccc	0.00095338817
65	0x3de8f5cc	0.11375007
66	0x3ecb1014	0.39660704
67	0x3ec80ca7	0.39072153
68	0x3ef48689	0.47758892
69	0xbeabb2ab	-0.3353475
70	0xbe1063db	-0.14100592
71	0xbe1a1dc6	-0.1505042
72	0x3efa1ffa	0.4885252
73	0x3ed8e44e	0.42361683
74	0xbed42d01	-0.41440585
75	0xbeb41d23	-0.3517848
76	0x3d186bd6	0.037212215
77	0x3e993e1b	0.29930195
78	0x3e3a4403	0.18190007
79	0x3d0dea44	0.03464724
80	0x3e892211	0.26783803
81	0x3e8ff2de	0.2811498
82	0x3e4aa7eb	0.19790618
83	0x3dc35bbb	0.095389806
84	0xbef468e8	-0.47736287
85	0x3e29f6c4	0.1659804
86	0x3e1f91b0	0.15582919
87	0xbee035c4	-0.4379102
88	0xbed67c14	-0.4189154
89	0x3e3f5828	0.18685973
90	0x3e74a81c	0.23892254
91	0xbee7950c	-0.452309
92	0xbd7a8e10	-0.061170638
93	0x3c05a580	0.008157134
94	0xbed25834	-0.4108292
95	0xbed58648	-0.4170401

bias f4 [24]
0	0x3ef1d146	0.47229975
1	0xbedf686f	-0.43634364
2	0x3f00734c	0.5017593
3	0x3ef3c25d	0.47609225
4	0x3d8a27b2	0.067458525
5	0xbddb7708	-0.10716063
6	0x3d321897	0.043480482
7	0x3ec6eaac	0.38850915
8	0x3e71307c	0.23553652
9	0xbe941d1b	-0.28928456
10	0xbb008e90	-0.0019616224
11	0xbc8e3d00	-0.017363071
12	0xbdc8d5b2	-0.09806384
13	0x3e6a6734	0.22890931
14	0x3ee1aca9	0.44077042
15	0x3ee55411	0.447907
16	0xbe808af6	-0.2510602
17	0xbea2d839	-0.3180559
18	0x3d294846	0.04132869
19	0xbca36b9d	-0.019948775
20	0x3eadb683	0.33928308
21	0x3d3619a0	0.04445803
22	0x3ea4ae6c	0.32164323
23	0x3ea63462	0.3246184

weight f4 [24, 24]
0	0x3dfbb5e0	0.12290549
1	0xbdec25cf	-0.11530649
2	0x3ce3b075	0.027794102
3	0xbe1c27f7	-0.1524962
4	0x3d447913	0.047967028
5	0xbe036a85	-0.12833603
6	0x3e3b0393	0.18263082
7	0xbdb3dd1d	-0.087824084
8	0xbd724b84	-0.05915405
9	0x3d598a92	0.053110667
10	0x3de46737	0.11152499
11	0x3ccb22f0	0.024796933
12	0xbd6897e7	-0.05678549
13	0x3dc306dc	0.09522793
14	0xbe08ffbd	-0.13378806
15	0x3d98ca6b	0.07460483
16	0x3d796788	0.06088975
17	0xbdcf6db0	-0.10128343
18	0x3e14739a	0.14497223
19	0xbb8f58c6	-0.0043745963
20	0xbccb6269	-0.024827199
21	0xbe4e4c38	-0.20146263
22	0xbdad8586	-0.08472733
23	0x3e089c18	0.13340795
24	0x3df75465	0.12076644
25	0xbe13d411	-0.14436366
26	0xbd94ddba	-0.072688535
27	0x3e2a429c	0.16626972
28	0xbd871f10	-0.065977216
29	0x3d95417f	0.07287883
30	0xbdb4e7ed	-0.08833299
31	0x3d886713	0.06660285
32	0xbd9dc8da	-0.07704325
33	0x3d87efa4	0.06637505
34	0x3e2f082c	0.17092961
35	0xbdd504ee	-0.10401331
36	0xbe1c7ceb	-0.15282027
37	0x3b67a400	0.0035345554
38	0x3d158f2f	0.036513504
39	0x3e2b0723	0.16701941
40	0xbe49a3fe	-0.19691464
41	0xbcf3ce08	-0.02976133
42	0xbe00f559	-0.12593593
43	0x3d011f80	0.03152418
44	0x3d8dd3f5	0.06925193
45	0xbdaf2709	-0.08552367
46	0x3e4358d4	0.19076854
47	0xbca27268	-0.019829944
48	0xbdbba3f7	-0.09162133
49	0xbe088a4e	-0.13334009
50	0x3e20ac60	0.15690756
51	0xbd0ab964	-0.03386821
52	0x3c9f0453	0.019411242
53	0x3e30a9c0	0.17252254
54	0xbc59232d	-0.0132530155
55	0x3e271339	0.16315927
56	0x3e3bef88	0.18353093
57	0xbdf50519	-0.11963863
58	0xbe40e48f	-0.18837188
59	0x3e1ad900	0.15121841
60	0x3dda89ba	0.106708005
61	0x3dd38ad0	0.10329211
62	0x3da3e3e8	0.08002454
63	0xbe4ae173	-0.19812565
64	0xbda74b29	-0.081686325
65	0x3d7bafc5	0.061446924
66	0xbdcbd6f5	-0.09953109
67	0xbd75f2e8	-0.060046107
68	0xbe4e2048	-0.20129502
69	0xbe347c12	-0.17625454
70	0xbe34102f	-0.17584299
71	0x3df119fc	0.11772534
72	0x3e15485e	0.14578387
73	0x3e0a4fa7	0.13506947
74	0x3dbdbdf6	0.09264748
75	0x3e411c30	0.18858409
76	0xbe0218ef	-0.12704824
77	0xbd01e5d1	-0.03171331
78	0x3d63f85f	0.055656787
79	0xbe1d294f	-0.15347789
80	0x3d69ca20	0.057077527
81	0xbd97d651	-0.074139245
82	0xbe52da65	-0.20591123
83	0xbd6a80b0	-0.057251632
84	0x3da0b5e3	0.07847192
85	0xbe3c1cc7	-0.18370353
86	0x3e3ebd08	0.18626797
87	0x3e22c853	0.1589673
88	0xbe213787	-0.15743838
89	0xbda78089	-0.08178813
90	0x3d4cf8ca	0.05004195
91	0x3e03ab38	0.12858284
92	0x3e327ed1	0.17431189
93	0xbd9c5e0c	-0.076351255
94	0x3e008ce0	0.1255374
95	0x3d806870	0.0626992
96	0x3d55d6d5	0.052206833
97	0xbde63c07	-0.11241918
98	0xbca94a72	-0.020665381
99	0xbe04b13b	-0.12958233
100	0xbce9b67b	-0.028529396
101	0x3e0c985d	0.13729997
102	0x3db8b01e	0.09017967
103	0xbd3aba78	-0.045587987
104	0x3c168e70	0.009189233
105	0x3e1056a7	0.14095555
106	0x3cb57d88	0.022154585
107	0xbe110068	-0.14160311
108	0x3e336257	0.17517982
109	0xbd7b311c	-0.06132613
110	0xbba4a4ca	-0.005024527
111	0xbe527856	-0.20553717
112	0x3e120994	0.14261466
113	0xbdc3343b	-0.095314465
114	0xbe1242bd	-0.14283271
115	0xbe3b218e	-0.18274519
116	0x3dab38a0	0.0836041
117	0x3dec31d0	0.115329385
118	0xbdad015a	-0.084475234
119	0x3c119940	0.008886635
120	0x3dfe5d86	0.12420182
121	0xbd908d1c	-0.070581645
122	0xbe0e0cfc	-0.1387214
123	0xbe06c35e	-0.13160464
124	0xbdd36bf5	-0.103233255
125	0xbe3eb88c	-0.18625087
126	0xbe49a3e8	-0.19691432
127	0xbd5dcf5d	-0.054152835
128	0x3dcaeae0	0.0990808
129	0xbdd736c3	-0.10508492
130	0x3e4e87b4	0.20168954
131	0x3e0cdc9e	0.13756034
132	0xbc923ca6	-0.017851185
133	0xbdff59d7	-0.124683075
134	0x3d841428	0.06449157
135	0xbbf3acbe	-0.007436364
136	0x3e4e2ad7	0.2013353
137	0x3e3439c4	0.17600161
138	0x3cea78ab	0.028621992
139	0x3d8d1c02	0.06890108
140	0xbe1ddc28	-0.15416014
141	0x3d9848b4	0.07435742
142	0x3e190b62	0.14945748
143	0x3dbd4688	0.092419684
144	0x3d890d4c	0.06691989
145	0x3e457dd1	0.19286276
146	0xbe7468c7	-0.23868094
147	0x3d81fe13	0.06347289
148	0x3dd8b440	0.10581255
149	0xbd9fdfa9	-0.07806332
150	0x3d3478ef	0.044060644
151	0x3e03ee95	0.1288398
152	0xbdbb59d4	-0.09147993
153	0xbda99f6b	-0.0828236
154	0x3da842de	0.08215879
155	0xbd6f8c74	-0.058483556
156	0x3dfc6736	0.123243734
157	0xbd8e45d8	-0.069469154
158	0xbe24c379	-0.16090192
159	0xbe10962a	-0.14119783
160	0xbe5119cb	-0.20419995
161	0xbc8b3086	-0.016990911
162	0xbe32ad6c	-0.17448968
163	0x3df05097	0.11734121
164	0x3d911c88	0.0708552
165	0x3e4b7e6e	0.19872448
166	0x3e3597e0	0.17733717
167	0x3e2252fe	0.15851972
168	0x3de76b68	0.11299783
169	0x3e1130bc	0.14178747
170	0xbd3c37d0	-0.045951664
171	0xbdd184b2	-0.10230388
172	0xbe4db1d5	-0.20087369
173	0xbe30188d	-0.17196865
174	0xbda1ceee	-0.07900797
175	0x3e01cb74	0.12675267
176	0xbce69f18	-0.028152034
177	0xbe47d26e	-0.19513866
178	0x3d38a190	0.045075953
179	0x3e3c5fe0	0.18395948
180	0xbd8dc274	-0.069218546
181	0x3cb6a6b8	0.022296295
182	0xbd1e962c	-0.038717434
183	0x3e3a59bc	0.18198293
184	0xbdd848a0	-0.10560727
185	0xbdcd0837	-0.100113325
186	0xbd209e28	-0.03921333
187	0xbe1f0064	-0.15527493
188	0xbb8f2640	-0.0043685734
189	0x3dcae4a8	0.09906894
190	0x3d8bed98	0.06832427
191	0x3e369f96	0.17834315
192	0xbc9af7b5	-0.018916944
193	0xbc8da7b2	-0.017291877
194	0xbe72b1c0	-0.23700619
195	0x3e2e538e	0.17024061
196	0xbe038277	-0.12842737
197	0xbd1538bd	-0.036431063
198	0xbdb67897	-0.089097194
199	0xbdc86e81	-0.09786702
200	0x3cad0050	0.021118313
201	0x3c53eec0	0.01293534
202	0xbd43f123	-0.047837388
203	0x3e0defdc	0.1386103
204	0x3dafa34e	0.0857607
205	0xbdb428d2	-0.08796848
206	0xbd22ecde	-0.039776675
207	0xba294f29	-0.0006458634
208	0x3dbc2507	0.0918675
209	0xbd4be4f8	-0.04977891
210	0xbd03a73c	-0.03214191
211	0x3de9bb63	0.11412694
212	0x3dfadee6	0.12249546
213	0x3deff30c	0.117162794
214	0x3d1b7f40	0.037963152
215	0x3e188b5a	0.14896908
216	0x3dbe18b8	0.092820585
217	0x3e0dc6a4	0.13845307
218	0x3e0eb9fb	0.13938133
219	0xbe0c7476	-0.13716301
220	0xbd200ea3	-0.03907646
221	0x3db2fce0	0.08739638
222	0xbd6b7c3c	-0.057491526
223	0xbe491bba	-0.19639483
224	0xbd1d8b7c	-0.0384631
225	0xbdcb4074	-0.09924403
226	0xbde45a69	-0.11150057
227	0xbd99f434	-0.07517281
228	0x3e4a187e	0.19735906
229	0xbe1b9dbe	-0.15196893
230	0xbddeb973	-0.108752154
231	0xbc5cc84c	-0.013475489
232	0xbd4df34f	-0.050280865
233	0xbe3d3d89	-0.18480505
234	0x3b3f11da	0.0029154927
235	0x3d81b98a	0.06334217
236	0xbdc0a995	-0.09407345
237	0x3dcf83c4	0.10132554
238	0x3de566f8	0.1120128
239	0xbd676240	-0.056490183
240	0xbe19fc56	-0.15037665
241	0xbe4c4b4e	-0.19950601
242	0xbd186ff8	-0.037216157
243	0xbd5b4a48	-0.053537637
244	0xbd6be6f8	-0.057593316
245	0x3ce98508	0.028505817
246	0xbe244747	-0.16042815
247	0xba9a3e00	-0.0011767745
248	0x3e2830f4	0.16424924
249	0x3e272402	0.1632233
250	0xbc863b58	-0.01638572
251	0x3d988db8	0.07448906
252	0x3df2b224	0.11850384
253	0xbd821634	-0.06351891
254	0x3e3d76b8	0.18502319
255	0xbe4ebd4b	-0.20189397

bias f4 [24]
0	0x3d08b1a2	0.03337253
1	0x3dc6ca08	0.09706503
2	0x3e15fd90	0.14647508
3	0x3e1ddc86	0.15416154
4	0x3c37f0df	0.011226862
5	0x3e216325	0.15760477
6	0x3d5ecfac	0.05439727
7	0x3d975184	0.07388595
8	0x3dc1fcef	0.094720714
9	0x3e149775	0.14510901
10	0xbe0fb8f8	-0.14035404
11	0xbdf52b47	-0.11971145
12	0xbcbf3330	-0.023339838
13	0x3dc6d284	0.097081214
14	0x387f0ad7	6.0806833e-05
15	0xbde9aa68	-0.114094555
16	0xbc25f810	-0.0101299435
17	0xbcd90f53	-0.026496565
18	0x3e281600	0.16414642
19	0x3e318c7f	0.17338751
20	0xbe2ef4ac	-0.17085522
21	0x3e585fa0	0.21130228
22	0x3e059665	0.13045652
23	0xbe2efddd	-0.17089029

weight f4 [4, 24]
0	0x3e306531	0.17226101
1	0x3de0913b	0.109652005
2	0x3d55b883	0.052177917
3	0xbd42c243	-0.047548544
4	0x3da5e14c	0.080996126
5	0xbbbf41a1	-0.005836681
6	0x3e1e652a	0.15468279
7	0xbde04032	-0.10949744
8	0x3de9c9dc	0.11415455
9	0x3d29fc1d	0.0415002
10	0x3d04ccec	0.03242199
11	0x3db6d551	0.089274056
12	0xbc1411c0	-0.009037435
13	0xbe119dfd	-0.14220424
14	0xbdd1f5f9	-0.10251994
15	0xbd9cb477	-0.076516084
16	0x3c833f98	0.016021535
17	0xbce825e6	-0.028338384
18	0xbc62df46	-0.013847178
19	0x3dc722d8	0.09723443
20	0x3dbf93b8	0.09354347
21	0x3d1512a6	0.036394738
22	0x3df5172f	0.119673125
23	0x3dc7cb34	0.09755555
24	0x3b2b6db3	0.0026157915
25	0xbd047e7e	-0.032347195
26	0xbc9fc081	-0.019500973
27	0x3dbacc4f	0.09121
28	0xbe430d75	-0.19048102
29	0xbd61c584	-0.055120006
30	0x3e3f414b	0.18677251
31	0x3d2064c4	0.039158598
32	0xbc7f354c	-0.015576672
33	0xbe20af31	-0.1569183
34	0xbe090ff2	-0.13384989
35	0xbdcacc8c	-0.099022955
36	0x3e25e62a	0.16201082
37	0xbda27519	-0.07932491
38	0x3e09aa90	0.1344397
39	0xbdbfe851	-0.09370483
40	0x3dd1367c	0.1021547
41	0x3d9a3afe	0.07530783
42	0x3e461ebc	0.19347662
43	0xbc71b5f0	-0.01475285
44	0x3d3fad6b	0.046796244
45	0x3c8574a8	0.016290978
46	0x3d734fe6	0.05940237
47	0xbcc58a0c	-0.024113677
48	0xbdb8669b	-0.090039454
49	0xbd3ec30f	-0.04657274
50	0x3cb51768	0.022105888
51	0xbdc2a53b	-0.095041715
52	0xbd87e7cb	-0.06636008
53	0x3d26576a	0.04061071
54	0x3e186b64	0.14884716
55	0x3dc35bb0	0.095389724
56	0x3dfa25c6	0.12214236
57	0x3dda990a	0.10673721
58	0xbd93c852	-0.072159424
59	0x3d5a8c06	0.053356193
60	0x3e3919a8	0.18076193
61	0xbcd9b340	-0.02657473
62	0xbdb511fd	-0.088413216
63	0x3dbb04a6	0.09131746
64	0x3e06ff1e	0.13183257
65	0x3df74c2a	0.12075074
66	0xbd6a2124	-0.05716051
67	0xbd4e7881	-0.05040789
68	0xbceafc41	-0.028684737
69	0x3e128722	0.14309362
70	0x3d3d63b3	0.04623766
71	0xbc8fd28a	-0.017556448
72	0xbdd7e174	-0.10541049
73	0x3e6a369a	0.22872391
74	0x3e0a4228	0.13501799
75	0x3de702ed	0.11279855
76	0xbdbe06b9	-0.09278626
77	0x3d704a03	0.058664333
78	0xbdbd2805	-0.09236149
79	0x3dcfbc34	0.10143319
80	0x3e9a4eae	0.30138153
81	0xbd484651	-0.048895184
82	0x3d651d58	0.055936188
83	0x3e0053d4	0.12531978
84	0x3ca31968	0.019909576
85	0x3df9fb64	0.12206152
86	0x3cff0631	0.031130882
87	0x3da6c4a2	0.081429735
88	0x3cea3048	0.028587475
89	0xbdd82311	-0.105535634
90	0x3e36e8d5	0.17862256
91	0xbe3e0cbd	-0.18559547
92	0xbd5ed2b7	-0.054400172
93	0x3d697a12	0.05700118
94	0xbdb22705	-0.08698849
95	0x3e219c8f	0.15782379

bias f4 [4]
0	0x3de8039d	0.11328814
1	0x3e30d26b	0.17267768
2	0x3e57df7e	0.21081349
3	0x3dcd68cc	0.10029754

exp_avg f4 [24, 4]
0	0xc6dc4a3c	-28197.117
1	0x4426c972	667.1476
2	0x45396c6b	2966.7761
3	0xc7360221	-46594.13
4	0xc60fa42a	-9193.041
5	0xc51cb244	-2507.1416
6	0xc53a5ebf	-2981.9216
7	0xc6593f68	-13903.852
8	0x445e6ae0	889.6699
9	0x45982342	4868.407
10	0x45ec33f3	7558.4937
11	0xc78d71b7	-72419.43
12	0x4636e422	11705.033
13	0x4488b759	1093.7296
14	0xc5c3f5a8	-6270.707
15	0xc6e18abd	-28869.37
16	0xc5d6bedc	-6871.8574
17	0xc56db5cc	-3803.3623
18	0x45aacefc	5465.873
19	0xc795752a	-76522.33
20	0x45ce6446	6604.534
21	0x45833c82	4199.5635
22	0xc50355ae	-2101.355
23	0x474e69c0	52841.75
24	0x45c0ce7a	6169.8096
25	0x43b70dac	366.1068
26	0x43848265	265.0187
27	0x43c54df6	394.60907
28	0x465aa3cc	13992.949
29	0xc50e8642	-2280.391
30	0xc4d645b7	-1714.1786
31	0xc5eaed61	-7517.6724
32	0x00000000	0.0
33	0x00000000	0.0
34	0x00000000	0.0
35	0x00000000	0.0
36	0x46bc93d0	24137.906
37	0x45240fb8	2624.9824
38	0x458061d3	4108.228
39	0x47bce48e	96713.11
40	0x4666f802	14782.002
41	0xc5a0c69f	-5144.8276
42	0x45927357	4686.4175
43	0xc68bf1da	-17912.926
44	0x00000000	0.0
45	0x00000000	0.0
46	0x00000000	0.0
47	0x00000000	0.0
48	0x46df0200	28545.0
49	0x4480e654	1031.1978
50	0xc510c40e	-2316.2534
51	0x477876fe	63606.992
52	0x00000000	0.0
53	0x00000000	0.0
54	0x00000000	0.0
55	0x00000000	0.0
56	0xc603b8d3	-8430.206
57	0x43589098	216.56482
58	0x452f34ba	2803.2954
59	0x4538f6c0	2959.4219
60	0xc6b95a6d	-23725.213
61	0x4513d776	2365.4663
62	0xc4ca355c	-1617.6675
63	0xc6d811a6	-27656.824
64	0xc5aa076c	-5440.9277
65	0xc408e7b3	-547.6203
66	0xc4e6d6a7	-1846.7079
67	0x4571a3c8	3866.2363
68	0x473178bb	45432.73
69	0x42257cf0	41.37201
70	0xc3df47f8	-446.56226
71	0x4766ff74	59135.453
72	0xc6cb8962	-26052.691
73	0x4417d52b	607.33075
74	0x43cccabe	409.58392
75	0xc62a3e64	-10895.598
76	0xc7101e46	-36894.273
77	0xc609ac40	-8811.0625
78	0xc6509901	-13350.251
79	0xc86f6e9a	-245178.4
80	0xc5a208e2	-5185.1104
81	0x4441f2f4	775.79614
82	0xc53ba4c2	-3002.2974
83	0x471a2439	39460.223
84	0x00000000	0.0
85	0x00000000	0.0
86	0x00000000	0.0
87	0x00000000	0.0
88	0x00000000	0.0
89	0x00000000	0.0
90	0x00000000	0.0
91	0x00000000	0.0
92	0x00000000	0.0
93	0x00000000	0.0
94	0x00000000	0.0
95	0x00000000	0.0

exp_avg_sq f4 [24, 4]
0	0x532d25a3	7.436608e+11
1	0x4c330d6f	4.6937532e+07
2	0x4dca3e29	4.2413392e+08
3	0x532341fa	7.011866e+11
4	0x527bfd58	2.705718e+11
5	0x4ba5f5bd	2.1752698e+07
6	0x4d981911	3.1897245e+08
7	0x52caaef5	4.3525934e+11
8	0x4e841135	1.1078601e+09
9	0x4c37cd6f	4.8182716e+07
10	0x4d3085ce	1.8509744e+08
11	0x510967a9	3.6884353e+10
12	0x4fbb2297	6.2792125e+09
13	0x4da987f5	3.5553245e+08
14	0x4dc5e96b	4.150511e+08
15	0x50844872	1.7754722e+10
16	0x52696861	2.5061964e+11
17	0x4cebf84b	1.23716184e+08
18	0x4dad3b3a	3.6329248e+08
19	0x52953895	3.204497e+11
20	0x50874d32	1.8159866e+10
21	0x4cdb3172	1.1492034e+08
22	0x4d31bf2d	1.8638101e+08
23	0x5183b4f8	7.070961e+10
24	0x50b6c44c	2.4530543e+10
25	0x4be84a4a	3.044674e+07
26	0x4a5134a2	3.4276245e+06
27	0x4ad525b3	6.9844095e+06
28	0x517fb25a	6.8638056e+10
29	0x4ca4147e	8.60252e+07
30	0x4ce48ebc	1.1982998e+08
31	0x509da90d	2.1160815e+10
32	0x00000000	0.0
33	0x00000000	0.0
34	0x00000000	0.0
35	0x00000000	0.0
36	0x51c95413	1.0808737e+11
37	0x4b607282	1.4709378e+07
38	0x4ce8388e	1.2175064e+08
39	0x52194d12	1.6460576e+11
40	0x51cb22fb	1.09058154e+11
41	0x4cf06879	1.2604308e+08
42	0x4d9825c6	3.1907654e+08
43	0x5286c13e	2.8938384e+11
44	0x00000000	0.0
45	0x00000000	0.0
46	0x00000000	0.0
47	0x00000000	0.0
48	0x51efa8fb	1.28666526e+11
49	0x4d1ac4c6	1.6228669e+08
50	0x4c12134e	3.829279e+07
51	0x512ff2a2	4.7230624e+10
52	0x00000000	0.0
53	0x00000000	0.0
54	0x00000000	0.0
55	0x00000000	0.0
56	0x4f2566ff	2.7749906e+09
57	0x4b99d391	2.0162338e+07
58	0x4d20b4ca	1.6851267e+08
59	0x51e0ddfb	1.2072461e+11
60	0x524ecd2f	2.2205142e+11
61	0x4cc1fd47	1.01706296e+08
62	0x4d3811e7	1.9301131e+08
63	0x52059d34	1.4346702e+11
64	0x53585457	9.291279e+11
65	0x4ccf1cef	1.0858687e+08
66	0x4e67d0c6	9.723048e+08
67	0x5358e88a	9.316143e+11
68	0x52a369be	3.5092686e+11
69	0x4cad5067	9.086649e+07
70	0x4d19d65e	1.6131018e+08
71	0x528b2421	2.988033e+11
72	0x52113e55	1.55954e+11
73	0x4cf58f36	1.2874386e+08
74	0x4c9c342f	8.18958e+07
75	0x513d629a	5.0837692e+10
76	0x5255930b	2.2932375e+11
77	0x4d7d6fc8	2.6574758e+08
78	0x4e95b985	1.2559817e+09
79	0x52fb2003	5.3928693e+11
80	0x518132a1	6.9362524e+10
81	0x4c86f894	7.076368e+07
82	0x4d0ad9e3	1.4559595e+08
83	0x52060e4e	1.439414e+11
84	0x00000000	0.0
85	0x00000000	0.0
86	0x00000000	0.0
87	0x00000000	0.0
88	0x00000000	0.0
89	0x00000000	0.0
90	0x00000000	0.0
91	0x00000000	0.0
92	0x00000000	0.0
93	0x00000000	0.0
94	0x00000000	0.0
95	0x00000000	0.0

exp_avg f4 [24]
0	0xba3a88db	-0.000711573
1	0xb995df70	-0.00028585969
2	0xba1aef40	-0.0005910285
3	0xb96a43fa	-0.00022341302
4	0xba564134	-0.0008173168
5	0x3a2155cc	0.00061544473
6	0x3896e6c5	7.1955415e-05
7	0x37d01890	2.480697e-05
8	0x00000000	0.0
9	0x3aa73a2a	0.0012758423
10	0xb8168bf0	-3.5893114e-05
11	0x00000000	0.0
12	0x3a6e33c4	0.0009086693
13	0x00000000	0.0
14	0xb7cd9980	-2.4509383e-05
15	0xba04bc0f	-0.00050634233
16	0xb8267910	-3.9690232e-05
17	0x3a88874e	0.00104163
18	0xb9bc6243	-0.00035931365
19	0xbb476200	-0.0030423403
20	0x39a806ee	0.0003204862
21	0x00000000	0.0
22	0x00000000	0.0
23	0x00000000	0.0

exp_avg_sq f4 [24]
0	0x399964bd	0.0002925749
1	0x390f2366	0.0001365073
2	0x369340e2	4.3884947e-06
3	0x36b322e6	5.3386784e-06
4	0x38ee9dcb	0.000113781156
5	0x3773c62a	1.4530067e-05
6	0x3635db58	2.7098777e-06
7	0x378c0d23	1.6695418e-05
8	0x00000000	0.0
9	0x385e59ac	5.3012438e-05
10	0x3892ce48	7.0002454e-05
11	0x00000000	0.0
12	0x37db53b7	2.6145817e-05
13	0x00000000	0.0
14	0x378cfe94	1.6807848e-05
15	0x389c038f	7.4393225e-05
16	0x39c6cfc1	0.00037920292
17	0x39067f9b	0.00012826773
18	0x381b5593	3.7034577e-05
19	0x391078dc	0.00013777934
20	0x3825d376	3.9536004e-05
21	0x00000000	0.0
22	0x00000000	0.0
23	0x00000000	0.0

exp_avg f4 [24, 24]
0	0x47995c6a	78520.83
1	0x47336ab6	45930.71
2	0x46cab13b	25944.615
3	0x4604048b	8449.136
4	0x479d0480	80393.0
5	0x4720b8dc	41144.86
6	0xc48022d3	-1025.0883
7	0xc5f3215f	-7780.1714
8	0x00000000	0.0
9	0x4711d46a	37332.414
10	0x475e36dc	56886.86
11	0x00000000	0.0
12	0x46c83f36	25631.605
13	0x00000000	0.0
14	0x45c7c984	6393.1895
15	0x44863f88	1073.9854
16	0x47d1ac4c	107352.59
17	0xc46139d0	-900.9033
18	0xc60012ba	-8196.682
19	0x465eeae8	14266.727
20	0x4730ce45	45262.27
21	0x00000000	0.0
22	0x00000000	0.0
23	0x00000000	0.0
24	0x447a4b3a	1001.1754
25	0xc3dde949	-443.82254
26	0x43862540	268.29102
27	0x44753326	980.7992
28	0x4425875a	662.11487
29	0xc44b736d	-813.8035
30	0xc40baecd	-558.73126
31	0xc4858244	-1068.0708
32	0x00000000	0.0
33	0xc350c782	-208.77933
34	0x4426a26e	666.53796
35	0x00000000	0.0
36	0xc242b3a9	-48.67545
37	0x00000000	0.0
38	0x41f1c13e	30.219357
39	0x434a2076	202.1268
40	0x44a32359	1305.1046
41	0xc2989297	-76.28631
42	0xc499b8ce	-1229.7751
43	0x4417e65d	607.5994
44	0x440a27ab	552.6198
45	0x00000000	0.0
46	0x00000000	0.0
47	0x00000000	0.0
48	0xc4411623	-772.3459
49	0x444e74de	825.82605
50	0x00000000	0.0
51	0x1bf74d00	4.0912482e-22
52	0x461a4e1f	9875.53
53	0x4685be2a	17119.082
54	0x45ab02a9	5472.3325
55	0x4637a5de	11753.467
56	0x00000000	0.0
57	0x43dc642e	440.78265
58	0xc31c8529	-156.52016
59	0x00000000	0.0
60	0x465d57ea	14165.979
61	0x00000000	0.0
62	0x00000000	0.0
63	0x4645f366	12668.85
64	0xc42ea398	-698.55615
65	0x46966d54	19254.664
66	0x4690191c	18444.555
67	0x44341f8c	720.4929
68	0x46159d45	9575.317
69	0x00000000	0.0
70	0x00000000	0.0
71	0x00000000	0.0
72	0xc5994149	-4904.1606
73	0xc5cc1318	-6530.3867
74	0xc3ff0653	-510.0494
75	0x459c24ea	4996.6143
76	0xc5a250d4	-5194.1035
77	0xc56f95a2	-3833.352
78	0x4593c9bc	4729.217
79	0x46233809	10446.009
80	0x00000000	0.0
81	0xc598194e	-4867.163
82	0xc5272853	-2674.5203
83	0x00000000	0.0
84	0xc3d97170	-434.88623
85	0x00000000	0.0
86	0xc4103d3b	-576.9567
87	0x449aa108	1237.0322
88	0xc6061b4d	-8582.825
89	0x43f23a00	484.45312
90	0x462df1a6	11132.412
91	0x45112b94	2322.7236
92	0x442f1370	700.3037
93	0x00000000	0.0
94	0x00000000	0.0
95	0x00000000	0.0
96	0x47ea8cb8	120089.44
97	0x47804340	65670.5
98	0x472dfa58	44538.344
99	0x4623c703	10481.753
100	0x47f4d4c6	125353.55
101	0x479e7646	81132.55
102	0x1dd193ec	5.5474787e-21
103	0x457fc5d7	4092.365
104	0x00000000	0.0
105	0x4757c3cb	55235.793
106	0x47ad85e7	88843.805
107	0x00000000	0.0
108	0x472f127a	44818.477
109	0x00000000	0.0
110	0x460f9a02	9190.502
111	0x464be17f	13048.374
112	0x481b5ec0	159099.0
113	0x4673986c	15590.105
114	0x460f1bc2	9158.939
115	0x46b8e46e	23666.215
116	0x4797009f	77313.24
117	0x00000000	0.0
118	0x00000000	0.0
119	0x00000000	0.0
120	0xc6ceb727	-26459.576
121	0xc64d105b	-13124.089
122	0xc63b4dd6	-11987.459
123	0xc56ce72b	-3790.448
124	0xc6b6b75a	-23387.676
125	0xc63877b8	-11805.93
126	0x00000000	0.0
127	0x418b14b4	17.385109
128	0x00000000	0.0
129	0xc633e10f	-11512.265
130	0xc69c19f6	-19980.98
131	0x00000000	0.0
132	0xc585836c	-4272.4277
133	0x00000000	0.0
134	0xc52f3563	-2803.3367
135	0xc50c8cd3	-2248.8015
136	0xc7067fa4	-34431.64
137	0x448a3ee4	1105.9653
138	0x43663c2b	230.23503
139	0xc59cfdd1	-5023.727
140	0xc654620e	-13592.514
141	0x00000000	0.0
142	0x00000000	0.0
143	0x00000000	0.0
144	0xc5fcda88	-8091.3164
145	0x449fb730	1277.7246
146	0xc5a72b42	-5349.407
147	0xc634376c	-11533.855
148	0x4491d080	1166.5156
149	0x465813bc	13828.934
150	0xc41f5ada	-637.41956
151	0xc5defcc5	-7135.596
152	0x00000000	0.0
153	0x43ebee00	471.85938
154	0xc5cac79c	-6488.951
155	0x00000000	0.0
156	0x45fccbf0	8089.492
157	0x00000000	0.0
158	0xc4a0a568	-1285.169
159	0x45f1680a	7725.005
160	0xc601f284	-8316.629
161	0x46625bb8	14486.93
162	0x42552580	53.28662
163	0xc5b49bc7	-5779.472
164	0xc4a14bc0	-1290.3672
165	0x00000000	0.0
166	0x00000000	0.0
167	0x00000000	0.0
168	0x00000000	0.0
169	0x00000000	0.0
170	0x00000000	0.0
171	0x00000000	0.0
172	0x00000000	0.0
173	0x00000000	0.0
174	0x00000000	0.0
175	0x00000000	0.0
176	0x00000000	0.0
177	0x00000000	0.0
178	0x00000000	0.0
179	0x00000000	0.0
180	0x00000000	0.0
181	0x00000000	0.0
182	0x00000000	0.0
183	0x00000000	0.0
184	0x00000000	0.0
185	0x00000000	0.0
186	0x00000000	0.0
187	0x00000000	0.0
188	0x00000000	0.0
189	0x00000000	0.0
190	0x00000000	0.0
191	0x00000000	0.0
192	0xc6f15a27	-30893.076
193	0xc645a854	-12650.082
194	0xc5db1e92	-7011.8213
195	0xc68e4e82	-18215.254
196	0xc6e821be	-29712.871
197	0x459ff496	5118.573
198	0xc3bd2664	-378.29993
199	0x423f4cb0	47.82489
200	0x00000000	0.0
201	0xc6111593	-9285.394
202	0xc6a04fe0	-20519.938
203	0x00000000	0.0
204	0xc612f86a	-9406.104
205	0x00000000	0.0
206	0xc59e58bb	-5067.0913
207	0xc6383855	-11790.083
208	0xc7236be4	-41835.89
209	0x45a3a39a	5236.45
210	0xc59d1453	-5026.5405
211	0xc6625b42	-14486.814
212	0xc6a8e739	-21619.611
213	0x00000000	0.0
214	0x00000000	0.0
215	0x00000000	0.0
216	0xc5c47360	-6286.422
217	0xc5433e80	-3123.9062
218	0xc66f36a2	-15309.658
219	0xc5833a6f	-4199.304
220	0x461785d4	9697.457
221	0x468c7e2e	17983.09
222	0x00000000	0.0
223	0xb15fd65f	-3.2572627e-09
224	0x00000000	0.0
225	0xc5458734	-3160.4502
226	0xc5c395c8	-6258.7227
227	0x00000000	0.0
228	0x469e62c0	20273.375
229	0x00000000	0.0
230	0xc5e881e1	-7440.235
231	0x45d0301a	6662.0127
232	0xc5f764a0	-7916.578
233	0x460f4b36	9170.803
234	0x449f6a4f	1275.3221
235	0x4520569a	2565.4126
236	0x46462c0f	12683.015
237	0x00000000	0.0
238	0x00000000	0.0
239	0x00000000	0.0
240	0x00000000	0.0
241	0x00000000	0.0
242	0x00000000	0.0
243	0x00000000	0.0
244	0x00000000	0.0
245	0x00000000	0.0
246	0x00000000	0.0
247	0x00000000	0.0
248	0x00000000	0.0
249	0x00000000	0.0
250	0x00000000	0.0
251	0x00000000	0.0
252	0x00000000	0.0
253	0x00000000	0.0
254	0x00000000	0.0
255	0x00000000	0.0

exp_avg_sq f4 [24, 24]
0	0x51a1eea0	8.693665e+10
1	0x50c8b0b2	2.6936185e+10
2	0x5085a1b7	1.7935743e+10
3	0x4e82ea8b	1.0982045e+09
4	0x518dba14	7.608903e+10
5	0x50bc4f5e	2.5274544e+10
6	0x4bf9ac45	3.272513e+07
7	0x4db9ddf7	3.8979146e+08
8	0x00000000	0.0
9	0x5090e729	1.9448547e+10
10	0x513bd578	5.042127e+10
11	0x00000000	0.0
12	0x4fa5930f	5.5557565e+09
13	0x00000000	0.0
14	0x4ecf835f	1.7407466e+09
15	0x4e86bc0d	1.1302355e+09
16	0x520d3ff3	1.5166582e+11
17	0x4ee4ee9b	1.9204212e+09
18	0x4e80de97	1.0810356e+09
19	0x4f14b573	2.4949194e+09
20	0x50b2203e	2.390766e+10
21	0x00000000	0.0
22	0x00000000	0.0
23	0x00000000	0.0
24	0x4db59ac9	3.808525e+08
25	0x4ca84f1f	8.8242424e+07
26	0x4c25ddb6	4.348079e+07
27	0x4c6c4bb1	6.1943492e+07
28	0x4dab1cc1	3.5884854e+08
29	0x4c8e58b1	7.4630536e+07
30	0x4980267a	1.0498072e+06
31	0x4c67fbf6	6.081327e+07
32	0x00000000	0.0
33	0x4c7cf6ff	6.6313212e+07
34	0x4d4ab44f	2.125509e+08
35	0x00000000	0.0
36	0x4c8e874b	7.4725976e+07
37	0x00000000	0.0
38	0x4a8edf43	4.6816335e+06
39	0x4c558376	5.597129e+07
40	0x4e10f023	6.079142e+08
41	0x4b3d06bd	1.2388029e+07
42	0x4cd02372	1.091245e+08
43	0x4c81623e	6.783435e+07
44	0x4d5ff3c1	2.3483086e+08
45	0x00000000	0.0
46	0x00000000	0.0
47	0x00000000	0.0
48	0x4c5a800c	5.727851e+07
49	0x4bffd7b1	3.3533794e+07
50	0x00000000	0.0
51	0x44239395	654.30597
52	0x5095684b	2.0053121e+10
53	0x513ce70b	5.070813e+10
54	0x4f99bfba	5.158958e+09
55	0x50cc0cdc	2.7387159e+10
56	0x00000000	0.0
57	0x4b522f4d	1.3774669e+07
58	0x4a1f1736	2.6065415e+06
59	0x00000000	0.0
60	0x5106b296	3.615761e+10
61	0x00000000	0.0
62	0x00000000	0.0
63	0x50d2c06d	2.828661e+10
64	0x4bf88146	3.2572044e+07
65	0x5156ca93	5.7657602e+10
66	0x5171f42d	6.494898e+10
67	0x4e0552a7	5.591966e+08
68	0x509b03a1	2.080565e+10
69	0x00000000	0.0
70	0x00000000	0.0
71	0x00000000	0.0
72	0x50d1a7e9	2.8139538e+10
73	0x5017e26e	1.0192796e+10
74	0x4a64e58e	3.7502435e+06
75	0x4cbcfbba	9.908168e+07
76	0x51befe1b	1.0253837e+11
77	0x5201cb26	1.3936476e+11
78	0x4f4eac94	3.4674166e+09
79	0x508fd1b3	1.9303078e+10
80	0x00000000	0.0
81	0x4fdb79df	7.3643945e+09
82	0x50475da0	1.3379207e+10
83	0x00000000	0.0
84	0x5198026c	8.160946e+10
85	0x00000000	0.0
86	0x4aa54386	5.415363e+06
87	0x51223777	4.3544703e+10
88	0x513117b9	4.753795e+10
89	0x519ef668	8.5342355e+10
90	0x5162b4cc	6.0855992e+10
91	0x4f25d99e	2.7825024e+09
92	0x517fe12d	6.8687155e+10
93	0x00000000	0.0
94	0x00000000	0.0
95	0x00000000	0.0
96	0x52ed79ad	5.099743e+11
97	0x5226ce99	1.7910768e+11
98	0x502ace12	1.1462527e+10
99	0x4e05b478	5.607992e+08
100	0x5395caf6	1.2867105e+12
101	0x539ef444	1.3654059e+12
102	0x4981296c	1.0580935e+06
103	0x4dff08a5	5.3484458e+08
104	0x00000000	0.0
105	0x51f0f814	1.2936928e+11
106	0x52767164	2.6461608e+11
107	0x00000000	0.0
108	0x531e0f1a	6.788582e+11
109	0x00000000	0.0
110	0x4e4b4a78	8.526638e+08
111	0x526aa75f	2.519576e+11
112	0x534c20a0	8.767207e+11
113	0x52fae8f8	5.388252e+11
114	0x52173721	1.6236624e+11
115	0x50e89a9b	3.121957e+10
116	0x5325d347	7.1221425e+11
117	0x00000000	0.0
118	0x00000000	0.0
119	0x00000000	0.0
120	0x50a5b211	2.2239283e+10
121	0x4fd254a7	7.0575263e+09
122	0x4f4edde1	3.4706476e+09
123	0x4d302492	1.8469917e+08
124	0x50af2238	2.3506043e+10
125	0x502b05c2	1.1477125e+10
126	0x00000000	0.0
127	0x47812f3a	66142.45
128	0x00000000	0.0
129	0x4f98a006	5.121248e+09
130	0x503e888e	1.2786481e+10
131	0x00000000	0.0
132	0x4f511d06	3.5083402e+09
133	0x00000000	0.0
134	0x4d8e2fa0	2.9818573e+08
135	0x4dc709be	4.1741306e+08
136	0x51108492	3.8793716e+10
137	0x4e73cbc4	1.0225544e+09
138	0x4c901612	7.554267e+07
139	0x4e1f2f71	6.676716e+08
140	0x4ffae727	8.4189056e+09
141	0x00000000	0.0
142	0x00000000	0.0
143	0x00000000	0.0
144	0x5232ac8f	1.918498e+11
145	0x5174d46a	6.5720984e+10
146	0x4ee27275	1.8995759e+09
147	0x4de3988a	4.773031e+08
148	0x52ced80a	4.441939e+11
149	0x52c4aa1d	4.223338e+11
150	0x4abfdfe9	6.2873485e+06
151	0x4d831b9f	2.7495318e+08
152	0x00000000	0.0
153	0x512ec29a	4.6911824e+10
154	0x51baaeb2	1.0022435e+11
155	0x00000000	0.0
156	0x52415f9a	2.0763315e+11
157	0x00000000	0.0
158	0x4c29b16e	4.4484024e+07
159	0x517e6523	6.8288655e+10
160	0x529a37a5	3.3117926e+11
161	0x52054efa	1.4313891e+11
162	0x50ec5f10	3.1725224e+10
163	0x50312526	1.1888007e+10
164	0x525ca132	2.368993e+11
165	0x00000000	0.0
166	0x00000000	0.0
167	0x00000000	0.0
168	0x00000000	0.0
169	0x00000000	0.0
170	0x00000000	0.0
171	0x00000000	0.0
172	0x00000000	0.0
173	0x00000000	0.0
174	0x00000000	0.0
175	0x00000000	0.0
176	0x00000000	0.0
177	0x00000000	0.0
178	0x00000000	0.0
179	0x00000000	0.0
180	0x00000000	0.0
181	0x00000000	0.0
182	0x00000000	0.0
183	0x00000000	0.0
184	0x00000000	0.0
185	0x00000000	0.0
186	0x00000000	0.0
187	0x00000000	0.0
188	0x00000000	0.0
189	0x00000000	0.0
190	0x00000000	0.0
191	0x00000000	0.0
192	0x4fdc7d1c	7.3983734e+09
193	0x4ebd0d07	1.5858738e+09
194	0x4d0a5426	1.4504816e+08
195	0x4e57ef97	9.057008e+08
196	0x50247496	1.1036416e+10
197	0x4f3838d1	3.0907313e+09
198	0x4b30ef4b	1.1595595e+07
199	0x4e0e61a6	5.9719104e+08
200	0x00000000	0.0
201	0x4e66296c	9.653686e+08
202	0x4f4b9e03	3.4161303e+09
203	0x00000000	0.0
204	0x4f478898	3.3476178e+09
205	0x00000000	0.0
206	0x4cdb77ea	1.1506466e+08
207	0x4ee8dfea	1.9534943e+09
208	0x503971e5	1.2444997e+10
209	0x4e86d71d	1.1311223e+09
210	0x4eb059bd	1.4793356e+09
211	0x4e9921fe	1.2845709e+09
212	0x4fc86657	6.7243003e+09
213	0x00000000	0.0
214	0x00000000	0.0
215	0x00000000	0.0
216	0x5109f3b4	3.70312e+10
217	0x5034fda7	1.2146089e+10
218	0x4f8d8e88	4.749857e+09
219	0x4c8e5abf	7.4634744e+07
220	0x513b9296	5.0351137e+10
221	0x510cd535	3.7804528e+10
222	0x00000000	0.0
223	0x49d407d8	1.736955e+06
224	0x00000000	0.0
225	0x500748ee	9.078815e+09
226	0x509a644f	2.072212e+10
227	0x00000000	0.0
228	0x5061f941	1.5164835e+10
229	0x00000000	0.0
230	0x4d800944	2.6851136e+08
231	0x4f5f4bfc	3.746299e+09
232	0x516fa3db	6.432789e+10
233	0x4fe9d41b	7.8459837e+09
234	0x4f08350c	2.2851779e+09
235	0x4e8fcf19	1.2063571e+09
236	0x50a0ae17	2.156611e+10
237	0x00000000	0.0
238	0x00000000	0.0
239	0x00000000	0.0
240	0x00000000	0.0
241	0x00000000	0.0
242	0x00000000	0.0
243	0x00000000	0.0
244	0x00000000	0.0
245	0x00000000	0.0
246	0x00000000	0.0
247	0x00000000	0.0
248	0x00000000	0.0
249	0x00000000	0.0
250	0x00000000	0.0
251	0x00000000	0.0
252	0x00000000	0.0
253	0x00000000	0.0
254	0x00000000	0.0
255	0x00000000	0.0

exp_avg f4 [24]
0	0x3b5c590e	0.0033622417
1	0x380c240c	3.3412172e-05
2	0x39b8cb73	0.00035246796
3	0xb9123a32	-0.00013945324
4	0x3bb1a39a	0.005421114
5	0xba8a215d	-0.0010538507
6	0xb8fb4ee0	-0.00011983304
7	0x00000000	0.0
8	0xbaab385a	-0.0013063059
9	0x39a933d0	0.00032272795
10	0x00000000	0.0
11	0x3a27da34	0.0006403059
12	0x00000000	0.0
13	0x00000000	0.0
14	0x39e4b8b6	0.0004362517
15	0xbb0c243a	-0.0021383897
16	0x00000000	0.0
17	0xbb946b1a	-0.004529369
18	0xbada950a	-0.0016676497
19	0x3a92cf8e	0.0011200772
20	0x3a115b57	0.0005544922
21	0xbb988655	-0.0046546855
22	0xbaa05a7f	-0.0012234001
23	0x3a9f4efa	0.0012154274

exp_avg_sq f4 [24]
0	0x3916bed0	0.00014376198
1	0x3546fe14	7.413048e-07
2	0x37f2ad67	2.8929395e-05
3	0x392d06f7	0.0001650116
4	0x3b0bfeba	0.0021361546
5	0x38345d32	4.300214e-05
6	0x3a42f02a	0.00074363
7	0x00000000	0.0
8	0x37a8b2e5	2.0110465e-05
9	0x38bb15e4	8.920932e-05
10	0x00000000	0.0
11	0x3a2e5a2a	0.0006651009
12	0x00000000	0.0
13	0x00000000	0.0
14	0x3a9450a5	0.0011315538
15	0x3a1b4400	0.00059229136
16	0x00000000	0.0
17	0x3a0686cc	0.00051317806
18	0x3aa1e7f9	0.0012352458
19	0x3885c5bd	6.378766e-05
20	0x39164eba	0.00014334443
21	0x392f035e	0.00016690555
22	0x39aa069d	0.00032429854
23	0x39872f7b	0.00025784582

exp_avg f4 [4, 24]
0	0xc6866a7d	-17205.244
1	0xc53f9a12	-3065.6294
2	0x45607300	3591.1875
3	0xc521679c	-2582.4756
4	0x472ff0d6	45040.836
5	0xc68d666e	-18099.215
6	0xc5103f52	-2307.9575
7	0x00000000	0.0
8	0xc58d33a8	-4518.457
9	0x462f8a81	11234.626
10	0x00000000	0.0
11	0x4770cbdb	61643.855
12	0x00000000	0.0
13	0x00000000	0.0
14	0x478f2353	73286.65
15	0x4642b9ea	12462.479
16	0x00000000	0.0
17	0x474fa63d	53158.24
18	0x4633a488	11497.133
19	0x4658549a	13845.15
20	0x46be18a4	24332.32
21	0xc6bc328d	-24089.275
22	0x462be531	11001.298
23	0x470994fc	35220.984
24	0xc721d168	-41425.406
25	0x43dec194	445.51233
26	0xaf2e88ba	-1.5873783e-10
27	0x4397da5c	303.70593
28	0xc7c3618b	-100035.086
29	0xc6cdb1b7	-26328.857
30	0xc5536ae6	-3382.6812
31	0x00000000	0.0
32	0xc4c46736	-1571.2253
33	0xc6437d7f	-12511.374
34	0x00000000	0.0
35	0xc7017356	-33139.336
36	0x00000000	0.0
37	0x00000000	0.0
38	0xc7b8393d	-94322.48
39	0xc74afed2	-51966.82
40	0x00000000	0.0
41	0xc7f75fdc	-126655.72
42	0xc7a4cb0a	-84374.08
43	0xc6070d24	-8643.285
44	0xc6033ee7	-8399.726
45	0xc78e5efb	-72893.96
46	0xc5c4031e	-6272.3896
47	0xc77a3f2c	-64063.17
48	0xc82066ce	-164251.22
49	0xc5e5daf4	-7355.369
50	0x00000000	0.0
51	0xc650048c	-13313.137
52	0xc85cad28	-225972.62
53	0xc7fc8b04	-129302.03
54	0xc53a30f3	-2979.0593
55	0x00000000	0.0
56	0xc652a036	-13480.053
57	0xc59e7841	-5071.0317
58	0x00000000	0.0
59	0xc5a95f4c	-5419.912
60	0x00000000	0.0
61	0x00000000	0.0
62	0xc845b6e6	-202459.6
63	0xc7db28a8	-112209.31
64	0x00000000	0.0
65	0xc89cdddb	-321262.84
66	0xc855be5c	-218873.44
67	0xc4d0bf00	-1669.9688
68	0xc63758b4	-11734.176
69	0xc887c444	-278050.12
70	0xc6dd3284	-28313.258
71	0xc821cc2a	-165680.66
72	0xc68c55d6	-17962.918
73	0x44b08ec9	1412.462
74	0x46140fea	9475.979
75	0x45a7aa7c	5365.3105
76	0xc6fc040c	-32258.023
77	0x45381820	2945.5078
78	0xc529adb3	-2714.8562
79	0x00000000	0.0
80	0xc5f2ff78	-7775.9336
81	0xc6192de1	-9803.47
82	0x00000000	0.0
83	0x46bbe7ea	24051.957
84	0x00000000	0.0
85	0x00000000	0.0
86	0xc681fce0	-16638.438
87	0xc5945a40	-4747.2812
88	0x00000000	0.0
89	0xc6c5e258	-25329.172
90	0xc696ae78	-19287.234
91	0x4685e49a	17138.3
92	0x46a5a838	21204.11
93	0xc6b73170	-23448.719
94	0xc4703cc0	-960.9492
95	0x46cff8c4	26620.383

exp_avg_sq f4 [4, 24]
0	0x5134524e	4.8404685e+10
1	0x4c29fd51	4.4561732e+07
2	0x4e6b8710	9.878743e+08
3	0x4ee5af75	1.9267406e+09
4	0x52045b33	1.4211644e+11
5	0x50e488be	3.0673334e+10
6	0x4d507fb6	2.1862691e+08
7	0x00000000	0.0
8	0x4d1e02d8	1.6568666e+08
9	0x4cfcc2ac	1.3251926e+08
10	0x00000000	0.0
11	0x510e6121	3.821968e+10
12	0x00000000	0.0
13	0x00000000	0.0
14	0x524bc315	2.1878782e+11
15	0x51310c56	4.752601e+10
16	0x00000000	0.0
17	0x52a7ea20	3.6059375e+11
18	0x51b5cca8	9.760283e+10
19	0x4f657495	3.8496228e+09
20	0x509f8b7c	2.1413749e+10
21	0x5219778d	1.6478393e+11
22	0x4f80e683	4.325181e+09
23	0x5201dfeb	1.3945188e+11
24	0x50a28d47	2.1817342e+10
25	0x4a3177ee	2.9076435e+06
26	0x4a064a6e	2.2002195e+06
27	0x50bbb2c6	2.5192444e+10
28	0x53d898b5	1.8605499e+12
29	0x4f1a88b4	2.5926502e+09
30	0x5029e698	1.1401847e+10
31	0x00000000	0.0
32	0x4ceb5cf5	1.23398056e+08
33	0x4ebb068c	1.5688842e+09
34	0x00000000	0.0
35	0x537ecbf3	1.0943434e+12
36	0x00000000	0.0
37	0x00000000	0.0
38	0x54b075db	6.063132e+12
39	0x5335a77d	7.801991e+11
40	0x00000000	0.0
41	0x54ac6b32	5.9242625e+12
42	0x52061a64	1.439921e+11
43	0x4e3b3ee9	7.8536557e+08
44	0x52f451a1	5.2467076e+11
45	0x5231de8e	1.9098576e+11
46	0x521c14f0	1.6759154e+11
47	0x53fb1ef2	2.157112e+12
48	0x51fc4931	1.3544496e+11
49	0x4caccc02	9.059534e+07
50	0x00000000	0.0
51	0x4dd9a671	4.5644547e+08
52	0x528bdefd	3.003708e+11
53	0x51ae5166	9.358624e+10
54	0x4e5229a1	8.814859e+08
55	0x00000000	0.0
56	0x4e8a651c	1.160941e+09
57	0x4befb8e7	3.1420878e+07
58	0x00000000	0.0
59	0x4ff1894e	8.104615e+09
60	0x00000000	0.0
61	0x00000000	0.0
62	0x528ba7ca	2.9990774e+11
63	0x51aa4b8a	9.142647e+10
64	0x00000000	0.0
65	0x531b0847	6.658588e+11
66	0x52672129	2.4817345e+11
67	0x49a79cc8	1.373081e+06
68	0x4ee62a38	1.9307633e+09
69	0x52d011d3	4.4682612e+11
70	0x4ff28da5	8.138738e+09
71	0x52377b2c	1.9701137e+11
72	0x51a2f26c	8.748148e+10
73	0x4b170833	9.898035e+06
74	0x50dff2ee	3.0057918e+10
75	0x50b3efa3	2.4150612e+10
76	0x52909bd3	3.105448e+11
77	0x5132b36a	4.796964e+10
78	0x4e30f756	7.4224986e+08
79	0x00000000	0.0
80	0x4d26dab7	1.7495947e+08
81	0x4e56564a	8.989948e+08
82	0x00000000	0.0
83	0x52463169	2.1280812e+11
84	0x00000000	0.0
85	0x00000000	0.0
86	0x53013fb2	5.551194e+11
87	0x51aba61a	9.215327e+10
88	0x00000000	0.0
89	0x5337cd4a	7.894232e+11
90	0x524d0299	2.2012797e+11
91	0x51098ea8	3.6925243e+10
92	0x51ec776b	1.2695197e+11
93	0x528b12f9	2.9865938e+11
94	0x4f99957d	5.153422e+09
95	0x52c5a29a	4.2441828e+11

exp_avg f4 [4]
0	0x3bcc4dc3	0.006234856
1	0xbc48482c	-0.012224238
2	0xbcfacd2a	-0.030615408
3	0xbaf229d0	-0.0018475596

exp_avg_sq f4 [4]
0	0x3b55f995	0.0032649983
1	0x3d64169d	0.05568563
2	0x3bc18119	0.005905282
3	0x3be9fc76	0.0071406914
