test_model/covid18.pth (torch, 16239 bytes, 18 tensors)

weight f4 [24, 4]
0.0003739563 0.2332759 0.22747177 0.29616606 0.014116937 -0.36937058 0.21322566 0.16438045
-0.20069563 0.12988552 -0.21165173 0.1799876 -0.101806685 0.3444588 0.33606663 0.031893123
0.26784953 0.040950574 0.32334438 0.22085927 0.43353957 -0.17823689 -0.33960348 0.08348507
0.1402501 0.2774037 -0.5047305 -0.44733158 0.31606793 0.4291297 -0.24152471 -0.39806938
-0.399167 -0.11883098 -0.25442863 -0.11646855 0.007923174 -0.16008344 0.07226947 0.14117078
-0.020342775 0.18523785 0.08571595 0.22989829 -0.34297955 0.1456176 -0.326976 -0.074967444
0.3671811 -0.06489694 0.17488569 -0.013316839 -0.33814508 -0.4670592 -0.36475432 -0.3048631
-0.14747298 -0.11052481 0.15996875 0.060840823 0.3265954 -0.13881166 0.47926444 -0.12599146
0.0006443002 0.10836052 0.39635062 0.3910351 0.4787721 -0.3399411 -0.14531365 -0.14865744
0.4885672 0.43034866 -0.4107151 -0.35200492 0.036651995 0.30178994 0.18361397 0.03489702
0.2680799 0.28230947 0.20213707 0.094686836 -0.47736287 0.1659804 0.15582919 -0.4379102
-0.4189154 0.18685973 0.23892254 -0.452309 -0.061170638 0.008157134 -0.4108292 -0.4170401
00000000: 910f c439 e1df 6e3e 5cee 683e 14a3 973e
00000010: ba4a 673c 241e bdbe d457 5a3e 5953 283e
00000020: 2883 4dbe b600 053e 3bbb 58be ab4e 383e
00000030: 0680 d0bd e75c b03e ed10 ac3e 5da2 023d
00000040: 9323 893e cabb 273d 658d a53e ef28 623e
00000050: e6f8 dd3e bb83 36be 82e0 adbe 38fa aa3d
00000060: b99d 0f3e dc07 8e3e 0536 01bf a508 e5be
00000070: a8d3 a13e e3b6 db3e 4152 77be c0cf cbbe
00000080: 9e5f ccbe a85d f3bd 7844 82be 1087 eebd
00000090: 33d0 013c eaec 23be 0402 943d 138f 103e
000000a0: e4a5 a6bc feae 3d3e d88b af3d 756a 6b3e
000000b0: 049b afbe c81c 153e 6669 a7be 8888 99bd
000000c0: 29ff bb3e b0e8 84bd 3c15 333e df2e 5abc
000000d0: 5a21 adbe 6222 efbe 14c1 babe 0417 9cbe
000000e0: 2803 17be d55a e2bd d9ce 233e 3a34 793d
000000f0: 8337 a73e a524 0ebe 2662 f53e e803 01be
00000100: 41e6 283a 1fec dd3d 78ee ca3e c135 c83e
00000110: 9e21 f53e c30c aebe 1acd 14be a839 18be
00000120: 7b25 fa3e a956 dc3e 4049 d2be fd39 b4be
00000130: 6720 163d 3684 9a3e 4d05 3c3e 2df0 0e3d
00000140: c541 893e de8a 903e 05fd 4e3e 2ceb c13d
00000150: e868 f4be c4f6 293e b091 1f3e c435 e0be
00000160: 147c d6be 2858 3f3e 1ca8 743e 0c95 e7be
00000170: 108e 7abd 80a5 053c 3458 d2be 4886 d5be

bias f4 [24]
0.47284466 -0.4365714 0.50196815 0.477457 0.068061434 -0.10640751 0.04335476 0.3877362
0.23553652 -0.28862742 -0.000550927 -0.017363071 -0.09803169 0.22890931 0.44094703 0.44772848
-0.251091 -0.31663215 0.04145199 -0.019957153 0.33906305 0.04445803 0.32164323 0.3246184
00000000: b218 f23e 4986 dfbe fc80 003f 3e75 f43e
00000010: cb63 8b3d 2eec d9bd c394 313d 5c85 c63e
00000020: 7c30 713e f9c6 93be 166c 10ba 003d 8ebc
00000030: d7c4 c8bd 3467 6a3e cfc3 e13e ab3c e53e
00000040: 008f 80be 9c1d a2be 90c9 293d 2f7d a3bc
00000050: ac99 ad3e a019 363d 6cae a43e 6234 a63e

weight f4 [24, 24]
0.12312176 -0.11482981 0.026629694 -0.15537615 0.049105946 -0.1265298 0.18981335 -0.08792852
-0.05915405 0.05348103 0.11158221 0.024796933 -0.052213017 0.09522793 -0.1367309 0.07350001
0.061225105 -0.10390017 0.14490317 -0.0035472063 -0.023288002 -0.20146263 -0.08472733 0.13340795
0.12244758 -0.1421871 -0.07000742 0.16793022 -0.06539036 0.06902903 -0.107084066 0.05961974
-0.07704325 0.06827087 0.17251395 -0.10401331 -0.15594874 0.0035345554 0.043574933 0.16462906
-0.19460079 -0.033165097 -0.13255408 0.030803552 0.06794157 -0.08552367 0.19076854 -0.019829944
-0.092453435 -0.13065623 0.15690756 -0.03386821 0.021130938 0.1743163 -0.011416387 0.16491455
0.18353093 -0.11742565 -0.18901041 0.15121841 0.10849799 0.10329211 0.08002454 -0.19632918
-0.08272316 0.06331951 -0.097770326 -0.058852673 -0.19962221 -0.17625454 -0.17584299 0.11772534
0.14434093 0.13341197 0.09268893 0.19014567 -0.12793581 -0.032064173 0.056007072 -0.15222472
0.057077527 -0.07560582 -0.20725086 -0.057251632 0.07806113 -0.18370353 0.18776567 0.15860625
-0.15903813 -0.08180048 0.050870176 0.12770936 0.17372325 -0.076351255 0.1255374 0.0626992
0.052172005 -0.11252489 -0.019891333 -0.13079661 -0.028572457 0.13730289 0.09017967 -0.042087436
0.009189233 0.14093037 0.022147339 -0.14160311 0.17515764 -0.06132613 -0.0060724653 -0.20555519
0.14257754 -0.09537312 -0.14263453 -0.18280998 0.0835783 0.115329385 -0.084475234 0.008886635
0.1244112 -0.0703121 -0.13792849 -0.12444742 -0.10349292 -0.18783902 -0.19691432 -0.050822303
0.0990808 -0.10500101 0.20187314 0.13756034 -0.019347614 -0.124683075 0.06972812 -0.0057071256
0.20161405 0.17947847 0.029359108 0.06951511 -0.1547772 0.07435742 0.14945748 0.092419684
0.06738069 0.19329323 -0.2409 0.061893325 0.10641772 -0.077703945 0.035101462 0.119924754
-0.09147993 -0.0824685 0.08250675 -0.058483556 0.12393223 -0.069469154 -0.16397367 -0.1398797
-0.20368113 -0.016533148 -0.17404036 0.11823948 0.07144989 0.19872448 0.17733717 0.15851972
0.11299783 0.14178747 -0.045951664 -0.10230388 -0.20087369 -0.17196865 -0.07900797 0.12675267
-0.028152034 -0.19513866 0.045075953 0.18395948 -0.069218546 0.022296295 -0.038717434 0.18198293
-0.10560727 -0.100113325 -0.03921333 -0.15527493 -0.0043685734 0.09906894 0.06832427 0.17834315
-0.01739886 -0.01564069 -0.23669024 0.17190698 -0.12793161 -0.03686969 -0.09013294 -0.09852207
0.021118313 0.014474881 -0.046038236 0.1386103 0.08456631 -0.08796848 -0.036084365 -0.0029894372
0.09340461 -0.049016412 -0.036659375 0.114543974 0.12244748 0.117162794 0.037963152 0.14896908
0.092934765 0.13834976 0.14188604 -0.13386418 -0.039760537 0.08612052 -0.057491526 -0.19639483
-0.0384631 -0.099193856 -0.1112127 -0.07517281 0.19559692 -0.15196893 -0.10506957 -0.014065844
-0.05018106 -0.18564712 0.0034727787 0.06291844 -0.0951723 0.10132554 0.1120128 -0.056490183
-0.15037665 -0.19950601 -0.037216157 -0.053537637 -0.057593316 0.028505817 -0.16042815 -0.0011767745
0.16424924 0.1632233 -0.01638572 0.07448906 0.11850384 -0.06351891 0.18502319 -0.20189397
00000000: 4327 fc3d e42b ebbd 8426 da3c ed1a 1fbe
00000010: 5123 493d 0791 01be 6e5e 423e de13 b4bd
00000020: 844b 72bd ed0e 5b3d 3785 e43d f022 cb3c
00000030: 51dd 55bd dc06 c33d 2f03 0cbe 2c87 963d
00000040: 2dc7 7a3d 9dc9 d4bd 7f61 143e 3f78 68bb
00000050: 7bc6 bebc 384c 4ebe 8685 adbd 189c 083e
00000060: ccc5 fa3d 7f99 11be 0d60 8fbd e6f5 2b3e
00000070: 62eb 85bd 185f 8d3d e44e dbbd d433 743d
00000080: dac8 9dbd 99d1 8b3d 7fa7 303e ee04 d5bd
00000090: 07b1 1fbe 00a4 673b a17b 323d 8594 283e
000000a0: 6e45 47be 20d8 07bd 42bc 07be bb57 fc3c
000000b0: f324 8b3d 0927 afbd d458 433e 6872 a2bc
000000c0: 3a58 bdbd bfca 05be 60ac 203e 64b9 0abd
000000d0: ca1a ad3c f97f 323e cc0b 3bbc 5cdf 283e
000000e0: 88ef 3b3e dc7c f0bd f28b 41be 00d9 1a3e
000000f0: 3234 de3d d08a d33d e8e3 a33d 840a 49be
00000100: c36a a9bd a9ad 813d cf3b c8bd 800f 71bd
00000110: c469 4cbe 127c 34be 2f10 34be fc19 f13d
00000120: 1cce 133e 269d 083e b2d3 bd3d 8cb5 423e
00000130: 9b01 03be b955 03bd ac67 653d cce0 1bbe
00000140: 20ca 693d 39d7 9abd 9239 54be b080 6abd
00000150: 84de 9f3d c71c 3cbe a545 403e ad69 223e
00000160: e4da 22be 0387 a7bd 3f5d 503d 3ec6 023e
00000170: 82e4 313e 0c5e 9cbd e08c 003e 7068 803d
00000180: 50b2 553d 7373 e6bd 26f3 a2bc 8cef 05be
00000190: c910 eabc 2199 0c3e 1eb0 b83d e063 2cbd
000001a0: 708e 163c 0d50 103e 566e b53c 6800 11be
000001b0: 865c 333e 1c31 7bbd 88fb c6bb 0f7d 52be
000001c0: d9ff 113e fb52 c3bd c90e 12be 8a32 3bbe
000001d0: 1a2b ab3d d031 ec3d 5a01 adbd 4099 113c
000001e0: 4dcb fe3d caff 8fbd 203d 0dbe 4ade febd
000001f0: 19f4 d3bd df58 40be e8a3 49be 0c2b 50bd
00000200: e0ea ca3d c50a d7bd d5b7 4e3e 9edc 0c3e
00000210: e37e 9ebc d759 ffbd 9ecd 8e3d d702 bbbb
00000220: ea73 4e3e 34c9 373e 8382 f03c f05d 8e3d
00000230: ea7d 1ebe b448 983d 620b 193e 8846 bd3d
00000240: e3fe 893d a9ee 453e 7dae 76be db83 7d3d
00000250: 89f1 d93d 3f23 9fbd 8dc6 0f3d 1c9b f53d
00000260: d459 bbbd 3fe5 a8bd 4df9 a83d 748c 6fbd
00000270: 2ed0 fd3d d845 8ebd b7e8 27be a03c 0fbe
00000280: c991 50be 8670 87bc a337 32be 8a27 f23d
00000290: 5254 923d 6e7e 4b3e e097 353e fe52 223e
000002a0: 686b e73d bc30 113e d037 3cbd b284 d1bd
000002b0: d5b1 4dbe 8d18 30be eece a1bd 74cb 013e
000002c0: 189f e6bc 6ed2 47be 90a1 383d e05f 3c3e
000002d0: 74c2 8dbd b8a6 b63c 2c96 1ebd bc59 3a3e
000002e0: a048 d8bd 3708 cdbd 289e 20bd 6400 1fbe
000002f0: 4026 8fbb a8e4 ca3d 98ed 8b3d 969f 363e
00000300: 0e88 8ebc e820 80bc ed5e 72be 6208 303e
00000310: 8100 03be ac04 17bd 9e97 b8bd f0c5 c9bd
00000320: 5000 ad3c 0d28 6d3c 9792 3cbd dcef 0d3e
00000330: 1a31 ad3d d228 b4bd 33cd 13bd 6fea 43bb
00000340: eb4a bf3d 6fc5 48bd 2428 16bd 0896 ea3d
00000350: bfc5 fa3d 0cf3 ef3d 407f 1b3d 5a8b 183e
00000360: 9554 be3d 8fab 0d3e 934a 113e b113 09be
00000370: f2db 22bd f55f b03d 3c7c 6bbd ba1b 49be
00000380: 7c8b 1dbd 2626 cbbd 7cc3 e3bd 34f4 99bd
00000390: 8f4a 483e be9d 1bbe b72e d7bd 6d74 66bc
000003a0: a88a 4dbd 471a 3ebe 8f97 633b 62db 803d
000003b0: b2e9 c2bd c483 cf3d f866 e53d 4062 67bd
000003c0: 56fc 19be 4e4b 4cbe f86f 18bd 484a 5bbd
000003d0: f8e6 6bbd 0885 e93c 4747 24be 003e 9aba
000003e0: f430 283e 0224 273e 583b 86bc b88d 983d
000003f0: 24b2 f23d 3416 82bd b876 3d3e 4bbd 4ebe

bias f4 [24]
0.034235667 0.09720238 0.14814225 0.15330057 0.011204369 0.15735425 0.05492731 0.07388595
0.09529341 0.14453976 -0.14035404 -0.12048938 -0.023339838 0.097081214 0.00046783168 -0.114195935
-0.0101299435 -0.026332991 0.16424394 0.17310436 -0.17082557 0.21229078 0.1306231 -0.1696196
00000000: b33a 0c3d 0b12 c73d 9ab2 173e d3fa 1c3e
00000010: 8892 373c 7921 213e 76fb 603d 8451 973d
00000020: 3129 c33d 3b02 143e f8b8 0fbe 23c3 f6bd
00000030: 3033 bfbc 84d2 c63d 4e47 f539 8fdf e9bd
00000040: 10f8 25bc 49b8 d7bc 902f 283e 4542 313e
00000050: e6ec 2ebe c162 593e 10c2 053e c3b0 2dbe

weight f4 [4, 24]
0.17242582 0.10355204 0.05750245 -0.045030855 0.0817696 -0.0059750853 0.15896069 -0.10949744
0.11624295 0.06283299 0.03242199 0.092876695 -0.009037435 -0.14220424 -0.101644084 -0.077899635
0.016021535 -0.027568592 -0.011976579 0.105228014 0.094178796 0.03706491 0.12140124 0.09908129
0.0031316692 -0.025782997 -0.019500973 0.09302633 -0.19034149 -0.06178109 0.18708448 0.039158598
-0.016227474 -0.15295576 -0.13384989 -0.09851794 0.16201082 -0.07932491 0.13481611 -0.09394837
0.1021547 0.07572134 0.19409873 -0.012578671 0.04685549 0.017233504 0.05951799 -0.023859682
-0.088911645 -0.04560671 0.022105888 -0.09163498 -0.06718504 0.04244482 0.15495266 0.095389724
0.13103625 0.08439779 -0.072159424 0.054931935 0.18076193 -0.02657473 -0.088600054 0.091364115
0.13183257 0.12128857 -0.057525836 -0.07341607 -0.033694 0.1448037 0.05045145 -0.016957376
-0.10671435 0.2385402 0.13624923 0.112917 -0.092022896 0.06090239 -0.08365843 0.10143319
0.3000114 -0.059490453 0.055936188 0.12775071 0.019909576 0.12206152 0.03207565 0.083294116
0.028587475 -0.10469866 0.17929478 -0.18485197 -0.052834768 0.057090994 -0.08199426 0.16008319
00000000: 6590 303e 1813 d43d b087 6b3d 4672 38bd
00000010: d276 a73d a6ca c3bb 97c6 223e 3240 e0bd
00000020: c910 ee3d 95ae 803d eccc 043d 2336 be3d
00000030: c011 14bc fd9d 11be c62a d0bd d889 9fbd
00000040: 983f 833c 87d7 e1bc 6a39 44bc c981 d73d
00000050: d0e0 c03d 60d1 173d 37a1 f83d 22eb ca3d
00000060: b13c 4d3b dd36 d3bc 81c0 9fbc 9784 be3d
00000070: e1e8 42be 2b0e 7dbd 1393 3f3e c464 203d
00000080: 7bef 84bc 6fa0 1cbe f20f 09be c6c3 c9bd
00000090: 2ae6 253e 1975 a2bd 3c0d 0a3e 0168 c0bd
000000a0: 7c36 d13d ca13 9b3d d1c1 463e c516 4ebc
000000b0: 8beb 3f3d 472d 8d3c 23c9 733d 6175 c3bc
000000c0: 4f17 b6bd 1ace 3abd 6817 b53c 1fab bbbd
000000d0: 4f98 89bd 9fda 2d3d e9ab 1e3e b05b c33d
000000e0: 5e2e 063e c0d8 ac3d 52c8 93bd 4f00 613d
000000f0: a819 393e 40b3 d9bc f273 b5bd 1c1d bb3d
00000100: 1eff 063e 2466 f83d 36a0 6bbd 2a5b 96bd
00000110: b802 0abd 6c47 143e 2ea6 4e3d 32ea 8abc
00000120: 0e8d dabd e243 743e eb84 0b3e 0741 e73d
00000130: 8076 bcbd c974 793d 1c55 abbd 34bc cf3d
00000140: 189b 993e 43ac 73bd 581d 653d 15d1 023e
00000150: 6819 a33c 64fb f93d c261 033d 1b96 aa3d
00000160: 4830 ea3c 406c d6bd 0d99 373e d649 3dbe
00000170: 4569 58bd 3fd8 693d 9bec a7bd d9ec 233e

bias f4 [4]
0.114285916 0.17314197 0.21119486 0.10141577
00000000: bc0e ea3d 214c 313e 7743 583e 12b3 cf3d

exp_avg f4 [24, 4]
25393.713 1021.84314 4341.0513 50699.18 36458.523 -154.46063 2205.7798 96845.53
-2250.6062 3938.7646 5958.731 -1590.3906 6331.4023 -3647.3035 -4196.2324 3023.9883
6726.4775 -1533.0198 4995.2764 -6013.044 9882.856 3031.757 1166.1101 73050.95
28619.998 992.48926 648.20325 941.1301 10481.503 -3587.2065 67.87805 1651.1725
0.0 0.0 0.0 0.0 -15716.124 1897.8878 518.40076 -35917.617
-39101.535 -4890.46 -3870.1807 -115996.82 0.0 0.0 0.0 0.0
19996.615 2237.9211 -3035.185 -44113.777 0.0 0.0 0.0 0.0
30318.912 1433.5411 4184.4424 133522.17 21219.098 1408.6311 2272.56 14124.824
-33531.754 -2104.5208 -5303.31 -33411.656 11575.835 -584.9584 -1866.0415 -28452.95
-26799.602 1776.4409 364.787 321.8164 -32045.906 -5491.573 -7163.542 -87331.375
29380.387 -395.6442 1380.4541 61865.973 0.0 0.0 0.0 0.0
0.0 0.0 0.0 0.0 0.0 0.0 0.0 0.0
00000000: 6d63 c646 f675 7f44 69a8 8745 2e0b 4647
00000010: 866a 0e47 ec75 1ac3 7adc 0945 c426 bd47
00000020: b3a9 0cc5 3c2c 7645 d935 ba45 80cc c6c4
00000030: 38db c545 dbf4 63c5 dc21 83c5 d0ff 3c45
00000040: d233 d245 a2a0 bfc4 361a 9c45 5ae8 bbc5
00000050: 6d6b 1a46 1d7c 3d45 86c3 9144 7aad 8e47
00000060: ff97 df46 501f 7844 020d 2244 5448 6b44
00000070: 03c6 2346 4e33 60c5 90c1 8742 8565 ce44
00000080: 0000 0000 0000 0000 0000 0000 0000 0000
00000090: 7f90 75c6 693c ed44 a699 0144 9e4d 0cc7
000000a0: 89bd 18c7 aed3 98c5 e4e2 71c5 698e e2c7
000000b0: 0000 0000 0000 0000 0000 0000 0000 0000
000000c0: 3b39 9c46 bdde 0b45 f6b2 3dc5 c751 2cc7
000000d0: 0000 0000 0000 0000 0000 0000 0000 0000
000000e0: d3dd ec46 5131 b344 8ac3 8245 8b64 0248
000000f0: 32c6 a546 3214 b044 f608 0e45 4cb3 5c46
00000100: c1fb 02c7 5588 03c5 7bba a5c5 a883 02c7
00000110: 57df 3446 563d 12c4 5441 e9c4 e649 dec6
00000120: 345f d1c6 1c0e de44 bc64 b643 80e8 a043
00000130: d05b fac6 969c abc5 56dc dfc5 b091 aac7
00000140: c688 e546 75d2 c5c3 888e ac44 f9a9 7147
00000150: 0000 0000 0000 0000 0000 0000 0000 0000
00000160: 0000 0000 0000 0000 0000 0000 0000 0000
00000170: 0000 0000 0000 0000 0000 0000 0000 0000

exp_avg_sq f4 [24, 4]
7.7369285e+11 4.407836e+07 4.2110237e+08 7.19416e+11 2.81045e+11 1.9424044e+07 2.9978054e+08 4.2606343e+11
8.780136e+08 3.682735e+07 1.3974574e+08 2.8924772e+10 6.3252337e+09 3.4308573e+08 3.697495e+08 1.6821202e+10
2.573925e+11 1.1495977e+08 3.2046173e+08 3.1125855e+11 1.7666724e+10 1.0341798e+08 1.50673e+08 5.616939e+10
2.3877874e+10 2.9858922e+07 3.45575e+06 7.0786e+06 6.9805605e+10 7.0878616e+07 1.2044443e+08 2.226461e+10
0.0 0.0 0.0 0.0 1.1161337e+11 1.2304179e+07 1.0588843e+08 1.638939e+11
1.1136754e+11 1.058824e+08 2.612899e+08 2.5069563e+11 0.0 0.0 0.0 0.0
1.30374074e+11 1.6199494e+08 3.5144224e+07 4.3730338e+10 0.0 0.0 0.0 0.0
2.3445898e+09 1.7700398e+07 1.3801989e+08 1.0208726e+11 2.323563e+11 9.977462e+07 1.9328554e+08 1.5010126e+11
9.6466174e+11 1.06324584e+08 9.5921984e+08 9.3836725e+11 3.624598e+11 9.055802e+07 1.6071373e+08 3.06465e+11
1.6212002e+11 1.229646e+08 7.934218e+07 5.3306753e+10 2.3436268e+11 2.130564e+08 9.939219e+08 4.3063702e+11
7.100329e+10 6.564804e+07 1.24601784e+08 1.29084105e+11 0.0 0.0 0.0 0.0
0.0 0.0 0.0 0.0 0.0 0.0 0.0 0.0
00000000: b023 3453 4625 284c 19cc c84d 8980 2753
00000010: 2ddf 8252 9631 944b 4ef2 8e4d b866 c652
00000020: b255 514e 367c 0c4c 9d45 054d a081 d750
00000030: b481 bc4f 9598 a34d 704f b04d cba7 7a50
00000040: 27b7 6f52 b344 db4c ddce 984d e9f0 9052
00000050: 9aa0 8350 1041 c54c 66b1 0f4d 4e3f 5151
00000060: 6ee7 b150 35ce e34b 18ec 524a 9005 d84a
00000070: e805 8251 b330 874c c2ba e54c 60e2 a550
00000080: 0000 0000 0000 0000 0000 0000 0000 0000
00000090: 67e5 cf51 33bf 3b4b 56f7 c94c 5aa3 1852
000000a0: 2e70 cf51 64f4 c94c 7b2f 794d 7f7a 6952
000000b0: 0000 0000 0000 0000 0000 0000 0000 0000
000000c0: 34d7 f251 8c7d 1a4d 8810 064c 80e8 2251
000000d0: 0000 0000 0000 0000 0000 0000 0000 0000
000000e0: 9abf 0b4f 170b 874b 43a0 034d 0027 be51
000000f0: 0f66 5852 144e be4c da54 384d eeca 0b52
00000100: 529a 6053 4dcc ca4c 22b2 644e 0c7b 5a53
00000110: 93c8 a852 c8b9 ac4c c044 194d 7ab5 8e52
00000120: 6dfc 1652 4f89 ea4c 4c55 974c 4895 4651
00000130: 6b44 5a52 b92f 4b4d 2ef8 6c4e ef87 c852
00000140: 0241 8451 6a6d 7a4c b7a8 ed4c 1970 f051
00000150: 0000 0000 0000 0000 0000 0000 0000 0000
00000160: 0000 0000 0000 0000 0000 0000 0000 0000
00000170: 0000 0000 0000 0000 0000 0000 0000 0000

exp_avg f4 [24]
0.0008145578 0.0013535535 6.056491e-05 1.5118494e-05 4.1756837e-05 0.00087131665 0.00031201818 8.613349e-05
0.0 -0.0004921743 -0.0016385899 0.0 -0.00024914416 0.0 0.0016945906 0.00039025123
-0.0007435123 -0.00019328124 -0.0002433655 -0.0013203241 0.0009223117 0.0 0.0 0.0
00000000: 0c88 553a b869 b13a 1407 7e38 70a5 7d37
00000010: 1024 2f38 1269 643a 5f96 a339 91a2 b438
00000020: 0000 0000 4205 01ba f4c5 d6ba 0000 0000
00000030: 909f 82b9 0000 0000 061d de3a a29a cc39
00000040: 44e8 42ba 8aab 4ab9 ee2f 7fb9 ba0e adba
00000050: 4ac7 713a 0000 0000 0000 0000 0000 0000

exp_avg_sq f4 [24]
0.00030253403 0.00013822886 3.584131e-06 5.1569286e-06 0.00011396257 1.2174193e-05 2.6387743e-06 1.7268645e-05
0.0 5.388613e-05 6.503262e-05 0.0 2.5847743e-05 0.0 1.4208084e-05 7.7847435e-05
0.00038862586 0.00013221179 3.863711e-05 0.00012286729 3.7969152e-05 0.0 0.0 0.0
00000000: 6e9d 9e39 87f1 1039 e786 7036 ae09 ad36
00000010: 30ff ee38 c33f 4c37 cc15 3136 22dc 9037
00000020: 0000 0000 cb03 6238 1f62 8838 0000 0000
00000030: 9bd3 d837 0000 0000 425f 6e37 0642 a338
00000040: 7bc0 cb39 55a2 0a39 480e 2238 f0d5 0039
00000050: 1141 1f38 0000 0000 0000 0000 0000 0000

exp_avg f4 [24, 24]
-57721.297 -32532.66 -32107.197 -3542.0127 -51884.402 -33348.96 -380.25085 -4528.6406
0.0 -27399.227 -44102.906 0.0 -9844.83 0.0 -9456.067 -4357.797
-75521.27 -9540.19 -8496.856 -8527.385 -28259.297 0.0 0.0 0.0
-2377.7527 -595.33923 326.9657 -1377.5314 -3402.0762 -1965.1729 -490.0462 -1643.3127
0.0 -458.2978 -1511.2949 0.0 -2488.3386 0.0 103.43662 -2274.7173
-2708.2476 -621.7086 -2110.8152 -1775.9563 -3451.6177 0.0 0.0 0.0
631.39 926.1703 0.0 9.80045e-20 21207.26 33429.72 10820.832 24872.152
0.0 519.2412 169.46796 0.0 28630.904 0.0 0.0 25398.703
622.814 36697.98 38203.36 3360.2095 21418.32 0.0 0.0 0.0
3803.3022 -1378.1366 166.13113 3230.0295 24190.904 32955.05 9654.731 26425.598
0.0 -543.7466 1882.367 0.0 30484.031 0.0 258.6372 27550.895
3293.4558 37485.133 42211.414 7126.1523 26216.854 0.0 0.0 0.0
-87859.59 -52234.94 -24725.125 -752.4487 -104884.516 -81182.91 1.3288796e-18 -318.54843
0.0 -42365.617 -63982.934 0.0 -49406.01 0.0 -4902.13 -17676.629
-117204.92 -23049.47 -10724.199 -17386.053 -67004.51 0.0 0.0 0.0
-10701.797 -5140.7666 1594.916 -1370.2883 -15511.791 -9778.872 0.0 141.95198
0.0 -4161.712 -7101.504 0.0 -10137.597 0.0 1637.322 -3850.5273
-14173.6875 708.47766 426.2245 -4270.2783 -11973.004 0.0 0.0 0.0
3224.2231 6305.568 -670.89307 -9705.4375 7408.742 11540.635 -458.26666 -3553.068
0.0 4555.622 2582.9727 0.0 5225.507 0.0 -1983.1287 1447.0312
6075.1797 -1934.6992 -2020.4321 -2990.0227 2039.5518 0.0 0.0 0.0
0.0 0.0 0.0 0.0 0.0 0.0 0.0 0.0
0.0 0.0 0.0 0.0 0.0 0.0 0.0 0.0
0.0 0.0 0.0 0.0 0.0 0.0 0.0 0.0
-22662.912 -8356.122 -4544.195 -13117.117 -18820.44 5570.2656 -170.32304 724.4785
0.0 -6795.3486 -15577.13 0.0 -2741.4663 0.0 -3290.4778 -2967.734
-29475.594 9204.807 1351.3076 -9639.602 -13025.774 0.0 0.0 0.0
-78075.68 -45324.71 -24186.992 -2111.6147 -85615.984 -59568.086 0.0 -7.802665e-07
0.0 -37347.953 -57514.25 0.0 -33840.33 0.0 -4487.9917 -7206.076
-103961.375 -7576.0303 75.57101 -14506.579 -52487.96 0.0 0.0 0.0
0.0 0.0 0.0 0.0 0.0 0.0 0.0 0.0
0.0 0.0 0.0 0.0 0.0 0.0 0.0 0.0
00000000: 4c79 61c7 5229 fec6 65d6 fac6 3460 5dc5
00000010: 67ac 4ac7 f644 02c7 1c20 bec3 2085 8dc5
00000020: 0000 0000 740e d6c6 e846 2cc7 0000 0000
00000030: 52d3 19c6 0000 0000 45c0 13c6 602e 88c5
00000040: a380 93c7 c310 15c6 6dc3 04c6 8a3d 05c6
00000050: 98c6 dcc6 0000 0000 0000 0000 0000 0000
00000060: 0b9c 14c5 b6d5 14c4 9c7b a343 0131 acc4
00000070: 38a1 54c5 88a5 f5c4 ea05 f5c3 026a cdc4
00000080: 0000 0000 1e26 e5c3 70e9 bcc4 0000 0000
00000090: 6b85 1bc5 0000 0000 8ddf ce42 7a2b 0ec5
000000a0: f643 29c5 5a6d 1bc4 0bed 03c5 9afe ddc4
000000b0: e2b9 57c5 0000 0000 0000 0000 0000 0000
000000c0: f6d8 1d44 e68a 6744 0000 0000 1668 e71f
000000d0: 85ae a546 b895 0247 5413 2946 4e50 c246
000000e0: 0000 0000 70cf 0144 cc77 2943 0000 0000
000000f0: cfad df46 0000 0000 0000 0000 686d c646
00000100: 19b4 1b44 fb59 0f47 5c3b 1547 5a03 5245
00000110: a454 a746 0000 0000 0000 0000 0000 0000
00000120: d6b4 6d45 5f44 acc4 9221 2643 79e0 4945
00000130: cffd bc46 0dbb 0047 edda 1646 3273 ce46
00000140: 0000 0000 c8ef 07c4 be4b eb44 0000 0000
00000150: 1028 ee46 0000 0000 9051 8143 ca3d d746
00000160: 4bd7 4d45 226d 1247 6ae3 2447 38b1 de45
00000170: b5d1 cc46 0000 0000 0000 0000 0000 0000
00000180: cc99 abc7 f10a 4cc7 402a c1c6 b81c 3cc4
00000190: 42da ccc7 748f 9ec7 a71b c421 3346 9fc3
000001a0: 0000 0000 9e7d 25c7 efee 79c7 0000 0000
000001b0: 03fe 40c7 0000 0000 0a31 99c5 4219 8ac6
000001c0: 76ea e4c7 f112 b4c6 cc90 27c6 1bd4 87c6
000001d0: 41de 82c7 0000 0000 0000 0000 0000 0000
000001e0: 3037 27c6 22a6 a0c5 505d c744 3a49 abc4
000001f0: 2a5f 72c6 7dcb 18c6 0000 0000 b5f3 0d43
00000200: 0000 0000 b20d 82c5 08ec ddc5 0000 0000
00000210: 6366 1ec6 0000 0000 4eaa cc44 70a8 70c5
00000220: c076 5dc6 921e 3144 bc1c d543 3a72 85c5
00000230: 0414 3bc6 0000 0000 0000 0000 0000 0000
00000240: 9283 4945 8b0c c545 28b9 27c4 c0a5 17c6
00000250: f085 e745 8a52 3446 2222 e5c3 1711 5ec5
00000260: 0000 0000 fa5c 8e45 906f 2145 0000 0000
00000270: 0e4c a345 0000 0000 1ee4 f7c4 00e1 b444
00000280: 70d9 bd45 60d6 f1c4 d48d fcc4 5de0 3ac5
00000290: a8f1 fe44 0000 0000 0000 0000 0000 0000
000002a0: 0000 0000 0000 0000 0000 0000 0000 0000
000002b0: 0000 0000 0000 0000 0000 0000 0000 0000
000002c0: 0000 0000 0000 0000 0000 0000 0000 0000
000002d0: 0000 0000 0000 0000 0000 0000 0000 0000
000002e0: 0000 0000 0000 0000 0000 0000 0000 0000
000002f0: 0000 0000 0000 0000 0000 0000 0000 0000
00000300: d30d b1c6 7d90 02c6 8f01 8ec5 78f4 4cc6
00000310: e108 93c6 2012 ae45 b352 2ac3 a01e 3544
00000320: 0000 0000 ca5a d4c5 8564 73c6 0000 0000
00000330: 7657 2bc5 0000 0000 a5a7 4dc5 be7b 39c5
00000340: 3047 e6c6 3ad3 0f46 d8e9 a844 689e 16c6
00000350: 1987 4bc6 0000 0000 0000 0000 0000 0000
00000360: d77d 98c7 b60c 31c7 fcf5 bcc6 d6f9 03c5
00000370: fe37 a7c7 16b0 68c7 0000 0000 8173 51b5
00000380: 0000 0000 f4e3 11c7 40aa 60c7 0000 0000
00000390: 5430 04c7 0000 0000 ef3f 8cc5 9c30 e1c5
000003a0: b00c cbc7 3ec0 ecc5 5b24 9742 51aa 62c6
000003b0: f607 4dc7 0000 0000 0000 0000 0000 0000
000003c0: 0000 0000 0000 0000 0000 0000 0000 0000
000003d0: 0000 0000 0000 0000 0000 0000 0000 0000
000003e0: 0000 0000 0000 0000 0000 0000 0000 0000
000003f0: 0000 0000 0000 0000 0000 0000 0000 0000

exp_avg_sq f4 [24, 24]
7.689143e+10 2.3717212e+10 1.5911234e+10 1.0107389e+09 6.6919924e+10 2.1775157e+10 2.9354528e+07 3.4400867e+08
0.0 1.72165e+10 4.483043e+10 0.0 4.685385e+09 0.0 1.5501939e+09 9.762978e+08
1.3387212e+11 1.6402392e+09 9.9623277e+08 2.2103905e+09 2.090129e+10 0.0 0.0 0.0
3.7943546e+08 9.147612e+07 4.5702668e+07 5.530003e+07 3.507485e+08 7.656086e+07 847855.7 5.1749864e+07
0.0 6.892993e+07 2.1400466e+08 0.0 6.9687496e+07 0.0 4.7953e+06 5.202377e+07
6.0991846e+08 1.2928009e+07 9.53944e+07 6.0549668e+07 2.1799683e+08 0.0 0.0 0.0
5.9609776e+07 3.4341544e+07 0.0 689.24774 2.0505549e+10 5.18747e+10 5.269193e+09 2.7988546e+10
0.0 1.4175918e+07 2.7207908e+06 0.0 3.6958982e+10 0.0 0.0 2.8906985e+10
3.365992e+07 5.8881847e+10 6.637885e+10 5.727221e+08 2.1280008e+10 0.0 0.0 0.0
2.9484218e+10 1.0705733e+10 2.7223738e+06 8.0421336e+07 1.0710931e+11 1.452021e+11 3.5036882e+09 1.9477533e+10
0.0 7.7383936e+09 1.4025086e+10 0.0 8.473788e+10 0.0 4.5609055e+06 4.49224e+10
4.980862e+10 8.811366e+10 6.207748e+10 2.874499e+09 7.150761e+10 0.0 0.0 0.0
5.2007325e+11 1.8299814e+11 1.0227236e+10 4.984548e+08 1.3297458e+12 1.4197716e+12 1.1145984e+06 5.5980166e+08
0.0 1.3234519e+11 2.6957826e+11 0.0 7.072643e+11 0.0 7.464609e+08 2.6346616e+11
8.933345e+11 5.633892e+11 1.7037122e+11 3.2175907e+10 7.386831e+11 0.0 0.0 0.0
1.9136217e+10 6.0914273e+09 2.8587758e+09 1.4972347e+08 2.0824551e+10 1.0680806e+10 0.0 64972.926
0.0 4.4527094e+09 1.1062382e+10 0.0 3.3639613e+09 0.0 2.4316835e+08 4.0729398e+08
3.3309741e+10 1.01745555e+09 7.948398e+07 5.7646336e+08 7.5855493e+09 0.0 0.0 0.0
1.947832e+11 6.695721e+10 1.8096804e+09 3.9808627e+08 4.5517357e+11 4.3625038e+11 5.4038005e+06 2.5942675e+08
0.0 4.787378e+10 1.0185736e+11 0.0 2.1450501e+11 0.0 4.262075e+07 7.082129e+10
3.360736e+11 1.4896148e+11 3.3239177e+10 1.2004617e+10 2.4318483e+11 0.0 0.0 0.0
0.0 0.0 0.0 0.0 0.0 0.0 0.0 0.0
0.0 0.0 0.0 0.0 0.0 0.0 0.0 0.0
0.0 0.0 0.0 0.0 0.0 0.0 0.0 0.0
5.2043817e+09 1.0356956e+09 9.5193544e+07 7.089313e+08 7.9617423e+09 2.230236e+09 1.1886203e+07 6.0721504e+08
0.0 6.366196e+08 2.3702167e+09 0.0 2.5395564e+09 0.0 8.657562e+07 1.5758866e+09
8.522257e+09 8.743055e+08 1.4586844e+09 1.01021786e+09 5.144942e+09 0.0 0.0 0.0
2.8336579e+10 9.302906e+09 3.3099983e+09 5.3021732e+07 4.152863e+10 3.395942e+10 0.0 1.8297122e+06
0.0 7.0896067e+09 1.5856999e+10 0.0 1.4379662e+10 0.0 1.7820494e+08 3.8202988e+09
4.8998306e+10 7.910002e+09 2.4067889e+09 9.798395e+08 1.8601617e+10 0.0 0.0 0.0
0.0 0.0 0.0 0.0 0.0 0.0 0.0 0.0
0.0 0.0 0.0 0.0 0.0 0.0 0.0 0.0
00000000: b138 8f51 feb4 b050 8a18 6d50 9bfa 704e
00000010: d04b 7951 d13c a250 10f5 df4b 3f09 a44d
00000020: 0000 0000 de45 8050 a101 2751 0000 0000
00000030: a7a2 8b4f 0000 0000 2acc b84e 7dc4 684e
00000040: 345b f951 2188 c34e 3985 6d4e e2bf 034f
00000050: 0cba 9b50 0000 0000 0000 0000 0000 0000
00000060: ceed b44d 137a ae4c 8357 2e4c f0f3 524c
00000070: fb3f a74d 3c07 924c fbfe 4e49 fa68 454c
00000080: 0000 0000 3179 834c 3b17 4c4d 0000 0000
00000090: 19eb 844c 0000 0000 4857 924a 7674 464c
000000a0: 786a 114e 0944 454b 4cf3 b54c 89fa 664c
000000b0: e2e5 4f4d 0000 0000 0000 0000 0000 0000
000000c0: ac64 634c aa00 034c 0000 0000 db4f 2c44
000000d0: 3bc7 9850 923f 4151 c108 9d4f ea87 d050
000000e0: 0000 0000 ae4e 584b 5b10 264a 0000 0000
000000f0: d5ae 0951 0000 0000 0000 0000 b35f d750
00000100: 0467 004c 1b5a 5b51 ce47 7751 2f8c 084e
00000110: 658c 9e50 0000 0000 0000 0000 0000 0000
00000120: afac db50 2187 1f50 1729 264a 3b64 994c
00000130: b381 c751 e13a 0752 0ad6 504f 721e 9150
00000140: 0000 0000 429f e64f 75fd 5050 0000 0000
00000150: 2bd6 9d51 0000 0000 1330 8b4a 5759 2751
00000160: 348d 3951 de1f a451 b341 6751 6055 2b4f
00000170: 7c31 8551 0000 0000 0000 0000 0000 0000
00000180: 902d f252 286e 2a52 cf65 1850 88ae ed4d
00000190: 83cd 9a53 7e48 a553 330f 8849 9577 054e
000001a0: 0000 0000 1b83 f651 7710 7b52 0000 0000
000001b0: 3dac 2453 0000 0000 5cf8 314e 3a5f 7552
000001c0: e3fe 4f53 9d2c 0353 aaab 1e52 acba ef50
000001d0: f2fc 2b53 0000 0000 0000 0000 0000 0000
000001e0: 7093 8e50 e789 b54f 7565 2a4f 95c9 0e4d
000001f0: ae27 9b50 0b28 1f50 0000 0000 edcc 7d47
00000200: 0000 0000 7ab3 844f a3d7 2450 0000 0000
00000210: fa81 484f 0000 0000 46e7 674d 8136 c24d
00000220: 4a2d f850 8f94 724e 8a9a 974c 8870 094e
00000230: 2611 e24f 0000 0000 0000 0000 0000 0000
00000240: ef67 3552 5f6f 7951 10bb d74e 84d2 bd4d
00000250: ebf4 d352 1925 cb52 31e9 a44a 9c68 774d
00000260: 0000 0000 ff57 3251 60b9 bd51 0000 0000
00000270: fbc5 4752 0000 0000 d495 224c 39ea 8351
00000280: 187f 9c52 2fbb 0a52 b3a6 f750 fbe1 3250
00000290: c87b 6252 0000 0000 0000 0000 0000 0000
000002a0: 0000 0000 0000 0000 0000 0000 0000 0000
000002b0: 0000 0000 0000 0000 0000 0000 0000 0000
000002c0: 0000 0000 0000 0000 0000 0000 0000 0000
000002d0: 0000 0000 0000 0000 0000 0000 0000 0000
000002e0: 0000 0000 0000 0000 0000 0000 0000 0000
000002f0: 0000 0000 0000 0000 0000 0000 0000 0000
00000300: 481a 9b4f d8ed 764e 3991 b54c bc05 294e
00000310: 4647 ed4f b3ee 044f 7b5e 354b 77c5 104e
00000320: 0000 0000 2dc8 174e a346 0d4f 0000 0000
00000330: 8e5e 174f 0000 0000 4021 a54c 3edc bb4e
00000340: a9fb fd4f 5f73 504e 84e3 ad4e ceda 704e
00000350: cb54 994f 0000 0000 0000 0000 0000 0000
00000360: bc1f d350 c59f 0a50 914a 454f 0943 4a4c
00000370: cab4 1a51 7404 fd50 0000 0000 825a df49
00000380: 0000 0000 6849 d34f a749 6c50 0000 0000
00000390: 0f46 5650 0000 0000 11f3 294d 22b5 634f
000003a0: 6d88 3651 87bc eb4f af74 0f4f a89c 694e
000003b0: c597 8a50 0000 0000 0000 0000 0000 0000
000003c0: 0000 0000 0000 0000 0000 0000 0000 0000
000003d0: 0000 0000 0000 0000 0000 0000 0000 0000
000003e0: 0000 0000 0000 0000 0000 0000 0000 0000
000003f0: 0000 0000 0000 0000 0000 0000 0000 0000

exp_avg f4 [24]
-0.0023071023 -0.00015648761 0.00080355874 0.000987882 -0.004386754 -0.00063920644 0.00022473035 0.0
-0.00085224723 -0.0036274116 0.0 -0.0022069083 0.0 0.0 0.005879364 -0.00050381734
0.0 -0.0012148375 0.0051612146 -0.0008559673 7.6528464e-05 -0.00143806 -0.0019374543 0.0009070146
00000000: c132 17bb d316 24b9 eaa5 523a d27b 813a
00000010: c2be 8fbb 6b90 27ba 98a5 6b39 0000 0000
00000020: 5869 5fba deb9 6dbb 0000 0000 c7a1 10bb
00000030: 0000 0000 0000 0000 aea7 c03b 9c12 04ba
00000040: 0000 0000 2f3b 9fba 681f a93b fe62 60ba
00000050: e87d a038 497d bcba 2ef2 fdba b8c4 6d3a

exp_avg_sq f4 [24]
0.00012644916 7.161048e-07 2.9580182e-05 0.00017237943 0.0022049085 3.788013e-05 0.0007608931 0.0
1.4552522e-05 7.274524e-05 0.0 0.00067187654 0.0 0.0 0.001130273 0.000589723
0.0 0.0004913783 0.0012181452 6.234011e-05 0.00014644634 0.0001245233 0.00030333194 0.00023462558
00000000: 7097 0439 593a 4035 f522 f837 c0c0 3439
00000010: 3a80 103b 7be1 1e38 ac76 473a 0000 0000
00000020: 9b26 7437 ce8e 9838 0000 0000 df20 303a
00000030: 0000 0000 0000 0000 ab25 943a a497 1a3a
00000040: 0000 0000 d7cf 003a 2caa 9f3a 97bc 8238
00000050: 648f 1939 7892 0239 8608 9f39 d305 7639

exp_avg f4 [4, 24]
-66283.94 -2928.048 153.8164 -10696.884 -93142.55 -50960.78 -2775.612 0.0
-5253.097 -3052.1343 0.0 -10451.33 0.0 0.0 -84917.375 -51941.426
0.0 -141599.81 -94285.68 -1478.5059 -1500.3359 -121826.7 -7296.5566 -75568.82
38280.86 0.62945557 -3.802511e-08 5688.8926 140968.69 3944.196 8404.092 0.0
2727.136 17884.256 0.0 70102.945 0.0 0.0 184204.84 59103.387
0.0 209348.8 84545.09 2198.2012 22511.11 83755.27 16327.477 98662.69
-45887.062 -7048.764 0.0 -9039.043 -96293.86 -29803.373 -9416.799 0.0
-10774.586 -3042.0312 0.0 -23438.34 0.0 0.0 -102525.9 -44272.953
0.0 -137081.27 -69740.31 -586.96155 -17674.885 -77672.516 -16168.367 -73067.47
27242.363 -627.1684 17022.379 18457.223 67280.94 30793.807 -4736.1133 0.0
-4814.2676 1610.207 0.0 88239.56 0.0 0.0 141385.5 56092.332
0.0 154057.31 63563.555 31155.168 61799.7 64814.945 10686.6 127591.79
00000000: f875 81c7 c500 37c5 00d1 1943 8923 27c6
00000010: 46eb b5c7 c810 47c7 cb79 2dc5 0000 0000
00000020: c728 a4c5 26c2 3ec5 0000 0000 524d 23c6
00000030: 0000 0000 0000 0000 b0da a5c7 6de5 4ac7
00000040: 0000 0000 f447 0ac8 d726 b8c7 30d0 b8c4
00000050: c08a bbc4 5af1 edc7 7404 e4c5 6998 93c7
00000060: dc88 1547 0024 213f 0d51 23b3 24c7 b145
00000070: 2caa 0948 2383 7645 5e50 0346 0000 0000
00000080: 2d72 2a45 83b8 8b46 0000 0000 79eb 8847
00000090: 0000 0000 0000 0000 36e3 3348 63df 6647
000000a0: 0000 0000 3371 4c48 8c20 a547 3863 0945
000000b0: 38de af46 a395 a347 e81d 7f46 58b3 c047
000000c0: 103f 33c7 1d46 dcc5 0000 0000 2c3c 0dc6
000000d0: ee12 bcc7 bfd6 e8c6 3223 13c6 0000 0000
000000e0: 585a 28c6 8020 3ec5 0000 0000 ae1c b7c6
000000f0: 0000 0000 0000 0000 f33e c8c7 f4f0 2cc7
00000100: 0000 0000 51de 05c8 2836 88c7 8abd 12c4
00000110: c515 8ac6 42b4 97c7 78a1 7cc6 bcb5 8ec7
00000120: bad4 d446 c7ca 1cc4 c2fc 8446 7232 9046
00000130: 7868 8347 9d93 f046 e800 94c5 0000 0000
00000140: 2472 96c5 a046 c944 0000 0000 c857 ac47
00000150: 0000 0000 0000 0000 6012 0a48 551c 5b47
00000160: 0000 0000 5472 1648 8e4b 7847 5666 f346
00000170: b367 7147 f22e 7d47 66fa 2646 e533 f947

exp_avg_sq f4 [4, 24]
4.0035238e+10 3.602164e+07 8.0965824e+08 1.380352e+09 1.182505e+11 2.6321699e+10 1.4280822e+08 0.0
1.3262971e+08 8.469604e+07 0.0 2.7069407e+10 0.0 0.0 1.8079021e+11 4.0257343e+10
0.0 3.0048397e+11 7.842077e+10 2.5627999e+09 1.5792384e+10 1.3890537e+11 3.995045e+09 1.1598738e+11
1.9896914e+10 2.3068018e+06 2.3177172e+06 2.6459718e+10 1.9055622e+12 2.4115305e+09 1.1709375e+10 0.0
1.0777408e+08 1.2717356e+09 0.0 1.1353947e+12 0.0 0.0 6.295307e+12 8.059271e+11
0.0 6.124596e+12 1.3429829e+11 8.121788e+08 5.487944e+11 1.884511e+11 1.7500101e+11 2.241333e+12
9.412267e+10 7.314981e+07 0.0 3.7776874e+08 2.0790908e+11 6.7251196e+10 6.313027e+08 0.0
8.448979e+08 2.1863758e+07 0.0 5.6155735e+09 0.0 0.0 2.096456e+11 6.4856564e+10
0.0 4.6387547e+11 1.6972132e+11 905373.56 1.6307374e+09 3.1368357e+11 6.196791e+09 1.4126894e+11
7.348995e+10 9.062458e+06 3.1403184e+10 2.486977e+10 2.5252341e+11 4.1478214e+10 5.1543194e+08 0.0
1.3533986e+08 6.6454195e+08 0.0 2.120421e+11 0.0 0.0 5.0760424e+11 7.7189734e+10
0.0 6.9275714e+11 1.7958273e+11 3.7499417e+10 1.2899846e+11 2.534569e+11 4.4938947e+09 4.059651e+11
00000000: 9424 1551 6269 094c 9e09 414e 008d a44e
00000010: 3b42 dc51 a81c c450 4a31 084d 0000 0000
00000020: 9af8 fc4c 7d8b a14c 0000 0000 ccae c950
00000030: 0000 0000 0000 0000 bf5f 2852 65f8 1551
00000040: 0000 0000 7bec 8b52 f011 9251 39c1 184f
00000050: 2a53 6b50 9f5d 0152 8d1f 6e4f 180b d851
00000060: 5a3e 9450 c7cb 0c4a 5576 0d4a e823 c550
00000070: 2ed6 dd53 09bd 0f4f b97b 2e50 0000 0000
00000080: 1090 cd4c 4a9a 974e 0000 0000 662d 8453
00000090: 0000 0000 0000 0000 b137 b754 00a5 3b53
000000a0: 0000 0000 cc3f b254 6a26 fa51 76a3 414e
000000b0: 648d ff52 3e82 2f52 7efb 2252 7776 0254
000000c0: 3051 af51 ae85 8b4c 0000 0000 5922 b44d
000000d0: 63a1 4152 bd87 7a51 a983 164e 0000 0000
000000e0: 7a70 494e a7ce a64b 0000 0000 6d5b a74f
000000f0: 0000 0000 0000 0000 683f 4352 0a9c 7151
00000100: 0000 0000 4402 d852 b710 1e52 d909 5d49
00000110: 2866 c24e ff11 9252 c3ad b84f 2491 0352
00000120: bde2 8851 3a48 0a4b d2f8 e950 524b b950
00000130: 462e 6b52 b584 1a51 f0c6 f54d 0000 0000
00000140: f511 014d 6c70 1e4e 0000 0000 c77a 4552
00000150: 0000 0000 0000 0000 245f ec52 efc6 8f51
00000160: 0000 0000 8b4b 2153 dc3f 2752 3bb2 0b51
00000170: 4247 f051 d50c 6c52 b2ed 854f d00a bd52

exp_avg f4 [4]
-0.013142027 0.020758098 -0.013511537 0.015079372
00000000: a851 57bc e30c aa3c 7e5f 5dbc 780f 773c

exp_avg_sq f4 [4]
0.0027023756 0.05755091 0.004073914 0.006263283
00000000: 571a 313b 81ba 6b3d 787e 853b 3a3c cd3b
