test_model/covid24.pth (torch, 16239 bytes, 18 tensors)

weight f4 [24, 4]
-0.0012458838 0.20269701 0.21463257 0.29296726 0.013853512 -0.36999628 0.20740299 0.16450578
-0.19611077 0.14882149 -0.19804941 0.17479323 -0.105675794 0.34609357 0.33275148 0.018037848
0.2650058 0.02629888 0.2956278 0.21785417 0.42731896 -0.19494632 -0.31696072 0.08137329
0.14400648 0.2703069 -0.54758066 -0.49926537 0.3192593 0.4514402 -0.21988185 -0.3865856
-0.399167 -0.11883098 -0.25442863 -0.11646855 0.0077025 -0.16338076 0.075391844 0.13894932
-0.023084324 0.18985955 0.06835299 0.2265946 -0.34297955 0.1456176 -0.326976 -0.074967444
0.36628616 -0.05628808 0.1828058 -0.013293458 -0.33814508 -0.4670592 -0.36475432 -0.3048631
-0.15641785 -0.096609786 0.13176997 0.053845875 0.32549593 -0.14143202 0.483516 -0.12674263
0.0011907828 0.11834347 0.38948026 0.39006373 0.4762767 -0.31137106 -0.12426969 -0.15214373
0.48780614 0.40742463 -0.4101665 -0.3525685 0.036979586 0.28183514 0.17341396 0.0335862
0.26643693 0.27394146 0.19346257 0.09441484 -0.47736287 0.1659804 0.15582919 -0.4379102
-0.4189154 0.18685973 0.23892254 -0.452309 -0.061170638 0.008157134 -0.4108292 -0.4170401
00000000: ec4c a3ba ce8f 4f3e a4c8 5b3e ceff 953e
00000010: d7f9 623c 2770 bdbe 7361 543e 3474 283e
00000020: 43d1 48be a964 183e 77cd 4abe fffc 323e
00000030: 8d6c d8bd 2d33 b13e 675e aa3e 1cc4 933c
00000040: d7ae 873e c070 d73c 875c 973e 2a15 5f3e
00000050: 8dc9 da3e 02a0 47be ad48 a2be 0aa7 a63d
00000060: 6f76 133e aa65 8a3e 3f2e 0cbf b69f ffbe
00000070: f475 a33e 2b23 e73e b528 61be 8cee c5be
00000080: 9e5f ccbe a85d f3bd 7844 82be 1087 eebd
00000090: 4165 fc3b 494d 27be 0a67 9a3d bb48 0e3e
000000a0: 561b bdbc 8b6a 423e a7fc 8b3d 6a08 683e
000000b0: 049b afbe c81c 153e 6669 a7be 8888 99bd
000000c0: dc89 bb3e 548e 66bd 7231 3b3e cecc 59bc
000000d0: 5a21 adbe 6222 efbe 14c1 babe 0417 9cbe
000000e0: 002c 20be 5adb c5bd b5ee 063e 7e8d 5c3d
000000f0: 67a7 a63e 8ed3 10be 698f f73e d2c8 01be
00000100: 0a14 9c3a 105e f23d f569 c73e 6fb6 c73e
00000110: 8ada f33e 076c 9fbe 1b81 febd 91cb 1bbe
00000120: bac1 f93e f699 d03e 5801 d2be dc83 b4be
00000130: e877 173d b24c 903e 6e93 313e af91 093d
00000140: 6c6a 883e 0e42 8c3e 0d1b 463e 915c c13d
00000150: e868 f4be c4f6 293e b091 1f3e c435 e0be
00000160: 147c d6be 2858 3f3e 1ca8 743e 0c95 e7be
00000170: 108e 7abd 80a5 053c 3458 d2be 4886 d5be

bias f4 [24]
0.47017485 -0.43673873 0.49959534 0.46793297 0.06441527 -0.10967026 0.045337647 0.39492536
0.23553652 -0.28996652 -0.004021471 -0.017363071 -0.09838175 0.22890931 0.43312407 0.44684616
-0.2513728 -0.31912112 0.040319268 -0.021247135 0.33788413 0.04445803 0.32164323 0.3246184
00000000: c2ba f03e 389c dfbe f6ca ff3e e994 ef3e
00000010: 27ec 833d cd9a e0bd f8b3 393d a833 ca3e
00000020: 7c30 713e 7e76 94be 8bc6 83bb 003d 8ebc
00000030: 5f7c c9bd 3467 6a3e 70c2 dd3e 05c9 e43e
00000040: f0b3 80be d863 a3be d125 253d 790e aebc
00000050: 26ff ac3e a019 363d 6cae a43e 6234 a63e

weight f4 [24, 24]
0.12240995 -0.116131514 0.028311567 -0.15718569 0.047529943 -0.12735948 0.16472912 -0.08419126
-0.05915405 0.052209016 0.11103385 0.024796933 -0.05698413 0.09522793 -0.13153654 0.0852885
0.060345728 -0.0923637 0.14604777 -0.0050241393 -0.025034659 -0.20146263 -0.08472733 0.13340795
0.119407274 -0.14724837 -0.07909481 0.16385637 -0.0659822 0.07675916 -0.10021779 0.06857967
-0.07704325 0.06351267 0.16988553 -0.10401331 -0.14920373 0.0035345554 0.02676402 0.16837873
-0.19905579 -0.04147608 -0.12213425 0.03235388 0.07112125 -0.08552367 0.19076854 -0.019829944
-0.065404445 -0.14487107 0.15690756 -0.03386821 0.018477874 0.17021854 -0.01588865 0.16198665
0.18353093 -0.12904465 -0.17117383 0.15121841 0.10491472 0.10329211 0.08002454 -0.20000997
-0.045568604 0.058771465 -0.10105345 -0.05412166 -0.20170014 -0.17625454 -0.17584299 0.11772534
0.14685433 0.13544185 0.086257145 0.17349485 -0.12692472 -0.032440502 0.058182124 -0.15644331
0.057077527 -0.07362809 -0.20499758 -0.057251632 0.07801947 -0.18370353 0.18148099 0.15842816
-0.15632087 -0.08311784 0.047698505 0.13011387 0.17435198 -0.076351255 0.1255374 0.0626992
0.05230198 -0.11225913 -0.022044906 -0.12567544 -0.028360318 0.13768117 0.09017967 -0.040385805
0.009189233 0.1409318 0.022186875 -0.14160311 0.17532825 -0.06132613 0.000927906 -0.20514043
0.1426371 -0.09449708 -0.14231208 -0.18277574 0.08381276 0.115329385 -0.084475234 0.008886635
0.1228436 -0.07248039 -0.14113481 -0.13535121 -0.104178876 -0.18586652 -0.19691432 -0.016578106
0.0990808 -0.106471285 0.20044722 0.13756034 -0.017444665 -0.124683075 0.05731129 -0.0082038995
0.19978166 0.17007686 0.026644481 0.067464404 -0.15452622 0.07435742 0.14945748 0.092419684
0.06632373 0.19280216 -0.23300502 0.06478235 0.1055459 -0.0775622 0.015034774 0.14107648
-0.09147993 -0.08286128 0.081585355 -0.058483556 0.12342739 -0.069469154 -0.15605025 -0.14120814
-0.20466454 -0.015495787 -0.17412281 0.11560345 0.07055245 0.19872448 0.17733717 0.15851972
0.11299783 0.14178747 -0.045951664 -0.10230388 -0.20087369 -0.17196865 -0.07900797 0.12675267
-0.028152034 -0.19513866 0.045075953 0.18395948 -0.069218546 0.022296295 -0.038717434 0.18198293
-0.10560727 -0.100113325 -0.03921333 -0.15527493 -0.0043685734 0.09906894 0.06832427 0.17834315
-0.01833354 -0.015471468 -0.22374968 0.17028674 -0.12794743 -0.035394203 -0.09357172 -0.10718679
0.021118313 0.015285128 -0.04684997 0.1386103 0.08586902 -0.08796848 -0.050331082 -0.002804751
0.09245092 -0.061104033 -0.018421706 0.11229409 0.122352235 0.117162794 0.037963152 0.14896908
0.09234835 0.13865475 0.13747875 -0.13310234 -0.03898373 0.08974277 -0.057491526 -0.19639812
-0.0384631 -0.099017985 -0.111954056 -0.07517281 0.19820307 -0.15196893 -0.10812359 -0.018523797
-0.050870355 -0.18260631 -0.004787869 0.0593786 -0.09389186 0.10132554 0.1120128 -0.056490183
-0.15037665 -0.19950601 -0.037216157 -0.053537637 -0.057593316 0.028505817 -0.16042815 -0.0011767745
0.16424924 0.1632233 -0.01638572 0.07448906 0.11850384 -0.06351891 0.18502319 -0.20189397
00000000: 11b2 fa3d 5cd6 edbd a9ed e73c 49f5 20be
00000010: c2ae 423d 866a 02be c0ae 283e 786c acbd
00000020: 844b 72bd 1fd9 553d b765 e33d f022 cb3c
00000030: 3168 69bd dc06 c33d 84b1 06be bdab ae3d
00000040: 152d 773d 2e29 bdbd 8c8d 153e 89a1 a4bb
00000050: 7c15 cdbc 384c 4ebe 8685 adbd 189c 083e
00000060: cd8b f43d 47c8 16be 76fc a1bd f7c9 273e
00000070: ad21 87bd e833 9d3d fc3e cdbd 7f73 8c3d
00000080: dac8 9dbd ee12 823d 79f6 2d3e ee04 d5bd
00000090: ddc8 18be 00a4 673b 3840 db3c 796b 2c3e
000000a0: 48d5 4bbe d2e2 29bd 8621 fabd 8185 043d
000000b0: 05a8 913d 0927 afbd d458 433e 6872 a2bc
000000c0: c4f2 85bd 1559 14be 60ac 203e 64b9 0abd
000000d0: e95e 973c c54d 2e3e ea28 82bc d4df 253e
000000e0: 88ef 3b3e 4824 04be 3148 2fbe 00d9 1a3e
000000f0: 87dd d63d d08a d33d e8e3 a33d 6acf 4cbe
00000100: 25a6 3abd 59ba 703d 1cf5 cebd acae 5dbd
00000110: 7b8a 4ebe 127c 34be 2f10 34be fc19 f13d
00000120: fb60 163e 45b1 0a3e 96a7 b03d a2a8 313e
00000130: 8ef8 01be 55e0 04bd 6150 6e3d ad32 20be
00000140: 20ca 693d 53ca 96bd e3ea 51be b080 6abd
00000150: acc8 9f3d c71c 3cbe 27d6 393e fe3a 223e
00000160: 9412 20be b039 aabd 825f 433d 923c 053e
00000170: 5389 323e 0c5e 9cbd e08c 003e 7068 803d
00000180: 9a3a 563d 1de8 e5bd 8597 b4bc 10b1 00be
00000190: e653 e8bc 4bfc 0c3e 1eb0 b83d 966b 25bd
000001a0: 708e 163c 6d50 103e 40c1 b53c 6800 11be
000001b0: 4089 333e 1c31 7bbd b83e 733a 5510 52be
000001c0: 760f 123e af87 c1bd 42ba 11be 9029 3bbe
000001d0: 06a6 ab3d d031 ec3d 5a01 adbd 4099 113c
000001e0: 6d95 fb3d 9970 94bd a585 10be 8299 0abe
000001f0: bc5b d5bd cb53 3ebe e8a3 49be cfce 87bc
00000200: e0ea ca3d 9e0d dabd 0942 4d3e 9edc 0c3e
00000210: 1de8 8ebc d759 ffbd 3ebf 6a3d a669 06bc
00000220: 9093 4c3e a128 2e3e 8745 da3c c72a 8a3d
00000230: 1f3c 1ebe b448 983d 620b 193e 8846 bd3d
00000240: bcd4 873d ee6d 453e de98 6ebe 9cac 843d
00000250: 7328 d83d eed8 9ebd 6a54 763c 5a76 103e
00000260: d459 bbbd 2db3 a9bd 3916 a73d 748c 6fbd
00000270: 80c7 fc3d d845 8ebd a3cb 1fbe de98 10be
00000280: 9593 51be 0be2 7dbc 404d 32be 80c1 ec3d
00000290: ce7d 903d 6e7e 4b3e e097 353e fe52 223e
000002a0: 686b e73d bc30 113e d037 3cbd b284 d1bd
000002b0: d5b1 4dbe 8d18 30be eece a1bd 74cb 013e
000002c0: 189f e6bc 6ed2 47be 90a1 383d e05f 3c3e
000002d0: 74c2 8dbd b8a6 b63c 2c96 1ebd bc59 3a3e
000002e0: a048 d8bd 3708 cdbd 289e 20bd 6400 1fbe
000002f0: 4026 8fbb a8e4 ca3d 98ed 8b3d 969f 363e
00000300: 3830 96bc 0a7c 7dbc a31e 65be a65f 2e3e
00000310: a704 03be 83f9 10bd 88a2 bfbd bf84 dbbd
00000320: 5000 ad3c 796e 7a3c c1e5 3fbd dcef 0d3e
00000330: 19dc af3d d228 b4bd f727 4ebd eacf 37bb
00000340: e856 bd3d 3948 7abd 1ee9 96bc 72fa e53d
00000350: cf93 fa3d 0cf3 ef3d 407f 1b3d 5a8b 183e
00000360: 2221 bd3d 83fb 0d3e 3bc7 0c3e fb4b 08be
00000370: 67ad 1fbd 0fcb b73d 3c7c 6bbd 971c 49be
00000380: 7c8b 1dbd f1c9 cabd 2b48 e5bd 34f4 99bd
00000390: bff5 4a3e be9d 1bbe e76f ddbd 38bf 97bc
000003a0: 6f5d 50bd 26fd 3abe 8ee3 9cbb fa36 733d
000003b0: 604a c0bd c483 cf3d f866 e53d 4062 67bd
000003c0: 56fc 19be 4e4b 4cbe f86f 18bd 484a 5bbd
000003d0: f8e6 6bbd 0885 e93c 4747 24be 003e 9aba
000003e0: f430 283e 0224 273e 583b 86bc b88d 983d
000003f0: 24b2 f23d 3416 82bd b876 3d3e 4bbd 4ebe

bias f4 [24]
0.03309324 0.0975997 0.14637694 0.15442963 0.011383589 0.15669504 0.054119702 0.07388595
0.09514101 0.14506376 -0.14035404 -0.11928911 -0.023339838 0.097081214 -0.0007323088 -0.11473908
-0.0101299435 -0.028398624 0.1630481 0.17057344 -0.16999418 0.20801198 0.12815996 -0.17178458
00000000: c78c 073d 5ae2 c73d d6e3 153e cd22 1e3e
00000010: 3c82 3a3c aa74 203e 9fac 5d3d 8451 973d
00000020: 4ad9 c23d 988b 143e f8b8 0fbe d94d f4bd
00000030: 3033 bfbc 84d2 c63d 69f8 3fba 53fc eabd
00000040: 10f8 25bc 3ba4 e8bc 15f6 263e ceaa 2e3e
00000050: f412 2ebe 1801 553e 5d3c 033e 4ce8 2fbe

weight f4 [4, 24]
0.16729115 0.10859023 0.032993164 -0.050519433 0.08001435 -0.011106655 0.15015276 -0.10949744
0.11053871 0.038386524 0.03242199 0.087280765 -0.009037435 -0.14220424 -0.102435514 -0.07472419
0.016021535 -0.028937146 -0.015838653 0.089228734 0.0916151 0.032949917 0.10900434 0.09405216
0.003409024 -0.09129413 0.173782 0.09177969 -0.19043082 -0.05523527 0.18088323 0.039158598
0.0019666713 -0.146592 -0.13384989 -0.10010701 0.16201082 -0.07932491 0.13363606 -0.09380876
0.1021547 0.07441653 0.19243361 -0.025456185 0.043806512 0.016681617 0.058042347 -0.025098437
-0.09242922 -0.038807377 0.022105888 -0.08394993 -0.06567354 0.03575258 0.13614298 0.095389724
0.10319277 0.12482062 -0.072159424 0.04875061 0.18076193 -0.02657473 -0.08943721 0.09033282
0.13183257 0.118975885 -0.056733675 0.12058574 -0.0032132873 0.13928567 0.038405914 -0.01903098
-0.10295313 0.2254532 0.12986991 0.11230052 -0.09376156 0.054499328 -0.095139936 0.10143319
0.30314967 -0.038686935 0.055936188 0.121899486 0.019909576 0.12206152 0.030229175 0.07849831
0.028587475 -0.10622829 0.17558976 -0.18800855 -0.056814793 0.05613534 -0.089408435 0.15375404
00000000: 5f4e 2b3e 8e64 de3d d723 073d 77ed 4ebd
00000010: 90de a33d b0f8 35bc a5c1 193e 3240 e0bd
00000020: 1f62 e23d 303b 1d3d eccc 043d 42c0 b23d
00000030: c011 14bc fd9d 11be b6c9 d1bd ff08 99bd
00000040: 983f 833c 980d edbc 10c0 81bc 8ebd b63d
00000050: b3a0 bb3d 7ef6 063d ab3d df3d 6b9e c03d
00000060: ef69 5f3b 6bf8 babd e9f3 313e fdf6 bb3d
00000070: 4c00 43be 613e 62bd 7439 393e c464 203d
00000080: 45e3 003b 371c 16be f20f 09be e704 cdbd
00000090: 2ae6 253e 1975 a2bd e4d7 083e cf1e c0bd
000000a0: 7c36 d13d b267 983d 510d 453e 7d89 d0bc
000000b0: 756e 333d e3a7 883c d0bd 6d3d 3d9b cdbc
000000c0: 884b bdbd 7cf4 1ebd 6817 b53c f1ed abbd
000000d0: d97f 86bd 4c71 123d 1169 0b3e b05b c33d
000000e0: bb56 d33d f4a1 ff3d 52c8 93bd b8ae 473d
000000f0: a819 393e 40b3 d9bc db2a b7bd 6a00 b93d
00000100: 1eff 063e a1a9 f33d 9261 68bd a8f5 f63d
00000110: 0496 52bb e7a0 0e3e 854f 1d3d dce6 9bbc
00000120: 17d9 d2bd 34dd 663e 9efc 043e d1fd e53d
00000130: 1006 c0bd b03a 5f3d bad8 c2bd 34bc cf3d
00000140: 6f36 9b3e 3176 1ebd 581d 653d 70a6 f93d
00000150: 6819 a33c 64fb f93d 2da3 f73c b9c3 a03d
00000160: 4830 ea3c 388e d9bd cdcd 333e 5085 40be
00000170: a1b6 68bd 2cee 653d c51b b7bd b371 1d3e

bias f4 [4]
0.112623475 0.17164479 0.20896591 0.099689126
00000000: 23a7 e63d a7c3 2f3e 29fb 553e d029 cc3d

exp_avg f4 [24, 4]
74819.414 1000.2842 3515.4695 94408.05 72866.78 1834.5298 5482.8677 132595.19
-11697.657 -474.1103 -2151.9612 48676.906 18749.232 2086.2593 6437.9126 23096.158
83510.05 219.18169 1350.2438 118977.37 -13537.9375 -2350.365 -3362.7043 -58731.875
-7419.824 60.783875 605.50964 1261.0697 -54440.496 1606.1498 -2662.5586 -27623.57
0.0 0.0 0.0 0.0 -43510.434 -1047.0029 -4127.841 -121720.31
-19810.244 324.49628 -1409.3235 -9526.173 0.0 0.0 0.0 0.0
-24781.145 -350.16776 894.4111 -6602.2363 0.0 0.0 0.0 0.0
-1285.51 -355.9569 220.30945 1539.4023 65029.863 1132.1287 3208.3865 15626.561
-117694.086 -110.81127 -2937.0483 -57813.055 3737.8252 864.84064 -1715.7532 13177.872
47921.594 -1072.1896 -445.35516 15762.404 140382.28 1933.4735 10470.095 329402.75
9845.343 1935.6514 3745.2688 -37564.746 0.0 0.0 0.0 0.0
0.0 0.0 0.0 0.0 0.0 0.0 0.0 0.0
00000000: b521 9247 3012 7a44 83b7 5b45 0664 b847
00000010: 6451 8e47 f450 e544 f156 ab45 cc7c 0148
00000020: a1c6 36c6 1e0e edc3 617f 06c5 e824 3e47
00000030: 777a 9246 2664 0245 4d2f c945 5170 b446
00000040: 061b a347 832e 5b43 cdc7 a844 af60 e847
00000050: c087 53c6 d7e5 12c5 452b 52c5 e06b 65c7
00000060: 98de e7c5 b022 7342 9e60 1744 3ba2 9d44
00000070: 7fa8 54c7 cbc4 c844 f068 26c5 24cf d7c6
00000080: 0000 0000 0000 0000 0000 0000 0000 0000
00000090: 6ff6 29c7 18e0 82c4 bafe 80c5 28bc edc7
000000a0: 7dc4 9ac6 863f a243 5a2a b0c4 b1d8 14c6
000000b0: 0000 0000 0000 0000 0000 0000 0000 0000
000000c0: 4a9a c1c6 7915 afc3 4f9a 5f44 e451 cec5
000000d0: 0000 0000 0000 0000 0000 0000 0000 0000
000000e0: 52b0 a0c4 7cfa b1c3 384f 5c43 e06c c044
000000f0: dd05 7e47 1e84 8d44 2f86 4845 3e2a 7446
00000100: 0bdf e5c7 5f9f ddc2 c690 37c5 0ed5 61c7
00000110: 349d 6945 cd35 5844 1a78 d6c4 7de7 4d46
00000120: 9831 3b47 1106 86c4 76ad dec3 9e49 7646
00000130: 9217 0948 27af f144 6198 2346 58d7 a048
00000140: 5fd5 1946 d8f4 f144 4d14 6a45 bfbc 12c7
00000150: 0000 0000 0000 0000 0000 0000 0000 0000
00000160: 0000 0000 0000 0000 0000 0000 0000 0000
00000170: 0000 0000 0000 0000 0000 0000 0000 0000

exp_avg_sq f4 [24, 4]
6.01916e+11 5.297804e+07 4.3564666e+08 6.3055705e+11 2.3342939e+11 3.9085508e+07 4.9695053e+08 4.8704625e+11
1.0104654e+10 5.7232332e+07 2.3215922e+08 1.3138624e+11 6.2805555e+09 3.5777574e+08 5.020147e+08 1.739223e+10
2.218165e+11 1.4474898e+08 5.1725485e+08 3.7190124e+11 2.3252193e+10 1.2556523e+08 2.1615046e+08 1.2654234e+11
2.7517166e+10 3.444163e+07 4.5386425e+06 9.702401e+06 7.505138e+10 1.620507e+08 1.25202296e+08 1.7648413e+10
0.0 0.0 0.0 0.0 1.01114175e+11 2.2143756e+07 2.1756698e+08 2.4652954e+11
1.1474288e+11 1.8462766e+08 6.3622624e+08 4.4374645e+11 0.0 0.0 0.0 0.0
1.11539995e+11 1.525406e+08 6.3567692e+07 7.99386e+10 0.0 0.0 0.0 0.0
3.9257467e+09 2.3099684e+07 2.437474e+08 1.6483528e+11 1.9133132e+11 1.07281896e+08 2.0799958e+08 1.2450567e+11
7.7950694e+11 1.2505633e+08 1.0493968e+09 9.167674e+11 2.913206e+11 9.100564e+07 1.6947898e+08 2.5523642e+11
1.2966635e+11 1.333368e+08 9.149689e+07 4.037773e+10 2.162912e+11 3.3446723e+08 1.7384073e+09 9.596445e+11
6.6605883e+10 8.820321e+07 2.6156326e+08 2.151851e+11 0.0 0.0 0.0 0.0
0.0 0.0 0.0 0.0 0.0 0.0 0.0 0.0
00000000: fd24 0c53 5e18 4a4c 86bb cf4d 21d0 1253
00000010: e765 5952 7119 154c e8f6 ec4d 70cc e252
00000020: 3292 1650 f352 5a4c 7f67 5d4d d7b9 f451
00000030: d62c bb4f cc99 aa4d 1761 ef4d 0c95 8150
00000040: 2d95 4e52 1b0b 0a4d 76a5 f64d 152e ad52
00000050: 0a3e ad50 267f ef4c 1c23 4e4d 17b4 eb51
00000060: d404 cd50 6862 034c 2582 8a4a 010c 144b
00000070: 49cb 8b51 298b 1a4d efcd ee4c ad7d 8350
00000080: 0000 0000 0000 0000 0000 0000 0000 0000
00000090: ff56 bc51 86f1 a84b f07c 4f4d 3999 6552
000000a0: abb9 d551 1d13 304d 2bb0 174e b3a2 ce52
000000b0: 0000 0000 0000 0000 0000 0000 0000 0000
000000c0: 6ac2 cf51 5c79 114d d37d 724c b2e5 9451
000000d0: 0000 0000 0000 0000 0000 0000 0000 0000
000000e0: 24fe 694f 923c b04b a474 684d cb83 1952
000000f0: f130 3252 bd9f cc4c 265d 464d eee8 e751
00000100: 3c7e 3553 a986 ee4c 1932 7a4e 9873 5553
00000110: 1fa8 8752 5994 ad4c b4a0 214d 1bb5 6d52
00000120: bc85 f151 dc51 fe4c 3784 ae4c 346b 1651
00000130: d76f 4952 857c 9f4d fb3b cf4e 456f 5f53
00000140: 5220 7851 f93b a84c 3872 794d 2068 4852
00000150: 0000 0000 0000 0000 0000 0000 0000 0000
00000160: 0000 0000 0000 0000 0000 0000 0000 0000
00000170: 0000 0000 0000 0000 0000 0000 0000 0000

exp_avg f4 [24]
0.0017374321 0.0021277936 0.0003435319 0.00050369557 0.0020405685 -0.0007798286 -5.4924603e-05 -0.0008312049
0.0 -0.0017040562 -0.00030421204 0.0 -0.0003083914 0.0 1.1824523e-06 0.000849969
-0.0017855499 0.00016064802 0.0006216645 0.0048218863 -0.00022038483 0.0 0.0 0.0
00000000: 8cba e33a 7472 0b3b 121c b439 700a 043a
00000010: 0fbb 053b 696d 4cba d85e 66b8 37e5 59ba
00000020: 0000 0000 a35a dfba a67e 9fb9 0000 0000
00000030: 98af a1b9 0000 0000 c0b4 9e35 74d0 5e3a
00000040: 1d09 eaba a073 2839 33f7 223a ea00 9e3b
00000050: 1a17 67b9 0000 0000 0000 0000 0000 0000

exp_avg_sq f4 [24]
0.0002472727 0.000136316 2.0004027e-05 5.382342e-06 0.0001159332 2.4815961e-05 3.046169e-06 1.6424934e-05
0.0 6.4396394e-05 9.7829296e-05 0.0 2.9214088e-05 0.0 2.3180668e-05 6.400309e-05
0.00034075486 0.000107303924 3.0380785e-05 0.0001960952 4.9106802e-05 0.0 0.0 0.0
00000000: 61a4 8139 0cf0 0e39 52ce a737 f799 b436
00000010: 2a21 f338 df2b d037 c96c 4c36 47c8 8937
00000020: 0000 0000 8d0c 8738 b429 cd38 0000 0000
00000030: c710 f537 0000 0000 1b74 c237 6639 8638
00000040: 58a7 b239 5b08 e138 3dda fe37 e89e 4d39
00000050: 07f8 4d38 0000 0000 0000 0000 0000 0000

exp_avg f4 [24, 24]
-64645.652 -37368.766 -33654.797 -2384.1538 -55558.695 -25002.045 2492.598 1082.0321
0.0 -30359.635 -48411.23 0.0 -7017.5596 0.0 -9377.717 -4266.709
-87510.89 -1958.1307 121.58496 -8987.472 -27312.752 0.0 0.0 0.0
2311.9854 570.66394 274.11542 1487.4968 2268.1 89.900055 106.528885 107.39783
0.0 526.96185 1578.7415 0.0 939.38446 0.0 162.35715 913.4808
3003.2478 -20.810928 118.59418 1279.0868 2001.6367 0.0 0.0 0.0
-1038.0479 594.1084 0.0 5.186873e-34 7972.8037 14458.888 5099.1914 9904.363
0.0 348.51593 -124.40837 0.0 11840.588 0.0 0.0 10620.916
-1088.5742 16445.504 15600.014 329.99805 7665.7363 0.0 0.0 0.0
6927.2144 4796.9683 -288.0569 1092.6692 26280.855 32954.69 -306.64832 16214.5
0.0 3373.5706 3412.4004 0.0 28957.654 0.0 -217.66103 25123.75
9733.721 32718.588 28710.58 4677.655 23741.902 0.0 0.0 0.0
-128887.95 -78091.91 -38110.055 -4129.4194 -185690.53 -169826.44 7.033071e-33 -36345.79
0.0 -62656.3 -90438.01 0.0 -117879.41 0.0 -8154.1714 -79466.82
-173837.27 -110753.1 -79585.25 -30213.97 -131988.67 0.0 0.0 0.0
31897.396 18568.59 14868.078 1103.9432 29443.242 16360.779 0.0 25.811192
0.0 15220.774 23946.69 0.0 6447.34 0.0 3814.7834 1674.3264
42896.617 2885.5327 490.74316 4859.436 15857.612 0.0 0.0 0.0
105234.89 60483.55 27084.168 1655.9622 124482.84 94933.35 572.3172 1007.91394
0.0 49693.758 76533.61 0.0 59461.84 0.0 -64.47734 17879.877
140982.88 24232.188 6644.756 21854.777 81706.484 0.0 0.0 0.0
0.0 0.0 0.0 0.0 0.0 0.0 0.0 0.0
0.0 0.0 0.0 0.0 0.0 0.0 0.0 0.0
0.0 0.0 0.0 0.0 0.0 0.0 0.0 0.0
34087.746 19334.105 4362.7266 3942.4695 43591.043 26689.832 108.32818 2444.607
0.0 14748.1045 23179.055 0.0 24363.537 0.0 2718.6133 16520.797
46881.016 15818.135 2305.7158 10671.678 30813.488 0.0 0.0 0.0
75195.984 42643.18 37036.055 1417.0476 67108.67 37423.938 0.0 6.45965e-05
0.0 35716.086 57202.406 0.0 12209.263 0.0 7146.97 -1252.2761
100421.97 220.53217 1563.6595 10871.23 35437.832 0.0 0.0 0.0
0.0 0.0 0.0 0.0 0.0 0.0 0.0 0.0
0.0 0.0 0.0 0.0 0.0 0.0 0.0 0.0
00000000: a785 7cc7 c4f8 11c7 cc76 03c7 7602 15c5
00000010: b206 59c7 1754 c3c6 91c9 1b45 0741 8744
00000020: 0000 0000 452f edc6 3b1b 3dc7 0000 0000
00000030: 7a4c dbc5 0000 0000 de86 12c6 ac55 85c5
00000040: 72eb aac7 2fc4 f4c4 802b f342 e36d 0cc6
00000050: 8161 d5c6 0000 0000 0000 0000 0000 0000
00000060: c47f 1045 7eaa 0e44 c60e 8943 e6ef b944
00000070: 9ac1 0d45 d4cc b342 ca0e d542 b0cb d642
00000080: 0000 0000 8fbd 0344 ba57 c544 0000 0000
00000090: 9bd8 6a44 0000 0000 6e5b 2243 c55e 6444
000000a0: f7b3 3b45 c87c a6c1 3830 ed42 c7e2 9f44
000000b0: 6034 fa44 0000 0000 0000 0000 0000 0000
000000c0: 88c1 81c4 f086 1444 0000 0000 095d 2c08
000000d0: 6e26 f945 8deb 6146 8859 9f45 74c1 1a46
000000e0: 0000 0000 0a42 ae43 16d1 f8c2 0000 0000
000000f0: 5a02 3946 0000 0000 0000 0000 aaf3 2546
00000100: 6012 88c4 027b 8046 0ec0 7346 c0ff a443
00000110: e48d ef45 0000 0000 0000 0000 0000 0000
00000120: b779 d845 bfe7 9545 4807 90c3 6a95 8844
00000130: b651 cd46 b1ba 0047 fc52 99c3 005a 7d46
00000140: 0000 0000 21d9 5245 6846 5545 0000 0000
00000150: 4f3b e246 0000 0000 39a9 59c3 8047 c446
00000160: e216 1846 2d9d ff46 294d e046 3d2d 9245
00000170: ce7b b946 0000 0000 0000 0000 0000 0000
00000180: fabb fbc7 f485 98c7 0ede 14c7 5b0b 81c5
00000190: a256 35c8 9cd8 25c8 3812 120a caf9 0dc7
000001a0: 0000 0000 4dc0 74c7 01a3 b0c7 0000 0000
000001b0: b43b e6c7 0000 0000 5fd1 fec5 6935 9bc7
000001c0: 51c3 29c8 8d50 d8c7 a070 9bc7 f10b ecc6
000001d0: 2be5 00c8 0000 0000 0000 0000 0000 0000
000001e0: cb32 f946 2e11 9146 5050 6846 2ffe 8944
000001f0: 7c06 e646 1ea3 7f46 0000 0000 527d ce41
00000200: 0000 0000 19d3 6d46 6115 bb46 0000 0000
00000210: b87a c945 0000 0000 896c 6e45 724a d144
00000220: 9e90 2747 8658 3445 205f f543 7ddb 9745
00000230: 73c6 7746 0000 0000 0000 0000 0000 0000
00000240: 7289 cd47 8d43 6c47 5698 d346 cafe ce44
00000250: 6c21 f347 ad6a b947 4d14 0f44 7efa 7b44
00000260: 0000 0000 c21d 4247 ce7a 9547 0000 0000
00000270: d745 6847 0000 0000 66f4 80c2 c1af 8b46
00000280: b8ad 0948 6050 bd46 0ca6 cf45 8ebd aa46
00000290: 3e95 9f47 0000 0000 0000 0000 0000 0000
000002a0: 0000 0000 0000 0000 0000 0000 0000 0000
000002b0: 0000 0000 0000 0000 0000 0000 0000 0000
000002c0: 0000 0000 0000 0000 0000 0000 0000 0000
000002d0: 0000 0000 0000 0000 0000 0000 0000 0000
000002e0: 0000 0000 0000 0000 0000 0000 0000 0000
000002f0: 0000 0000 0000 0000 0000 0000 0000 0000
00000300: bf27 0547 360c 9746 d055 8845 8367 7645
00000310: 0b47 2a47 aa83 d046 07a8 d842 b6c9 1845
00000320: 0000 0000 6b70 6646 1c16 b546 0000 0000
00000330: 1357 be46 0000 0000 d0e9 2945 9811 8146
00000340: 0421 3747 8a28 7746 741b 1045 b6be 2646
00000350: faba f046 0000 0000 0000 0000 0000 0000
00000360: fedd 9247 2e93 2647 0eac 1047 8621 b144
00000370: 5612 8347 f02f 1247 0000 0000 fb77 8738
00000380: 0000 0000 1684 0b47 6872 5f47 0000 0000
00000390: 0dc5 3e46 0000 0000 c357 df45 d688 9cc4
000003a0: fc22 c447 3c88 5c43 1b75 c344 ecdc 2946
000003b0: d56d 0a47 0000 0000 0000 0000 0000 0000
000003c0: 0000 0000 0000 0000 0000 0000 0000 0000
000003d0: 0000 0000 0000 0000 0000 0000 0000 0000
000003e0: 0000 0000 0000 0000 0000 0000 0000 0000
000003f0: 0000 0000 0000 0000 0000 0000 0000 0000

exp_avg_sq f4 [24, 24]
2.6231593e+11 8.346423e+10 4.0835584e+10 1.4529393e+09 2.7354322e+11 1.2254459e+11 5.885697e+07 6.754158e+08
0.0 5.8282336e+10 1.4682087e+11 0.0 3.4214803e+10 0.0 2.6734052e+09 3.6884467e+09
4.6234508e+11 8.410277e+09 1.5539981e+09 8.348734e+09 9.878165e+10 0.0 0.0 0.0
3.6255347e+08 7.097107e+07 3.394097e+07 7.807999e+07 3.7442234e+08 7.2368136e+07 1.3076419e+06 7.948292e+07
0.0 5.3096764e+07 1.9672704e+08 0.0 9.725968e+07 0.0 3.8440458e+06 7.306991e+07
5.692697e+08 1.6208905e+07 1.3657138e+08 8.7660584e+07 2.8571734e+08 0.0 0.0 0.0
4.5625364e+07 2.8108108e+07 0.0 504.44003 1.6702947e+10 4.217687e+10 4.3074616e+09 2.2864314e+10
0.0 1.1371634e+07 2.0304265e+06 0.0 3.0168658e+10 0.0 0.0 2.3613948e+10
2.7020484e+07 4.8209375e+10 5.4179308e+10 4.639726e+08 1.7314148e+10 0.0 0.0 0.0
2.2590601e+10 8.1197394e+09 6.775871e+06 1.2174764e+08 8.5662786e+10 1.1702555e+11 3.0284342e+09 1.7949243e+10
0.0 5.8304456e+09 1.0654622e+10 0.0 7.020633e+10 0.0 7.0531935e+06 3.8719447e+10
3.826418e+10 7.5052835e+10 5.55687e+10 2.4567114e+09 5.841245e+10 0.0 0.0 0.0
5.3550462e+11 1.8541496e+11 2.4782072e+10 7.189149e+08 1.1742098e+12 1.1591178e+12 815741.2 2.0548236e+09
0.0 1.3191771e+11 2.8115223e+11 0.0 5.636876e+11 0.0 1.3313893e+09 2.0329223e+11
9.299861e+11 4.3422768e+11 1.3254124e+11 2.9198518e+10 6.236901e+11 0.0 0.0 0.0
3.592422e+10 1.1565418e+10 5.678229e+09 2.1602939e+08 3.6999406e+10 1.6745857e+10 0.0 75873.125
0.0 8.1622804e+09 2.0306991e+10 0.0 4.749684e+09 0.0 4.185836e+08 5.0927133e+08
6.3292367e+10 1.1937824e+09 5.8891532e+07 1.0546955e+09 1.296225e+10 0.0 0.0 0.0
2.499322e+11 8.39619e+10 7.6973286e+09 5.590805e+08 4.8954406e+11 4.160509e+11 8.730592e+06 2.9490195e+08
0.0 5.8761945e+10 1.3145734e+11 0.0 1.9576277e+11 0.0 4.3943816e+07 5.6656544e+10
4.367834e+11 1.1857207e+11 2.469821e+10 1.3773127e+10 2.4732575e+11 0.0 0.0 0.0
0.0 0.0 0.0 0.0 0.0 0.0 0.0 0.0
0.0 0.0 0.0 0.0 0.0 0.0 0.0 0.0
0.0 0.0 0.0 0.0 0.0 0.0 0.0 0.0
1.5074235e+10 3.663601e+09 2.5131872e+08 1.1523521e+09 2.4677507e+10 8.677576e+09 9.463877e+06 5.983796e+08
0.0 2.206564e+09 7.0160087e+09 0.0 8.2672527e+09 0.0 1.4427627e+08 4.366255e+09
2.6653026e+10 3.113479e+09 1.8408097e+09 2.2505605e+09 1.4252257e+10 0.0 0.0 0.0
1.234082e+11 4.0911778e+10 1.773487e+10 1.4283014e+08 1.4117675e+11 7.932676e+10 0.0 1.3391125e+06
0.0 2.8740407e+10 6.873442e+10 0.0 2.5551563e+10 0.0 7.935657e+08 3.9072632e+09
2.1834591e+11 8.670107e+09 1.7674196e+09 3.5500593e+09 5.323318e+10 0.0 0.0 0.0
0.0 0.0 0.0 0.0 0.0 0.0 0.0 0.0
0.0 0.0 0.0 0.0 0.0 0.0 0.0 0.0
00000000: fe4c 7452 d976 9b51 d91f 1851 3034 ad4e
00000010: c9c1 7e52 d041 e451 8285 604c 1c08 214e
00000020: 0000 0000 5e1e 5951 d3bc 0852 0000 0000
00000030: 8feb fe50 0000 0000 ed58 1f4f 3bd9 5b4f
00000040: d44b d752 52a5 fa4f 4240 b94e c9cf f84f
00000050: c3fe b751 0000 0000 0000 0000 0000 0000
00000060: 04e1 ac4d d85d 874c 7a79 014c ffec 944c
00000070: da89 b24d 0108 8a4c cf9f 9f49 059a 974c
00000080: 0000 0000 4f8c 4a4c 109d 3b4d 0000 0000
00000090: 1482 b94c 0000 0000 379f 6a4a ab5e 8b4c
000000a0: 77b9 074e 0954 774b 9f3e 024d 0533 a74c
000000b0: 9b3d 884d 0000 0000 0000 0000 0000 0000
000000c0: 050c 2e4c a672 d64b 0000 0000 5338 fc43
000000d0: b0e4 7850 ff1e 1d51 535f 804f 385a aa50
000000e0: 0000 0000 7284 2d4b d4da f749 0000 0000
000000f0: 26c6 e050 0000 0000 0000 0000 08f0 af50
00000100: 6226 ce4b 0b98 3351 6ad5 4951 483d dd4d
00000110: 1e00 8150 0000 0000 0000 0000 0000 0000
00000120: 2750 a850 b2fc f14f 7ec8 ce4a 1737 e84c
00000130: 338f 9f51 21fa d951 3d82 344f 77bb 8550
00000140: 0000 0000 c5c2 ad4f 28c4 1e50 0000 0000
00000150: fdc4 8251 0000 0000 133f d74a be3d 1051
00000160: 918b 0e51 fbcb 8b51 7102 4f51 716e 124f
00000170: 749a 5951 0000 0000 0000 0000 0000 0000
00000180: 205d f952 5fae 2c52 0da4 b850 1567 2b4e
00000190: 2eb2 8853 67f0 8653 d327 4749 3df4 f44e
000001a0: 0000 0000 44b7 f551 f5eb 8252 0000 0000
000001b0: 663e 0353 0000 0000 c7b6 9e4e a554 3d52
000001c0: 7e87 5853 f933 ca52 97e0 f651 c18b d950
000001d0: d436 1153 0000 0000 0000 0000 0000 0000
000001e0: 02d4 0551 9256 2c50 7339 a94f 8d05 4e4d
000001f0: 62d5 0951 6088 7950 0000 0000 9030 9447
00000200: 0000 0000 4241 f34f 834c 9750 0000 0000
00000210: 378d 8d4f 0000 0000 a298 c74d e9d6 f24d
00000220: 4ec8 6b51 594f 8e4e 43a7 604c 8175 7b4e
00000230: 0f27 4150 0000 0000 0000 0000 0000 0000
00000240: 7bc4 6852 2764 9c51 f565 e54f 914b 054e
00000250: 33f6 e352 22bd c152 e037 054b c69e 8c4d
00000260: 0000 0000 c2e7 5a51 bfdb f451 0000 0000
00000270: 7b51 3652 0000 0000 e2a1 274c e40f 5351
00000280: a464 cb52 92db dc51 1904 b850 4f3c 4d50
00000290: 0e57 6652 0000 0000 0000 0000 0000 0000
000002a0: 0000 0000 0000 0000 0000 0000 0000 0000
000002b0: 0000 0000 0000 0000 0000 0000 0000 0000
000002c0: 0000 0000 0000 0000 0000 0000 0000 0000
000002d0: 0000 0000 0000 0000 0000 0000 0000 0000
000002e0: 0000 0000 0000 0000 0000 0000 0000 0000
000002f0: 0000 0000 0000 0000 0000 0000 0000 0000
00000300: a59f 6050 1d5e 5a4f 1cad 6f4d ff5e 894e
00000310: 9cdc b750 534e 0150 4568 104b 31aa 0e4e
00000320: 0000 0000 7f85 034f e617 d14f 0000 0000
00000330: 2262 f64f 0000 0000 b397 094d e21f 824f
00000340: 9d94 c650 eb93 394f 0e71 db4e d424 064f
00000350: 0c60 5450 0000 0000 0000 0000 0000 0000
00000360: 9edd e551 8368 1851 9422 8450 a436 084d
00000370: 297b 0352 f2c1 9351 0000 0000 4477 a349
00000380: 0000 0000 fa21 d650 2007 8051 0000 0000
00000390: bd5f be50 0000 0000 6833 3d4e 1be4 684f
000003a0: b959 4b52 d531 0150 5eb1 d24e 9b99 534f
000003b0: 1e4f 4651 0000 0000 0000 0000 0000 0000
000003c0: 0000 0000 0000 0000 0000 0000 0000 0000
000003d0: 0000 0000 0000 0000 0000 0000 0000 0000
000003e0: 0000 0000 0000 0000 0000 0000 0000 0000
000003f0: 0000 0000 0000 0000 0000 0000 0000 0000

exp_avg f4 [24]
-0.0024484724 0.00011060688 0.00027779464 0.0010290735 -0.0077557247 0.0012965149 0.005336713 0.0
0.0018434167 0.002989376 0.0 0.0023704001 0.0 0.0 -0.0016255202 0.0016517716
0.0 0.005075068 0.0023676518 0.00070749084 0.0017380507 0.0070738755 0.0032382966 0.002939582
00000000: 8d76 20bb 9ef5 e738 f7a4 9139 fae1 863a
00000010: bc23 febb d2ef a93a 98df ae3b 0000 0000
00000020: cd9e f13a 68e9 433b 0000 0000 b758 1b3b
00000030: 0000 0000 0000 0000 680f d5ba 4280 d83a
00000040: 0000 0000 c24c a63b 9b2a 1b3b e876 393a
00000050: 4ecf e33a f8cb e73b 9a39 543b 01a6 403b

exp_avg_sq f4 [24]
0.0005147025 8.087864e-07 2.4114477e-05 0.00013793635 0.0019798712 6.8642716e-05 0.0008413032 0.0
4.478413e-05 0.00026004895 0.0 0.0006534274 0.0 0.0 0.0011462991 0.0006700431
0.0 0.00056360505 0.0013232126 6.084925e-05 0.00017155195 0.00033716732 0.0004405837 0.00037609928
00000000: 1aed 063a 611b 5935 7249 ca37 02a3 1039
00000010: bac0 013b 47f4 8f38 e78a 5c3a 0000 0000
00000020: 98d6 3b38 2e57 8839 0000 0000 c54a 2b3a
00000030: 0000 0000 0000 0000 6a3f 963a d5a5 2f3a
00000040: 0000 0000 e5be 133a a66f ad3a 6238 7f38
00000050: a0e2 3339 d5c5 b039 25fe e639 312f c539

exp_avg f4 [4, 24]
38712.133 778.8041 8305.157 9836.231 143110.77 8550.928 18868.605 0.0
3407.746 14606.035 0.0 72163.73 0.0 0.0 150447.53 62119.22
0.0 181613.42 89394.86 8523.854 29404.227 65815.61 7947.434 101120.89
24796.945 -207.18188 2111.426 27116.7 73720.8 11960.457 7550.4546 0.0
4342.649 4320.5684 0.0 185728.81 0.0 0.0 262175.4 80020.41
0.0 255808.9 47795.156 55425.953 128059.59 36038.312 28047.594 183347.44
162928.06 -1648.1044 0.0 2379.9631 319705.94 109338.15 8047.909 0.0
3816.5405 26524.576 0.0 110182.56 0.0 0.0 346943.8 173431.47
0.0 449825.38 253344.12 13995.803 51585.12 270023.38 19759.805 220687.89
42704.723 0.00092561886 3576.606 3055.165 141322.33 24708.414 17846.21 0.0
2272.967 7739.1157 0.0 58835.47 0.0 0.0 140578.67 68347.91
0.0 179496.67 99352.8 -3290.7441 12904.545 85246.1 10287.083 94174.82
00000000: 2238 1747 76b3 4244 a1c4 0146 edb0 1946
00000010: b1c1 0b48 b69b 0546 3669 9346 0000 0000
00000020: f0fb 5445 2438 6446 0000 0000 ddf1 8c47
00000030: 0000 0000 0000 0000 e2eb 1248 38a7 7247
00000040: 0000 0000 5b5b 3148 6e99 ae47 6a2f 0546
00000050: 74b8 e546 ce8b 8047 795b f845 7280 c547
00000060: e4b9 c146 902e 4fc3 d1f6 0345 66d9 d346
00000070: 66fc 8f47 d4e1 3a46 a3f3 eb45 0000 0000
00000080: 31b5 8745 8c04 8745 0000 0000 3460 3548
00000090: 0000 0000 0000 0000 ed03 8048 344a 9c47
000000a0: 0000 0000 3ad0 7948 28b3 3a47 f481 5847
000000b0: cc1d fa47 50c6 0c47 301f db46 dc0c 3348
000000c0: 041c 1f48 5703 cec4 0000 0000 69bf 1445
000000d0: 3e1b 9c48 138d d547 467f fb45 0000 0000
000000e0: a688 6e45 2739 cf46 0000 0000 4833 d747
000000f0: 0000 0000 0000 0000 fa67 a948 de5d 2948
00000100: 0000 0000 2ca4 db48 0868 7748 36af 5a46
00000110: 1f81 4947 ecd8 8348 9c5f 9a46 f983 5748
00000120: b9d0 2647 3ba5 723a b289 5f45 a4f2 3e45
00000130: 9502 0a48 d408 c146 6c6c 8b46 0000 0000
00000140: 790f 0e45 edd8 f145 0000 0000 78d3 6547
00000150: 0000 0000 0000 0000 ab48 0948 f47d 8547
00000160: 0000 0000 2b4a 2f48 660c c247 e8ab 4dc5
00000170: 2ea2 4946 0d7f a647 55bc 2046 69ef b747

exp_avg_sq f4 [4, 24]
1.0603025e+11 6.968553e+07 1.7990214e+09 5.03071e+09 5.9141495e+11 4.3428446e+10 3.102095e+09 0.0
3.5184016e+08 5.6204027e+09 0.0 1.4844874e+11 0.0 0.0 7.6844466e+11 1.5477342e+11
0.0 1.2040957e+12 3.458954e+11 1.0788432e+10 4.848248e+10 3.5036188e+11 6.0155976e+09 3.7317195e+11
3.7912994e+10 3.6277918e+06 3.2027466e+07 2.0879022e+10 1.6584759e+12 4.9916887e+09 1.0628973e+10 0.0
1.8702062e+08 4.352813e+09 0.0 9.308387e+11 0.0 0.0 4.9908044e+12 6.5504536e+11
0.0 4.9930714e+12 2.1946332e+11 6.086506e+09 4.3104036e+11 2.2019088e+11 1.3151434e+11 1.7775694e+12
2.6989829e+11 9.6138376e+07 0.0 5.0390458e+08 7.333092e+11 1.629939e+11 2.194283e+09 0.0
1.5929052e+09 1.8868969e+09 0.0 2.6377791e+10 0.0 0.0 6.664605e+11 1.9718411e+11
0.0 1.4066938e+12 5.7309594e+11 7.016735e+07 2.93395e+09 8.428913e+11 1.0222267e+10 3.5667653e+11
1.26642635e+11 8.599501e+06 2.3463657e+10 1.9870341e+10 5.850885e+11 6.3297155e+10 2.725767e+09 0.0
3.3343056e+08 2.4592643e+09 0.0 2.2520958e+11 0.0 0.0 8.336833e+11 1.6045816e+11
0.0 1.2806474e+12 3.761666e+11 3.035629e+10 1.0958509e+11 4.3991797e+11 8.330497e+09 5.1229435e+11
00000000: 2a7f c551 23ea 844c c775 d64e 45ed 954f
00000010: 14b3 0953 98c8 2151 37e6 384f 0000 0000
00000020: 3dc5 a74d 4580 a74f 0000 0000 f040 0a52
00000030: 0000 0000 0000 0000 dfea 3253 dc24 1052
00000040: 0000 0000 d92c 8c53 f211 a152 9ac2 2050
00000050: 7f9c 3451 6426 a352 5e47 b34f 90c5 ad52
00000060: a63c 0d51 3f6c 5d4a a559 f44b 938f 9b50
00000070: 6f12 c153 90c3 944f 5062 1e50 0000 0000
00000080: 555b 324d 54b9 814f 0000 0000 4fba 5853
00000090: 0000 0000 0000 0000 6440 9154 bf83 1853
000000a0: 0000 0000 4851 9154 2264 4c52 5b64 b54f
000000b0: 04b8 c852 9911 4d52 edf6 f451 b2ef ce53
000000c0: c45c 7b52 915e b74c 0000 0000 ca47 f04d
000000d0: a2bc 2a53 c6cc 1752 1aca 024f 0000 0000
000000e0: 9ce3 bd4e 86ef e04e 0000 0000 a587 c450
000000f0: 0000 0000 0000 0000 242c 1b53 5ba4 3752
00000100: 0000 0000 bec2 a353 2e6f 0553 67d5 854c
00000110: 86e0 2e4f 3d40 4453 db52 1850 2817 a652
00000120: eae3 eb51 cd37 034b 60d1 ae50 ab0b 9450
00000130: fe39 0853 dfcc 6b51 e777 224f 0000 0000
00000140: f9fd 9e4d 6595 124f 0000 0000 26be 5152
00000150: 0000 0000 0000 0000 661b 4253 3570 1552
00000160: 0000 0000 4416 9553 8e2a af52 072c e250
00000170: 3e1e cc51 4fda cc52 a644 f84f 3f8e ee52

exp_avg f4 [4]
0.017851602 0.02736488 0.045371026 0.01791041
00000000: 863d 923c 502c e03c f8d6 393d dab8 923c

exp_avg_sq f4 [4]
0.011560793 0.047274087 0.013069742 0.011989744
00000000: 7b69 3d3c 79a2 413d 7922 563c a270 443c
