test_model/covid0.pth (torch, 6807 bytes, 6 tensors)

weight f4 [24, 4]
-0.040217876 0.15451485 0.263139 -0.023425221 0.15650237 -0.13473946 -0.3884734 0.2246291
0.42247844 0.23584211 -0.04287225 0.3879068 0.28163427 0.06598711 0.4700178 0.1675232
0.1980347 0.0029679537 -0.303185 -0.077587605 0.030463219 0.40410614 0.3155834 0.25492632
0.054020345 -0.06074947 -0.38381398 -0.10896826 -0.2867086 -0.033958554 0.14290816 -0.18370688
-0.32592988 -0.10955143 0.28640544 -0.15272516 -0.2282129 0.04039657 0.079187274 -0.27375287
-0.006959617 -0.11959779 -0.0004272461 0.22530502 -0.31966454 0.36557198 0.36368537 -0.33504504
0.37444764 -0.019414902 -0.2131691 -0.40501267 -0.29276836 -0.49203527 -0.26288652 -0.4775625
0.028028965 0.1700812 0.42363977 0.47049057 -0.16605407 -0.03302598 -0.38136142 0.23783976
0.056848943 0.43821836 -0.011192799 -0.16367024 0.16498393 -0.3614754 0.4938069 -0.37932485
-0.0544852 0.28454453 0.45937586 0.2858162 0.1677174 0.44881284 -0.40157634 0.48886675
-0.44113857 0.23229307 0.015452027 0.3490951 0.06823009 0.25711828 -0.13064587 -0.4188187
0.082946 -0.37866372 -0.4952758 -0.264812 0.29900873 0.20817155 0.015739918 -0.37672752
00000000: 80bb 24bd 2439 1e3e 28ba 863e 40e6 bfbc
00000010: 2842 203e 24f9 09be fce5 c6be 2c05 663e
00000020: 184f d83e 9880 713e d09a 2fbd b89b c63e
00000030: 5e32 903e 4024 873d 2ca6 f03e 348b 2b3e
00000040: 9cc9 4a3e 0082 423b 103b 9bbe 40e6 9ebd
00000050: 008e f93c 00e7 ce3e 2694 a13e b485 823e
00000060: 7044 5d3d 70d4 78bd 4483 c4be c02a dfbd
00000070: 78cb 92be 2018 0bbd 8456 123e a81d 3cbe
00000080: 48e0 a6be 805c e0bd bca3 923e fc63 1cbe
00000090: a4b0 69be e076 253d f02c a23d 5629 8cbe
000000a0: 800d e4bb b0ef f4bd 0000 e0b9 5cb6 663e
000000b0: 12ab a3be 402c bb3e f834 ba3e 068b abbe
000000c0: 9ab7 bf3e 000c 9fbc 0049 5abe d25d cfbe
000000d0: bce5 95be 0cec fbbe 1099 86be 1283 f4be
000000e0: 009d e53c c429 2e3e 50e7 d83e 24e4 f03e
000000f0: 140a 2abe 4046 07bd ce41 c3be 448c 733e
00000100: 70da 683d 285e e03e 0062 37bc 2c99 27be
00000110: 8cf1 283e 4e13 b9be 42d4 fc3e de36 c2be
00000120: e02b 5fbd d2af 913e 5033 eb3e 8056 923e
00000130: 1cbe 2b3e ccca e53e 6a9b cdbe be4c fa3e
00000140: eadc e1be 3cde 6d3e 802a 7d3c 98bc b23e
00000150: 38bc 8b3d 02a5 833e 08c8 05be 686f d6be
00000160: 98df a93d 36e0 c1be ca94 fdbe 7095 87be
00000170: ac17 993e ec2a 553e 00f1 803c 6ee2 c0be

bias f4 [24]
0.29036552 -0.49339032 0.37245035 0.041235864 0.17930925 0.37830728 0.3449077 -0.06783998
-0.13225555 -0.4528767 -0.2952211 0.025668204 -0.07614893 0.3844123 -0.20575285 0.18811029
0.18240458 -0.389884 0.044095397 -0.26459622 0.32718313 0.1681683 -0.13805437 0.027022123
00000000: caaa 943e a89d fcbe d0b1 be3e f0e6 283d
00000010: d89c 373e 7eb1 c13e be97 b03e b0ef 8abd
00000020: 006e 07be 74df e7be 3827 97be 2046 d23c
00000030: f8f3 9bbd b0d1 c43e e0b0 52be fc9f 403e
00000040: 44c8 3a3e e09e c7be 609d 343d 2879 87be
00000050: 8c84 a73e 5034 2c3e 205e 0dbe 805d dd3c

weight f4 [24, 24]
-0.17309992 -0.20384392 0.08232671 0.16800147 0.09103969 0.04208164 0.15107882 -0.03886865
0.06662023 -0.14327262 0.03167002 -0.18682255 -0.07522568 0.08126208 -0.03898929 -0.19267657
0.1773054 -0.19769704 0.06686157 -0.15963516 -0.040233538 0.08261791 -0.10936178 0.16688144
-0.18329775 0.03744465 -0.17973399 -0.04355097 -0.008487865 -0.09111607 -0.08565332 -0.015822366
0.17026827 -0.15130419 -0.10041776 0.011673436 -0.00307554 0.1650097 0.09303245 -0.15474793
-0.127715 -0.16568056 -0.06907435 0.030436426 -0.10114967 0.014412418 -0.055403277 -0.20269872
-0.105788894 0.03963153 -0.000789091 -0.025045037 -0.15673372 -0.14088407 -0.02766399 -0.011233151
0.04606709 0.07655397 -0.058068216 0.10725266 0.098908424 -0.13302666 -0.023029998 -0.014223069
-0.2022658 -0.1530162 0.1657626 -0.13565965 0.024163887 -0.023263797 -0.08742 -0.044767663
0.16580012 0.07066944 -0.017321408 0.1738739 -0.1823503 0.059375733 -0.028457627 -0.035768434
0.18087745 0.16850236 0.124929726 0.16290379 0.18353316 -0.1830475 -0.062253594 -0.16741693
-0.04901038 0.11682683 -0.19335814 0.14343804 -0.15686065 0.15924627 -0.1298997 -0.1748566
0.10215053 0.09833893 0.043220326 0.08486563 -0.003745705 0.05065337 0.17976582 0.040691465
0.19145516 -0.08254815 0.18670952 -0.08341646 -0.16087872 0.0045945346 0.08498505 -0.12522563
-0.046749264 0.11390033 -0.19312856 -0.036057174 0.145767 -0.19820343 -0.18339191 0.036996573
-0.19944818 0.1349917 0.12481147 0.083459795 -0.10838747 0.06231129 0.12675232 -0.10167296
0.13144904 -0.19161314 -0.034669638 -0.13683498 0.17387024 0.0023775548 -0.029127285 -0.17610146
0.08316818 -0.010945931 0.049265474 0.082665056 -0.115618244 0.026269153 -0.11834856 0.0695447
-0.12759998 0.11265135 -0.1557515 0.18487084 -0.15052432 0.13446066 0.11467612 0.0029837042
-0.18445678 0.19783998 0.054478854 -0.018101692 0.18769851 0.09513512 -0.1694823 0.08118245
0.17105046 0.010593981 -0.08816887 0.076158494 0.072524816 0.17123759 -0.18906873 -0.13347322
-0.16313267 -0.0036883801 0.15126052 -0.10495635 -0.07355943 -0.073315725 0.12097731 -0.1568174
-0.035897106 0.08125958 0.054380924 0.10199627 -0.1772816 -0.14742374 0.13952067 0.1324557
-0.091219366 0.0061314255 0.13296938 0.12840363 -0.014275506 -0.025262639 0.1822404 -0.18678518
0.0033412576 0.10388535 -0.11802356 0.17962211 0.1359002 0.01252985 0.098407954 -0.185842
0.13830265 0.0843038 0.038721204 -0.08787059 0.09888187 0.18256757 0.13373885 0.17964667
-0.11645432 0.0902791 -0.043489546 -0.0566421 -0.029858738 -0.1480064 0.15801194 0.069402605
-0.1018549 0.11226717 -0.07424979 -0.1126533 0.017446652 0.062193066 0.19334659 -0.16646957
0.10800907 -0.024042517 -0.042148292 0.14001694 0.17484078 0.028801665 0.004129827 0.13346857
-0.0010509193 0.094301194 0.026346758 -0.05474323 0.13854292 0.0012130439 0.18001702 -0.06666514
0.19538608 -0.20354195 0.19152156 0.04531184 -0.12875952 -0.055415154 0.045238763 -0.011383742
-0.07706478 0.072027475 0.12427431 0.0055940747 -0.013515949 0.10355958 -0.040483534 -0.1988169
00000000: 1b41 31be 76bc 50be e89a a83d 9408 2c3e
00000010: 0473 ba3d cc5d 2c3d 68b4 1a3e bc34 1fbd
00000020: 3070 883d 0fb6 12be 6cb8 013d 694e 3fbe
00000030: ec0f 9abd bc6c a63d 3cb3 1fbd 024d 45be
00000040: 8c8f 353e 1871 4abe b8ee 883d 6677 23be
00000050: eccb 24bd 9433 a93d 12f9 dfbd f8e2 2a3e
00000060: 68b2 3bbe 905f 193d 300c 38be 8062 32bd
00000070: b010 0bbc 109b babd 026b afbd e89d 81bc
00000080: ce5a 2e3e 7cef 1abe d4a7 cdbd f041 3f3c
00000090: 008f 49bb 4ef8 283e cc87 be3d 3e76 1ebe
000000a0: b9c7 02be 2aa8 29be da76 8dbd d055 f93c
000000b0: 8f27 cfbd 1022 6c3c 8cee 62bd 4190 4fbe
000000c0: d9a7 d8bd ac54 223d 00db 4eba 402b cdbc
000000d0: ce7e 20be ea43 10be 989f e2bc 400b 38bc
000000e0: d8b0 3c3d 54c8 9c3d f0d8 6dbd 48a7 db3d
000000f0: 8090 ca3d 2438 08be 68a9 bcbc e007 69bc
00000100: c41e 4fbe 47b0 1cbe acbd 293e 5dea 0abe
00000110: 58f3 c53c b893 bebc 4209 b3bd 4c5e 37bd
00000120: 82c7 293e 24bb 903d a0e5 8dbc 000c 323e
00000130: 09ba 3abe f833 733d f81f e9bc ec81 12bd
00000140: f037 393e e28b 2c3e 28db ff3d 40d0 263e
00000150: 1ef0 3b3e ce70 3bbe a0fd 7ebd 586f 2bbe
00000160: 1cbf 48bd e842 ef3d adff 45be 6ce1 123e
00000170: 14a0 20be 7411 233e 6d04 05be 9c0d 33be
00000180: 4c34 d13d ec65 c93d cc07 313d 08ce ad3d
00000190: 807a 75bb e879 4f3d 8814 383e 18ac 263d
000001a0: d20c 443e 010f a9bd c830 3f3e 40d6 aabd
000001b0: 64bd 24be c08d 963b a40c ae3d 263b 00be
000001c0: 287c 3fbd 9444 e93d 7ec3 45be b0b0 13bd
000001d0: f243 153e d7f5 4abe 17cb 3bbe b889 173d
000001e0: 253c 4cbe 443b 0a3e 289d ff3d f8ec aa3d
000001f0: 40fa ddbd 203a 7f3d 5ccb 013e ea39 d0bd
00000200: 949a 063e 3c36 44be c001 0ebd 781e 0cbe
00000210: 0a0b 323e c0d0 1b3b 589c eebc f153 34be
00000220: 1454 aa3d 9056 33bc 98ca 493d 4c4c a93d
00000230: 42c9 ecbd 6832 d73c bb60 f2bd 746d 8e3d
00000240: 92a9 02be c0b5 e63d 527d 1fbe c84e 3d3e
00000250: 0c23 1abe 0eb0 093e 50db ea3d 408a 433b
00000260: 3de2 3cbe 9096 4a3e 3825 5f3d 004a 94bc
00000270: 0a34 403e 34d6 c23d c58c 2dbe fc42 a63d
00000280: da27 2f3e 6092 2d3c e191 b4bd fcf8 9b3d
00000290: e487 943d e858 2f3e 3c9b 41be 34ad 08be
000002a0: 400c 27be c0b8 71bb 0ae4 1a3e 5bf3 d6bd
000002b0: 54a6 96bd 8e26 96bd f4c2 f73d be94 20be
000002c0: d808 13bd 6c6b a63d 88be 5e3d 6ce3 d03d
000002d0: 4f89 35be 40f6 16be 82de 0e3e 78a2 073e
000002e0: 38d1 babd 20ea c83b 2029 083e 3e7c 033e
000002f0: d0e3 69bc 98f3 cebc 3a9d 3a3e 9d44 3fbe
00000300: 00f9 5a3b d8c1 d43d 56b6 f1bd dcee 373e
00000310: 6c29 0b3e 004a 4d3c 1c8a c93d 5e4d 3ebe
00000320: 369f 0d3e 78a7 ac3d 209a 1e3d 7ff5 b3bd
00000330: 9482 ca3d fef2 3a3e d6f2 083e 4cf5 373e
00000340: 9a7f eebd 40e4 b83d 1822 32bd 8c01 68bd
00000350: 509a f4bc fd8e 17be e2cd 213e f422 8e3d
00000360: 4d99 d0bd 54ec e53d 4610 98bd c6b6 e6bd
00000370: 48ec 8e3c 28be 7e3d a6fc 453e 0077 2abe
00000380: dc33 dd3d d0f4 c4bc b0a3 2cbd 9a60 0f3e
00000390: 7609 333e 78f1 eb3c 8053 873b fcab 083e
000003a0: 00bf 89ba fc20 c13d 28d5 d73c 703a 60bd
000003b0: 32de 0d3e 00ff 9e3a 6256 383e bc87 88bd
000003c0: 4a13 483e 4d6d 50be 3a1e 443e e898 393d
000003d0: 89d9 03be 00fb 62bd 484c 393d e082 3abc
000003e0: 24d4 9dbd 2483 933d 8883 fe3d 804e b73b
000003f0: 0072 5dbc 0c17 d43d 10d2 25bd a896 4bbe

bias f4 [24]
0.19426548 -0.097467184 -0.0032687485 0.027513087 -0.02840288 0.11620104 -0.099107675 0.16695806
0.022870392 0.19229993 0.03014338 -0.070288375 0.09658438 0.116520405 0.08882514 -0.19173615
-0.02949597 -0.07648504 0.014670134 -0.16039056 -0.17042881 0.0062365234 0.0836454 -0.09895948
00000000: 88ed 463e e09c c7bd 8038 56bb 2063 e13c
00000010: 28ad e8bc d0fa ed3d f7f8 cabd 0ef7 2a3e
00000020: b05a bb3c 46ea 443e 40ef f63c 5af3 8fbd
00000030: 08ce c53d 40a2 ee3d f4e9 b53d 7b56 44be
00000040: 88a1 f1bc 30a4 9cbd 005b 703c 6c3d 24be
00000050: e484 2ebe c05b cc3b 484e ab3d 45ab cabd

weight f4 [4, 24]
-0.07997887 -0.016694307 -0.15555197 0.1367816 -0.11810006 -0.15852523 -0.15815383 -0.07849446
-0.14271343 0.16221201 0.12637505 -0.06451394 0.1880436 -0.11136774 0.06908563 -0.1900579
0.08117443 0.0898515 -0.09753588 -0.048309 0.070666075 0.14461279 0.08036435 0.18282741
-0.1415107 -0.027571559 -0.20259239 -0.053738534 -0.087251276 -0.010714129 -0.15166649 0.06831002
-0.035406694 0.19355267 0.120336324 -0.122847624 -0.17925423 0.14253533 -0.045777366 -0.118821725
-0.07542077 0.03732878 0.044703424 0.026404366 -0.0797514 -0.19724119 -0.034044877 0.12897411
-0.03181395 -0.19910567 -0.19746456 0.045895934 -0.050628588 0.0071571916 0.20121336 -0.0948762
0.09332496 -0.20040946 0.08448228 -0.15787295 0.026276544 -0.060150847 0.17209199 0.07290757
0.028385818 -0.041356847 -0.07318102 -0.15988073 0.0037516654 0.15727994 -0.024911433 0.1652717
-0.09460186 -0.104669824 -0.15098637 0.1904411 -0.0611144 -0.11927408 -0.045669377 -0.099275306
-0.14716044 0.13029686 -0.14541729 0.060106933 -0.080644146 0.110729545 -0.09916065 -0.07319336
-0.0020251572 -0.07276715 -0.1905132 -0.052859455 -0.13297671 -0.17628506 0.17440206 0.0056378245
00000000: f6cb a3bd 80c2 88bc 0449 1fbe 7a10 0c3e
00000010: 72de f1bd 7054 22be 14f3 21be b4c1 a0bd
00000020: 7823 12be e81a 263e 7668 013e e21f 84bd
00000030: 808e 403e c514 e4bd c47c 8d3d 8a9e 42be
00000040: c83e a63d 1004 b83d e4c0 c7bd a8df 45bd
00000050: 60b9 903d 6015 143e 1096 a43d 1c37 3b3e
00000060: 2ee8 10be c0dd e1bc 6174 4fbe f01c 5cbd
00000070: ccb0 b2bd 508a 2fbc 764e 1bbe 20e6 8b3d
00000080: 9c06 11bd ac32 463e e472 f63d 8997 fbbd
00000090: 6c8e 37be c8f4 113e 0c81 3bbd ce58 f3bd
000000a0: 3476 9abd 10e6 183d f01a 373d f84d d83c
000000b0: b454 a3bd 98f9 49be a472 0bbd ca11 043e
000000c0: 584f 02bd 5be2 4bbe 2634 4abe 60fd 3b3d
000000d0: ec5f 4fbd e086 ea3b e00a 4e3e 744e c2bd
000000e0: 2821 bf3d 2338 4dbe 0c05 ad3d 72a9 21be
000000f0: e841 d73c bc60 76bd e238 303e 9050 953d
00000100: 6089 e83c cc65 29bd eedf 95bd c6b7 23be
00000110: 80de 753b fe0d 213e 1013 ccbc fc3c 293e
00000120: 9fbe c1bd 225d d6bd 2c9c 1abe fe02 433e
00000130: 1853 7abd f845 f4bd d00f 3bbd da50 cbbd
00000140: 3ab1 16be 8a6c 053e 45e8 14be b032 763d
00000150: c228 a5bd 2cc6 e23d bd14 cbbd 66e6 95bd
00000160: 80b8 04bb f206 95bd e415 43be 2883 58bd
00000170: 0c2b 08be 1284 34be 7496 323e 80bd b83b

bias f4 [4]
-0.073507786 0.15185514 0.022893652 0.10780072
00000000: 408b 96bd ea7f 1b3e 788b bb3c a0c6 dc3d
