test_model/covid857.pth (torch, 16239 bytes, 18 tensors)

weight f4 [24, 4]
000000 e0 ca 26 bd 5d 5a 43 bb fe fc 4a 3e 91 7a 35 3e
       -0.04072082 -0.00298085 0.19823071 0.17722537
000010 0c 18 35 bd 18 3c 24 be d5 12 1d 3e 02 2c 18 3e
       -0.044212386 -0.16038549 0.15339215 0.14860538
000020 11 79 3b be f8 33 75 3e f3 9c 8a bb ff d8 de 3d
       -0.18307902 0.23945606 -0.0042301356 0.108812325
000030 8e 67 42 bd ec 00 d2 3d 6f 50 a8 3d f0 e3 96 3d
       -0.04746204 0.10254082 0.082184665 0.073676944
000040 9e bc 00 3e 27 e6 2e be b7 cc 18 3e fa cb b0 3d
       0.12571952 -0.17079984 0.14921843 0.086326554
000050 4b 8c 85 3e 23 56 81 be c3 ab be bd 27 88 99 bd
       0.26083598 -0.2526103 -0.09310105 -0.07496672
000060 c1 7d 1c 3e bb fa 75 3e 6a ab 92 be f8 96 e0 be
       0.15282346 0.24021427 -0.28646404 -0.4386518
000070 e5 16 91 3e 9c 4f 5c 3e 9c 8e e7 be 81 51 d7 be
       0.2833778 0.21514744 -0.4522599 -0.4205437
000080 9e 5f cc be a8 5d f3 bd 78 44 82 be 10 87 ee bd
       -0.399167 -0.11883098 -0.25442863 -0.11646855
000090 64 b6 1b bd 16 5e f9 bd ce 33 c0 3d 58 26 bb 3d
       -0.038015738 -0.121761486 0.09384881 0.09138173
0000a0 ed a5 46 bd 26 b6 b9 3d 28 ac 9e 3d a5 d9 49 3e
       -0.048498083 0.09067945 0.0774768 0.19711931
0000b0 04 9b af be c8 1c 15 3e 66 69 a7 be 88 88 99 bd
       -0.34297955 0.1456176 -0.326976 -0.074967444
0000c0 d0 c9 5a 3e ca aa 34 be 56 81 9d bd e5 b7 96 bd
       0.21366048 -0.17643276 -0.076906845 -0.07359294
0000d0 5a 21 ad be 62 22 ef be 14 c1 ba be 04 17 9c be
       -0.33814508 -0.4670592 -0.36475432 -0.3048631
0000e0 72 98 10 be 83 4e 99 3c 2c 83 ed 3c ad a2 42 3c
       -0.14120653 0.018714195 0.028993212 0.011879605
0000f0 ce f5 77 3e e1 24 2e be 01 cb 13 3e 88 9d 11 be
       0.24214861 -0.17006256 0.14432909 -0.1422025
000100 f4 f6 21 bd 54 d2 89 3b 40 3b 62 3e 22 16 91 3e
       -0.039542153 0.0042059813 0.22092915 0.28337198
000110 db 04 c9 3e fc 86 08 be 23 86 ea bd af a0 25 be
       0.39261517 -0.13332742 -0.11451366 -0.16174577
000120 1a fb f5 3e c3 e0 da 3d 69 02 19 bf cd 1e a7 be
       0.48043138 0.10687401 -0.597693 -0.32640687
000130 9c 4a ad 3c d4 33 2e 3b 3b df 82 3d 77 bc 06 3d
       0.02115374 0.0026581185 0.06390234 0.032894578
000140 e7 3b 54 3d 4d cf 2e 3e 0e 9c a5 bb fa 36 77 bc
       0.05181494 0.17071266 -0.0050540036 -0.015088791
000150 e8 68 f4 be c4 f6 29 3e b0 91 1f 3e c4 35 e0 be
       -0.47736287 0.1659804 0.15582919 -0.4379102
000160 14 7c d6 be 28 58 3f 3e 1c a8 74 3e 0c 95 e7 be
       -0.4189154 0.18685973 0.23892254 -0.452309
000170 10 8e 7a bd 80 a5 05 3c 34 58 d2 be 48 86 d5 be
       -0.061170638 0.008157134 -0.4108292 -0.4170401

bias f4 [24]
000000 29 b0 c1 3e 02 fd ea be f2 33 e9 3e 07 9f 01 3f
       0.37829712 -0.45896155 0.45547444 0.5063328
000010 c9 59 a5 bd 2e a8 93 be 79 bf 68 3d b7 d9 b3 3e
       -0.08073766 -0.28839248 0.056823228 0.3512704
000020 7c 30 71 3e 10 d8 ac be 64 a7 10 bd 00 3d 8e bc
       0.23553652 -0.33758593 -0.035315886 -0.017363071
000030 d1 26 54 be 34 67 6a 3e 88 e0 ca 3e 66 db bd 3e
       -0.20717932 0.22890931 0.3962443 0.3708145
000040 e6 15 b2 be 0c 13 c3 be 83 88 88 3c 2a 9f 04 bd
       -0.34782332 -0.3810047 0.016666656 -0.032378353
000050 c3 c1 4f 3e a0 19 36 3d 6c ae a4 3e 62 34 a6 3e
       0.20288758 0.04445803 0.32164323 0.3246184

weight f4 [24, 24]
000000 3b 58 9c 3d 75 cc 24 be 2d 54 9e bb b2 ae 24 be
       0.07634016 -0.16093619 -0.004831812 -0.16082266
000010 4b 98 fc 3b 3c 1d 06 be fe d1 7a 3c 46 1d b6 bd
       0.0077085844 -0.1309709 0.015308855 -0.08892302
000020 84 4b 72 bd b9 31 c1 bb 69 33 4c 3d f0 22 cb 3c
       -0.05915405 -0.00589582 0.049853716 0.024796933
000030 51 f1 9f bd dc 06 c3 3d c8 d2 0a be 5c 9b 44 3d
       -0.07809699 0.09522793 -0.13556969 0.047999725
000040 be ac 46 3c b0 ea e2 bd 03 2a f0 3d 54 a2 b9 bc
       0.012126146 -0.11079919 0.11726763 -0.022660412
000050 65 73 82 bd 38 4c 4e be 86 85 ad bd 18 9c 08 3e
       -0.06369666 -0.20146263 -0.08472733 0.13340795
000060 c3 08 9e 3d 69 0f 81 be d2 4c 10 be 6d aa 0c 3e
       0.07716515 -0.2520707 -0.14091805 0.13736887
000070 68 3f ec bd f4 2f 46 3d 0e fc 10 bd 48 26 19 3d
       -0.11535531 0.048385575 -0.035396628 0.037390023
000080 da c8 9d bd 10 d1 a4 3c 04 2c f0 3d ee 04 d5 bd
       -0.07704325 0.02011922 0.11727145 -0.10401331
000090 92 9c 54 be 00 a4 67 3b e5 79 e7 3e a7 a5 e8 3d
       -0.20762852 0.0035345554 0.45210186 0.11359721
0000a0 2f 9a 7f be 26 8d b0 bd e7 97 f5 bd 94 e3 37 3c
       -0.2496116 -0.08620672 -0.11991864 0.011223692
0000b0 26 e5 fe 3b 09 27 af bd d4 58 43 3e 68 72 a2 bc
       0.0077787815 -0.08552367 0.19076854 -0.019829944
0000c0 cb be 54 3d d3 40 46 be 60 ac 20 3e 64 b9 0a bd
       0.051939767 -0.19360666 0.15690756 -0.03386821
0000d0 ef 2e d0 bc ab 7b fb 3d 47 0e 86 bd 44 cc f0 3d
       -0.025413005 0.12279447 -0.06545692 0.117577106
0000e0 88 ef 3b 3e 94 3f 16 be d5 50 ec bd 00 d9 1a 3e
       0.18353093 -0.1467269 -0.11538855 0.15121841
0000f0 3f a0 70 3d d0 8a d3 3d e8 e3 a3 3d 53 66 7c be
       0.058746573 0.10329211 0.08002454 -0.24648409
000100 1f 5e b4 3d a9 31 2a 3c b2 15 16 be 57 7f a2 bd
       0.08807015 0.0103878165 -0.14656714 -0.079344444
000110 e8 ed 79 be 12 7c 34 be 2f 10 34 be fc 19 f1 3d
       -0.2440716 -0.17625454 -0.17584299 0.11772534
000120 ac 91 f2 3d df 02 2a bd 1b 53 9f 3d fd 48 97 3c
       0.11844191 -0.041506644 0.07779523 0.01846742
000130 eb b5 02 be 0a 10 0e bd 57 d6 1d bc 09 c0 57 be
       -0.12764709 -0.034683265 -0.009633622 -0.2106935
000140 20 ca 69 3d 23 92 22 be 34 ba 75 be b0 80 6a bd
       0.057077527 -0.15876059 -0.23996812 -0.057251632
000150 49 9d c3 3d c7 1c 3c be 87 73 6b 3e 10 00 2d 3e
       0.09551484 -0.18370353 0.22993289 0.16894555
000160 10 73 41 be b8 dd 73 bd 87 38 25 bd 03 a0 02 3e
       -0.18891549 -0.05953762 -0.04033711 0.12756352
000170 76 a6 1b 3e 0c 5e 9c bd e0 8c 00 3e 70 68 80 3d
       0.15200219 -0.076351255 0.1255374 0.0626992
000180 f9 0d c7 3c ea da 07 be 4f ac 02 bd 2b 37 08 be
       0.024298655 -0.13267103 -0.031902608 -0.13302295
000190 8f 94 60 bd 92 2b b7 3d 47 7b 6e 3e 69 53 88 bd
       -0.054829177 0.08943857 0.23289214 -0.06656534
0001a0 70 8e 16 3c cf cd bf 3d 27 d0 b3 bc 68 00 11 be
       0.009189233 0.09365427 -0.02194984 -0.14160311
0001b0 62 cd 95 3d 1c 31 7b bd 17 b8 31 3d 17 bd b3 bd
       0.07314564 -0.06132613 0.043388452 -0.087763004
0001c0 27 7f d9 3d 5a c3 bd bd 62 05 c5 bd 8a 57 50 be
       0.106199555 -0.09265776 -0.09620167 -0.20345894
0001d0 76 39 64 3d d0 31 ec 3d 5a 01 ad bd 40 99 11 3c
       0.05571886 0.115329385 -0.084475234 0.008886635
0001e0 53 92 1d 3d 1e 9f 26 be 43 74 66 be 2c f2 69 be
       0.038469624 -0.16271636 -0.22505288 -0.22846287
0001f0 e7 9e 48 be fa df 83 be 47 f9 f3 be 72 2f d6 bd
       -0.19591866 -0.25756818 -0.4765112 -0.10458268
000200 e0 ea ca 3d df ce 44 be 96 e2 e3 3d 9e dc 0c 3e
       0.0990808 -0.1921954 0.11127202 0.13756034
000210 bb ec 97 bd d7 59 ff bd c5 99 bd bc 38 5d 2a 3e
       -0.074182 -0.124683075 -0.023144612 0.16637123
000220 e7 83 e1 3d 31 ff 49 3d 39 a1 f0 3c f0 0d db bc
       0.110114865 0.049315635 0.029373752 -0.026740044
000230 a7 f0 57 be b4 48 98 3d 62 0b 19 3e 88 46 bd 3d
       -0.21087895 0.07435742 0.14945748 0.092419684
000240 5b ef 24 3d 1a 69 26 3e 87 63 7e be d3 f3 30 3d
       0.04026733 0.1625103 -0.24842654 0.04320128
000250 d5 33 9f 3d 2c 2a a6 bd 98 fb df be 44 d2 43 3e
       0.07773558 -0.081135124 -0.43746638 0.19123179
000260 d4 59 bb bd 9e e2 e0 bd 0a 59 87 3d 74 8c 6f bd
       -0.09147993 -0.10980724 0.0660878 -0.058483556
000270 e0 d2 ec 3d d8 45 8e bd 61 d8 97 be 76 86 40 be
       0.11563659 -0.069469154 -0.29657272 -0.18801293
000280 8a 34 67 be b1 51 dc 3c 8f 00 73 be e7 31 99 3d
       -0.22578636 0.026894422 -0.23730682 0.07480221
000290 76 0f 75 3d 6e 7e 4b 3e e0 97 35 3e fe 52 22 3e
       0.059829198 0.19872448 0.17733717 0.15851972
0002a0 68 6b e7 3d bc 30 11 3e d0 37 3c bd b2 84 d1 bd
       0.11299783 0.14178747 -0.045951664 -0.10230388
0002b0 d5 b1 4d be 8d 18 30 be ee ce a1 bd 74 cb 01 3e
       -0.20087369 -0.17196865 -0.07900797 0.12675267
0002c0 18 9f e6 bc 6e d2 47 be 90 a1 38 3d e0 5f 3c 3e
       -0.028152034 -0.19513866 0.045075953 0.18395948
0002d0 74 c2 8d bd b8 a6 b6 3c 2c 96 1e bd bc 59 3a 3e
       -0.069218546 0.022296295 -0.038717434 0.18198293
0002e0 a0 48 d8 bd 37 08 cd bd 28 9e 20 bd 64 00 1f be
       -0.10560727 -0.100113325 -0.03921333 -0.15527493
0002f0 40 26 8f bb a8 e4 ca 3d 98 ed 8b 3d 96 9f 36 3e
       -0.0043685734 0.09906894 0.06832427 0.17834315
000300 e4 4f f8 bc fb 24 a3 bc a4 1b 49 be 07 40 e2 3d
       -0.030311532 -0.019915095 -0.1963945 0.110473685
000310 52 1f 1b be 93 b1 f8 bb 8a 35 a6 be e1 d5 34 be
       -0.15148667 -0.007589528 -0.32462722 -0.17659713
000320 50 00 ad 3c 5e f4 34 3d d1 fe 43 bd dc ef 0d 3e
       0.021118313 0.04417836 -0.047850434 0.1386103
000330 d0 b5 06 3c d2 28 b4 bd dd a8 77 3e 52 10 1c bd
       0.008222058 -0.08796848 0.2418551 -0.0381015
000340 05 15 98 3d 83 73 ab bd 44 00 16 3e a1 5c 84 3d
       0.07425884 -0.083716415 0.14648539 0.0646298
000350 26 f9 27 3d 0c f3 ef 3d 40 7f 1b 3d 5a 8b 18 3e
       0.04100909 0.117162794 0.037963152 0.14896908
000360 43 da b9 3d 73 e8 09 3e a1 46 fc 3d 1d 7a 26 bc
       0.09074833 0.13467579 0.12318159 -0.01016095
000370 68 11 26 bd ae d1 af 3d cb 18 e0 bd 2a 82 a5 be
       -0.040543944 0.08584915 -0.10942229 -0.3232587
000380 7c 8b 1d bd e5 1b dd bd b0 0a 01 be 34 f4 99 bd
       -0.0384631 -0.10796336 -0.12601733 -0.07517281
000390 1b 09 2c 3e be 9d 1b be 87 ca 7c bd 03 17 a1 3d
       0.16800348 -0.15196893 -0.061716583 0.07865717
0003a0 e6 ad 6c bd 7c d3 5d be cb 2e 8f 3d cb b4 44 3d
       -0.05778303 -0.21662706 0.06991347 0.04802398
0003b0 1c ad b6 bd c4 83 cf 3d f8 66 e5 3d 40 62 67 bd
       -0.08919737 0.10132554 0.1120128 -0.056490183
0003c0 56 fc 19 be 4e 4b 4c be f8 6f 18 bd 48 4a 5b bd
       -0.15037665 -0.19950601 -0.037216157 -0.053537637
0003d0 f8 e6 6b bd 08 85 e9 3c 47 47 24 be 00 3e 9a ba
       -0.057593316 0.028505817 -0.16042815 -0.0011767745
0003e0 f4 30 28 3e 02 24 27 3e 58 3b 86 bc b8 8d 98 3d
       0.16424924 0.1632233 -0.01638572 0.07448906
0003f0 24 b2 f2 3d 34 16 82 bd b8 76 3d 3e 4b bd 4e be
       0.11850384 -0.06351891 0.18502319 -0.20189397

bias f4 [24]
000000 be 79 80 bc a4 47 07 3d 0e 9a d6 3d 28 71 04 3e
       -0.015683051 0.033027306 0.10478602 0.1293379
000010 e9 6f d3 bc 13 3b 76 3d eb 3a 1c 3d 84 51 97 3d
       -0.025810199 0.06011493 0.038142126 0.07388595
000020 ba 1d 53 3d 4a 08 10 3e f8 b8 0f be a0 3f 1b be
       0.05154202 0.14065662 -0.14035404 -0.1516099
000030 c3 e7 55 bd ec 64 8e 3d a0 0a f7 bc d1 d0 29 be
       -0.05222298 0.06952843 -0.030156434 -0.16583563
000040 52 4d 23 bd 5b c8 b1 bd d6 bc 0a 3e 5b e8 21 3e
       -0.03986866 -0.08680793 0.13548598 0.15811293
000050 fb 12 54 be b7 51 0e 3e 96 2b d8 3d 1f bb 68 be
       -0.20710365 0.13898359 0.10555188 -0.22727631

weight f4 [4, 24]
000000 6c 32 01 bb 5f 2b ad 3d 14 55 0b 3d 98 dd a5 3b
       -0.0019713892 0.08455538 0.034016684 0.0050618164
000010 06 b7 57 ba 79 81 40 bb c1 fd 41 bb 32 40 e0 bd
       -0.0008228872 -0.0029374047 -0.0029600712 -0.10949744
000020 f8 14 fd 38 d3 87 89 ba ec cc 04 3d af dd 9a bb
       0.00012067886 -0.0010492749 0.03242199 -0.004726134
000030 b8 50 81 3c 23 dc e8 bd 5e a9 21 3a 21 c5 48 b9
       0.01578556 -0.11370113 0.00061669 -0.00019146923
000040 2f 3c 50 bc 3f 4b 72 3b 87 90 08 ba dc 81 80 3b
       -0.012709661 0.003697112 -0.00052095245 0.0039217304
000050 c6 bb 03 3b a5 18 32 39 c2 ee 9d 39 73 67 da bb
       0.0020100935 0.00016984584 0.00030123262 -0.006665164
000060 20 b1 90 b8 26 b1 aa bd 04 ea 95 3d 4f 93 26 bc
       -6.899447e-05 -0.0833457 0.073200256 -0.010166957
000070 ce 99 2b bd 7a 0c a0 bc 79 0c 8a bb c4 64 20 3d
       -0.041894726 -0.0195372 -0.0042129126 0.039158598
000080 88 c0 d0 ba 7c a3 96 bb f2 0f 09 be e4 0c b9 bb
       -0.0015926519 -0.0045971256 -0.13384989 -0.0056472886
000090 40 25 42 3e d3 cd 42 bd 4d 52 27 ba d1 2b dc 39
       0.18959522 -0.04755957 -0.0006382808 0.00041994316
0000a0 9b 91 90 3d 29 0c 2d ba 40 b5 bb 3b d9 6c 19 bb
       0.07059022 -0.0006601238 0.005728394 -0.0023410826
0000b0 90 0a 70 3b 9f b9 66 39 f9 0a 2a bb 0e e8 6e 3b
       0.003662739 0.00022003659 -0.0025946482 0.0036454233
0000c0 0b cd d8 3c 87 b0 30 3d 4f 57 46 bc 4c 0f 2c bd
       0.02646496 0.0431371 -0.012105777 -0.042006776
0000d0 5c 3b 2e bb c5 32 f6 3c 2f 8a 67 3a b0 5b c3 3d
       -0.0026585674 0.030053506 0.00088325416 0.095389724
0000e0 8d fc ce 3a e0 6e 37 bb 52 c8 93 bd ba 61 8c ba
       0.0015791819 -0.002798967 -0.072159424 -0.0010710277
0000f0 fc 25 1b 3e 11 16 aa 3b c6 d7 cf 3a d8 37 f6 ba
       0.15151209 0.005190619 0.0015857152 -0.0018784953
000100 5a 59 cd 3d f8 33 67 3b a1 3e 7b 3b 49 0b 81 bc
       0.10026808 0.0035278779 0.003833689 -0.015752451
000110 df b0 90 bb bf 6d e3 bb 78 ac 0f 3b 26 67 47 3b
       -0.004415616 -0.006940573 0.0021922868 0.0030426471
000120 f1 98 04 3a 35 40 b6 3d 98 ca ac 3d 03 e9 b7 3c
       0.00050581904 0.08898965 0.08437079 0.022449976
000130 b3 6a 6a bb ed 63 d5 bb 24 db 02 bb 34 bc cf 3d
       -0.0035769164 -0.006512156 -0.0019967044 0.10143319
000140 90 0e e8 39 72 ea 2a 3a 58 1d 65 3d 25 c3 c4 ba
       0.00044261338 0.00065199204 0.055936188 -0.0015011771
000150 1c 89 42 3d 34 ed b8 3d 2c 06 3f bc 9d 99 bb 3a
       0.04749404 0.09029618 -0.011659186 0.0014312748
000160 17 3b 4d bb 5f 77 bd b8 b3 5f 30 3c eb 69 62 bc
       -0.0031315738 -9.034457e-05 0.010765004 -0.013819198
000170 2f b9 f8 38 cb c0 18 36 7f c1 d4 bb b1 91 7a 3b
       0.00011860055 2.2761985e-06 -0.006492793 0.0038233812

bias f4 [4]
000000 40 bf a5 be 9d 4e 9e be 97 a1 9a be 53 75 ac be
       -0.32372475 -0.30919352 -0.30201408 -0.3368326

exp_avg f4 [24, 4]
000000 04 00 00 80 04 00 00 80 04 00 00 80 04 00 00 80
       -6e-45 -6e-45 -6e-45 -6e-45
000010 04 00 00 80 04 00 00 80 04 00 00 80 04 00 00 80
       -6e-45 -6e-45 -6e-45 -6e-45
000020 04 00 00 80 04 00 00 80 04 00 00 80 04 00 00 80
       -6e-45 -6e-45 -6e-45 -6e-45
000030 04 00 00 00 04 00 00 00 04 00 00 00 04 00 00 00
       6e-45 6e-45 6e-45 6e-45
000040 04 00 00 80 04 00 00 80 04 00 00 80 04 00 00 80
       -6e-45 -6e-45 -6e-45 -6e-45
000050 04 00 00 80 04 00 00 80 04 00 00 80 04 00 00 80
       -6e-45 -6e-45 -6e-45 -6e-45
000060 04 00 00 00 04 00 00 00 04 00 00 00 04 00 00 00
       6e-45 6e-45 6e-45 6e-45
000070 04 00 00 00 04 00 00 00 04 00 00 00 04 00 00 00
       6e-45 6e-45 6e-45 6e-45
000080 00 00 00 00 00 00 00 00 00 00 00 00 00 00 00 00
       0.0 0.0 0.0 0.0
000090 04 00 00 80 04 00 00 80 04 00 00 80 04 00 00 80
       -6e-45 -6e-45 -6e-45 -6e-45
0000a0 04 00 00 00 04 00 00 00 04 00 00 00 04 00 00 00
       6e-45 6e-45 6e-45 6e-45
0000b0 00 00 00 00 00 00 00 00 00 00 00 00 00 00 00 00
       0.0 0.0 0.0 0.0
0000c0 04 00 00 80 04 00 00 80 04 00 00 80 04 00 00 80
       -6e-45 -6e-45 -6e-45 -6e-45
0000d0 00 00 00 00 00 00 00 00 00 00 00 00 00 00 00 00
       0.0 0.0 0.0 0.0
0000e0 04 00 00 80 04 00 00 80 04 00 00 80 04 00 00 80
       -6e-45 -6e-45 -6e-45 -6e-45
0000f0 04 00 00 80 04 00 00 80 04 00 00 80 04 00 00 80
       -6e-45 -6e-45 -6e-45 -6e-45
000100 04 00 00 80 04 00 00 80 04 00 00 80 04 00 00 80
       -6e-45 -6e-45 -6e-45 -6e-45
000110 04 00 00 00 04 00 00 00 04 00 00 00 04 00 00 00
       6e-45 6e-45 6e-45 6e-45
000120 04 00 00 80 04 00 00 80 04 00 00 80 04 00 00 80
       -6e-45 -6e-45 -6e-45 -6e-45
000130 04 00 00 80 04 00 00 80 04 00 00 80 04 00 00 80
       -6e-45 -6e-45 -6e-45 -6e-45
000140 04 00 00 00 04 00 00 00 04 00 00 00 04 00 00 00
       6e-45 6e-45 6e-45 6e-45
000150 00 00 00 00 00 00 00 00 00 00 00 00 00 00 00 00
       0.0 0.0 0.0 0.0
000160 00 00 00 00 00 00 00 00 00 00 00 00 00 00 00 00
       0.0 0.0 0.0 0.0
000170 00 00 00 00 00 00 00 00 00 00 00 00 00 00 00 00
       0.0 0.0 0.0 0.0

exp_avg_sq f4 [24, 4]
000000 79 f1 39 45 ed ba dd 41 63 64 b4 41 b5 c9 bb 44
       2975.092 27.716272 22.549017 1502.3033
000010 41 24 7e 44 e5 ed b8 40 10 2c b4 40 93 a4 51 44
       1016.56647 5.77904 5.6303787 838.5715
000020 72 cf a4 41 a9 a1 83 3f 20 d1 ee 3e c1 0a fa 42
       20.601292 1.028371 0.46643925 125.021
000030 5b e0 c6 42 c3 5e e7 40 20 63 10 40 dd 01 34 44
       99.438194 7.2303176 2.25605 720.0291
000040 57 3f 08 45 d5 67 be 41 2f 4e 9b 41 01 23 29 44
       2179.9587 23.8007 19.413176 676.54694
000050 89 93 4e 42 69 7d 46 40 50 dc f4 3f de 29 2d 42
       51.644077 3.1014044 1.9129734 43.290886
000060 11 74 56 43 91 c3 ec 40 28 ef 17 40 ba 28 e2 40
       214.45338 7.398873 2.373972 7.0674715
000070 c1 dd a9 44 dd 8b 9e 41 e6 c7 07 41 4c b4 9e 43
       1358.9298 19.818293 8.486303 317.40857
000080 00 00 00 00 00 00 00 00 00 00 00 00 00 00 00 00
       0.0 0.0 0.0 0.0
000090 1a ee a5 43 13 46 82 3e 00 2d 3e 40 2d e2 68 44
       331.86017 0.25444087 2.9714966 931.534
0000a0 bb bf 3b 45 e0 47 d5 41 e4 a1 c4 41 e2 12 be 44
       3003.9832 26.660095 24.579048 1520.5901
0000b0 00 00 00 00 00 00 00 00 00 00 00 00 00 00 00 00
       0.0 0.0 0.0 0.0
0000c0 d5 66 1d 44 70 79 b6 40 62 1d cb 40 09 c3 b8 43
       629.60675 5.702324 6.347337 369.5237
0000d0 00 00 00 00 00 00 00 00 00 00 00 00 00 00 00 00
       0.0 0.0 0.0 0.0
0000e0 d5 a2 3c 3c e8 83 5c 39 1d b4 63 3b 8c 37 15 40
       0.011513432 0.00021029974 0.0034744807 2.3315153
0000f0 fa 76 28 42 08 b6 c3 3e 41 30 06 3f ce 19 8b 42
       42.116188 0.38224816 0.5241738 69.5504
000100 3a 72 ab 43 52 2e e5 40 4f 80 8b 40 be fc b9 43
       342.8924 7.1619043 4.3594127 371.97455
000110 a6 b4 4a 44 4f c1 68 41 04 f9 03 41 e3 17 4a 43
       810.82263 14.5471945 8.248295 202.0933
000120 5b c1 81 45 5a 3c 40 42 11 4f d2 41 a8 75 6f 44
       4152.1694 48.058937 26.288607 957.8384
000130 17 f6 0c 43 e1 9c b9 3f 3d b2 f4 3f f3 36 89 43
       140.96129 1.4501001 1.9116894 274.4293
000140 63 87 6c 44 cf 4e 32 41 44 75 dc 40 63 7a cf 43
       946.1154 11.14424 6.8893147 414.95615
000150 00 00 00 00 00 00 00 00 00 00 00 00 00 00 00 00
       0.0 0.0 0.0 0.0
000160 00 00 00 00 00 00 00 00 00 00 00 00 00 00 00 00
       0.0 0.0 0.0 0.0
000170 00 00 00 00 00 00 00 00 00 00 00 00 00 00 00 00
       0.0 0.0 0.0 0.0

exp_avg f4 [24]
000000 04 00 00 80 04 00 00 80 04 00 00 80 04 00 00 00
       -6e-45 -6e-45 -6e-45 6e-45
000010 04 00 00 80 04 00 00 80 04 00 00 00 04 00 00 00
       -6e-45 -6e-45 6e-45 6e-45
000020 00 00 00 00 04 00 00 80 04 00 00 00 00 00 00 00
       0.0 -6e-45 6e-45 0.0
000030 04 00 00 80 00 00 00 00 04 00 00 80 04 00 00 80
       -6e-45 0.0 -6e-45 -6e-45
000040 04 00 00 80 04 00 00 00 04 00 00 80 04 00 00 80
       -6e-45 6e-45 -6e-45 -6e-45
000050 04 00 00 00 00 00 00 00 00 00 00 00 00 00 00 00
       6e-45 0.0 0.0 0.0

exp_avg_sq f4 [24]
000000 fb 0c 7f 2b 6e a0 cb 2a af 2b e7 28 77 43 10 2a
       9.0612213e-13 3.6171364e-13 2.5665097e-14 1.2813176e-13
000010 38 d3 29 2b f8 9f d0 28 4b f3 4b 29 97 ff c1 2a
       6.0333986e-13 2.3162014e-14 4.5286078e-14 3.4461038e-13
000020 00 00 00 00 92 c1 72 2a e7 d9 80 2b 00 00 00 00
       0.0 2.1561076e-13 9.155427e-13 0.0
000030 52 9c 6d 2a 00 00 00 00 bd 2f a6 25 a1 a3 cd 28
       2.1104063e-13 0.0 2.8828758e-16 2.2830535e-14
000040 67 13 29 2a 5a 80 74 2a c7 d7 93 2b 8f 48 a7 29
       1.5016947e-13 2.1716084e-13 1.0504868e-12 7.428877e-14
000050 3f 32 98 2a 00 00 00 00 00 00 00 00 00 00 00 00
       2.703549e-13 0.0 0.0 0.0

exp_avg f4 [24, 24]
000000 04 00 00 00 04 00 00 00 04 00 00 00 04 00 00 00
       6e-45 6e-45 6e-45 6e-45
000010 04 00 00 00 04 00 00 00 04 00 00 00 04 00 00 00
       6e-45 6e-45 6e-45 6e-45
000020 00 00 00 00 04 00 00 00 04 00 00 00 00 00 00 00
       0.0 6e-45 6e-45 0.0
000030 04 00 00 00 00 00 00 00 04 00 00 00 04 00 00 00
       6e-45 0.0 6e-45 6e-45
000040 04 00 00 00 04 00 00 00 04 00 00 00 04 00 00 00
       6e-45 6e-45 6e-45 6e-45
000050 04 00 00 00 00 00 00 00 00 00 00 00 00 00 00 00
       6e-45 0.0 0.0 0.0
000060 04 00 00 00 04 00 00 00 04 00 00 00 04 00 00 00
       6e-45 6e-45 6e-45 6e-45
000070 04 00 00 00 04 00 00 80 04 00 00 00 04 00 00 00
       6e-45 -6e-45 6e-45 6e-45
000080 00 00 00 00 04 00 00 00 04 00 00 00 00 00 00 00
       0.0 6e-45 6e-45 0.0
000090 04 00 00 00 00 00 00 00 04 00 00 00 04 00 00 00
       6e-45 0.0 6e-45 6e-45
0000a0 04 00 00 00 04 00 00 00 04 00 00 00 04 00 00 00
       6e-45 6e-45 6e-45 6e-45
0000b0 04 00 00 00 00 00 00 00 00 00 00 00 00 00 00 00
       6e-45 0.0 0.0 0.0
0000c0 04 00 00 80 04 00 00 00 00 00 00 00 04 00 00 00
       -6e-45 6e-45 0.0 6e-45
0000d0 04 00 00 00 04 00 00 00 04 00 00 00 04 00 00 00
       6e-45 6e-45 6e-45 6e-45
0000e0 00 00 00 00 04 00 00 00 04 00 00 80 00 00 00 00
       0.0 6e-45 -6e-45 0.0
0000f0 04 00 00 00 00 00 00 00 00 00 00 00 04 00 00 00
       6e-45 0.0 0.0 6e-45
000100 04 00 00 80 04 00 00 00 04 00 00 00 04 00 00 00
       -6e-45 6e-45 6e-45 6e-45
000110 04 00 00 00 00 00 00 00 00 00 00 00 00 00 00 00
       6e-45 0.0 0.0 0.0
000120 04 00 00 00 04 00 00 00 04 00 00 00 04 00 00 00
       6e-45 6e-45 6e-45 6e-45
000130 04 00 00 00 04 00 00 00 04 00 00 00 04 00 00 00
       6e-45 6e-45 6e-45 6e-45
000140 00 00 00 00 04 00 00 80 04 00 00 00 00 00 00 00
       0.0 -6e-45 6e-45 0.0
000150 04 00 00 00 00 00 00 00 04 00 00 00 04 00 00 00
       6e-45 0.0 6e-45 6e-45
000160 04 00 00 00 04 00 00 00 04 00 00 00 04 00 00 00
       6e-45 6e-45 6e-45 6e-45
000170 04 00 00 00 00 00 00 00 00 00 00 00 00 00 00 00
       6e-45 0.0 0.0 0.0
000180 04 00 00 00 04 00 00 00 04 00 00 00 04 00 00 00
       6e-45 6e-45 6e-45 6e-45
000190 04 00 00 00 04 00 00 00 04 00 00 80 04 00 00 80
       6e-45 6e-45 -6e-45 -6e-45
0001a0 00 00 00 00 04 00 00 00 04 00 00 00 00 00 00 00
       0.0 6e-45 6e-45 0.0
0001b0 04 00 00 00 00 00 00 00 04 00 00 00 04 00 00 00
       6e-45 0.0 6e-45 6e-45
0001c0 04 00 00 00 04 00 00 00 04 00 00 00 04 00 00 00
       6e-45 6e-45 6e-45 6e-45
0001d0 04 00 00 00 00 00 00 00 00 00 00 00 00 00 00 00
       6e-45 0.0 0.0 0.0
0001e0 04 00 00 00 04 00 00 00 04 00 00 00 04 00 00 00
       6e-45 6e-45 6e-45 6e-45
0001f0 04 00 00 00 04 00 00 00 04 00 00 00 04 00 00 00
       6e-45 6e-45 6e-45 6e-45
000200 00 00 00 00 04 00 00 00 04 00 00 00 00 00 00 00
       0.0 6e-45 6e-45 0.0
000210 04 00 00 00 00 00 00 00 04 00 00 00 04 00 00 00
       6e-45 0.0 6e-45 6e-45
000220 04 00 00 00 04 00 00 00 04 00 00 00 04 00 00 00
       6e-45 6e-45 6e-45 6e-45
000230 04 00 00 00 00 00 00 00 00 00 00 00 00 00 00 00
       6e-45 0.0 0.0 0.0
000240 04 00 00 00 04 00 00 00 04 00 00 00 04 00 00 00
       6e-45 6e-45 6e-45 6e-45
000250 04 00 00 00 04 00 00 00 04 00 00 00 04 00 00 00
       6e-45 6e-45 6e-45 6e-45
000260 00 00 00 00 04 00 00 00 04 00 00 00 00 00 00 00
       0.0 6e-45 6e-45 0.0
000270 04 00 00 00 00 00 00 00 04 00 00 00 04 00 00 00
       6e-45 0.0 6e-45 6e-45
000280 04 00 00 00 04 00 00 00 04 00 00 00 04 00 00 00
       6e-45 6e-45 6e-45 6e-45
000290 04 00 00 00 00 00 00 00 00 00 00 00 00 00 00 00
       6e-45 0.0 0.0 0.0
0002a0 00 00 00 00 00 00 00 00 00 00 00 00 00 00 00 00
       0.0 0.0 0.0 0.0
0002b0 00 00 00 00 00 00 00 00 00 00 00 00 00 00 00 00
       0.0 0.0 0.0 0.0
0002c0 00 00 00 00 00 00 00 00 00 00 00 00 00 00 00 00
       0.0 0.0 0.0 0.0
0002d0 00 00 00 00 00 00 00 00 00 00 00 00 00 00 00 00
       0.0 0.0 0.0 0.0
0002e0 00 00 00 00 00 00 00 00 00 00 00 00 00 00 00 00
       0.0 0.0 0.0 0.0
0002f0 00 00 00 00 00 00 00 00 00 00 00 00 00 00 00 00
       0.0 0.0 0.0 0.0
000300 04 00 00 00 04 00 00 00 04 00 00 00 04 00 00 00
       6e-45 6e-45 6e-45 6e-45
000310 04 00 00 00 04 00 00 00 04 00 00 00 04 00 00 00
       6e-45 6e-45 6e-45 6e-45
000320 00 00 00 00 04 00 00 00 04 00 00 00 00 00 00 00
       0.0 6e-45 6e-45 0.0
000330 04 00 00 00 00 00 00 00 04 00 00 00 04 00 00 00
       6e-45 0.0 6e-45 6e-45
000340 04 00 00 00 04 00 00 00 04 00 00 00 04 00 00 00
       6e-45 6e-45 6e-45 6e-45
000350 04 00 00 00 00 00 00 00 00 00 00 00 00 00 00 00
       6e-45 0.0 0.0 0.0
000360 04 00 00 00 04 00 00 00 04 00 00 00 04 00 00 00
       6e-45 6e-45 6e-45 6e-45
000370 04 00 00 00 04 00 00 80 04 00 00 00 04 00 00 80
       6e-45 -6e-45 6e-45 -6e-45
000380 00 00 00 00 04 00 00 00 04 00 00 00 00 00 00 00
       0.0 6e-45 6e-45 0.0
000390 04 00 00 80 00 00 00 00 04 00 00 00 04 00 00 80
       -6e-45 0.0 6e-45 -6e-45
0003a0 04 00 00 00 04 00 00 00 04 00 00 00 04 00 00 00
       6e-45 6e-45 6e-45 6e-45
0003b0 04 00 00 00 00 00 00 00 00 00 00 00 00 00 00 00
       6e-45 0.0 0.0 0.0
0003c0 00 00 00 00 00 00 00 00 00 00 00 00 00 00 00 00
       0.0 0.0 0.0 0.0
0003d0 00 00 00 00 00 00 00 00 00 00 00 00 00 00 00 00
       0.0 0.0 0.0 0.0
0003e0 00 00 00 00 00 00 00 00 00 00 00 00 00 00 00 00
       0.0 0.0 0.0 0.0
0003f0 00 00 00 00 00 00 00 00 00 00 00 00 00 00 00 00
       0.0 0.0 0.0 0.0

exp_avg_sq f4 [24, 24]
000000 ad d7 02 3e a9 a5 b1 3d d0 cb d5 3c df 2b 39 3c
       0.12777586 0.08674175 0.026098162 0.011301964
000010 b0 bb 9f 3d 7a 7f 92 3a 17 d8 5e 36 df 88 5d 37
       0.077994704 0.0011176907 3.3206359e-06 1.3204494e-05
000020 00 00 00 00 e1 2d c0 3c 30 47 eb 3d 00 00 00 00
       0.0 0.023459377 0.11488187 0.0
000030 8e 85 f7 39 00 00 00 00 c1 d0 b4 3a 1e 3b ee 37
       0.00047211017 0.0 0.0013795124 2.839934e-05
000040 ed 25 aa 3e bc e4 bf 37 14 80 01 38 f8 61 91 3b
       0.3323206 2.2875487e-05 3.087528e-05 0.0044367276
000050 03 f3 02 3c 00 00 00 00 00 00 00 00 00 00 00 00
       0.007992509 0.0 0.0 0.0
000060 b1 3d f3 34 5e df bb 30 39 1e dd 34 a0 db a0 34
       4.5307164e-07 1.3669526e-09 4.1186448e-07 2.996212e-07
000070 cf 45 68 33 44 d6 aa 31 1d 23 3c 31 5e da 8c 32
       5.40802e-08 4.9720104e-09 2.737756e-09 1.6397447e-08
000080 00 00 00 00 79 e5 cb 30 b1 1b a5 34 00 00 00 00
       0.0 1.4835414e-09 3.0753793e-07 0.0
000090 6c 4f 03 33 00 00 00 00 85 32 bd 30 86 84 f2 32
       3.0573048e-08 0.0 1.3765918e-09 2.8232773e-08
0000a0 f2 9b 4a 35 b1 ac 67 32 17 d2 be 32 8b 5a 6b 33
       7.5477794e-07 1.3485235e-08 2.2214449e-08 5.479755e-08
0000b0 39 b1 66 35 00 00 00 00 00 00 00 00 00 00 00 00
       8.593957e-07 0.0 0.0 0.0
0000c0 a6 47 69 30 58 c2 52 2d 00 00 00 00 5c 9e af 24
       8.4866725e-10 1.1980271e-11 0.0 7.616242e-17
0000d0 ff d4 2e 38 f7 4c 03 39 ae 0a 07 38 b9 e3 e8 38
       4.16832e-05 0.00012521805 3.2196454e-05 0.00011105039
0000e0 00 00 00 00 45 10 2d 2c 8f db 08 2c 00 00 00 00
       0.0 2.459381e-12 1.9448642e-12 0.0
0000f0 10 02 c7 38 00 00 00 00 00 00 00 00 c8 9e bd 38
       9.4894436e-05 0.0 0.0 9.0417976e-05
000100 20 8b 57 31 a8 97 74 39 ad 59 8e 39 a5 f6 a7 35
       3.1365701e-09 0.0002332615 0.00027151164 1.2514253e-06
000110 8e 05 c3 37 00 00 00 00 00 00 00 00 00 00 00 00
       2.3248398e-05 0.0 0.0 0.0
000120 34 cc 12 37 00 fd a4 33 72 b2 a0 36 81 65 76 36
       8.749823e-06 7.6828655e-08 4.7891454e-06 3.671594e-06
000130 1d 67 2e 36 ce 61 47 35 42 d4 a4 33 00 3d 3a 35
       2.598804e-06 7.42756e-07 7.6754546e-08 6.9379166e-07
000140 00 00 00 00 ab 0d 76 32 98 5e be 36 00 00 00 00
       0.0 1.4322192e-08 5.6734534e-06 0.0
000150 ae 64 22 36 00 00 00 00 5b 3f d1 30 32 6f a4 35
       2.4198484e-06 0.0 1.5224758e-09 1.2251314e-06
000160 74 4f 8c 37 c4 62 4c 36 1f b4 99 35 56 6f c6 35
       1.6726299e-05 3.0455858e-06 1.145181e-06 1.4784553e-06
000170 e0 12 84 37 00 00 00 00 00 00 00 00 00 00 00 00
       1.5744416e-05 0.0 0.0 0.0
000180 e8 92 b4 41 83 4a 87 41 e6 b0 90 40 0a 48 15 40
       22.571732 16.911383 4.521594 2.332522
000190 0b 26 53 41 7f de 88 3d 3e 47 9f 35 e4 79 45 36
       13.196788 0.06683063 1.1867157e-06 2.9426237e-06
0001a0 00 00 00 00 c2 a8 89 40 31 bc ab 41 00 00 00 00
       0.0 4.3018503 21.46689 0.0
0001b0 85 16 80 3d 00 00 00 00 9a f9 e5 3d 8f 7d a5 3b
       0.06254295 0.0 0.11229248 0.005050368
0001c0 76 44 6d 42 af e2 a9 3c fb ca 20 3a a0 35 38 3f
       59.316856 0.020737974 0.0006133762 0.71956825
0001d0 11 c7 3f 3f 00 00 00 00 00 00 00 00 00 00 00 00
       0.74913126 0.0 0.0 0.0
0001e0 ba c4 c1 40 ce 23 9b 40 dc ac b6 3f 08 ca 70 3f
       6.0552645 4.8481207 1.4271502 0.94058275
0001f0 e7 43 1c 40 0b 1e 5f 37 f0 01 84 2f 59 a3 e3 31
       2.4416444 1.3298831e-05 2.4012037e-10 6.62514e-09
000200 00 00 00 00 70 c1 c0 3f ad 6b ef 40 00 00 00 00
       0.0 1.5059032 7.481894 0.0
000210 1e 22 4c 36 00 00 00 00 7f b9 d9 37 a8 4d c5 36
       3.0418228e-06 0.0 2.5954794e-05 5.880098e-06
000220 09 27 8e 41 0a e1 05 37 cf f7 9d 34 f6 e5 8f 3e
       17.76906 7.979814e-06 2.9423833e-07 0.28105134
000230 46 cf b7 38 00 00 00 00 00 00 00 00 00 00 00 00
       8.764728e-05 0.0 0.0 0.0
000240 20 cf fd 42 27 0c cd 42 50 44 39 3e 1a e8 2c 41
       126.90454 102.523735 0.18092465 10.806665
000250 b4 8d 29 43 bf 8b b8 41 4c 40 b5 2f 80 be 6b 33
       169.55353 23.068235 3.2969394e-10 5.488846e-08
000260 00 00 00 00 0d 5d 91 41 e7 95 f9 42 00 00 00 00
       0.0 18.170435 124.79278 0.0
000270 63 38 aa 41 00 00 00 00 f0 3e 45 2d f1 8c 4f 3f
       21.277533 0.0 1.12121284e-11 0.81074435
000280 f8 ee b5 43 c2 c0 e5 41 5e 05 8d 35 a8 9e 0f 41
       363.86694 28.71912 1.0506881e-06 8.976234
000290 09 d4 31 41 00 00 00 00 00 00 00 00 00 00 00 00
       11.114266 0.0 0.0 0.0
0002a0 00 00 00 00 00 00 00 00 00 00 00 00 00 00 00 00
       0.0 0.0 0.0 0.0
0002b0 00 00 00 00 00 00 00 00 00 00 00 00 00 00 00 00
       0.0 0.0 0.0 0.0
0002c0 00 00 00 00 00 00 00 00 00 00 00 00 00 00 00 00
       0.0 0.0 0.0 0.0
0002d0 00 00 00 00 00 00 00 00 00 00 00 00 00 00 00 00
       0.0 0.0 0.0 0.0
0002e0 00 00 00 00 00 00 00 00 00 00 00 00 00 00 00 00
       0.0 0.0 0.0 0.0
0002f0 00 00 00 00 00 00 00 00 00 00 00 00 00 00 00 00
       0.0 0.0 0.0 0.0
000300 96 34 1b 3c e0 e5 68 3b 15 17 0e 3b 91 95 0f 3b
       0.009472987 0.0035537407 0.0021681238 0.0021909217
000310 14 66 ea 3b f5 45 db 3a 99 80 3e 37 f9 28 0b 39
       0.007153282 0.0016729223 1.1354824e-05 0.00013271337
000320 00 00 00 00 98 d3 66 3a 7f cf f5 3b 00 00 00 00
       0.0 0.00088053336 0.007501542 0.0
000330 ec 65 c5 3a 00 00 00 00 ba a3 30 37 2c 22 61 3a
       0.0015060282 0.0 1.0528538e-05 0.0008588161
000340 6e 18 c7 3c 51 4b 41 3b 32 35 66 3a cd c2 35 3a
       0.024303641 0.0029494355 0.00087817304 0.00069336296
000350 06 2b 93 3b 00 00 00 00 00 00 00 00 00 00 00 00
       0.004491213 0.0 0.0 0.0
000360 27 4a 0f 3b dc 69 ac 3a 1e ba b9 39 40 0e c6 38
       0.0021864267 0.0013154107 0.00035424618 9.44403e-05
000370 f9 c9 e4 3a 7c 1f 4e 39 3d 69 ea 29 f9 1f 09 30
       0.0017455212 0.0001965742 1.04099434e-13 4.9885746e-10
000380 00 00 00 00 92 e0 c3 39 c5 c1 e3 3a 00 00 00 00
       0.0 0.00037360616 0.0017376473 0.0
000390 af e6 bf 38 00 00 00 00 a1 45 31 37 af 28 3e 35
       9.150558e-05 0.0 1.0566234e-05 7.083972e-07
0003a0 a8 10 b9 3b d4 b9 05 36 c9 eb ba 33 05 93 99 38
       0.0056477375 1.992671e-06 8.704189e-08 7.322993e-05
0003b0 d5 04 aa 39 00 00 00 00 00 00 00 00 00 00 00 00
       0.00032428527 0.0 0.0 0.0
0003c0 00 00 00 00 00 00 00 00 00 00 00 00 00 00 00 00
       0.0 0.0 0.0 0.0
0003d0 00 00 00 00 00 00 00 00 00 00 00 00 00 00 00 00
       0.0 0.0 0.0 0.0
0003e0 00 00 00 00 00 00 00 00 00 00 00 00 00 00 00 00
       0.0 0.0 0.0 0.0
0003f0 00 00 00 00 00 00 00 00 00 00 00 00 00 00 00 00
       0.0 0.0 0.0 0.0

exp_avg f4 [24]
000000 04 00 00 00 04 00 00 00 04 00 00 00 04 00 00 00
       6e-45 6e-45 6e-45 6e-45
000010 04 00 00 00 04 00 00 00 04 00 00 00 00 00 00 00
       6e-45 6e-45 6e-45 0.0
000020 04 00 00 00 04 00 00 00 00 00 00 00 04 00 00 00
       6e-45 6e-45 0.0 6e-45
000030 04 00 00 00 04 00 00 00 04 00 00 00 04 00 00 00
       6e-45 6e-45 6e-45 6e-45
000040 04 00 00 00 04 00 00 00 04 00 00 00 04 00 00 00
       6e-45 6e-45 6e-45 6e-45
000050 04 00 00 00 04 00 00 00 04 00 00 00 04 00 00 00
       6e-45 6e-45 6e-45 6e-45

exp_avg_sq f4 [24]
000000 a1 6b 0b 26 55 04 b5 1d 12 5d 12 20 ab f7 f8 1f
       4.8371177e-16 4.791478e-21 1.2397475e-19 1.0544182e-19
000010 60 90 c5 29 3e 0c f1 28 25 b4 ad 2b 00 00 00 00
       8.7736025e-14 2.6761684e-14 1.234239e-12 0.0
000020 9e ad c8 24 b2 c3 1a 23 00 00 00 00 06 2f e8 2d
       8.703029e-17 8.389797e-18 0.0 2.6396229e-11
000030 95 c5 e0 13 79 08 3c 1c 82 3b 55 2c fc 38 e7 25
       5.674038e-27 6.2214933e-22 3.0302154e-12 4.0110726e-16
000040 a2 cc d8 14 3a 03 ee 28 41 83 56 2c af f8 65 21
       2.189114e-26 2.6424707e-14 3.048409e-12 7.791735e-19
000050 db 20 79 24 0d d4 82 27 3e 3d e5 2b 01 f2 1e 2a
       5.4021098e-17 3.6312154e-15 1.6288427e-12 1.4117181e-13

exp_avg f4 [4, 24]
000000 04 00 00 80 04 00 00 00 04 00 00 80 04 00 00 00
       -6e-45 6e-45 -6e-45 6e-45
000010 04 00 00 80 04 00 00 00 04 00 00 00 00 00 00 00
       -6e-45 6e-45 6e-45 0.0
000020 04 00 00 00 04 00 00 80 00 00 00 00 04 00 00 00
       6e-45 -6e-45 0.0 6e-45
000030 04 00 00 80 04 00 00 80 04 00 00 80 04 00 00 80
       -6e-45 -6e-45 -6e-45 -6e-45
000040 04 00 00 00 04 00 00 00 04 00 00 00 04 00 00 00
       6e-45 6e-45 6e-45 6e-45
000050 04 00 00 80 04 00 00 00 04 00 00 00 04 00 00 00
       -6e-45 6e-45 6e-45 6e-45
000060 04 00 00 00 04 00 00 80 04 00 00 00 04 00 00 00
       6e-45 -6e-45 6e-45 6e-45
000070 04 00 00 80 04 00 00 00 04 00 00 00 00 00 00 00
       -6e-45 6e-45 6e-45 0.0
000080 04 00 00 00 04 00 00 80 00 00 00 00 04 00 00 00
       6e-45 -6e-45 0.0 6e-45
000090 04 00 00 80 04 00 00 80 04 00 00 00 04 00 00 80
       -6e-45 -6e-45 6e-45 -6e-45
0000a0 04 00 00 00 04 00 00 00 04 00 00 80 04 00 00 80
       6e-45 6e-45 -6e-45 -6e-45
0000b0 04 00 00 80 04 00 00 80 04 00 00 00 04 00 00 00
       -6e-45 -6e-45 6e-45 6e-45
0000c0 04 00 00 80 04 00 00 00 04 00 00 00 04 00 00 80
       -6e-45 6e-45 6e-45 -6e-45
0000d0 04 00 00 80 04 00 00 80 04 00 00 00 00 00 00 00
       -6e-45 -6e-45 6e-45 0.0
0000e0 04 00 00 00 04 00 00 80 00 00 00 00 04 00 00 00
       6e-45 -6e-45 0.0 6e-45
0000f0 04 00 00 00 04 00 00 80 04 00 00 80 04 00 00 00
       6e-45 -6e-45 -6e-45 6e-45
000100 04 00 00 00 04 00 00 00 04 00 00 80 04 00 00 80
       6e-45 6e-45 -6e-45 -6e-45
000110 04 00 00 00 04 00 00 00 04 00 00 80 04 00 00 00
       6e-45 6e-45 -6e-45 6e-45
000120 04 00 00 00 04 00 00 00 04 00 00 00 04 00 00 00
       6e-45 6e-45 6e-45 6e-45
000130 04 00 00 00 04 00 00 00 04 00 00 00 00 00 00 00
       6e-45 6e-45 6e-45 0.0
000140 04 00 00 00 04 00 00 80 00 00 00 00 04 00 00 00
       6e-45 -6e-45 0.0 6e-45
000150 04 00 00 80 04 00 00 00 04 00 00 00 04 00 00 80
       -6e-45 6e-45 6e-45 -6e-45
000160 04 00 00 00 04 00 00 00 04 00 00 80 04 00 00 80
       6e-45 6e-45 -6e-45 -6e-45
000170 04 00 00 00 04 00 00 80 04 00 00 00 04 00 00 00
       6e-45 -6e-45 6e-45 6e-45

exp_avg_sq f4 [4, 24]
000000 d2 c0 f3 3c 65 88 c8 33 a6 87 0d 34 de cf 88 39
       0.02975503 9.338036e-08 1.3180997e-07 0.00026094815
000010 fc 9d 31 3f aa c3 ae 3a ee a9 48 43 00 00 00 00
       0.6938169 0.0013333459 200.66379 0.0
000020 41 d6 03 3d 51 23 fa 3a 00 00 00 00 96 c3 02 44
       0.03218675 0.0019084011 0.0 523.056
000030 cf 49 03 29 d6 ab 5f 30 ae 10 12 41 fc 3a 3f 3d
       2.9151862e-14 8.137112e-10 9.129072 0.04668711
000040 09 66 85 29 f7 fe b3 40 78 c5 ae 44 34 fb 2e 39
       5.924087e-14 5.6248736 1398.1709 0.00016687514
000050 f2 ab 0d 3d 46 b4 8e 3f 9d 42 fc 41 71 88 49 44
       0.034587808 1.1148765 31.532526 806.1319
000060 bf f7 36 3d c9 d8 23 2b bf c2 4f 35 8a 81 a5 32
       0.044669863 5.8210083e-13 7.73969e-07 1.9267436e-08
000070 64 fc 30 3f b0 85 1b 3b 72 3e 27 44 00 00 00 00
       0.6913512 0.0023730807 668.9757 0.0
000080 1e f8 de 3b d7 9b 9c 3a 00 00 00 00 d1 99 b3 47
       0.00680448 0.0011948299 0.0 91955.63
000090 7e 75 53 24 36 5d 63 31 f7 1e 0c 46 f7 2f 29 3e
       4.585285e-17 3.3085832e-09 8967.741 0.16522203
0000a0 46 7a d2 28 ff 7b cc 40 51 0c fc 44 70 77 ee 39
       2.3367711e-14 6.3901362 2016.3849 0.00045483885
0000b0 5a 47 0f 3f 85 85 6c 40 cb 5a 1e 46 1f 9f 8d 3d
       0.5596825 3.6956494 10134.698 0.069151156
0000c0 0b 7e a5 3d da 18 62 2f f2 42 85 34 8c 95 7d 34
       0.080806814 2.056341e-10 2.482189e-07 2.3616866e-07
0000d0 53 56 0c 3f cd 27 e4 3e 3b 5d 2f 44 00 00 00 00
       0.5481922 0.44561616 701.4567 0.0
0000e0 21 95 e6 3d 27 a3 2d 3a 00 00 00 00 f0 9b 36 47
       0.11258913 0.0006623738 0.0 46747.938
0000f0 04 a6 1c 28 12 34 17 31 e6 03 69 45 03 24 df 3d
       8.6957385e-15 2.200299e-09 3728.2437 0.108955406
000100 a6 cd b4 28 57 fc b2 41 20 09 d6 44 4f 10 17 39
       2.00732e-14 22.373213 1712.2852 0.00014406558
000110 86 ce fb 3d b7 75 89 40 8e bf 9e 45 0c 34 2c 3f
       0.122952506 4.2956195 5079.9443 0.6726692
000120 1e 90 00 3d c4 91 06 30 67 ac 2a 35 05 91 8b 36
       0.03138744 4.895606e-10 6.3580814e-07 4.1594053e-06
000130 34 91 c7 3e 2f 89 8c 3a fb 1f 87 43 00 00 00 00
       0.3897797 0.0010722036 270.24985 0.0
000140 4c 67 6c 3d e6 3d 56 3a 00 00 00 00 d5 0e c6 45
       0.0577157 0.0008172676 0.0 6337.854
000150 98 12 55 25 60 e9 83 31 8f 87 62 43 f8 d0 8e 3d
       1.8481105e-16 3.8391335e-09 226.52953 0.069734514
000160 e1 04 ba 29 84 a3 fa 40 30 41 c1 44 75 d0 79 39
       8.2609057e-14 7.8324604 1546.0371 0.00023824147
000170 76 49 b4 3d 3a 26 87 3f 4c 62 95 44 fc 71 e9 3e
       0.08803074 1.0558541 1195.0718 0.45594776

exp_avg f4 [4]
000000 dc fc 3b b9 76 2d 87 38 24 18 46 ba 09 40 8a b7
       -0.00017927907 6.4457694e-05 -0.0007556698 -1.64807e-05

exp_avg_sq f4 [4]
000000 74 fd 00 36 da 29 68 36 6c c9 4a 36 61 5e a3 35
       1.9221015e-06 3.4595055e-06 3.0217589e-06 1.2171914e-06
