test_model/covid59.pth (torch, 16239 bytes, 18 tensors)

weight f4 [24, 4]
00000000: 83e2 a8bd f95d 323d 9545 183e d579 f4bd
00000010: 782b 833d 4e44 85bd ae73 fbbe 5276 043e
00000020: 943e 883e 3dd0 233e 0c2b 7abe 8228 103e
00000030: 2952 c13d 5e5b 283d 20bd 3a3e 7a4d 9bbb
00000040: a8f5 323e 0939 d4bd 55e5 2dbe 201f 24b6
00000050: 1d06 f8bd b66f 153e 5ee4 683e d6f6 213e
00000060: 1d56 5c3d 3ea7 a43d 721d 63be 5f85 a6bc
00000070: 78cb 92be 2018 0bbd 8456 123e a81d 3cbe
00000080: 48e0 a6be 805c e0bd bca3 923e fc63 1cbe
00000090: a4b0 69be e076 253d f02c a23d 5629 8cbe
000000a0: 473d edbd 13eb 433e cb79 a7bd aa97 1c3e
000000b0: 9665 0fbf 5118 003e 7b53 fc3d 9055 13bf
000000c0: 5e7f dc3d 491d a03c 8d6b 46be ab78 e1be
000000d0: bce5 95be 0cec fbbe 1099 86be 1283 f4be
000000e0: 0b5b 2d3c 6bfc 883e 125f 7c3e c21a 423e
000000f0: 41aa 72be 40f9 323e 16cd 89be b18d 183e
00000100: 90a0 52bd a05d c43e b0b1 3bbe f981 9fbe
00000110: 911a ef3d e654 8abe 87c1 133f aeb2 b9be
00000120: ee21 84be 33a5 013d 0b13 b43e a927 b23d
00000130: 92d1 783d a40e ee3e 912b 0bbf 4958 a93e
00000140: c4ba fabe 35ac 9f3e 307b 9ebd 552d 7e3e
00000150: fccd 443d 18a9 693e 0ebe 6ebe 24ba 04bf
00000160: 6c39 e2bb 74dc f9be 457c 1abf 2dde bebe
00000170: 2edf 803e a9da 153e 1a0a f8bd 48b9 b8be
-0.08246329 0.04354665 0.14870293 -0.119373 0.064047754 -0.06507169 -0.49111694 0.1293576
0.26610243 0.15997405 -0.24430484 0.14077953 0.09439499 0.04110276 0.18236208 -0.0047394605
0.17476523 -0.10362441 -0.16982014 -2.4456021e-06 -0.12110541 0.14593396 0.22743365 0.15816817
0.05379306 0.080397114 -0.22179201 -0.020327268 -0.2867086 -0.033958554 0.14290816 -0.18370688
-0.32592988 -0.10955143 0.28640544 -0.15272516 -0.2282129 0.04039657 0.079187274 -0.27375287
-0.11583953 0.19132642 -0.08177527 0.1529223 -0.5601438 0.12509276 0.1232061 -0.57552433
0.10766481 0.019545214 -0.19376965 -0.44037375 -0.29276836 -0.49203527 -0.26288652 -0.4775625
0.010580788 0.2675508 0.24645641 0.1895552 -0.23697759 0.17477894 -0.2691428 0.14897801
-0.051422656 0.3835268 -0.18329501 -0.3115385 0.11674989 -0.27017897 0.57717174 -0.36269134
-0.25807136 0.031651687 0.3517078 0.08698971 0.060746737 0.46495545 -0.5436335 0.3307517
-0.48970616 0.3118607 -0.0773834 0.2482198 0.048048005 0.2281841 -0.23314688 -0.5184653
-0.006903818 -0.48801005 -0.6034587 -0.37278882 0.25170273 0.14634193 -0.12111302 -0.36078858

bias f4 [24]
00000000: 4649 403e 0397 18bf 193e 153e be06 23be
00000010: 269f 223e bd86 883e 583a b23e b0ef 8abd
00000020: 006e 07be 74df e7be f4a6 bdbe bd97 5abe
00000030: 96be a6be b0d1 c43e f6d1 e3be 34e0 db3d
00000040: 0b1d 913d 25e8 dbbe 7906 22be 46e9 dcbe
00000050: df33 6f3e 35f5 153e 52b1 6abe 036e a8bc
0.18777952 -0.59605426 0.1457447 -0.1592054 0.15881023 0.26665297 0.34810138 -0.06783998
-0.13225555 -0.4528767 -0.37041438 -0.21346946 -0.3256728 0.3844123 -0.44496125 0.10736123
0.07085618 -0.4295055 -0.15822782 -0.43146724 0.23359631 0.1464432 -0.22919205 -0.02056027

weight f4 [24, 24]
00000000: a6f5 2ebe 46f2 91be 9178 8abb b80c a83d
00000010: c3f2 e43c 2be7 bb3a 0494 b83d bc34 1fbd
00000020: 3070 883d 0fb6 12be b591 b1bc 694e 3fbe
00000030: 4b03 08be bc6c a63d e4bd d3bd dbff 3abe
00000040: 7e52 f43d 11ed 80be 1007 a13c 04f4 70be
00000050: 0ea9 7ebd 89ac 103d 03d3 2abe 5d29 d63d
00000060: 68b2 3bbe 905f 193d 300c 38be 8062 32bd
00000070: b010 0bbc 109b babd 026b afbd e89d 81bc
00000080: ce5a 2e3e 7cef 1abe d4a7 cdbd f041 3f3c
00000090: 008f 49bb 4ef8 283e cc87 be3d 3e76 1ebe
000000a0: b9c7 02be 2aa8 29be da76 8dbd d055 f93c
000000b0: 8f27 cfbd 1022 6c3c 8cee 62bd 4190 4fbe
000000c0: d9a7 d8bd ac54 223d 00db 4eba 402b cdbc
000000d0: ce7e 20be ea43 10be 989f e2bc 400b 38bc
000000e0: d8b0 3c3d 54c8 9c3d f0d8 6dbd 48a7 db3d
000000f0: 8090 ca3d 2438 08be 68a9 bcbc e007 69bc
00000100: c41e 4fbe 47b0 1cbe acbd 293e 5dea 0abe
00000110: 58f3 c53c b893 bebc 4209 b3bd 4c5e 37bd
00000120: 4880 c53d f7f7 053c 82ab c5bd 082d c43d
00000130: baed 41be 71d0 a13c b627 d6bc ec81 12bd
00000140: f037 393e e28b 2c3e 765a af3d 40d0 263e
00000150: 8ce2 2f3e ce70 3bbe 2df4 d8bd aea9 56be
00000160: c63d 12bd 2aa2 b93d 1219 71be b2a7 bd3d
00000170: eb79 50be d796 253e a828 15be 25d6 3abe
00000180: e8dd 133e 2f56 3a3d 4671 12bc e9be 073d
00000190: 5981 dbbd 212b 50bb cf78 063e 18ac 263d
000001a0: d20c 443e 010f a9bd fee6 053e 40d6 aabd
000001b0: e8af 42be c08d 963b 8d79 143d 1792 17be
000001c0: f7a7 9cbd 1441 393d f7ed 69be d870 abbd
000001d0: 5945 e43d 6641 6ebe 7016 55be c888 12bd
000001e0: f9f5 0cbe d76b b83d 4f9a 983d 353a dc3c
000001f0: bd6e 03bf 4e6b 0e3d bc1e 19bd ea39 d0bd
00000200: 949a 063e 3c36 44be 217b 81bd 4b8a bdbe
00000210: 3039 c93c c0d0 1b3b 69e8 7ebd 7d46 2bbe
00000220: 6b52 87bd 364b a6bd 43aa 1a3d fe5d 3f3d
00000230: a39d e6bd 7c21 1abe 4223 88be f4cb cebc
00000240: a128 40be 3c6f 573d 62fc 5cbe 6e9f ff3d
00000250: 1ba2 57be fe61 983d 5bba 5f3d 408a 433b
00000260: 3de2 3cbe 9096 4a3e 94b8 b6bb 004a 94bc
00000270: fbb4 023e 34d6 c23d d40b 6bbe 5813 ad3c
00000280: 9651 e33d aa97 4abd 00c8 17be 5deb 833c
00000290: f14d 4c3c b0b3 e33d 4b1a 7fbe 432c 46be
000002a0: be8f 46be bdac cbbd e1de fd3c 3828 48be
000002b0: cc33 2fbe 3e68 febd f4c2 f73d be94 20be
000002c0: d808 13bd 6c6b a63d 2279 10bd efc4 06be
000002d0: 7cc5 67be 40f6 16be 43ac 663d 9d76 bc3d
000002e0: 1003 3ebe 5b79 3abe cf50 bb3d b452 003d
000002f0: a989 7ebd 0dce 1abe 3a9d 3a3e f0cf 9abe
00000300: 5e09 923d 075c 9a3d daf3 18be 2311 123e
00000310: 54be 923d fe16 f9bb 225a dc3c 5e4d 3ebe
00000320: 369f 0d3e 78a7 ac3d d69a 843c 7ff5 b3bd
00000330: e147 483d fef2 3a3e 9e23 e93d e6bb 323e
00000340: 0db1 dabd 36b2 edba 6a9c 52bd 7646 9abd
00000350: f892 21bd d716 18be 0b4a 123e da24 c93c
00000360: d61e 4abe a693 b03d 74bb d7bd 58b2 0abe
00000370: f71a c3bc 2578 163d 60bc 143e 0077 2abe
00000380: dc33 dd3d d0f4 c4bc b5d7 86bd 9a60 0f3e
00000390: ebf6 0a3e 78f1 eb3c fe52 bdbc dfbf c83d
000003a0: 532f 19bd 2da1 713d 31ca 69bb 767d b6bd
000003b0: 9bd6 cf3d 7639 09bd bf24 0e3e 4e98 dfbd
000003c0: 9ad6 1e3e b69b 71be f5d6 e43d dfa2 29bd
000003d0: 96c1 22be 22c4 a3bd 1487 d03c e082 3abc
000003e0: 24d4 9dbd 2483 933d 65c3 c33d 71c1 743e
000003f0: 9254 13bd 0c17 d43d 979a a5bd 3476 84be
-0.17085895 -0.28505152 -0.0042257984 0.08205551 0.027947789 0.0014335861 0.09012607 -0.03886865
0.06662023 -0.14327262 -0.021675924 -0.18682255 -0.13282506 0.08126208 -0.10338953 -0.18261664
0.11929797 -0.25180867 0.019656688 -0.23530585 -0.062172942 0.035320792 -0.16682057 0.10457108
-0.18329775 0.03744465 -0.17973399 -0.04355097 -0.008487865 -0.09111607 -0.08565332 -0.015822366
0.17026827 -0.15130419 -0.10041776 0.011673436 -0.00307554 0.1650097 0.09303245 -0.15474793
-0.127715 -0.16568056 -0.06907435 0.030436426 -0.10114967 0.014412418 -0.055403277 -0.20269872
-0.105788894 0.03963153 -0.000789091 -0.025045037 -0.15673372 -0.14088407 -0.02766399 -0.011233151
0.04606709 0.07655397 -0.058068216 0.10725266 0.098908424 -0.13302666 -0.023029998 -0.014223069
-0.2022658 -0.1530162 0.1657626 -0.13565965 0.024163887 -0.023263797 -0.08742 -0.044767663
0.09643608 0.008176795 -0.09651853 0.095789015 -0.18938342 0.019752713 -0.026141983 -0.035768434
0.18087745 0.16850236 0.08562176 0.16290379 0.17176265 -0.1830475 -0.10593448 -0.20963165
-0.035703443 0.090641335 -0.2354472 0.09260501 -0.20359008 0.16170822 -0.1456629 -0.18245752
0.1444012 0.045492347 -0.008938139 0.03314105 -0.107180305 -0.0031763988 0.13132022 0.040691465
0.19145516 -0.08254815 0.13076398 -0.08341646 -0.19012415 0.0045945346 0.036248732 -0.14801823
-0.07649224 0.04522808 -0.22844683 -0.083711326 0.111460395 -0.23267135 -0.2080934 -0.035774976
-0.13765706 0.09004944 0.07451307 0.026883224 -0.5134085 0.034770302 -0.037382826 -0.10167296
0.13144904 -0.19161314 -0.06322313 -0.37019572 0.024563402 0.0023775548 -0.062233362 -0.16726108
-0.06607517 -0.08119814 0.03776003 0.046720497 -0.112605356 -0.15051836 -0.265894 -0.025243737
-0.18765499 0.052596316 -0.21580651 0.12481581 -0.21057932 0.074405655 0.05462108 0.0029837042
-0.18445678 0.19783998 -0.0055762026 -0.018101692 0.12764351 0.09513512 -0.22953731 0.021127388
0.11099546 -0.049461044 -0.14822388 0.01610344 0.012469755 0.11118257 -0.24912374 -0.19352822
-0.19390771 -0.099450566 0.030990066 -0.19546592 -0.17109603 -0.12422226 0.12097731 -0.1568174
-0.035897106 0.08125958 -0.03527177 -0.13161062 -0.22633928 -0.14742374 0.056316625 0.09202311
-0.18555856 -0.18210356 0.091462724 0.03132887 -0.062143 -0.15117665 0.1822404 -0.3023677
0.07130693 0.07537084 -0.14936772 0.1426435 0.071652085 -0.007601618 0.026898447 -0.185842
0.13830265 0.0843038 0.016187113 -0.08787059 0.048896674 0.18256757 0.113837466 0.1745449
-0.10678301 -0.0018134776 -0.0514187 -0.075329706 -0.0394468 -0.14852463 0.14286058 0.024553705
-0.19738325 0.08621912 -0.10533801 -0.13544595 -0.023816569 0.036735673 0.14524984 -0.16646957
0.10800907 -0.024042517 -0.065841116 0.14001694 0.13570754 0.028801665 -0.023110863 0.098022215
-0.037398648 0.0589916 -0.0035673494 -0.089106485 0.101483546 -0.033502065 0.13881205 -0.10917722
0.15511551 -0.23594555 0.11173812 -0.04141509 -0.1589416 -0.07996394 0.025455035 -0.011383742
-0.07706478 0.072027475 0.09558753 0.23901917 -0.035969324 0.10355958 -0.08086126 -0.25871432

bias f4 [24]
00000000: 18d0 d83d e09c c7bd 8038 56bb 4768 65bd
00000010: 81be c8bd 2ada 713d 8afb 22be 3a30 073d
00000020: 424d f7bb 45f0 1a3e 241c 47bd f56c 41be
00000030: 08ce c53d db89 40be 570f ec3c c336 87be
00000040: 423a a4bd 65b9 c4bd 309a 27bd 77bc 61be
00000050: 41d5 3dbe bd6d 60bd e595 cb3c dce2 0abe
0.10586566 -0.097467184 -0.0032687485 -0.05600765 -0.09801961 0.059045948 -0.15916267 0.033004977
-0.0075470516 0.15130718 -0.04861082 -0.1888922 0.09658438 -0.18802588 0.028815908 -0.26408967
-0.08018924 -0.09605674 -0.04091853 -0.2204455 -0.18538381 -0.054792155 0.024851749 -0.13563102

weight f4 [4, 24]
00000000: 4353 44bd 80c2 88bc 0449 1fbe b0bb 443d
00000010: 77e6 37bc 1923 923c 08e8 c8bd d61d d6bc
00000020: 624c 17bc 4ae3 733d 7084 533a 3bf4 65bc
00000030: 808e 403e fc3d 463e c47c 8d3d e02e 05be
00000040: 666b ae3c e6b2 833c e4c0 c7bd 8c72 403c
00000050: b8f1 3c3d 0b4a 883d a65f a63c 498a d23a
00000060: 64c2 4cbb c0dd e1bc 6174 4fbe 0a68 883d
00000070: ca01 b2ba cc94 a53c cc9e bbbd 13c6 bf3b
00000080: eb2c d23c ca91 a13e bfc6 703a a2ea 48bc
00000090: 6c8e 37be c8f4 113e 8aea 003e abde bfbc
000000a0: 6876 a2bc a11d 97b9 0866 cd3d 9d11 b13d
000000b0: 0fe2 873d 94f9 bd3c a472 0bbd f2bd fb3a
000000c0: a18e 0d3d 5be2 4bbe 2634 4abe 6a80 2dbd
000000d0: 6436 153d 6dfd 6d3c d18b 103e 998f 8a3b
000000e0: fe73 fa3c ba8a ccbd 6c7b 553a 0b48 39bc
000000f0: e841 d73c bc60 76bd 09ed 373d 1f4e 213d
00000100: aa32 a9bc c591 e03b 541d 90bc 6a71 ccbd
00000110: 8bfd 3e3d ca52 d73c a8e4 073d d7a0 f33a
00000120: 04b4 883d 225d d6bd 2c9c 1abe b89f a23e
00000130: e607 acbc fde7 d93c f4b1 6b3c 88be a33b
00000140: c7e9 b23c 68b1 2e3e adcd 603a 6ca0 3fbc
00000150: c228 a5bd 2cc6 e23d bd14 cbbd 2cd4 dfbb
00000160: 3f88 c23d 6ce5 663c e415 43be 1ec9 eb3b
00000170: 86be 0e3c 75f4 e53c 8315 703e 70ad ed3a
-0.047930967 -0.016694307 -0.15555197 0.048030555 -0.011224381 0.017839001 -0.098098814 -0.026137274
-0.00923452 0.05954293 0.0008068746 -0.01403528 0.1880436 0.19359583 0.06908563 -0.13006163
0.021291446 0.016076516 -0.09753588 0.01174606 0.04612896 0.066547476 0.02030928 0.0016062941
-0.0031243796 -0.027571559 -0.20259239 0.06660469 -0.0013580855 0.020212553 -0.091611475 0.0058524697
0.025656184 0.3155654 0.0009184889 -0.012262972 -0.17925423 0.14253533 0.1258947 -0.023421606
-0.019831851 -0.0002882304 0.100292265 0.086459376 0.06634914 0.023190297 -0.034044877 0.0019206388
0.03455985 -0.19910567 -0.19746456 -0.042358793 0.036428824 0.014525753 0.14115836 0.004228544
0.030572888 -0.099873975 0.00081436965 -0.01130868 0.026276544 -0.060150847 0.04490379 0.039381143
-0.020654041 0.0068533146 -0.01759211 -0.099825695 0.046628516 0.026284594 0.033177048 0.0018587363
0.0667496 -0.104669824 -0.15098637 0.3176248 -0.02099986 0.026599878 0.014385689 0.0049970783
0.02183999 0.17059863 0.000857557 -0.011695962 -0.080644146 0.110729545 -0.09916065 -0.006830713
0.09498643 0.014092784 -0.1905132 0.007195606 0.0087124165 0.028070668 0.23445706 0.0018133353

bias f4 [4]
00000000: dded 633f d230 953f bd6e 923f a8f6 8d3f
0.89034826 1.1655524 1.1440045 1.1090899

exp_avg f4 [24, 4]
00000000: 0400 0000 0400 0000 0400 0000 0400 0000
00000010: 42aa 3543 f094 b340 1e5c 2842 0e7c 4444
00000020: 29c1 30c3 6d42 8cc3 4cfe 7642 00fb 4a42
00000030: 1e3d 0dc2 b469 14c1 5ceb 2ec2 a687 8ec3
00000040: a4cb fe42 f496 ca42 4685 0441 b02b 61c3
00000050: b6a9 bd42 0c77 0943 c0c8 81c2 77f3 0b44
00000060: 90bf 2a41 9a7b 5741 5874 a140 e2a6 d1c0
00000070: 0000 0000 0000 0000 0000 0000 0000 0000
00000080: 0000 0000 0000 0000 0000 0000 0000 0000
00000090: 0000 0000 0000 0000 0000 0000 0000 0000
000000a0: 7a2e 3e42 4e9f d1c3 ae5f 1143 ac39 2644
000000b0: 0400 0000 0400 0000 0400 0000 0400 0000
000000c0: e84b 0d42 e101 4440 f252 1940 8d2b 9b40
000000d0: 0000 0000 0000 0000 0000 0000 0000 0000
000000e0: 560d 2a43 33b2 9043 e05e b0c2 000e 60c0
000000f0: 6898 eec2 9924 4bc2 79e3 8bc2 f3b6 bec3
00000100: 4020 0042 9e1a e241 7d53 2b41 33b6 8341
00000110: 69c7 61c2 49ce 9bc0 907b b0c0 024c 28c1
00000120: 61cf e742 a936 4243 5fb2 ae42 6459 8643
00000130: 5646 3fc3 6f75 2ac3 f8ce 88c1 1d36 b7c3
00000140: 4014 8041 d478 6a41 cb26 d542 814f 70c3
00000150: 0ecf 6ac1 337d 14c0 c33e 7bbf 0a42 c0bf
00000160: 0400 0000 0400 0000 0400 0000 0400 0000
00000170: 375d 3542 7a34 5941 98a8 0b41 6099 2e41
6e-45 6e-45 6e-45 6e-45 181.66507 5.611931 42.08996 785.93835
-176.75453 -280.51895 61.748337 50.745117 -35.309685 -9.275806 -43.729843 -285.05975
127.397736 101.29483 8.282537 -225.17065 94.83147 137.46503 -64.89209 559.80414
10.671768 13.467676 5.045452 -6.5516214 0.0 0.0 0.0 0.0
0.0 0.0 0.0 0.0 0.0 0.0 0.0 0.0
47.545387 -419.24457 145.37375 664.9011 6e-45 6e-45 6e-45 6e-45
35.324127 3.0626147 2.3956876 4.8490663 0.0 0.0 0.0 0.0
170.0521 289.39218 -88.1853 -3.5008545 -119.29767 -50.78574 -69.94428 -381.4293
32.031494 28.262997 10.707883 16.463964 -56.444736 -4.8689313 -5.5150833 -10.518557
115.90504 194.21352 87.34838 268.69836 -191.27475 -170.45872 -17.101059 -366.42276
16.009888 14.654499 106.57577 -240.31056 -14.67555 -2.3201416 -0.9814264 -1.5020154
6e-45 6e-45 6e-45 6e-45 45.34103 13.575312 8.728661 10.912445

exp_avg_sq f4 [24, 4]
00000000: 6684 334a 1eb1 9d48 cfbb 0749 edcf 884a
00000010: d909 b74f c8e0 264a 41dc 384c a4c0 3d51
00000020: 7e28 4a4f 257d dc4a 159c c14b 4be1 5b50
00000030: 1709 454f 7fef 904a 013c 724b 4392 dc4f
00000040: ca27 894e b870 9549 1dfe 5649 89cd 8f4e
00000050: 5d40 9b4e 49ac 864a 3426 fb4b 5036 af50
00000060: 22a6 a54e fa8d 8448 bf37 4d47 dec0 6248
00000070: 0000 0000 0000 0000 0000 0000 0000 0000
00000080: 0000 0000 0000 0000 0000 0000 0000 0000
00000090: 0000 0000 0000 0000 0000 0000 0000 0000
000000a0: 696d 674e 8953 c14a f78b 1f4c 9bb0 f550
000000b0: dece 0042 1fe9 dd42 e147 0f42 084b b142
000000c0: 8c68 704e 53ed 1b49 571c 7848 44c4 ea49
000000d0: 0000 0000 0000 0000 0000 0000 0000 0000
000000e0: 86b5 324e 9e31 f949 5ea0 bb4a 3323 724f
000000f0: d827 f84d e7a9 4a49 4851 ce4b 5230 0651
00000100: 40da 904c cca3 2948 b831 1c47 389b c047
00000110: 9722 3f50 d1f5 a14b d394 164b 5c15 134c
00000120: 6833 f84c 7e5f a449 94b0 e84a be8e b34f
00000130: b0c5 c84f 8b18 514b 9ee8 854c 8d7b 2c51
00000140: e65c 654e 5e85 2e4a 43ec 384c 582e 3851
00000150: 9e52 604e 7430 2a48 6f11 0347 ab2a ad47
00000160: c1ed d14c eef5 0e47 4bf7 e745 5aa6 9746
00000170: 6203 884f ce93 934a 6283 d349 1fb3 904b
2.9412095e+06 322952.94 555964.94 4.4830625e+06 6.141752e+09 2.73413e+06 4.8460036e+07 5.09363e+10
3.3916513e+09 7.2249785e+06 2.537681e+07 1.47559e+10 3.3057073e+09 4.7492475e+06 1.5875073e+07 7.401146e+09
1.1505431e+09 1.224215e+06 880609.8 1.2063059e+09 1.3023433e+09 4.4129645e+06 3.2918632e+07 2.3516578e+10
1.3895642e+09 271471.8 52535.746 232195.47 0.0 0.0 0.0 0.0
0.0 0.0 0.0 0.0 0.0 0.0 0.0 0.0
9.706768e+08 6.3349165e+06 4.182422e+07 3.2975935e+10 32.20202 110.955315 35.820194 88.646545
1.00834586e+09 638677.2 254065.36 1.9232085e+06 0.0 0.0 0.0 0.0
7.495602e+08 2.0413958e+06 6.148143e+06 4.062393e+09 5.204201e+08 830110.44 2.7042448e+07 3.602102e+10
7.594445e+07 173711.19 39985.72 98614.44 1.2826861e+10 2.122845e+07 9.868499e+06 3.855704e+07
1.301287e+08 1.3465438e+06 7.624778e+06 6.024953e+09 6.7367977e+09 1.3703307e+07 7.02067e+07 4.630045e+10
9.6201766e+08 2.8593515e+06 4.8476428e+07 4.944072e+10 9.408777e+08 174273.81 33553.434 88661.336
1.1006311e+08 36597.93 7422.9116 19411.176 4.563846e+09 4.835815e+06 1.7327162e+06 1.8966078e+07

exp_avg f4 [24]
00000000: 0400 0000 0857 2a37 c460 67b6 5591 7ab6
00000010: e47f fd33 ba02 f436 d805 7334 0000 0000
00000020: 0000 0000 0000 0000 5629 9336 0400 0000
00000030: 75fb f434 0000 0000 54cc 7636 bf86 d0b6
00000040: 6aca 6a35 ada0 4fb5 3287 df36 1b11 fab6
00000050: c456 8ab5 da27 51b4 0400 0000 43e0 5235
6e-45 1.0153053e-05 -3.4478007e-06 -3.7337497e-06 1.1804494e-07 7.272084e-06 2.2633265e-07 0.0
0.0 0.0 4.3857535e-06 6e-45 4.56315e-07 0.0 3.6775791e-06 -6.2145696e-06
8.7466344e-07 -7.7347323e-07 6.6616567e-06 -7.452572e-06 -1.0307053e-06 -1.947914e-07 6e-45 7.855744e-07

exp_avg_sq f4 [24]
00000000: 92ba 1231 bc65 0b37 af1d 4636 e056 f335
00000010: 9bc6 b534 8be4 7b36 470d 1d34 0000 0000
00000020: 0000 0000 0000 0000 f6e2 9d36 c8f9 e029
00000030: 6bc8 f233 0000 0000 ff06 3735 707b 9e36
00000040: 33b4 1032 832e cf35 b1c5 5835 15ce 0937
00000050: e76b e236 1f8f d433 eebc 4a32 29a9 0f35
2.135185e-09 8.3087325e-06 2.9521577e-06 1.8130195e-06 3.3858382e-07 3.7534944e-06 1.4626595e-07 0.0
0.0 0.0 4.7053863e-06 9.9909284e-14 1.1305459e-07 0.0 6.8182993e-07 4.723137e-06
8.422876e-09 1.5436239e-06 8.075395e-07 8.213819e-06 6.7478863e-06 9.898053e-08 1.1800905e-08 5.351781e-07

exp_avg f4 [24, 24]
00000000: 0400 0000 0400 0000 0400 0000 0400 0000
00000010: 0400 0000 0400 0000 0400 0000 0000 0000
00000020: 0000 0000 0000 0000 0400 0000 0000 0000
00000030: 0400 0000 0000 0000 0400 0000 0400 0000
00000040: 0400 0000 0400 0000 0400 0000 0400 0000
00000050: 0400 0000 0400 0000 0400 0000 0400 0000
00000060: 0000 0000 0000 0000 0000 0000 0000 0000
00000070: 0000 0000 0000 0000 0000 0000 0000 0000
00000080: 0000 0000 0000 0000 0000 0000 0000 0000
00000090: 0000 0000 0000 0000 0000 0000 0000 0000
000000a0: 0000 0000 0000 0000 0000 0000 0000 0000
000000b0: 0000 0000 0000 0000 0000 0000 0000 0000
000000c0: 0000 0000 0000 0000 0000 0000 0000 0000
000000d0: 0000 0000 0000 0000 0000 0000 0000 0000
000000e0: 0000 0000 0000 0000 0000 0000 0000 0000
000000f0: 0000 0000 0000 0000 0000 0000 0000 0000
00000100: 0000 0000 0000 0000 0000 0000 0000 0000
00000110: 0000 0000 0000 0000 0000 0000 0000 0000
00000120: 0400 0000 0400 0000 0400 0000 0400 0000
00000130: 0400 0000 0400 0000 0400 0000 0000 0000
00000140: 0000 0000 0000 0000 0400 0000 0000 0000
00000150: 0400 0000 0000 0000 0400 0000 0400 0000
00000160: 0400 0000 0400 0000 0400 0000 0400 0000
00000170: 0400 0000 0400 0080 0400 0000 0400 0000
00000180: 0400 0000 5d51 d911 0112 9128 76ae 1828
00000190: d50e 0000 1b69 6628 555e bc25 0000 0000
000001a0: 0000 0000 0000 0000 72a5 fd27 0000 0000
000001b0: 0400 0000 0000 0000 d7fc e628 4c03 0c10
000001c0: b656 2ca2 0400 0080 5b98 4a27 326b e028
000001d0: 721a f527 0400 0000 0400 0000 0400 0080
000001e0: 0400 0000 292d 043d 396e acc3 8311 85c3
000001f0: 910e 6141 ecba c2c3 9294 89c1 0000 0000
00000200: 0000 0000 0000 0000 d20f 19c3 0400 0000
00000210: 0400 0000 0000 0000 a0b5 21c4 2021 f7b3
00000220: 6c60 f0c1 2400 0000 b035 5bc3 3c96 a7c3
00000230: 930c 75c2 0400 0080 0400 0000 5e13 6cc2
00000240: 0400 0000 0400 0000 0400 0000 0400 0000
00000250: 0400 0000 0400 0000 0400 0000 0000 0000
00000260: 0000 0000 0000 0000 0400 0000 0000 0000
00000270: 0400 0000 0000 0000 0400 0000 0400 0000
00000280: 0400 0000 0400 0000 0400 0000 0400 0000
00000290: 0400 0000 0400 0000 0400 0000 0400 0000
000002a0: 0400 0000 0400 0000 0400 0080 0400 0080
000002b0: 0400 0000 0400 0080 0000 0000 0000 0000
000002c0: 0000 0000 0000 0000 0400 0080 0400 0000
000002d0: 0400 0080 0000 0000 0400 0080 0400 0000
000002e0: 0400 0000 0400 0000 0400 0080 0400 0080
000002f0: 0400 0000 0400 0000 0000 0000 0400 0000
00000300: 0400 0000 4791 8d42 c032 63c2 0401 18c3
00000310: bc7d b242 9231 fcc3 8d48 ca39 0000 0000
00000320: 0000 0000 0000 0000 9e76 4bc3 0000 0000
00000330: 61d9 c220 0000 0000 90b6 0ac4 52db 3d43
00000340: 80d5 86ae ab6b 1621 2475 d1c3 c86f a7c2
00000350: 77a4 0543 27be c91e 0400 0000 e444 c841
00000360: 0400 0000 0400 0000 0400 0000 0400 0000
00000370: 0400 0000 0400 0000 0400 0000 0000 0000
00000380: 0000 0000 0000 0000 0400 0000 0000 0000
00000390: 0400 0000 0000 0000 0400 0000 0400 0000
000003a0: 0400 0000 0400 0000 0400 0000 0400 0000
000003b0: 0400 0000 0400 0000 0400 0000 0400 0000
000003c0: 0400 0000 2fc1 f0c2 5de1 81c3 dab1 70c2
000003d0: aea0 a1c2 0575 dac2 a080 19c1 0000 0000
000003e0: 0000 0000 0000 0000 6819 a1c2 0400 0080
000003f0: 4ff9 0080 0000 0000 fde7 51c3 a311 53c1
6e-45 6e-45 6e-45 6e-45 6e-45 6e-45 6e-45 0.0
0.0 0.0 6e-45 0.0 6e-45 0.0 6e-45 6e-45
6e-45 6e-45 6e-45 6e-45 6e-45 6e-45 6e-45 6e-45
0.0 0.0 0.0 0.0 0.0 0.0 0.0 0.0
0.0 0.0 0.0 0.0 0.0 0.0 0.0 0.0
0.0 0.0 0.0 0.0 0.0 0.0 0.0 0.0
0.0 0.0 0.0 0.0 0.0 0.0 0.0 0.0
0.0 0.0 0.0 0.0 0.0 0.0 0.0 0.0
0.0 0.0 0.0 0.0 0.0 0.0 0.0 0.0
6e-45 6e-45 6e-45 6e-45 6e-45 6e-45 6e-45 0.0
0.0 0.0 6e-45 0.0 6e-45 0.0 6e-45 6e-45
6e-45 6e-45 6e-45 6e-45 6e-45 -6e-45 6e-45 6e-45
6e-45 3.4286707e-28 1.6106042e-14 8.475525e-15 5.321e-42 1.2790356e-14 3.2676723e-16 0.0
0.0 0.0 7.0400982e-15 0.0 6e-45 0.0 2.5644781e-14 2.761267e-29
-2.3356251e-18 -6e-45 2.8115723e-15 2.4915484e-14 6.8029832e-15 6e-45 6e-45 -6e-45
6e-45 0.03226963 -344.8611 -266.1368 14.066056 -389.46033 -17.197544 0.0
0.0 0.0 -153.0618 6e-45 6e-45 0.0 -646.8379 -1.1507859e-07
-30.047081 5e-44 -219.20972 -335.1737 -61.26228 -6e-45 6e-45 -59.018913
6e-45 6e-45 6e-45 6e-45 6e-45 6e-45 6e-45 0.0
0.0 0.0 6e-45 0.0 6e-45 0.0 6e-45 6e-45
6e-45 6e-45 6e-45 6e-45 6e-45 6e-45 6e-45 6e-45
6e-45 6e-45 -6e-45 -6e-45 6e-45 -6e-45 0.0 0.0
0.0 0.0 -6e-45 6e-45 -6e-45 0.0 -6e-45 6e-45
6e-45 6e-45 -6e-45 -6e-45 6e-45 6e-45 0.0 6e-45
6e-45 70.783745 -56.79956 -152.00397 89.245575 -504.38727 0.00038582497 0.0
0.0 0.0 -203.46335 0.0 3.3008728e-19 0.0 -554.85254 189.85672
-6.13154e-11 5.0964474e-19 -418.91516 -83.71832 133.64244 2.1360348e-20 6e-45 25.033638
6e-45 6e-45 6e-45 6e-45 6e-45 6e-45 6e-45 0.0
0.0 0.0 6e-45 0.0 6e-45 0.0 6e-45 6e-45
6e-45 6e-45 6e-45 6e-45 6e-45 6e-45 6e-45 6e-45
6e-45 -120.37731 -259.76065 -60.173683 -80.81383 -109.22855 -9.593903 0.0
0.0 0.0 -80.54962 -6e-45 -8.9435e-41 0.0 -209.9062 -13.191806

exp_avg_sq f4 [24, 24]
00000000: 0a72 c146 3a74 0b4a 1c86 e84b 9310 344b
00000010: 6210 9c4a cb92 954a de2a 9248 0000 0000
00000020: 0000 0000 0000 0000 d8d3 9549 0000 0000
00000030: 4177 614b 0000 0000 5fed 4a4b 8235 5547
00000040: db75 8748 d192 214a 5757 834a 6f8f 084b
00000050: ea27 9649 d9c5 8148 55b4 1849 6dbb 324b
00000060: 0000 0000 0000 0000 0000 0000 0000 0000
00000070: 0000 0000 0000 0000 0000 0000 0000 0000
00000080: 0000 0000 0000 0000 0000 0000 0000 0000
00000090: 0000 0000 0000 0000 0000 0000 0000 0000
000000a0: 0000 0000 0000 0000 0000 0000 0000 0000
000000b0: 0000 0000 0000 0000 0000 0000 0000 0000
000000c0: 0000 0000 0000 0000 0000 0000 0000 0000
000000d0: 0000 0000 0000 0000 0000 0000 0000 0000
000000e0: 0000 0000 0000 0000 0000 0000 0000 0000
000000f0: 0000 0000 0000 0000 0000 0000 0000 0000
00000100: 0000 0000 0000 0000 0000 0000 0000 0000
00000110: 0000 0000 0000 0000 0000 0000 0000 0000
00000120: a0d3 ed46 0024 9b4b 9710 b54c 5700 b84b
00000130: 150d 924a 6da8 1c4c de85 8248 0000 0000
00000140: 0000 0000 0000 0000 ddf1 bf4b 0000 0000
00000150: e8b5 684b 0000 0000 6cc0 0b4d f4d1 a64b
00000160: 365d 8c48 0165 374a 8c20 3d4c 210b fb4c
00000170: 7854 304c 2d8a 8b48 516a 1649 6f35 314b
00000180: ecd2 6f47 a63f 544f 5e80 5150 ba33 a04e
00000190: 691d 9a4b 1656 a54f 1b7f fb48 0000 0000
000001a0: 0000 0000 0000 0000 7c60 784f 0000 0000
000001b0: 962a 024c 0000 0000 34be af50 dd72 634f
000001c0: d83a cd48 c1a1 eb4a cbc8 994f 7944 c150
000001d0: fb2a 1050 356a d048 26a6 9249 6390 f34b
000001e0: 159f b547 452b 974f 2e99 9c50 aacb 0b4f
000001f0: 930d 2c4b de6f e34f ab20 ba47 0000 0000
00000200: 0000 0000 0000 0000 1949 a94f b748 f63f
00000210: bf0c d34a 0000 0000 0ea9 f350 8435 974f
00000220: 698a c046 4b67 3b4a 46fe da4f a281 0151
00000230: fefa 3c50 d6b9 2447 b688 c447 d66a 264b
00000240: f9b4 fb43 0a72 394d 0744 564e a654 824d
00000250: c248 e04b 24ed 0f4d 51f0 bd49 0000 0000
00000260: 0000 0000 0000 0000 3b3b a24c 0000 0000
00000270: fbfd c54c 0000 0000 99cd d34d fc5a 994c
00000280: 0f0f 594a 34d8 8b4b fd71 084d 4ab7 1f4e
00000290: fa7c 184d 08a2 3e4a b528 3e4a f26e 864c
000002a0: 43f6 ad47 b070 8f4f eec0 8550 28b8 8f4e
000002b0: 18aa a14b 9d8d c04f 0000 0000 0000 0000
000002c0: 0000 0000 0000 0000 5c1f 9b4f df7b 2041
000002d0: 60fd d248 0000 0000 d91b c550 1100 814f
000002e0: 3d0e 3d47 4332 6148 fc64 8d4f 4c55 0c51
000002f0: 9924 2850 1c3e 563b 0000 0000 2c75 2e4a
00000300: f587 cf47 2ced 894f f9a6 a150 51bb 284f
00000310: 15cb 9a4d 5e0f c44f 67fe 234b 0000 0000
00000320: 0000 0000 0000 0000 abfa 944f 0000 0000
00000330: ac51 184e 0000 0000 9baa d450 49dd 894f
00000340: b633 de49 7f44 8b4d fd59 b84f 6c9c ec50
00000350: 9e65 2c50 2f88 e44a d6c3 e54a d8c5 764e
00000360: 1901 c846 dcdd 604f a705 6350 5e1e 074f
00000370: ba0d f54c 20f1 8b4f 5db3 044b 0000 0000
00000380: 0000 0000 0000 0000 1f0d 574f 0000 0000
00000390: 8992 ba4d 0000 0000 4d59 9650 28b6 514f
000003a0: 5959 cb4a 124a 8f4c 99aa 8b4f 860a a450
000003b0: a936 f34f edea e84a 7345 984b 3370 8d4d
000003c0: 2018 2148 a8e4 2050 6055 5151 b932 894f
000003d0: a481 2f4e 7230 6050 f6e9 b34b 0000 0000
000003e0: 0000 0000 0000 0000 312d 2c50 52bb 3a41
000003f0: 46bb 8a4e 0000 0000 5c47 7451 13ca 1750
24761.02 2.2848145e+06 3.0477368e+07 1.1800723e+07 5.113905e+06 4.9012215e+06 299350.94 0.0
0.0 0.0 1.227387e+06 0.0 1.4776129e+07 0.0 1.3299039e+07 54581.508
277422.84 2.6472202e+06 4.3037875e+06 8.949615e+06 1.2300772e+06 265774.78 625477.3 1.1713389e+07
0.0 0.0 0.0 0.0 0.0 0.0 0.0 0.0
0.0 0.0 0.0 0.0 0.0 0.0 0.0 0.0
0.0 0.0 0.0 0.0 0.0 0.0 0.0 0.0
0.0 0.0 0.0 0.0 0.0 0.0 0.0 0.0
0.0 0.0 0.0 0.0 0.0 0.0 0.0 0.0
0.0 0.0 0.0 0.0 0.0 0.0 0.0 0.0
30441.812 2.0334592e+07 9.4930104e+07 2.4117422e+07 4.7858025e+06 4.1066932e+07 267310.94 0.0
0.0 0.0 2.5158586e+07 0.0 1.525092e+07 0.0 1.4654022e+08 2.1865448e+07
287465.7 3.0047362e+06 4.9578544e+07 1.3161908e+08 4.622384e+07 285777.4 616101.06 1.1613551e+07
61394.92 3.560941e+09 1.4059403e+10 1.3438723e+09 2.0200146e+07 5.5477647e+09 515064.84 0.0
0.0 0.0 4.1670728e+09 0.0 3.412233e+07 0.0 2.3587824e+10 3.8159557e+09
420310.75 7.7211845e+06 5.1601464e+09 2.593992e+10 9.674943e+09 426833.66 1.2013488e+06 3.1924422e+07
92990.164 5.0723907e+09 2.1018276e+10 2.3453804e+09 1.1275667e+07 7.6315187e+09 95297.336 0.0
0.0 0.0 5.68028e+09 1.9240941 6.9156795e+06 0.0 3.2703541e+10 5.0737336e+09
24645.205 3.0704188e+06 7.3481943e+09 3.4764104e+10 1.2682263e+10 42169.836 100625.42 1.0906326e+07
503.41385 1.9445366e+08 8.986956e+08 2.733232e+08 2.939738e+07 1.509177e+08 1.5559781e+06 0.0
0.0 0.0 8.505596e+07 0.0 1.0380489e+08 0.0 4.4418333e+08 8.04024e+07
3.5562918e+06 1.8329704e+07 1.4307323e+08 6.6989734e+08 1.5989546e+08 3.12333e+06 3.1155652e+06 7.048181e+07
89068.52 4.813054e+09 1.7952109e+10 1.2056054e+09 2.118968e+07 6.4610125e+09 0.0 0.0
0.0 0.0 5.2050473e+09 10.030242 432107.0 0.0 2.6455493e+10 4.3285304e+09
48398.24 230601.05 4.744411e+09 3.7670404e+10 1.1283883e+10 0.0032690829 0.0 2.858315e+06
106255.914 4.628044e+09 2.1696596e+10 2.8308483e+09 3.2462506e+08 6.578683e+09 1.0747495e+07 0.0
0.0 0.0 4.9989115e+09 0.0 6.388723e+08 0.0 2.8543605e+10 4.6259615e+09
1.8202788e+06 2.9206525e+08 6.1858104e+09 3.1757394e+10 1.1569363e+10 7.4885355e+06 7.528939e+06 1.03504026e+09
25600.549 3.7726362e+09 1.5235194e+10 2.2669143e+09 1.2847867e+08 4.695671e+09 8.696669e+06 0.0
0.0 0.0 3.6079613e+09 0.0 3.912707e+08 0.0 2.0179479e+10 3.518376e+09
6.6633405e+06 7.512488e+07 4.6864266e+09 2.2017225e+10 8.1608914e+09 7.6322465e+06 1.9958502e+07 2.9661757e+08
164960.5 1.0797359e+10 5.6192532e+10 4.6036055e+09 7.361272e+08 1.5045085e+10 2.3581676e+07 0.0
0.0 0.0 1.1554571e+10 11.6707325 1.1637645e+09 0.0 6.5573077e+10 1.0186411e+10

exp_avg f4 [24]
00000000: 0400 0000 0000 0000 0000 0000 0400 0000
00000010: 9d4a cd1c 7bed 21b8 0400 0000 0400 0080
00000020: 4d8d f3b7 0400 0000 141d 86b7 9774 1e2c
00000030: 0000 0000 ca33 8532 0400 0000 0400 0000
00000040: 0400 0000 e029 f035 0400 0000 0400 0000
00000050: c021 ac37 b031 1eb8 0400 0000 4781 67b8
6e-45 0.0 0.0 6e-45 1.3585049e-21 -3.8606562e-05 6e-45 -6e-45
-2.9033656e-05 6e-45 -1.5987585e-05 2.251787e-12 0.0 1.5506789e-08 6e-45 6e-45
6e-45 1.7893581e-06 6e-45 6e-45 2.0519714e-05 -3.771641e-05 6e-45 -5.519509e-05

exp_avg_sq f4 [24]
00000000: a545 b832 0000 0000 0000 0000 2697 9c33
00000010: f409 8d37 ae3e bb37 af13 1a35 b7da 0a38
00000020: ec10 b737 e038 6237 78f0 ae38 c001 0e38
00000030: 0000 0000 33a3 4b2e ebd5 8b34 fed0 e734
00000040: 3951 8830 4286 d936 35ad 8231 12fc c733
00000050: ffe6 4435 09ce 2439 3e4d 0d2f a920 5c39
2.145209e-08 0.0 0.0 7.29181e-08 1.6813145e-05 2.2321325e-05 5.7398114e-07 3.3105458e-05
2.182318e-05 1.3483892e-05 8.341757e-05 3.3857068e-05 0.0 4.6301806e-11 2.6046413e-07 4.3179165e-07
9.918387e-10 6.4827336e-06 3.8031893e-09 9.312511e-08 7.3351833e-07 0.00015717013 1.2851317e-10 0.00020993002

exp_avg f4 [4, 24]
00000000: 0400 0080 0000 0000 0000 0000 0400 0000
00000010: ea61 3ba7 5fd9 43c2 0400 0080 0400 0080
00000020: f641 48c3 0400 0000 c8a4 cfc4 6516 66b5
00000030: 0000 0000 dc48 32b9 0000 0000 0400 0080
00000040: 0400 0000 ccaa e3c3 0000 0000 0400 0080
00000050: bc58 32c3 928d aa43 0400 0000 7c91 6044
00000060: 0400 0080 0000 0000 0000 0000 0400 0080
00000070: 0400 0000 7503 20c3 0400 0080 0400 0080
00000080: 8c9b 95c1 0400 0000 ec4a 40c2 a242 6488
00000090: 0000 0000 0000 0000 0400 0080 0400 0080
000000a0: 0400 0080 3cbf 3f39 0400 0080 0400 0080
000000b0: 498b 65c2 5daf 6fc4 0000 0000 1693 76c5
000000c0: 0400 0080 0000 0000 0000 0000 0400 0080
000000d0: f70b 7008 8a46 8dc3 0400 0000 0400 0080
000000e0: 6207 20c3 0400 0000 0ab7 8043 63b1 faa9
000000f0: 0000 0000 0000 0000 0400 0000 0400 0000
00000100: 0400 0000 f29c 4843 0400 0080 0400 0080
00000110: 64e2 56c3 aca5 6bc4 0400 0080 5a15 61c4
00000120: 0400 0080 0000 0000 0000 0000 0400 0080
00000130: 0400 0080 b82d 95c3 0400 0080 0400 0000
00000140: 4a8a 45c3 0400 0000 00e1 e0c1 6bac 93a6
00000150: 0000 0000 0000 0000 0000 0000 0400 0080
00000160: 0400 0080 429b d141 0000 0000 0400 0080
00000170: 89ce 2540 a290 21c4 0400 0080 cce0 17c5
-6e-45 0.0 0.0 6e-45 -2.6004543e-15 -48.962276 -6e-45 -6e-45
-200.25766 6e-45 -1661.1494 -8.5714265e-07 0.0 -0.00017002545 0.0 -6e-45
6e-45 -455.33435 0.0 -6e-45 -178.34662 341.10602 6e-45 898.2732
-6e-45 0.0 0.0 -6e-45 6e-45 -160.0135 -6e-45 -6e-45
-18.70095 6e-45 -48.073166 -6.868958e-34 0.0 0.0 -6e-45 -6e-45
-6e-45 0.0001828642 -6e-45 -6e-45 -57.38602 -958.74005 0.0 -3945.1929
-6e-45 0.0 0.0 -6e-45 7.2236438e-34 -282.5511 6e-45 -6e-45
-160.02884 6e-45 257.43 -1.1133002e-13 0.0 0.0 6e-45 6e-45
6e-45 200.61307 -6e-45 -6e-45 -214.88434 -942.5886 -6e-45 -900.3336
-6e-45 0.0 0.0 -6e-45 -6e-45 -298.35718 -6e-45 6e-45
-197.54019 6e-45 -28.109863 -1.0246908e-15 0.0 0.0 0.0 -6e-45
-6e-45 26.20081 0.0 -6e-45 2.590731 -646.2599 -6e-45 -2430.0498

exp_avg_sq f4 [4, 24]
00000000: 632c b949 0000 0000 0000 0000 f98d 7149
00000010: c011 0951 da40 5350 3c2f 954b 5066 d052
00000020: 89d7 7a50 ad1c 674f 861c 4552 b90e f152
00000030: 0000 0000 2267 b63b 0000 0000 c4b8 ab4c
00000040: 4603 6b46 fd00 c850 0000 0000 0396 d64a
00000050: 28bc 384f b977 0153 11d2 b444 67ba 4652
00000060: 0f05 e048 0000 0000 0000 0000 83d9 0049
00000070: 1a59 8f4c 6de8 1b4e e896 4447 a63f a84f
00000080: c7e5 d04c 485a 304a 45e6 e44f de27 a34f
00000090: 0000 0000 0000 0000 c2a6 6446 ecd9 ca48
000000a0: 8cc3 0e43 3d8d 424c 00bf 4140 d377 4746
000000b0: 11f7 524a fb68 d54f 0000 0000 3551 2050
000000c0: 9107 9e4d 0000 0000 0000 0000 5e38 934c
000000d0: 6423 8b4e bf75 cd4f af4a 794b d885 0f50
000000e0: 1f86 714f baec ba4c c9e8 ef50 dd8c bf50
000000f0: 0000 0000 0000 0000 685f 474c a97f a24c
00000100: 25eb 9248 b943 734d 9589 2c46 8caa d948
00000110: 3d10 014d 8367 3d50 1add ee47 e7b9 5250
00000120: f64e 9a48 0000 0000 0000 0000 b341 df48
00000130: d11c c24c 1172 994e 62ca ee46 093e e64f
00000140: 60ed 214c 2ced c449 2d69 1050 2a68 d14f
00000150: 0000 0000 0000 0000 0000 0000 6dcb 8648
00000160: 0024 6345 1dc3 ae4c 0000 0000 e32d 3d46
00000170: 7e6f db4a 5291 1050 ee07 2744 f74a 1650
1.5169404e+06 0.0 0.0 989407.56 3.679427e+10 1.4176971e+10 1.9553912e+07 4.4753486e+11
1.6833717e+10 3.8774162e+09 2.1164678e+11 5.1766706e+11 0.0 0.0055664936 0.0 9.003165e+07
15040.818 2.6844064e+10 0.0 7.0315535e+06 3.0993388e+09 5.560594e+11 1446.5646 2.1338271e+11
458792.47 0.0 0.0 527768.2 7.515566e+07 6.539252e+08 50326.906 5.645487e+09
1.0952249e+08 2.889362e+06 7.6805924e+09 5.474598e+09 0.0 0.0 14633.689 415439.38
142.76385 5.1000564e+07 3.0272827 12765.956 3.4564522e+06 7.160854e+09 0.0 1.0758706e+10
3.31412e+08 0.0 0.0 7.718578e+07 1.1671762e+09 6.894092e+09 1.6337583e+07 9.631654e+09
4.0520988e+09 9.800238e+07 3.2200083e+10 2.5709439e+10 0.0 0.0 5.226435e+07 8.5196104e+07
300889.16 2.5508136e+08 11042.3955 445780.38 1.3533282e+08 1.271071e+10 122298.2 1.4141595e+10
316023.7 0.0 0.0 457229.6 1.0177089e+08 1.2871948e+09 30565.191 7.7256504e+09
4.2448256e+07 1.6132215e+06 9.691248e+09 7.0265293e+09 0.0 0.0 0.0 276059.4
3634.25 9.1625704e+07 0.0 12107.472 7.190463e+06 9.701771e+09 668.1239 1.0085981e+10

exp_avg f4 [4]
00000000: 2b85 88bc a5e9 f1bb 7048 d43a 5a06 6dbc
-0.016665062 -0.007382589 0.0016195904 -0.014466846

exp_avg_sq f4 [4]
00000000: 929e 8e3c 1cf9 dc3c 1636 ad3c b39a ad3c
0.017409597 0.026974253 0.021143954 0.02119193
