test_model/covid10.pth (torch, 16239 bytes, 18 tensors)

weight f4 [24, 4]
0	0x3adbbba5	0.0016764296
1	0x3e85e45c	0.26150787
2	0x3e6607f6	0.22463974
3	0x3e98cd5c	0.29844177
4	0x3c845c17	0.016157193
5	0xbea08192	-0.31348854
6	0x3e71708b	0.23578088
7	0x3e27b0e2	0.16376069
8	0xbe451747	-0.19247161
9	0x3ea197d8	0.3156116
10	0xbe83f889	-0.25775555
11	0x3e0c13b9	0.13679399
12	0xbdcc76d1	-0.099836
13	0x3ebc82c5	0.3681852
14	0x3ea17ef3	0.31542167
15	0x3d48f5cc	0.049062535
16	0x3e89a169	0.2688096
17	0x3d071ee1	0.032988433
18	0x3ea227ea	0.31671077
19	0x3e632bc9	0.22184671
20	0x3ee42655	0.44560495
21	0xbe334731	-0.17507626
22	0xbebb54a8	-0.36588025
23	0x3d956711	0.07295049
24	0x3e0cc2de	0.13746211
25	0x3e8f2be3	0.2796317
26	0xbefb686e	-0.4910311
27	0xbede0035	-0.43359533
28	0x3ea215d9	0.31657293
29	0x3ece53a3	0.40298185
30	0xbe4f353e	-0.20235154
31	0xbed18a42	-0.40925795
32	0xbecc5f9e	-0.399167
33	0xbdf35da8	-0.11883098
34	0xbe824478	-0.25442863
35	0xbdee8710	-0.11646855
36	0x3bf7d880	0.0075636506
37	0xbe51ab1e	-0.20475432
38	0x3d4a61ec	0.04940979
39	0x3e150561	0.14552833
40	0xbcacf2eb	-0.021111926
41	0x3e2cea74	0.16886312
42	0x3dac7a97	0.0842182
43	0x3e7598ca	0.23984066
44	0xbeaf9b04	-0.34297955
45	0x3e151cc8	0.1456176
46	0xbea76966	-0.326976
47	0xbd998888	-0.074967444
48	0x3ebcbbf5	0.3686215
49	0xbd54b50d	-0.051930476
50	0x3e49bf15	0.19701798
51	0xbc4cfd30	-0.0125115365
52	0xbead215a	-0.33814508
53	0xbeef2262	-0.4670592
54	0xbebac114	-0.36475432
55	0xbe9c1704	-0.3048631
56	0xbe23d2bc	-0.15998358
57	0xbea3363c	-0.31877315
58	0x3e1aa250	0.1510098
59	0x3d3b70e0	0.045761943
60	0x3ea8e1dd	0.3298482
61	0xbe0593fa	-0.1304473
62	0x3ee33dbe	0.44383043
63	0xbdf4823a	-0.11938901
64	0xba60711c	-0.00085617765
65	0x3db96486	0.090523764
66	0x3ed96f3d	0.4246768
67	0x3ec80270	0.3906436
68	0x3ef50a1e	0.4785928
69	0xbebf81ea	-0.37403804
70	0xbe21156c	-0.15730828
71	0xbe205950	-0.1565907
72	0x3efc7525	0.49308124
73	0x3ed8105a	0.42199975
74	0xbeed9723	-0.4640437
75	0xbeae75f6	-0.34074372
76	0x3d165f38	0.0367119
77	0x3ea19e73	0.315662
78	0x3e19d41a	0.15022317
79	0x3d1d5303	0.038409244
80	0x3e8ac660	0.27104473
81	0x3e9d8134	0.30762637
82	0x3e702bf2	0.23454264
83	0x3dc55dcd	0.09637032
84	0xbef468e8	-0.47736287
85	0x3e29f6c4	0.1659804
86	0x3e1f91b0	0.15582919
87	0xbee035c4	-0.4379102
88	0xbed67c14	-0.4189154
89	0x3e3f5828	0.18685973
90	0x3e74a81c	0.23892254
91	0xbee7950c	-0.452309
92	0xbd7a8e10	-0.061170638
93	0x3c05a580	0.008157134
94	0xbed25834	-0.4108292
95	0xbed58648	-0.4170401

bias f4 [24]
0	0x3ef30609	0.47465542
1	0xbedef067	-0.43542787
2	0x3ef421c7	0.4768202
3	0x3ef9bc74	0.4877659
4	0x3d8d38f9	0.06895632
5	0xbdda56f0	-0.10661113
6	0x3d28acdb	0.041180473
7	0x3ec4e125	0.38453022
8	0x3e71307c	0.23553652
9	0xbe92e6ee	-0.2869181
10	0x3b84f3ec	0.004057398
11	0xbc8e3d00	-0.017363071
12	0xbdc51430	-0.09622991
13	0x3e6a6734	0.22890931
14	0x3ed95f4c	0.42455518
15	0x3ee7685d	0.4519681
16	0xbe80dd0b	-0.25168642
17	0xbea44dad	-0.32090512
18	0x3d43a343	0.04776312
19	0xbc9a4819	-0.018833207
20	0x3eaf2cab	0.34213766
21	0x3d3619a0	0.04445803
22	0x3ea4ae6c	0.32164323
23	0x3ea63462	0.3246184

weight f4 [24, 24]
0	0x3e05cd50	0.13066602
1	0xbdd53c64	-0.10411909
2	0x3d736bcb	0.05942897
3	0xbe167a53	-0.146951
4	0x3d3e22e4	0.046419993
5	0xbe136835	-0.1439522
6	0x3e1cac7e	0.15300176
7	0xbe28f8d6	-0.16501173
8	0xbd724b84	-0.05915405
9	0x3d87e433	0.066353224
10	0x3df9c4ef	0.12195765
11	0x3ccb22f0	0.024796933
12	0xbdb5fabb	-0.08885714
13	0x3dc306dc	0.09522793
14	0xbdbb88b6	-0.09156935
15	0x3d67794e	0.05651217
16	0x3d8f6c86	0.07003121
17	0xbdf2fcc2	-0.11864616
18	0x3dea054a	0.1142679
19	0xbcbe23a8	-0.023210362
20	0xbd214607	-0.039373424
21	0xbe4e4c38	-0.20146263
22	0xbdad8586	-0.08472733
23	0x3e089c18	0.13340795
24	0x3e008962	0.12552407
25	0xbdff6cf7	-0.12471955
26	0xbd624028	-0.055236965
27	0x3de58808	0.112075865
28	0xbd83dc76	-0.06438534
29	0x3d928204	0.07153705
30	0xbdb3bd0b	-0.087762915
31	0x3d312764	0.043250456
32	0xbd9dc8da	-0.07704325
33	0x3dab16ac	0.08353934
34	0x3e367142	0.17816642
35	0xbdd504ee	-0.10401331
36	0xbe2fae3c	-0.17156309
37	0x3b67a400	0.0035345554
38	0x3d692068	0.05691567
39	0x3e0c263c	0.1368646
40	0xbe42a2a6	-0.19007358
41	0xbc7d3ab0	-0.015455887
42	0xbe19a17b	-0.15003006
43	0x3c395120	0.011310846
44	0x3d78fdf8	0.06078908
45	0xbdaf2709	-0.08552367
46	0x3e4358d4	0.19076854
47	0xbca27268	-0.019829944
48	0xbdc66b7c	-0.0968847
49	0xbde5ec05	-0.11226658
50	0x3e20ac60	0.15690756
51	0xbd0a617f	-0.033784386
52	0x3cf3ce33	0.02976141
53	0x3e3bad1f	0.18327759
54	0xbb2da505	-0.0026496064
55	0x3e318c78	0.17338741
56	0x3e3bef88	0.18353093
57	0xbdcf93a2	-0.101355806
58	0xbe4326a0	-0.19057703
59	0x3e1ad900	0.15121841
60	0x3df08e5d	0.11745904
61	0x3dd38ad0	0.10329211
62	0x3da3e3e8	0.08002454
63	0xbe3fd1b9	-0.18732347
64	0xbdaee0c5	-0.08538965
65	0x3d94dbc2	0.07268478
66	0xbdb6b8cb	-0.08921965
67	0xbd5c4798	-0.053779215
68	0xbe43f5ed	-0.19136782
69	0xbe347c12	-0.17625454
70	0xbe34102f	-0.17584299
71	0x3df119fc	0.11772534
72	0x3e1500a0	0.1455102
73	0x3e08dead	0.13366194
74	0x3d048521	0.032353524
75	0x3e55b1dc	0.20868629
76	0xbe003535	-0.12520297
77	0xbcded910	-0.027203113
78	0x3d6392b5	0.055559833
79	0xbe19f80f	-0.15036033
80	0x3d69ca20	0.057077527
81	0xbd982f87	-0.0743094
82	0xbe527263	-0.20551448
83	0xbd6a80b0	-0.057251632
84	0x3da7dcfb	0.081964456
85	0xbe3c1cc7	-0.18370353
86	0x3ddb4404	0.10706332
87	0x3e25ba6e	0.16184399
88	0xbe224cd2	-0.15849617
89	0xbd9bb76a	-0.07603343
90	0x3d6c50af	0.057694133
91	0x3e04c1ab	0.12964503
92	0x3e3575cb	0.17720716
93	0xbd9c5e0c	-0.076351255
94	0x3e008ce0	0.1255374
95	0x3d806870	0.0626992
96	0x3d5a3b0d	0.05327897
97	0xbde40004	-0.111328155
98	0xbc35ec69	-0.011103728
99	0xbe0239ff	-0.12717436
100	0xbcebb989	-0.028774993
101	0x3e0b2ed6	0.13592085
102	0x3db8bee8	0.090207875
103	0xbc5c9646	-0.013463562
104	0x3c168e70	0.009189233
105	0x3e119ecf	0.14220737
106	0x3cc13c97	0.023588462
107	0xbe110068	-0.14160311
108	0x3e321f1b	0.17394678
109	0xbd7b311c	-0.06132613
110	0x3dc063a8	0.09394008
111	0xbe500934	-0.2031601
112	0x3e137f49	0.14404024
113	0xbdc270d1	-0.09494174
114	0xbe15e2de	-0.14637324
115	0xbe3b5b34	-0.1829651
116	0x3da9c08f	0.08288681
117	0x3dec31d0	0.115329385
118	0xbdad015a	-0.084475234
119	0x3c119940	0.008886635
120	0x3df9d53a	0.12198873
121	0xbd90136c	-0.070349544
122	0xbe0730a0	-0.13202143
123	0xbdbbe0e0	-0.09173751
124	0xbddcb163	-0.10776021
125	0xbe447c83	-0.19188122
126	0xbe49a3e8	-0.19691432
127	0xbdd3db19	-0.10344524
128	0x3dcaeae0	0.0990808
129	0xbdd7d68a	-0.10538967
130	0x3e4d0ac8	0.20023644
131	0x3e0cdc9e	0.13756034
132	0xbce19b3a	-0.027539838
133	0xbdff59d7	-0.124683075
134	0x3e420bf4	0.18949872
135	0xbc42f241	-0.011898578
136	0x3e4c9095	0.19977029
137	0x3e47f57f	0.19527243
138	0x3c2d2e3c	0.010570105
139	0x3d6d59c9	0.057946954
140	0xbe259dca	-0.16173473
141	0x3d9848b4	0.07435742
142	0x3e190b62	0.14945748
143	0x3dbd4688	0.092419684
144	0x3d91736c	0.07102093
145	0x3e48d1d1	0.19611289
146	0xbe45c589	-0.19313635
147	0x3df9aa75	0.12190715
148	0x3ddc2c91	0.10750688
149	0xbda07e51	-0.07836593
150	0x3d21ab5c	0.03947006
151	0x3d20e791	0.03928334
152	0xbdbb59d4	-0.09147993
153	0xbda3059b	-0.079600535
154	0x3db11f0f	0.08648502
155	0xbd6f8c74	-0.058483556
156	0x3dfab7f0	0.122421145
157	0xbd8e45d8	-0.069469154
158	0xbde337c8	-0.11094624
159	0xbe135d31	-0.14391018
160	0xbe4d17f4	-0.20028669
161	0xbcb035fd	-0.021510119
162	0xbe2efcf3	-0.1708868
163	0x3df5fedb	0.120115004
164	0x3d92bd2b	0.07164987
165	0x3e4b7e6e	0.19872448
166	0x3e3597e0	0.17733717
167	0x3e2252fe	0.15851972
168	0x3de76b68	0.11299783
169	0x3e1130bc	0.14178747
170	0xbd3c37d0	-0.045951664
171	0xbdd184b2	-0.10230388
172	0xbe4db1d5	-0.20087369
173	0xbe30188d	-0.17196865
174	0xbda1ceee	-0.07900797
175	0x3e01cb74	0.12675267
176	0xbce69f18	-0.028152034
177	0xbe47d26e	-0.19513866
178	0x3d38a190	0.045075953
179	0x3e3c5fe0	0.18395948
180	0xbd8dc274	-0.069218546
181	0x3cb6a6b8	0.022296295
182	0xbd1e962c	-0.038717434
183	0x3e3a59bc	0.18198293
184	0xbdd848a0	-0.10560727
185	0xbdcd0837	-0.100113325
186	0xbd209e28	-0.03921333
187	0xbe1f0064	-0.15527493
188	0xbb8f2640	-0.0043685734
189	0x3dcae4a8	0.09906894
190	0x3d8bed98	0.06832427
191	0x3e369f96	0.17834315
192	0xbc36812b	-0.0111391945
193	0xbc19e109	-0.0093920315
194	0xbe4bfe73	-0.19921283
195	0x3e421707	0.18954097
196	0xbe05f302	-0.13080981
197	0xbd4d4fd3	-0.050124954
198	0xbd161bcd	-0.036647607
199	0xbd9c0b1c	-0.076193064
200	0x3cad0050	0.021118313
201	0x3ca77262	0.020440284
202	0xbd1a1778	-0.037620038
203	0x3e0defdc	0.1386103
204	0x3d8b16ee	0.06791483
205	0xbdb428d2	-0.08796848
206	0x3d5da5c0	0.05411315
207	0xbd0841a2	-0.033265717
208	0x3dcca53f	0.09992456
209	0xbd661748	-0.056174546
210	0xbd1cae83	-0.038252365
211	0x3de69af7	0.11260026
212	0x3decb08f	0.115571134
213	0x3deff30c	0.117162794
214	0x3d1b7f40	0.037963152
215	0x3e188b5a	0.14896908
216	0x3db0e9ab	0.08638319
217	0x3e0610a1	0.13092281
218	0x3e1c6fea	0.15277067
219	0xbd13dd68	-0.03609982
220	0xbd3d1c5d	-0.046169627
221	0x3da80bca	0.082053736
222	0xbd6b7c3c	-0.057491526
223	0xbe49113c	-0.1963548
224	0xbd1d8b7c	-0.0384631
225	0xbdd6fc26	-0.10497312
226	0xbdf05778	-0.11735433
227	0xbd99f434	-0.07517281
228	0x3e42d243	0.19025521
229	0xbe1b9dbe	-0.15196893
230	0x3db09724	0.08622578
231	0xbbc5f11a	-0.0060407044
232	0xbd6978d4	-0.056999996
233	0xbe34b7a3	-0.17648177
234	0x3c49f403	0.012326243
235	0x3d5f8025	0.054565568
236	0xbdcf765c	-0.10129997
237	0x3dcf83c4	0.10132554
238	0x3de566f8	0.1120128
239	0xbd676240	-0.056490183
240	0xbe19fc56	-0.15037665
241	0xbe4c4b4e	-0.19950601
242	0xbd186ff8	-0.037216157
243	0xbd5b4a48	-0.053537637
244	0xbd6be6f8	-0.057593316
245	0x3ce98508	0.028505817
246	0xbe244747	-0.16042815
247	0xba9a3e00	-0.0011767745
248	0x3e2830f4	0.16424924
249	0x3e272402	0.1632233
250	0xbc863b58	-0.01638572
251	0x3d988db8	0.07448906
252	0x3df2b224	0.11850384
253	0xbd821634	-0.06351891
254	0x3e3d76b8	0.18502319
255	0xbe4ebd4b	-0.20189397

bias f4 [24]
0	0x3d028ba6	0.03187146
1	0x3dc8a3fc	0.097969025
2	0x3e202bdf	0.15641735
3	0x3e1ff4ab	0.15620677
4	0x3c3604cf	0.011109545
5	0x3e1cc7ce	0.15310594
6	0x3d6619b6	0.056176864
7	0x3d975184	0.07388595
8	0x3dbf7702	0.09348871
9	0x3e0dc164	0.13843304
10	0xbe0fb8f8	-0.14035404
11	0xbdfdba62	-0.12389065
12	0xbcbf3330	-0.023339838
13	0x3dc6d284	0.097081214
14	0x3ae20fb2	0.0017247109
15	0xbde7dabb	-0.113210164
16	0xbc25f810	-0.0101299435
17	0xbcd14c3f	-0.025549052
18	0x3e28567e	0.16439244
19	0x3e2f3e6b	0.17113654
20	0xbe32f19f	-0.17474984
21	0x3e5f26e8	0.21792185
22	0x3e05cf44	0.13067347
23	0xbe2aaa24	-0.16666466

weight f4 [4, 24]
0	0x3e5c2848	0.21499741
1	0xbd87420a	-0.06604393
2	0x3dfc10fe	0.123079285
3	0xbdabde4c	-0.08392009
4	0x3d9e6793	0.07734599
5	0x3d1fa638	0.038976878
6	0x3e25da87	0.16196643
7	0xbde04032	-0.10949744
8	0x3d8d7057	0.06906193
9	0xbdd88044	-0.1057134
10	0x3d04ccec	0.03242199
11	0x3dd91b45	0.106009044
12	0xbc1411c0	-0.009037435
13	0xbe119dfd	-0.14220424
14	0xbdce234c	-0.10065326
15	0xbda1928d	-0.078892805
16	0x3c833f98	0.016021535
17	0xbd0143d7	-0.031558838
18	0xbb0dde31	-0.002164733
19	0x3e1dd978	0.15414989
20	0x3dfc4168	0.12317163
21	0x3d3a8b8d	0.045543242
22	0x3e0ce07c	0.13757509
23	0x3de5a032	0.112121955
24	0x3b1721f3	0.0023061007
25	0x3ddce754	0.1078631
26	0xbdb8c3bd	-0.09021709
27	0x3dbeec1b	0.09322377
28	0xbe42c6b3	-0.1902111
29	0xbe01e438	-0.12684715
30	0x3e32d347	0.17463408
31	0x3d2064c4	0.039158598
32	0x3d8954d8	0.06705636
33	0xbdf397f5	-0.11894218
34	0xbe090ff2	-0.13384989
35	0xbdce0696	-0.1005985
36	0x3e25e62a	0.16201082
37	0xbda27519	-0.07932491
38	0x3e0bbdc8	0.13646615
39	0xbdc1a6e2	-0.094556585
40	0x3dd1367c	0.1021547
41	0x3d9d64e2	0.076852575
42	0x3e3f00d7	0.18652664
43	0x3b98cfdf	0.004663452
44	0x3d53f4d7	0.05174717
45	0x3c52f810	0.0128765255
46	0x3d7d5380	0.06184721
47	0xbccded6a	-0.025137622
48	0xbd8f6580	-0.070017815
49	0xbd54fabc	-0.05199693
50	0x3cb51768	0.022105888
51	0xbe052600	-0.13002777
52	0xbd820d0f	-0.06350147
53	0x3dcbe025	0.099548616
54	0x3e4a98c2	0.19784835
55	0x3dc35bb0	0.095389724
56	0x3e5e0759	0.2168249
57	0xbd6235ee	-0.055227213
58	0xbd93c852	-0.072159424
59	0x3d72db76	0.059291326
60	0x3e3919a8	0.18076193
61	0xbcd9b340	-0.02657473
62	0xbdb059df	-0.086108916
63	0x3dd519e7	0.10405331
64	0x3e06ff1e	0.13183257
65	0x3e0141bd	0.12622733
66	0xbd903fda	-0.07043429
67	0xbe0d309d	-0.13788076
68	0xbce4c691	-0.027926715
69	0x3e2715dd	0.16316934
70	0x3d993b23	0.074819826
71	0xbc4d0d75	-0.012515415
72	0xbdcda882	-0.10041906
73	0x3e0e7d0a	0.13914886
74	0x3e123fd7	0.14282165
75	0x3deac540	0.11463404
76	0xbdab1234	-0.08353081
77	0x3db310e3	0.08743455
78	0xbdd6b782	-0.1048422
79	0x3dcfbc34	0.10143319
80	0x3e0e14ce	0.13875124
81	0x3caace6a	0.020850379
82	0x3d651d58	0.055936188
83	0x3e054a35	0.13016589
84	0x3ca31968	0.019909576
85	0x3df9fb64	0.12206152
86	0x3d0daad2	0.034586735
87	0x3db06169	0.086123295
88	0x3cea3048	0.028587475
89	0xbdd402f4	-0.10352126
90	0x3e62159f	0.2207856
91	0xbe3d1b9b	-0.18467562
92	0xbd585dad	-0.05282371
93	0x3d81f0b0	0.063447356
94	0xbde5e7ad	-0.11225829
95	0x3e28e8a8	0.16495001

bias f4 [4]
0	0x3de4082a	0.1113437
1	0x3e31ff17	0.17382465
2	0x3e5c3c0f	0.21507286
3	0x3dd5e761	0.10444523

exp_avg f4 [24, 4]
0	0x47455430	50516.188
1	0xc4bf11fc	-1528.562
2	0x4586b4b4	4310.588
3	0x4777e96c	63465.42
4	0x47a79466	85800.8
5	0x43658160	229.50537
6	0x4537ef0c	2942.9404
7	0x47768970	63113.438
8	0xc5d11b14	-6691.385
9	0xc0c68617	-6.2038684
10	0xc3f1d405	-483.6564
11	0xc65a00de	-13952.217
12	0x46867b77	17213.732
13	0x4587cd4b	4345.6616
14	0x45ab7549	5486.6606
15	0xc6163270	-9612.609
16	0xc60ff728	-9213.789
17	0xc4b6e5bf	-1463.1796
18	0xc51ba64b	-2490.3933
19	0xc6800f5c	-16391.68
20	0x466bd61e	15093.529
21	0xc5c23d73	-6215.681
22	0x449f35f4	1273.686
23	0x464e2eb1	13195.673
24	0x46dc1668	28171.203
25	0x46081d97	8711.397
26	0x453a6b2e	2982.6987
27	0x4587bcf8	4343.621
28	0x478027c0	65615.5
29	0x458a67eb	4428.9897
30	0xc36a6180	-234.38086
31	0xc59b2fb8	-4965.965
32	0x00000000	0.0
33	0x00000000	0.0
34	0x00000000	0.0
35	0x00000000	0.0
36	0xc737500c	-46928.047
37	0xc4151f78	-596.4917
38	0xc529ac76	-2714.7788
39	0xc72ef8a0	-44792.625
40	0xc7a9076d	-86542.85
41	0xc5205e68	-2565.9004
42	0xc5e28b38	-7249.4023
43	0xc740554e	-49237.305
44	0x00000000	0.0
45	0x00000000	0.0
46	0x00000000	0.0
47	0x00000000	0.0
48	0x47d74ede	110237.734
49	0x467485f9	15649.493
50	0x45c4478a	6280.9424
51	0x470517bf	34071.746
52	0x00000000	0.0
53	0x00000000	0.0
54	0x00000000	0.0
55	0x00000000	0.0
56	0x00000000	0.0
57	0x00000000	0.0
58	0x00000000	0.0
59	0x00000000	0.0
60	0xc7029744	-33431.266
61	0x45b21852	5699.04
62	0x45ace390	5532.4453
63	0xc71bf456	-39924.336
64	0x468aaad8	17749.422
65	0x44d89019	1732.503
66	0xc5047268	-2119.1504
67	0x472e3730	44599.188
68	0x46bbff20	24063.562
69	0x45fe9791	8146.946
70	0xc5139dc0	-2361.8594
71	0xc66cb930	-15150.297
72	0xc7fe6986	-130259.05
73	0xc626e70d	-10681.763
74	0xc4f3632c	-1947.0991
75	0xc76a4927	-59977.152
76	0xc73651d0	-46673.812
77	0xc4b1d6a3	-1422.7074
78	0xc395ea20	-299.8291
79	0xc624d9f8	-10550.492
80	0x47272352	42787.32
81	0x44740920	976.1426
82	0x45653c8f	3667.785
83	0x47075e35	34654.207
84	0x00000000	0.0
85	0x00000000	0.0
86	0x00000000	0.0
87	0x00000000	0.0
88	0x00000000	0.0
89	0x00000000	0.0
90	0x00000000	0.0
91	0x00000000	0.0
92	0x00000000	0.0
93	0x00000000	0.0
94	0x00000000	0.0
95	0x00000000	0.0

exp_avg_sq f4 [24, 4]
0	0x52c5baf2	4.246225e+11
1	0x4b8c5a81	1.8396418e+07
2	0x4d823c4a	2.7312365e+08
3	0x529e9e45	3.4063008e+11
4	0x520d6540	1.5182227e+11
5	0x4a953984	4.889794e+06
6	0x4cfce399	1.32586696e+08
7	0x52012aed	1.3869274e+11
8	0x4beb6eb8	3.0858608e+07
9	0x47acbf90	88447.125
10	0x4868e7c7	238495.11
11	0x4cfe0494	1.3317853e+08
12	0x4f4c5050	3.4278154e+09
13	0x4bdbb368	2.8796624e+07
14	0x4ca7930e	8.785726e+07
15	0x4fa269bd	5.4496773e+09
16	0x519e437d	8.496714e+10
17	0x4a94628f	4.8622795e+06
18	0x4ca31a03	8.5512216e+07
19	0x5197199d	8.112122e+10
20	0x4fdc6b3a	7.3960294e+09
21	0x4b33a339	1.1772729e+07
22	0x4b55cc79	1.4011513e+07
23	0x4f8452c2	4.440032e+09
24	0x4fa555c1	5.547721e+09
25	0x4ae9c742	7.660449e+06
26	0x495bdb4f	900532.94
27	0x49de4878	1.820943e+06
28	0x51286dbb	4.5212217e+10
29	0x4b8758ec	1.7740248e+07
30	0x4cb30f3e	9.387877e+07
31	0x5084e1fb	1.7835219e+10
32	0x00000000	0.0
33	0x00000000	0.0
34	0x00000000	0.0
35	0x00000000	0.0
36	0x515c0e2c	5.907066e+10
37	0x499b0b82	1.2701282e+06
38	0x4bced972	2.7112164e+07
39	0x5146184b	5.3175693e+10
40	0x51964f14	8.0696476e+10
41	0x4afcd65a	8.284973e+06
42	0x4baff1d6	2.306142e+07
43	0x5170b819	6.461755e+10
44	0x00000000	0.0
45	0x00000000	0.0
46	0x00000000	0.0
47	0x00000000	0.0
48	0x512089fb	4.3094356e+10
49	0x4bcaeeb0	2.6598752e+07
50	0x4af3293f	7.9679035e+06
51	0x5028b632	1.1322051e+10
52	0x00000000	0.0
53	0x00000000	0.0
54	0x00000000	0.0
55	0x00000000	0.0
56	0x00000000	0.0
57	0x00000000	0.0
58	0x00000000	0.0
59	0x00000000	0.0
60	0x5227bc18	1.801038e+11
61	0x4bca1747	2.6488462e+07
62	0x4cf9fcb1	1.31065224e+08
63	0x51d124f2	1.122835e+11
64	0x53055fba	5.728367e+11
65	0x4bc52c02	2.5843716e+07
66	0x4e10a38a	6.066592e+08
67	0x52d20229	4.509897e+11
68	0x5214f2d7	1.5993233e+11
69	0x4bc351ee	2.5600988e+07
70	0x4c9d942a	8.261666e+07
71	0x51fce719	1.3577612e+11
72	0x51afe6da	9.443654e+10
73	0x4b6a58bb	1.5358139e+07
74	0x4c36ed9e	4.795353e+07
75	0x5115a7f5	4.0173e+10
76	0x51fe12f2	1.3640494e+11
77	0x4b28bf4f	1.1059023e+07
78	0x4d29510d	1.7754133e+08
79	0x51b14d40	9.518816e+10
80	0x512d99cc	4.66006e+10
81	0x4aa3f9a4	5.373138e+06
82	0x4c0f399a	3.7545576e+07
83	0x512cc028	4.637239e+10
84	0x00000000	0.0
85	0x00000000	0.0
86	0x00000000	0.0
87	0x00000000	0.0
88	0x00000000	0.0
89	0x00000000	0.0
90	0x00000000	0.0
91	0x00000000	0.0
92	0x00000000	0.0
93	0x00000000	0.0
94	0x00000000	0.0
95	0x00000000	0.0

exp_avg f4 [24]
0	0x3a990b54	0.001167635
1	0x3ac757ca	0.0015208658
2	0xb95d99b5	-0.00021133463
3	0x3936cd88	0.00017433439
4	0xb99af970	-0.00029559014
5	0x3974d026	0.00023347195
6	0x39e7c835	0.0004420892
7	0x3a29fc2f	0.00064844167
8	0x00000000	0.0
9	0xba791ede	-0.0009503196
10	0xbabed5b9	-0.0014559544
11	0x00000000	0.0
12	0x3ad9e4dd	0.0016623993
13	0x00000000	0.0
14	0x00000000	0.0
15	0xba22dad0	-0.0006212415
16	0x3a226de8	0.0006196187
17	0x391a1ff0	0.00014698482
18	0xbb04f31c	-0.0020286506
19	0xba1a8696	-0.00058946887
20	0x3a572eae	0.0008208555
21	0x00000000	0.0
22	0x00000000	0.0
23	0x00000000	0.0

exp_avg_sq f4 [24]
0	0x3923f49a	0.00015636013
1	0x387adbea	5.9809456e-05
2	0x33031466	3.0519367e-08
3	0x36074248	2.0155148e-06
4	0x380f5dd0	3.4181227e-05
5	0x360fbe92	2.1419587e-06
6	0x35234fc1	6.083829e-07
7	0x3752fe4c	1.25761835e-05
8	0x00000000	0.0
9	0x37bfa6ee	2.2846707e-05
10	0x37f6ee3c	2.9436422e-05
11	0x00000000	0.0
12	0x370eede9	8.519252e-06
13	0x00000000	0.0
14	0x00000000	0.0
15	0x387a3a63	5.965902e-05
16	0x395de773	0.00021162424
17	0x3875d44c	5.861027e-05
18	0x37d95beb	2.5911218e-05
19	0x3848e17b	4.789371e-05
20	0x379f9de2	1.9027797e-05
21	0x00000000	0.0
22	0x00000000	0.0
23	0x00000000	0.0

exp_avg f4 [24, 24]
0	0xc630034a	-11264.822
1	0xc5bc028c	-6016.3184
2	0xc2f4e1d0	-122.44104
3	0xc536ce0d	-2924.8782
4	0xc65b283b	-14026.058
5	0xc5e87ad0	-7439.3516
6	0x4048e45a	3.1389375
7	0xc37ad7f0	-250.8435
8	0x00000000	0.0
9	0xc5845dc3	-4235.72
10	0xc5f2598a	-7755.1924
11	0x00000000	0.0
12	0xc5f6977f	-7890.937
13	0x00000000	0.0
14	0x00000000	0.0
15	0xc5ac6a56	-5517.292
16	0xc669085c	-14914.09
17	0xc507ae1a	-2170.8813
18	0xc3de9fbe	-445.248
19	0xc56ce259	-3790.1467
20	0xc624e102	-10552.252
21	0x00000000	0.0
22	0x00000000	0.0
23	0x00000000	0.0
24	0x00000000	0.0
25	0x00000000	0.0
26	0x00000000	0.0
27	0x00000000	0.0
28	0x00000000	0.0
29	0x00000000	0.0
30	0x00000000	0.0
31	0x00000000	0.0
32	0x00000000	0.0
33	0x00000000	0.0
34	0x00000000	0.0
35	0x00000000	0.0
36	0x00000000	0.0
37	0x00000000	0.0
38	0x00000000	0.0
39	0x00000000	0.0
40	0x00000000	0.0
41	0x00000000	0.0
42	0x00000000	0.0
43	0x00000000	0.0
44	0x00000000	0.0
45	0x00000000	0.0
46	0x00000000	0.0
47	0x00000000	0.0
48	0x464df8fd	13182.247
49	0x43df6e12	446.85992
50	0x00000000	0.0
51	0x3f880302	1.0625918
52	0x478168e2	66257.766
53	0x47b40d7e	92186.984
54	0x46ddfacf	28413.404
55	0x4790bd98	74107.19
56	0x00000000	0.0
57	0x42bbf33c	93.97507
58	0x454af7b5	3247.4817
59	0x00000000	0.0
60	0x47a13bf5	82551.914
61	0x00000000	0.0
62	0x00000000	0.0
63	0x478d4f58	72350.69
64	0x462a4574	10897.363
65	0x47b5b3c3	93031.52
66	0x47dae71a	112078.2
67	0x468ee7aa	18291.832
68	0x478c25fa	71755.95
69	0x00000000	0.0
70	0x00000000	0.0
71	0x00000000	0.0
72	0x46c7039a	25473.8
73	0x46043b44	8462.816
74	0x3e0effb0	0.13964725
75	0x44a10d10	1288.4082
76	0x47786402	63588.008
77	0x47853325	68198.29
78	0x463bbaba	12014.682
79	0x471d6b32	40299.195
80	0x00000000	0.0
81	0x4598cae0	4889.3594
82	0x46305214	11284.52
83	0x00000000	0.0
84	0x477f3d2e	65341.18
85	0x00000000	0.0
86	0x00000000	0.0
87	0x475db1ac	56753.67
88	0x46dd192c	28300.586
89	0x4771607c	61792.484
90	0x478809eb	69651.836
91	0x4694e65e	19059.184
92	0x47782f3e	63535.242
93	0x00000000	0.0
94	0x00000000	0.0
95	0x00000000	0.0
96	0x45622980	3618.5938
97	0x44dbf5c0	1759.6797
98	0x4558ff42	3471.9536
99	0xc4d992a2	-1740.5823
100	0x450e8880	2280.5312
101	0x45e1f980	7231.1875
102	0x41668782	14.408083
103	0x426c2380	59.034668
104	0x00000000	0.0
105	0x4594b9c0	4759.2188
106	0x45a896b0	5394.836
107	0x00000000	0.0
108	0xc3a53200	-330.39062
109	0x00000000	0.0
110	0x00000000	0.0
111	0xc5cb9100	-6514.125
112	0x45bed440	6106.5312
113	0x44782200	992.53125
114	0x4597e300	4860.375
115	0xc50724a0	-2162.289
116	0xc41aa800	-618.625
117	0x00000000	0.0
118	0x00000000	0.0
119	0x00000000	0.0
120	0x46d20989	26884.768
121	0x4676af01	15787.751
122	0x457c7062	4039.024
123	0xc428d747	-675.3637
124	0x46ed59f4	30380.977
125	0x46c630b8	25368.36
126	0x00000000	0.0
127	0x00000000	0.0
128	0x00000000	0.0
129	0x465c3256	14092.584
130	0x46a49de1	21070.94
131	0x00000000	0.0
132	0x464af530	12989.297
133	0x00000000	0.0
134	0x00000000	0.0
135	0x447d4634	1013.0969
136	0x4709d120	35281.125
137	0x45a2dff5	5211.9946
138	0xc25a1caa	-54.527992
139	0x4581676b	4140.9272
140	0x469137b9	18587.861
141	0x00000000	0.0
142	0x00000000	0.0
143	0x00000000	0.0
144	0x46aee020	22384.062
145	0x466dbc18	15215.023
146	0xc54ee9f4	-3310.622
147	0xc429114c	-676.27026
148	0x472e3756	44599.336
149	0x475df7a8	56823.656
150	0x43d8c011	433.50052
151	0xc60120bd	-8264.185
152	0x00000000	0.0
153	0x4649e10c	12920.262
154	0x467590b0	15716.172
155	0x00000000	0.0
156	0x470f4a04	36682.016
157	0x00000000	0.0
158	0x00000000	0.0
159	0x46b15ace	22701.402
160	0x46db62e4	28081.445
161	0x471c82fb	40066.98
162	0x467ecf66	16307.85
163	0x459e1294	5058.3223
164	0x47050bca	34059.79
165	0x00000000	0.0
166	0x00000000	0.0
167	0x00000000	0.0
168	0x00000000	0.0
169	0x00000000	0.0
170	0x00000000	0.0
171	0x00000000	0.0
172	0x00000000	0.0
173	0x00000000	0.0
174	0x00000000	0.0
175	0x00000000	0.0
176	0x00000000	0.0
177	0x00000000	0.0
178	0x00000000	0.0
179	0x00000000	0.0
180	0x00000000	0.0
181	0x00000000	0.0
182	0x00000000	0.0
183	0x00000000	0.0
184	0x00000000	0.0
185	0x00000000	0.0
186	0x00000000	0.0
187	0x00000000	0.0
188	0x00000000	0.0
189	0x00000000	0.0
190	0x00000000	0.0
191	0x00000000	0.0
192	0x45ea2c62	7493.548
193	0x45647599	3655.3499
194	0x43da0255	436.01822
195	0x44c94767	1610.2313
196	0x45fb2cf9	8037.6216
197	0x458f8aeb	4593.3647
198	0x438679dd	268.95206
199	0x43fa09ce	500.0766
200	0x00000000	0.0
201	0x453b15c6	2993.3608
202	0x45ab19e5	5475.237
203	0x00000000	0.0
204	0x455855fb	3461.3738
205	0x00000000	0.0
206	0x00000000	0.0
207	0x4491dcd3	1166.9008
208	0x4614660c	9497.512
209	0xc2262c80	-41.543457
210	0xc407fa7a	-543.9137
211	0x45071826	2161.5093
212	0x45b4d34f	5786.4136
213	0x00000000	0.0
214	0x00000000	0.0
215	0x00000000	0.0
216	0x447462c8	977.54346
217	0x440ac3f0	555.0615
218	0x431bb406	155.70322
219	0xc00f27d3	-2.2368057
220	0x44952639	1193.1945
221	0x448752fd	1082.5934
222	0x00000000	0.0
223	0x4077d343	3.8722694
224	0x00000000	0.0
225	0x43f99b97	499.21555
226	0x44397ff7	741.99945
227	0x00000000	0.0
228	0x441f89c6	638.1527
229	0x00000000	0.0
230	0x00000000	0.0
231	0x433615f5	182.08577
232	0x449ef59a	1271.675
233	0x43a8c23a	337.5174
234	0x42baa573	93.32314
235	0x43333770	179.21655
236	0x44467a07	793.9067
237	0x00000000	0.0
238	0x00000000	0.0
239	0x00000000	0.0
240	0x00000000	0.0
241	0x00000000	0.0
242	0x00000000	0.0
243	0x00000000	0.0
244	0x00000000	0.0
245	0x00000000	0.0
246	0x00000000	0.0
247	0x00000000	0.0
248	0x00000000	0.0
249	0x00000000	0.0
250	0x00000000	0.0
251	0x00000000	0.0
252	0x00000000	0.0
253	0x00000000	0.0
254	0x00000000	0.0
255	0x00000000	0.0

exp_avg_sq f4 [24, 24]
0	0x4c12bb5e	3.846489e+07
1	0x4ae4b0dc	7.493742e+06
2	0x483b93ba	192078.9
3	0x4948d496	822601.4
4	0x4cb7fbb4	9.646019e+07
5	0x4cc1efe4	1.0167888e+08
6	0x48f1e96f	495435.47
7	0x4aeaeefd	7.6983025e+06
8	0x00000000	0.0
9	0x4abce98c	6.190278e+06
10	0x4b7e7d1b	1.6678171e+07
11	0x00000000	0.0
12	0x4c81651f	6.784025e+07
13	0x00000000	0.0
14	0x00000000	0.0
15	0x4bd11792	2.7406116e+07
16	0x4c4d49ad	5.3814964e+07
17	0x4c013b6c	3.3877424e+07
18	0x4c1412a8	3.8816416e+07
19	0x4ad84960	7.08728e+06
20	0x4c888064	7.156611e+07
21	0x00000000	0.0
22	0x00000000	0.0
23	0x00000000	0.0
24	0x00000000	0.0
25	0x00000000	0.0
26	0x00000000	0.0
27	0x00000000	0.0
28	0x00000000	0.0
29	0x00000000	0.0
30	0x00000000	0.0
31	0x00000000	0.0
32	0x00000000	0.0
33	0x00000000	0.0
34	0x00000000	0.0
35	0x00000000	0.0
36	0x00000000	0.0
37	0x00000000	0.0
38	0x00000000	0.0
39	0x00000000	0.0
40	0x00000000	0.0
41	0x00000000	0.0
42	0x00000000	0.0
43	0x00000000	0.0
44	0x00000000	0.0
45	0x00000000	0.0
46	0x00000000	0.0
47	0x00000000	0.0
48	0x4bd1ae87	2.7483406e+07
49	0x4b1fd8b9	1.0475705e+07
50	0x00000000	0.0
51	0x4482a10e	1045.033
52	0x4fb8a8d2	6.196143e+09
53	0x5075dc21	1.6499377e+10
54	0x4ec012a2	1.6112233e+09
55	0x4ffd8f84	8.508082e+09
56	0x00000000	0.0
57	0x4aaf5a37	5.7459475e+06
58	0x498ae421	1.1377961e+06
59	0x00000000	0.0
60	0x502cc6fd	1.1594888e+10
61	0x00000000	0.0
62	0x00000000	0.0
63	0x50029722	8.763771e+09
64	0x4b4b336f	1.3316975e+07
65	0x508328b4	1.7603863e+10
66	0x5096de14	2.0249092e+10
67	0x4d2892a1	1.7676136e+08
68	0x4fc35e0d	6.5554417e+09
69	0x00000000	0.0
70	0x00000000	0.0
71	0x00000000	0.0
72	0x50ed552f	3.1854262e+10
73	0x502bd97c	1.1532628e+10
74	0x4455c8fe	855.1405
75	0x4a90f3f2	4.749817e+06
76	0x51c7ed98	1.0733558e+11
77	0x5200f5d8	1.384701e+11
78	0x4e5b9a6c	9.210826e+08
79	0x4f8d3e04	4.7393034e+09
80	0x00000000	0.0
81	0x4fffd548	8.5843354e+09
82	0x50606c78	1.506082e+10
83	0x00000000	0.0
84	0x518e45d1	7.6382085e+10
85	0x00000000	0.0
86	0x00000000	0.0
87	0x5100b343	3.4547708e+10
88	0x5147b0b1	5.360393e+10
89	0x517d8f98	6.806474e+10
90	0x50f1da94	3.246107e+10
91	0x4f1cb356	2.6289987e+09
92	0x517bffa0	6.764534e+10
93	0x00000000	0.0
94	0x00000000	0.0
95	0x00000000	0.0
96	0x5251f0d0	2.2542208e+11
97	0x51959798	8.031168e+10
98	0x4d0ff0d6	1.5093283e+08
99	0x4b576ba1	1.4117793e+07
100	0x531c3e79	6.71063e+11
101	0x533aae37	8.0178676e+11
102	0x49ce4acc	1.6899455e+06
103	0x4dca48c1	4.242207e+08
104	0x00000000	0.0
105	0x515f384b	5.9920134e+10
106	0x51cdb143	1.1043028e+11
107	0x00000000	0.0
108	0x52c35b40	4.1952477e+11
109	0x00000000	0.0
110	0x00000000	0.0
111	0x521a6410	1.6577593e+11
112	0x52b0bbae	3.795315e+11
113	0x529b26e0	3.3318607e+11
114	0x51d77a5d	1.1568386e+11
115	0x5073a2c7	1.6350125e+10
116	0x52bb15b0	4.0176137e+11
117	0x00000000	0.0
118	0x00000000	0.0
119	0x00000000	0.0
120	0x4ed0b1e8	1.7506601e+09
121	0x4e0873cd	5.723226e+08
122	0x4c2bcc4e	4.503583e+07
123	0x4974bdd4	1.00246125e+06
124	0x4f0c1cb3	2.350691e+09
125	0x4eb9692f	1.5553391e+09
126	0x00000000	0.0
127	0x00000000	0.0
128	0x00000000	0.0
129	0x4dd07f14	4.3724864e+08
130	0x4e6fc448	1.0056545e+09
131	0x00000000	0.0
132	0x4e00e818	5.4067354e+08
133	0x00000000	0.0
134	0x00000000	0.0
135	0x4bf6a6e8	3.2329168e+07
136	0x4f31d686	2.9836262e+09
137	0x4c931f7a	7.71348e+07
138	0x43113ca6	145.23691
139	0x4c6649d4	6.036872e+07
140	0x4e6b9c74	9.882248e+08
141	0x00000000	0.0
142	0x00000000	0.0
143	0x00000000	0.0
144	0x51493857	5.4014603e+10
145	0x508c38ab	1.8820192e+10
146	0x4cfc9620	1.3242803e+08
147	0x4b3ef974	1.25157e+07
148	0x51fd28c8	1.35913865e+11
149	0x52053065	1.4301064e+11
150	0x4a367364	2.989273e+06
151	0x4c90543c	7.566998e+07
152	0x00000000	0.0
153	0x504d0332	1.3758155e+10
154	0x50c933d1	2.700493e+10
155	0x00000000	0.0
156	0x518a8690	7.437038e+10
157	0x00000000	0.0
158	0x00000000	0.0
159	0x50c7d9c6	2.6823504e+10
160	0x51aa542d	9.1444584e+10
161	0x513949ff	4.973815e+10
162	0x5044b670	1.3201162e+10
163	0x4f568ca1	3.5995405e+09
164	0x51907758	7.755969e+10
165	0x00000000	0.0
166	0x00000000	0.0
167	0x00000000	0.0
168	0x00000000	0.0
169	0x00000000	0.0
170	0x00000000	0.0
171	0x00000000	0.0
172	0x00000000	0.0
173	0x00000000	0.0
174	0x00000000	0.0
175	0x00000000	0.0
176	0x00000000	0.0
177	0x00000000	0.0
178	0x00000000	0.0
179	0x00000000	0.0
180	0x00000000	0.0
181	0x00000000	0.0
182	0x00000000	0.0
183	0x00000000	0.0
184	0x00000000	0.0
185	0x00000000	0.0
186	0x00000000	0.0
187	0x00000000	0.0
188	0x00000000	0.0
189	0x00000000	0.0
190	0x00000000	0.0
191	0x00000000	0.0
192	0x4cf70577	1.2951033e+08
193	0x4c19db76	4.033276e+07
194	0x49ef3ce2	1.9598362e+06
195	0x4980a35e	1.0538038e+06
196	0x4d2e4dc4	1.8277075e+08
197	0x4cd07ebc	1.0931146e+08
198	0x46c6e4fe	25458.496
199	0x49858019	1.0936351e+06
200	0x00000000	0.0
201	0x4bdc14db	2.8846518e+07
202	0x4c8987a2	7.210523e+07
203	0x00000000	0.0
204	0x4c30ff1a	4.639857e+07
205	0x00000000	0.0
206	0x00000000	0.0
207	0x4ada6d66	7.157427e+06
208	0x4d501d24	2.1822317e+08
209	0x4af52976	8.033467e+06
210	0x4a2a25a8	2.78769e+06
211	0x4ad24125	6.8896185e+06
212	0x4ca2d41e	8.536907e+07
213	0x00000000	0.0
214	0x00000000	0.0
215	0x00000000	0.0
216	0x5001ebc1	8.718845e+09
217	0x4f2f2edb	2.9390835e+09
218	0x4c22a910	4.264045e+07
219	0x489474f4	304039.62
220	0x50adaca3	2.3310178e+10
221	0x50d782fe	2.892549e+10
222	0x00000000	0.0
223	0x4a294e6a	2.7739145e+06
224	0x00000000	0.0
225	0x4f18ddb2	2.5646659e+09
226	0x4f7b2c52	4.2139858e+09
227	0x00000000	0.0
228	0x505fc5d4	1.5017136e+10
229	0x00000000	0.0
230	0x00000000	0.0
231	0x4f969f7e	5.05407e+09
232	0x505949c0	1.4581957e+10
233	0x5012c40d	9.849288e+09
234	0x4f4bbafa	3.4180285e+09
235	0x4e020f50	5.455104e+08
236	0x504b9409	1.3661906e+10
237	0x00000000	0.0
238	0x00000000	0.0
239	0x00000000	0.0
240	0x00000000	0.0
241	0x00000000	0.0
242	0x00000000	0.0
243	0x00000000	0.0
244	0x00000000	0.0
245	0x00000000	0.0
246	0x00000000	0.0
247	0x00000000	0.0
248	0x00000000	0.0
249	0x00000000	0.0
250	0x00000000	0.0
251	0x00000000	0.0
252	0x00000000	0.0
253	0x00000000	0.0
254	0x00000000	0.0
255	0x00000000	0.0

exp_avg f4 [24]
0	0xba1980fd	-0.00058557076
1	0x00000000	0.0
2	0x3b31327f	0.0027038155
3	0x3b2b9f76	0.0026187575
4	0x3920b740	0.00015327055
5	0x3aa87b94	0.0012854212
6	0x3ae793f0	0.001766799
7	0x00000000	0.0
8	0x39b80560	0.0003509922
9	0x38536580	5.040085e-05
10	0x00000000	0.0
11	0x3b2becb6	0.002623362
12	0x00000000	0.0
13	0x00000000	0.0
14	0x3ac18670	0.0014764797
15	0x3a5f0398	0.00085073104
16	0x00000000	0.0
17	0xbb302a60	-0.0026880726
18	0x3badd0e6	0.0053044436
19	0xbb0e6333	-0.0021726608
20	0xb9fb6928	-0.00047952798
21	0x3a54d82c	0.00081193703
22	0xbab1679c	-0.0013534906
23	0x3b71279e	0.0036797295

exp_avg_sq f4 [24]
0	0x3437fe5c	1.7135739e-07
1	0x00000000	0.0
2	0x37178aca	9.032616e-06
3	0x39367d77	0.00017403612
4	0x3a90804b	0.0011024562
5	0x368c729f	4.185669e-06
6	0x396ce376	0.0002259145
7	0x00000000	0.0
8	0x34af8f1b	3.2700413e-07
9	0x3821e30a	3.8596838e-05
10	0x00000000	0.0
11	0x39a86136	0.00032115885
12	0x00000000	0.0
13	0x00000000	0.0
14	0x3a1285c3	0.000558939
15	0x39920e06	0.00027857738
16	0x00000000	0.0
17	0x39413d84	0.0001842883
18	0x39d832c2	0.00041236548
19	0x377afe7f	1.4960416e-05
20	0x389851ac	7.2631374e-05
21	0x36042469	1.9690726e-06
22	0x38f0f4cf	0.00011489691
23	0x380e73d2	3.3963304e-05

exp_avg f4 [4, 24]
0	0xc3a2bb82	-325.4649
1	0x00000000	0.0
2	0x46b25794	22827.79
3	0x45f60ab1	7873.3364
4	0xc683e15e	-16880.684
5	0xc40dc697	-567.10297
6	0xc5894c1a	-4393.5127
7	0x00000000	0.0
8	0xc58d1cfe	-4515.624
9	0xc14d034c	-12.813305
10	0x00000000	0.0
11	0x46877cac	17342.336
12	0x00000000	0.0
13	0x00000000	0.0
14	0xc62e8d12	-11171.268
15	0xc606a744	-8617.816
16	0x00000000	0.0
17	0xc6720bae	-15490.92
18	0x44abfefe	1375.9685
19	0x469efdc6	20350.887
20	0x469e90e2	20296.441
21	0xc5fd652d	-8108.647
22	0xc632d3b5	-11444.927
23	0x468b1904	17804.508
24	0xc672d4de	-15541.217
25	0x00000000	0.0
26	0xc58500d8	-4256.1055
27	0x46769554	15781.332
28	0xc7115a70	-37210.438
29	0xc5ffaea2	-8181.829
30	0x45ffdeb0	8187.836
31	0x00000000	0.0
32	0x458cd5c2	4506.7197
33	0xc23c933f	-47.143795
34	0x00000000	0.0
35	0x454f9100	3321.0625
36	0x00000000	0.0
37	0x00000000	0.0
38	0xc40bb800	-558.875
39	0xc6a49218	-21065.047
40	0x00000000	0.0
41	0xc59e3480	-5062.5625
42	0xc63235b0	-11405.422
43	0xc5800a6a	-4097.302
44	0xc3ffc000	-511.5
45	0xc3a26c00	-324.84375
46	0x4622a708	10409.758
47	0xc662e560	-14521.344
48	0x4587e201	4348.2505
49	0x00000000	0.0
50	0x00000000	0.0
51	0xc6646003	-14616.003
52	0xc671016a	-15424.354
53	0x44fd7df6	2027.9363
54	0x45983ede	4871.8584
55	0x00000000	0.0
56	0x4582e4cd	4188.6
57	0xc09f3af8	-4.9759483
58	0x00000000	0.0
59	0xc7214094	-41280.58
60	0x00000000	0.0
61	0x00000000	0.0
62	0xc7901a52	-73780.64
63	0xc68a3d6f	-17694.717
64	0x00000000	0.0
65	0xc772c4fc	-62148.984
66	0x46158503	9569.253
67	0xc48f1d13	-1144.9086
68	0xc6e2f01b	-29048.053
69	0x4622b15c	10412.34
70	0xc650e1fd	-13368.497
71	0xc72b7ea2	-43902.633
72	0x45b920e8	5924.1133
73	0x00000000	0.0
74	0x46f9770e	31931.527
75	0x478a11f0	70691.875
76	0x47086e2b	34926.168
77	0x451c0752	2496.4575
78	0x45b41168	5762.176
79	0x00000000	0.0
80	0xc3e611dc	-460.13953
81	0xc1b7b47c	-22.963127
82	0x00000000	0.0
83	0x4811a17b	149125.92
84	0x00000000	0.0
85	0x00000000	0.0
86	0x48335dfa	183671.9
87	0x468bd8e5	17900.447
88	0x00000000	0.0
89	0x48404b88	196910.12
90	0x46a539a8	21148.828
91	0x473281d9	45697.848
92	0x47bae655	95692.664
93	0x47276988	42857.53
94	0x4561cb2c	3612.6982
95	0x483287b4	182814.81

exp_avg_sq f4 [4, 24]
0	0x4af17496	7.912011e+06
1	0x00000000	0.0
2	0x4c6f7bd2	6.277921e+07
3	0x4cca90a1	1.06202376e+08
4	0x4eb1286f	1.4861085e+09
5	0x483a8c4b	191025.17
6	0x4b246146	1.0772806e+07
7	0x00000000	0.0
8	0x490e9fee	584190.9
9	0x48a1c32f	331289.47
10	0x00000000	0.0
11	0x4e8cbc63	1.1805782e+09
12	0x00000000	0.0
13	0x00000000	0.0
14	0x4fc0e24c	6.472112e+09
15	0x4e186841	6.392423e+08
16	0x00000000	0.0
17	0x4faa33f6	5.711064e+09
18	0x4c140e4d	3.8811956e+07
19	0x4be4ddcb	2.9997974e+07
20	0x4e4222f1	8.1426746e+08
21	0x4c0233b9	3.4131684e+07
22	0x4d0a5945	1.4506914e+08
23	0x4ef29f0e	2.035255e+09
24	0x4f6fd7f6	4.0239078e+09
25	0x00000000	0.0
26	0x4a301ca7	2.8854178e+06
27	0x50eb915c	3.1617376e+10
28	0x5362249e	9.7127694e+11
29	0x4cd56043	1.1187049e+08
30	0x4f6b9bec	3.9528643e+09
31	0x00000000	0.0
32	0x4ae8f368	7.633332e+06
33	0x4d7a4a82	2.6244918e+08
34	0x00000000	0.0
35	0x5306202c	5.760654e+11
36	0x00000000	0.0
37	0x00000000	0.0
38	0x545242a0	3.6122437e+12
39	0x52b76d54	3.9390662e+11
40	0x00000000	0.0
41	0x543df58a	3.263473e+12
42	0x50b3701e	2.4083755e+10
43	0x4e56dc85	9.0119405e+08
44	0x52a01672	3.4378567e+11
45	0x50fe0d94	3.4098422e+10
46	0x51aa3079	9.136971e+10
47	0x53797ecf	1.07157435e+12
48	0x4b5d06c1	1.4485185e+07
49	0x00000000	0.0
50	0x00000000	0.0
51	0x4cc8c654	1.0526378e+08
52	0x4ead20fa	1.4523098e+09
53	0x48fdc373	519707.6
54	0x4baf9eca	2.30189e+07
55	0x00000000	0.0
56	0x49b8d1da	1.5140432e+06
57	0x489d78cf	322502.47
58	0x00000000	0.0
59	0x4e366ad2	7.651135e+08
60	0x00000000	0.0
61	0x00000000	0.0
62	0x4fa34aa1	5.479154e+09
63	0x4dea9f3e	4.9203808e+08
64	0x00000000	0.0
65	0x4f9e9f85	5.322509e+09
66	0x4c28eaf5	4.4280788e+07
67	0x4949825e	825381.9
68	0x4dc1930f	4.0595504e+08
69	0x4c3ea3e7	4.9975196e+07
70	0x4cfd58ed	1.32826984e+08
71	0x4eacd92f	1.4499572e+09
72	0x4b593cb8	1.4236856e+07
73	0x00000000	0.0
74	0x50a0a339	2.1560412e+10
75	0x501b4004	1.0418655e+10
76	0x4ee39cf5	1.9093572e+09
77	0x48ae729a	357268.8
78	0x4b747b19	1.6022297e+07
79	0x00000000	0.0
80	0x458af46d	4446.553
81	0x4908117b	557335.7
82	0x00000000	0.0
83	0x5139944b	4.9816056e+10
84	0x00000000	0.0
85	0x00000000	0.0
86	0x517b0368	6.738087e+10
87	0x4eabec71	1.4421997e+09
88	0x00000000	0.0
89	0x513bc6c2	5.0405843e+10
90	0x4c7fea91	6.7086916e+07
91	0x4ffc0055	8.4557604e+09
92	0x5107debd	3.6472345e+10
93	0x4d3d0f98	1.9824474e+08
94	0x4d020266	1.363247e+08
95	0x5161f095	6.0650246e+10

exp_avg f4 [4]
0	0xbac48de0	-0.0014995895
1	0xbac65be0	-0.0015133582
2	0xbbca9cba	-0.006183234
3	0x3ca8f658	0.020625278

exp_avg_sq f4 [4]
0	0x385b0440	5.2217627e-05
1	0x3cf6fa49	0.030148642
2	0x384c57cc	4.8719157e-05
3	0x39fa9d05	0.00047800704
