test_model/covid60.pth (torch, 16239 bytes, 18 tensors)

weight f4 [24, 4]
00000000: 83e2 a8bd f95d 323d 9545 183e d579 f4bd
00000010: 6d94 823d 68a8 8fbd 843b 00bf b9e7 023e
00000020: 594a 883e eb44 383e a6f6 85be fa58 0f3e
00000030: ef95 be3d 42ca ea3c a830 433e 47eb 8cbb
00000040: 1269 333e d2d2 f8bd ebf3 27be 54fc e93a
00000050: ccf5 f5bd 177a 053e 5fcc 6b3e db1c 223e
00000060: f0dd 5c3d 57d6 a03d 1f65 5ebe 604e 6cbc
00000070: 78cb 92be 2018 0bbd 8456 123e a81d 3cbe
00000080: 48e0 a6be 805c e0bd bca3 923e fc63 1cbe
00000090: a4b0 69be e076 253d f02c a23d 5629 8cbe
000000a0: 5e47 f0bd f124 563e 5425 c1bd 6f9b 1c3e
000000b0: 9665 0fbf 5118 003e 7b53 fc3d 9055 13bf
000000c0: 6fc4 dc3d 0e9e a23c 4d91 45be a31c e1be
000000d0: bce5 95be 0cec fbbe 1099 86be 1283 f4be
000000e0: 3a23 3d3c f3bb 673e e51a 8f3e e8e3 433e
000000f0: 0671 71be 719c 523e ec82 87be edd7 173e
00000100: 32f8 56bd e268 ba3e ff6d 4bbe 6f35 a7be
00000110: 05ba ee3d 28e5 8abe 7778 133f 2636 babe
00000120: 07c9 85be 3c83 253d 5241 b43e ab97 ae3d
00000130: f838 793d dd60 f13e 6a4a 0cbf 264f a93e
00000140: 52e1 fabe 5a5a a33e ff7b 9ebd 4f76 7e3e
00000150: 261c 453d 0eb5 693e f85c 6ebe ea96 04bf
00000160: 6c39 e2bb 74dc f9be 457c 1abf 2dde bebe
00000170: 3f05 813e eec2 153e 1b8d f6bd 6749 b8be
-0.08246329 0.04354665 0.14870293 -0.119373 0.06375966 -0.07014543 -0.50090814 0.12783708
0.26619223 0.1799504 -0.2616474 0.13998786 0.09305941 0.028660897 0.1906153 -0.004300508
0.1752055 -0.12149586 -0.16401641 0.0017851689 -0.12009773 0.13034855 0.2302718 0.1583132
0.053922594 0.07853382 -0.21718262 -0.014422983 -0.2867086 -0.033958554 0.14290816 -0.18370688
-0.32592988 -0.10955143 0.28640544 -0.15272516 -0.2282129 0.04039657 0.079187274 -0.27375287
-0.11732362 0.2091253 -0.09430948 0.15293668 -0.5601438 0.12509276 0.1232061 -0.57552433
0.10779654 0.019850757 -0.19293709 -0.4396716 -0.29276836 -0.49203527 -0.26288652 -0.4775625
0.011544043 0.2263029 0.27950206 0.19129908 -0.23578271 0.2056749 -0.26467073 0.14828463
-0.05248279 0.36408144 -0.19866179 -0.32657954 0.11656574 -0.27127957 0.5760569 -0.36369437
-0.26129934 0.040408358 0.35206085 0.08525022 0.060845345 0.47144213 -0.54801047 0.33068198
-0.4900003 0.3190487 -0.07738494 0.24849819 0.048122548 0.22822973 -0.23277652 -0.51792777
-0.006903818 -0.48801005 -0.6034587 -0.37278882 0.25199315 0.14625141 -0.120386325 -0.35993502

bias f4 [24]
00000000: 4649 403e 93fb 18bf da7f 143e 7f47 23be
00000010: edb8 233e 3ca3 883e f054 b23e b0ef 8abd
00000020: 006e 07be 74df e7be 38d7 bdbe bd97 5abe
00000030: e2a7 a6be b0d1 c43e cdd2 e2be 9360 db3d
00000040: e380 8b3d c20d dcbe cdda 23be 39f2 dcbe
00000050: 6575 6f3e 510a 163e 52b1 6abe 50bb a5bc
0.18777952 -0.5975887 0.14501897 -0.15945242 0.15988512 0.26687038 0.34830427 -0.06783998
-0.13225555 -0.4528767 -0.3707826 -0.21346946 -0.3254996 0.3844123 -0.44301453 0.107117794
0.068116926 -0.42979246 -0.16001435 -0.4315355 0.23384626 0.14652373 -0.22919205 -0.02023092

weight f4 [24, 24]
00000000: a6f5 2ebe 46f2 91be 9178 8abb b80c a83d
00000010: c3f2 e43c 2be7 bb3a 0494 b83d bc34 1fbd
00000020: 3070 883d 0fb6 12be b591 b1bc 694e 3fbe
00000030: 4b03 08be bc6c a63d e4bd d3bd dbff 3abe
00000040: 7e52 f43d 11ed 80be 1007 a13c 04f4 70be
00000050: 0ea9 7ebd 89ac 103d 03d3 2abe 5d29 d63d
00000060: 68b2 3bbe 905f 193d 300c 38be 8062 32bd
00000070: b010 0bbc 109b babd 026b afbd e89d 81bc
00000080: ce5a 2e3e 7cef 1abe d4a7 cdbd f041 3f3c
00000090: 008f 49bb 4ef8 283e cc87 be3d 3e76 1ebe
000000a0: b9c7 02be 2aa8 29be da76 8dbd d055 f93c
000000b0: 8f27 cfbd 1022 6c3c 8cee 62bd 4190 4fbe
000000c0: d9a7 d8bd ac54 223d 00db 4eba 402b cdbc
000000d0: ce7e 20be ea43 10be 989f e2bc 400b 38bc
000000e0: d8b0 3c3d 54c8 9c3d f0d8 6dbd 48a7 db3d
000000f0: 8090 ca3d 2438 08be 68a9 bcbc e007 69bc
00000100: c41e 4fbe 47b0 1cbe acbd 293e 5dea 0abe
00000110: 58f3 c53c b893 bebc 4209 b3bd 4c5e 37bd
00000120: 4880 c53d f7f7 053c 82ab c5bd 082d c43d
00000130: baed 41be 71d0 a13c b627 d6bc ec81 12bd
00000140: f037 393e e28b 2c3e 765a af3d 40d0 263e
00000150: 8ce2 2f3e ce70 3bbe 2df4 d8bd aea9 56be
00000160: c63d 12bd 2aa2 b93d 1219 71be b2a7 bd3d
00000170: eb79 50be d796 253e a828 15be 25d6 3abe
00000180: e8dd 133e 2f56 3a3d 4671 12bc e9be 073d
00000190: 5981 dbbd 212b 50bb cf78 063e 18ac 263d
000001a0: d20c 443e 010f a9bd fee6 053e 40d6 aabd
000001b0: e8af 42be c08d 963b 8d79 143d 1792 17be
000001c0: f7a7 9cbd 1441 393d f7ed 69be d870 abbd
000001d0: 5945 e43d 6641 6ebe 7016 55be c888 12bd
000001e0: f9f5 0cbe d66b b83d 7e5f 983d 2406 dc3c
000001f0: ef5d 04bf e1ef 0e3d db1f 10bc ea39 d0bd
00000200: 949a 063e 3c36 44be 6a6d 81bd 4b8a bdbe
00000210: 3039 c93c c0d0 1b3b d1da 7ebd 7d46 2bbe
00000220: b2a5 fa3c 364b a6bd b377 1b3d d2e4 3e3d
00000230: eaee e6bd 7c21 1abe 4223 88be 771e adbc
00000240: a128 40be 3c6f 573d 62fc 5cbe 6e9f ff3d
00000250: 1ba2 57be fe61 983d 5bba 5f3d 408a 433b
00000260: 3de2 3cbe 9096 4a3e 94b8 b6bb 004a 94bc
00000270: fbb4 023e 34d6 c23d d40b 6bbe 5813 ad3c
00000280: 9651 e33d aa97 4abd 00c8 17be 5deb 833c
00000290: f14d 4c3c b0b3 e33d 4b1a 7fbe 432c 46be
000002a0: be8f 46be bdac cbbd e1de fd3c 3828 48be
000002b0: cc33 2fbe 3e68 febd f4c2 f73d be94 20be
000002c0: d808 13bd 6c6b a63d 2279 10bd efc4 06be
000002d0: 7cc5 67be 40f6 16be 43ac 663d 9d76 bc3d
000002e0: 1003 3ebe 5b79 3abe cf50 bb3d b452 003d
000002f0: a989 7ebd 0dce 1abe 3a9d 3a3e f0cf 9abe
00000300: 5e09 923d 6489 983d 6e3b 19be 4879 123e
00000310: 0601 903d 4eef aebb 215a dc3c 5e4d 3ebe
00000320: 369f 0d3e 78a7 ac3d 4f8a 8a3c 7ff5 b3bd
00000330: e147 483d fef2 3a3e 89ff ea3d 5044 313e
00000340: 0db1 dabd 36b2 edba 06be 49bd fae6 9abd
00000350: 7794 25bd d716 18be 0b4a 123e eb87 c53c
00000360: d61e 4abe a693 b03d 74bb d7bd 58b2 0abe
00000370: f71a c3bc 2578 163d 60bc 143e 0077 2abe
00000380: dc33 dd3d d0f4 c4bc b5d7 86bd 9a60 0f3e
00000390: ebf6 0a3e 78f1 eb3c fe52 bdbc dfbf c83d
000003a0: 532f 19bd 2da1 713d 31ca 69bb 767d b6bd
000003b0: 9bd6 cf3d 7639 09bd bf24 0e3e 4e98 dfbd
000003c0: 9ad6 1e3e b661 71be 322c e53d 233c 29bd
000003d0: 387b 22be 1820 a3bd df1f cf3c e082 3abc
000003e0: 24d4 9dbd 2483 933d 4d43 c43d 71c1 743e
000003f0: 9254 13bd 0c17 d43d c133 a5bd c96f 84be
-0.17085895 -0.28505152 -0.0042257984 0.08205551 0.027947789 0.0014335861 0.09012607 -0.03886865
0.06662023 -0.14327262 -0.021675924 -0.18682255 -0.13282506 0.08126208 -0.10338953 -0.18261664
0.11929797 -0.25180867 0.019656688 -0.23530585 -0.062172942 0.035320792 -0.16682057 0.10457108
-0.18329775 0.03744465 -0.17973399 -0.04355097 -0.008487865 -0.09111607 -0.08565332 -0.015822366
0.17026827 -0.15130419 -0.10041776 0.011673436 -0.00307554 0.1650097 0.09303245 -0.15474793
-0.127715 -0.16568056 -0.06907435 0.030436426 -0.10114967 0.014412418 -0.055403277 -0.20269872
-0.105788894 0.03963153 -0.000789091 -0.025045037 -0.15673372 -0.14088407 -0.02766399 -0.011233151
0.04606709 0.07655397 -0.058068216 0.10725266 0.098908424 -0.13302666 -0.023029998 -0.014223069
-0.2022658 -0.1530162 0.1657626 -0.13565965 0.024163887 -0.023263797 -0.08742 -0.044767663
0.09643608 0.008176795 -0.09651853 0.095789015 -0.18938342 0.019752713 -0.026141983 -0.035768434
0.18087745 0.16850236 0.08562176 0.16290379 0.17176265 -0.1830475 -0.10593448 -0.20963165
-0.035703443 0.090641335 -0.2354472 0.09260501 -0.20359008 0.16170822 -0.1456629 -0.18245752
0.1444012 0.045492347 -0.008938139 0.03314105 -0.107180305 -0.0031763988 0.13132022 0.040691465
0.19145516 -0.08254815 0.13076398 -0.08341646 -0.19012415 0.0045945346 0.036248732 -0.14801823
-0.07649224 0.04522808 -0.22844683 -0.083711326 0.111460395 -0.23267135 -0.2080934 -0.035774976
-0.13765706 0.09004943 0.07440089 0.026858397 -0.5170583 0.034896735 -0.008796657 -0.10167296
0.13144904 -0.19161314 -0.06319697 -0.37019572 0.024563402 0.0023775548 -0.0622204 -0.16726108
0.030596588 -0.08119814 0.03795595 0.04660494 -0.11276038 -0.15051836 -0.265894 -0.02113269
-0.18765499 0.052596316 -0.21580651 0.12481581 -0.21057932 0.074405655 0.05462108 0.0029837042
-0.18445678 0.19783998 -0.0055762026 -0.018101692 0.12764351 0.09513512 -0.22953731 0.021127388
0.11099546 -0.049461044 -0.14822388 0.01610344 0.012469755 0.11118257 -0.24912374 -0.19352822
-0.19390771 -0.099450566 0.030990066 -0.19546592 -0.17109603 -0.12422226 0.12097731 -0.1568174
-0.035897106 0.08125958 -0.03527177 -0.13161062 -0.22633928 -0.14742374 0.056316625 0.09202311
-0.18555856 -0.18210356 0.091462724 0.03132887 -0.062143 -0.15117665 0.1822404 -0.3023677
0.07130693 0.0744808 -0.14964077 0.14304078 0.07031445 -0.005338586 0.026898446 -0.185842
0.13830265 0.0843038 0.016911654 -0.08787059 0.048896674 0.18256757 0.11474521 0.17311215
-0.10678301 -0.0018134776 -0.049253486 -0.075635865 -0.04042479 -0.14852463 0.14286058 0.024112662
-0.19738325 0.08621912 -0.10533801 -0.13544595 -0.023816569 0.036735673 0.14524984 -0.16646957
0.10800907 -0.024042517 -0.065841116 0.14001694 0.13570754 0.028801665 -0.023110863 0.098022215
-0.037398648 0.0589916 -0.0035673494 -0.089106485 0.101483546 -0.033502065 0.13881205 -0.10917722
0.15511551 -0.2357243 0.1119007 -0.041317116 -0.15867317 -0.07965106 0.025283752 -0.011383742
-0.07706478 0.072027475 0.09583149 0.23901917 -0.035969324 0.10355958 -0.08066512 -0.25866535

bias f4 [24]
00000000: 18d0 d83d e09c c7bd 8038 56bb 4768 65bd
00000010: 81be c8bd a7cb 713d 8afb 22be 3a30 073d
00000020: eddd c1bb 45f0 1a3e e3b7 45bd f56c 41be
00000030: 08ce c53d a0bd 40be 570f ec3c c336 87be
00000040: 423a a4bd 7755 c3bd 309a 27bd 77bc 61be
00000050: 5e1a 41be acdd 5dbd e595 cb3c ee25 0bbe
0.10586566 -0.097467184 -0.0032687485 -0.05600765 -0.09801961 0.05903211 -0.15916267 0.033004977
-0.005916348 0.15130718 -0.04827107 -0.1888922 0.09658438 -0.18822336 0.028815908 -0.26408967
-0.08018924 -0.095377855 -0.04091853 -0.2204455 -0.18857715 -0.05416648 0.024851749 -0.13588688

weight f4 [4, 24]
00000000: 4353 44bd 80c2 88bc 0449 1fbe b0bb 443d
00000010: 77e6 37bc f2ef 9e3c 08e8 c8bd d61d d6bc
00000020: 21d4 f8bb 4ae3 733d d508 8f3a 3bf4 65bc
00000030: 808e 403e ce71 463e c47c 8d3d e02e 05be
00000040: 666b ae3c abef 903c e4c0 c7bd 8c72 403c
00000050: 82c6 663d 9824 883d a65f a63c e4ed dc3a
00000060: 64c2 4cbb c0dd e1bc 6174 4fbe 0a68 883d
00000070: ca01 b2ba 6407 aa3c cc9e bbbd 13c6 bf3b
00000080: db30 d93c ca91 a13e d804 793a a2ea 48bc
00000090: 6c8e 37be c8f4 113e 8aea 003e abde bfbc
000000a0: 6876 a2bc eb1d 97b9 0866 cd3d 9d11 b13d
000000b0: e865 8d3d ba5c fd3c a472 0bbd 1438 e73a
000000c0: a18e 0d3d 5be2 4bbe 2634 4abe 6a80 2dbd
000000d0: 6436 153d e934 813c d18b 103e 998f 8a3b
000000e0: 4bce 063d ba8a ccbd a69a 5e3a 0b48 39bc
000000f0: e841 d73c bc60 76bd 09ed 373d 1f4e 213d
00000100: aa32 a9bc 1857 a53a 541d 90bc 6a71 ccbd
00000110: fbcf 553d 6b85 f83c a8e4 073d b295 cd3a
00000120: 04b4 883d 225d d6bd 2c9c 1abe b89f a23e
00000130: e607 acbc 8451 dd3c f4b1 6b3c 88be a33b
00000140: d050 7f3c 68b1 2e3e 84f2 6f3a 6ca0 3fbc
00000150: c228 a5bd 2cc6 e23d bd14 cbbd 2cd4 dfbb
00000160: 3f88 c23d 719b 4a3c e415 43be 1ec9 eb3b
00000170: ec5e 0d3c c27a f93c 8315 703e bfba a93a
-0.047930967 -0.016694307 -0.15555197 0.048030555 -0.011224381 0.019401524 -0.098098814 -0.026137274
-0.007593647 0.05954293 0.0010912666 -0.01403528 0.1880436 0.1937935 0.06908563 -0.13006163
0.021291446 0.017692408 -0.09753588 0.01174606 0.056341656 0.06647605 0.02030928 0.0016855565
-0.0031243796 -0.027571559 -0.20259239 0.06660469 -0.0013580855 0.020755477 -0.091611475 0.0058524697
0.026512554 0.3155654 0.0009499318 -0.012262972 -0.17925423 0.14253533 0.1258947 -0.023421606
-0.019831851 -0.00028823255 0.100292265 0.086459376 0.06904203 0.030928005 -0.034044877 0.0017640614
0.03455985 -0.19910567 -0.19746456 -0.042358793 0.036428824 0.0157723 0.14115836 0.004228544
0.03291158 -0.099873975 0.00084916723 -0.01130868 0.026276544 -0.060150847 0.04490379 0.039381143
-0.020654041 0.0012614457 -0.01759211 -0.099825695 0.0522003 0.030337056 0.033177048 0.0015684871
0.0667496 -0.104669824 -0.15098637 0.3176248 -0.02099986 0.027016409 0.014385689 0.0049970783
0.015583232 0.17059863 0.0009153264 -0.011695962 -0.080644146 0.110729545 -0.09916065 -0.006830713
0.09498643 0.012366162 -0.1905132 0.007195606 0.008628588 0.030454043 0.23445706 0.0012949331

bias f4 [4]
00000000: 964d 6a3f 821c 8d3f 84c3 8d3f a4ac 8c3f
0.91524637 1.1024325 1.1075292 1.0990186

exp_avg f4 [24, 4]
00000000: 0400 0000 0400 0000 0400 0000 0400 0000
00000010: e1e5 94c2 5222 2d40 f7ad 3442 75c5 9743
00000020: 8b07 bfc3 b81c bac3 f364 cfc3 32a6 94c4
00000030: 281b a943 bee6 4a43 d2d7 6043 2603 fb43
00000040: 328e 6dc3 dc1b 4e41 3296 85c2 10c8 55c2
00000050: 12aa b942 8470 ff42 3aa8 0c43 12b7 d943
00000060: 9405 45c1 2fe4 a9bf e0d8 93c0 e01f 513f
00000070: 0000 0000 0000 0000 0000 0000 0000 0000
00000080: 0000 0000 0000 0000 0000 0000 0000 0000
00000090: 0000 0000 0000 0000 0000 0000 0000 0000
000000a0: 12f2 eec3 86ce cac3 210a 29c4 47f6 fdc4
000000b0: 0400 0000 0400 0000 0400 0000 0400 0000
000000c0: 4771 17c1 f786 6bbf b4d8 5cbf 0e83 eebf
000000d0: 0000 0000 0000 0000 0000 0000 0000 0000
000000e0: 5022 9043 5740 aa43 975a a443 a08b 6f44
000000f0: b1b0 0cc3 c812 14c2 09dc a9c2 528f 3542
00000100: 8768 f6c0 47ad d7c0 7a93 23c0 d667 7bc0
00000110: a306 4c42 ec83 e840 4be9 ae40 c017 5c41
00000120: a673 8643 2de6 0943 28ea e543 040e b444
00000130: ae47 4ac3 e386 46c3 b02f 95c3 6a68 5cc4
00000140: 3e97 2243 f837 ecc0 dab0 2642 4025 cb41
00000150: 8054 ca3e 9cb8 bf3e 78cd ea3d 1c5c 323e
00000160: 0400 0000 0400 0000 0400 0000 0400 0000
00000170: 2807 80c2 2a11 f2bf 5595 edc0 079e 99c1
6e-45 6e-45 6e-45 6e-45 -74.44898 2.7052197 45.169888 303.54263
-382.05893 -372.22437 -414.78867 -1189.1936 338.21216 202.90134 224.84305 502.0246
-237.55545 12.881802 -66.79335 -53.445374 92.83217 127.71976 140.65714 435.43024
-12.313862 -1.3272761 -4.620224 0.8168926 0.0 0.0 0.0 0.0
0.0 0.0 0.0 0.0 0.0 0.0 0.0 0.0
-477.89117 -405.61346 -676.15826 -2031.6962 6e-45 6e-45 6e-45 6e-45
-9.465156 -0.92002815 -0.8626816 -1.8633745 0.0 0.0 0.0 0.0
288.26807 340.50266 328.70773 958.18164 -140.6902 -37.01834 -84.929756 45.38996
-7.7002597 -6.739902 -2.5558763 -3.9282126 51.00648 7.2661037 5.465978 13.755798
268.9035 137.89912 459.82935 1440.438 -202.28 -198.5269 -298.37256 -881.6315
162.59079 -7.381832 41.672707 25.393188 0.39517593 0.37445533 0.11464971 0.1741795
6e-45 6e-45 6e-45 6e-45 -64.01398 -1.8911488 -7.424479 -19.202162

exp_avg_sq f4 [24, 4]
00000000: a06a 2a4a 98b2 9548 43da 0049 61e0 814a
00000010: dec2 ad4f 8b71 1e4a dd86 2f4c 9822 3451
00000020: 17ed 3f4f 004b d44a c7bf ba4b 63c7 5050
00000030: ba0c 3b4f 8b1b 8a4a a356 674b fe69 d14f
00000040: fd36 824e a2d5 9149 5c6c 5149 7f87 884e
00000050: 5665 934e 7471 804a 89ce ee4b 7357 a650
00000060: 5940 9d4e 64bf 7b48 4be5 4247 6b62 5748
00000070: 0000 0000 0000 0000 0000 0000 0000 0000
00000080: 0000 0000 0000 0000 0000 0000 0000 0000
00000090: 0000 0000 0000 0000 0000 0000 0000 0000
000000a0: e3d2 5b4e b78f be4a 9e4a 1a4c 5b46 e950
000000b0: 688e f441 2ca9 d242 5c04 0842 214e a842
000000c0: a238 644e 9806 1449 588a 6b48 87de de49
000000d0: 0000 0000 0000 0000 0000 0000 0000 0000
000000e0: 16b8 294e f3b9 f649 b04d bb4a 7907 664f
000000f0: e493 eb4d d194 4049 caf4 c34b 27c6 fe50
00000100: 7082 894c 6f28 2148 0858 1447 20ec b647
00000110: 0872 3550 13c0 994b d3f2 0e4b d1a0 0b4c
00000120: 5cc2 eb4c 7c9e a249 47a6 e24a d87e aa4f
00000130: 0499 be4f e90b 474b 9fcf 7e4c 5cbe 2351
00000140: 73be 594e 1d4d 264a 7da2 2f4c 8cd8 2e51
00000150: 5af3 544e 5f92 2148 c0dc f846 a365 a447
00000160: 4e49 c74c 96b6 0747 d534 dc45 3ef6 8f46
00000170: 421e 814f ab1a 8c4a 93ce c849 7f5e 894b
2.792104e+06 306580.75 527780.2 4.2557925e+06 5.8304584e+09 2.5959388e+06 4.60133e+07 4.8354656e+10
3.2199862e+09 6.956416e+06 2.4477582e+07 1.4010912e+10 3.1381734e+09 4.5255095e+06 1.5160995e+07 7.026769e+09
1.0923209e+09 1.1946762e+06 857797.75 1.1452906e+09 1.236446e+09 4.208826e+06 3.1300882e+07 2.2325991e+10
1.31912e+09 257789.56 49893.293 220553.67 0.0 0.0 0.0 0.0
0.0 0.0 0.0 0.0 0.0 0.0 0.0 0.0
9.2200774e+08 6.2443155e+06 4.0446584e+07 3.1309617e+10 30.569534 105.330414 34.004257 84.152596
9.572292e+08 606313.5 241193.38 1.8257449e+06 0.0 0.0 0.0 0.0
7.1185344e+08 2.0211824e+06 6.13756e+06 3.8592494e+09 4.9404224e+08 788813.06 2.5684372e+07 3.4195192e+10
7.209459e+07 165025.73 37976.03 93656.25 1.2176597e+10 2.0152358e+07 9.368275e+06 3.6602692e+07
1.2360573e+08 1.3321755e+06 7.4268515e+06 5.720879e+09 6.395398e+09 1.3044713e+07 6.679718e+07 4.3954586e+10
9.132843e+08 2.7246792e+06 4.6041588e+07 4.6934835e+10 8.931795e+08 165449.48 31854.375 84171.27
1.0448344e+08 34742.586 7046.604 18427.121 4.3324877e+09 4.5909335e+06 1.6450104e+06 1.8005246e+07

exp_avg f4 [24]
00000000: 0400 0000 dbde 3936 60d3 c5b7 63bb 5437
00000010: 8077 67b6 64a7 0537 ff4e 3bb4 0000 0000
00000020: 0000 0000 0000 0000 eca1 16b8 0400 0000
00000030: e7c7 0cb4 0000 0000 7db2 a037 faca 11b6
00000040: 26ac 60b4 ba05 5035 f487 c137 a89b 84b7
00000050: 982a 1536 a0d7 3532 0400 0000 5763 78b5
6e-45 2.7696867e-06 -2.358266e-05 1.2679814e-05 -3.449124e-06 7.966391e-06 -1.7444471e-07 0.0
0.0 0.0 -3.591359e-05 6e-45 -1.311124e-07 0.0 1.9156601e-05 -2.1724832e-06
-2.0924253e-07 7.749437e-07 2.3070701e-05 -1.580811e-05 2.2227523e-06 1.0584614e-08 6e-45 -9.253176e-07

exp_avg_sq f4 [24]
00000000: 534a 0b31 2855 0437 cf23 3c36 6608 e735
00000010: 239d ac34 9b25 6f36 1a17 1534 0000 0000
00000020: 0000 0000 0000 0000 29f2 9536 0d92 d529
00000030: bb79 e633 0000 0000 8efd 2d35 0d73 9636
00000040: be5e 0932 c3ad c435 46e6 4d35 7bd3 0237
00000050: 67f2 d636 8bc8 c933 d075 4032 e160 0835
2.026941e-09 7.88764e-06 2.8035026e-06 1.7213285e-06 3.2151829e-07 3.5635665e-06 1.388511e-07 0.0
0.0 0.0 4.468737e-06 9.484436e-14 1.0732352e-07 0.0 6.481649e-07 4.483742e-06
7.995991e-09 1.4653709e-06 7.6703543e-07 7.797843e-06 6.4059163e-06 9.3962704e-08 1.1202658e-08 5.0804925e-07

exp_avg f4 [24, 24]
00000000: 0400 0000 0400 0000 0400 0000 0400 0000
00000010: 0400 0000 0400 0000 0400 0000 0000 0000
00000020: 0000 0000 0000 0000 0400 0000 0000 0000
00000030: 0400 0000 0000 0000 0400 0000 0400 0000
00000040: 0400 0000 0400 0000 0400 0000 0400 0000
00000050: 0400 0000 0400 0000 0400 0000 0400 0000
00000060: 0000 0000 0000 0000 0000 0000 0000 0000
00000070: 0000 0000 0000 0000 0000 0000 0000 0000
00000080: 0000 0000 0000 0000 0000 0000 0000 0000
00000090: 0000 0000 0000 0000 0000 0000 0000 0000
000000a0: 0000 0000 0000 0000 0000 0000 0000 0000
000000b0: 0000 0000 0000 0000 0000 0000 0000 0000
000000c0: 0000 0000 0000 0000 0000 0000 0000 0000
000000d0: 0000 0000 0000 0000 0000 0000 0000 0000
000000e0: 0000 0000 0000 0000 0000 0000 0000 0000
000000f0: 0000 0000 0000 0000 0000 0000 0000 0000
00000100: 0000 0000 0000 0000 0000 0000 0000 0000
00000110: 0000 0000 0000 0000 0000 0000 0000 0000
00000120: 0400 0000 0400 0000 0400 0000 0400 0000
00000130: 0400 0000 0400 0000 0400 0000 0000 0000
00000140: 0000 0000 0000 0000 0400 0000 0000 0000
00000150: 0400 0000 0000 0000 0400 0000 0400 0000
00000160: 0400 0000 0400 0000 0400 0000 0400 0000
00000170: 0400 0000 0400 0080 0400 0000 0400 0000
00000180: 0400 0000 953e e80d d808 9b24 212b 2324
00000190: 0f00 0000 873c 7624 834e c921 0000 0000
000001a0: 0000 0000 0000 0000 b888 0724 0000 0000
000001b0: 0400 0000 0000 0000 68da f624 34a1 150c
000001c0: 072d 389e 0400 0080 ac82 5823 41d5 ef24
000001d0: 18f8 0224 0400 0000 0400 0000 0400 0080
000001e0: 0400 0000 4541 0d39 0c4f 2043 be37 f042
000001f0: fa5c 6142 4834 2d42 d7d4 f1c1 0000 0000
00000200: 0000 0000 0000 0000 708d dbc1 0400 0000
00000210: 0400 0000 0000 0000 2049 2e43 430d 04b0
00000220: 02b2 3cc2 0400 0000 50c4 73c1 44c6 6242
00000230: 394f 0f42 0400 0080 0400 0000 7d0e e0c1
00000240: 0400 0000 0400 0000 0400 0000 0400 0000
00000250: 0400 0000 0400 0000 0400 0000 0000 0000
00000260: 0000 0000 0000 0000 0400 0000 0000 0000
00000270: 0400 0000 0000 0000 0400 0000 0400 0000
00000280: 0400 0000 0400 0000 0400 0000 0400 0000
00000290: 0400 0000 0400 0000 0400 0000 0400 0000
000002a0: 0400 0000 0400 0000 0400 0080 0400 0080
000002b0: 0400 0000 0400 0080 0000 0000 0000 0000
000002c0: 0000 0000 0000 0000 0400 0080 0400 0000
000002d0: 0400 0080 0000 0000 0400 0080 0400 0000
000002e0: 0400 0000 0400 0000 0400 0080 0400 0080
000002f0: 0400 0000 0400 0000 0000 0000 0400 0000
00000300: 0400 0000 6fe0 2243 d30d c243 fb3f 2043
00000310: 2035 ab42 745c 12c3 662d d835 0000 0000
00000320: 0000 0000 0000 0000 a262 b4c1 0000 0000
00000330: 823b d01c 0000 0000 a495 ed42 e297 5343
00000340: 5a18 90aa 94c0 201d 55f8 87c3 9afe b043
00000350: ba84 5543 8199 d71a 0400 0000 0be6 a341
00000360: 0400 0000 0400 0000 0400 0000 0400 0000
00000370: 0400 0000 0400 0000 0400 0000 0000 0000
00000380: 0000 0000 0000 0000 0400 0000 0000 0000
00000390: 0400 0000 0000 0000 0400 0000 0400 0000
000003a0: 0400 0000 0400 0000 0400 0000 0400 0000
000003b0: 0400 0000 0400 0000 0400 0000 0400 0000
000003c0: 0400 0000 05ff 1242 5326 c042 c4b2 d141
000003d0: 518b 4a42 9198 11c2 0091 2841 0000 0000
000003e0: 0000 0000 0000 0000 9632 a3c1 0400 0080
000003f0: 0901 0080 0000 0000 8cc1 0d41 21ca 12c1
6e-45 6e-45 6e-45 6e-45 6e-45 6e-45 6e-45 0.0
0.0 0.0 6e-45 0.0 6e-45 0.0 6e-45 6e-45
6e-45 6e-45 6e-45 6e-45 6e-45 6e-45 6e-45 6e-45
0.0 0.0 0.0 0.0 0.0 0.0 0.0 0.0
0.0 0.0 0.0 0.0 0.0 0.0 0.0 0.0
0.0 0.0 0.0 0.0 0.0 0.0 0.0 0.0
0.0 0.0 0.0 0.0 0.0 0.0 0.0 0.0
0.0 0.0 0.0 0.0 0.0 0.0 0.0 0.0
0.0 0.0 0.0 0.0 0.0 0.0 0.0 0.0
6e-45 6e-45 6e-45 6e-45 6e-45 6e-45 6e-45 0.0
0.0 0.0 6e-45 0.0 6e-45 0.0 6e-45 6e-45
6e-45 6e-45 6e-45 6e-45 6e-45 -6e-45 6e-45 6e-45
6e-45 1.431317e-30 6.7235517e-17 3.5381522e-17 2.1e-44 5.3394016e-17 1.3641072e-18 0.0
0.0 0.0 2.9389264e-17 0.0 6e-45 0.0 1.0705549e-16 1.1527053e-31
-9.75019e-21 -6e-45 1.1737054e-17 1.04010994e-16 2.83994e-17 6e-45 6e-45 -6e-45
6e-45 0.00013471123 160.30878 120.10887 56.340797 43.301056 -30.228926 0.0
0.0 0.0 -27.444061 6e-45 6e-45 0.0 174.28564 -4.8040166e-10
-47.173836 6e-45 -15.235428 56.69362 35.827366 -6e-45 6e-45 -28.007074
6e-45 6e-45 6e-45 6e-45 6e-45 6e-45 6e-45 0.0
0.0 0.0 6e-45 0.0 6e-45 0.0 6e-45 6e-45
6e-45 6e-45 6e-45 6e-45 6e-45 6e-45 6e-45 6e-45
6e-45 6e-45 -6e-45 -6e-45 6e-45 -6e-45 0.0 0.0
0.0 0.0 -6e-45 6e-45 -6e-45 0.0 -6e-45 6e-45
6e-45 6e-45 -6e-45 -6e-45 6e-45 6e-45 0.0 6e-45
6e-45 162.8767 388.108 160.24992 85.60376 -146.36115 1.6106467e-06 0.0
0.0 0.0 -22.54816 0.0 1.3779668e-21 0.0 118.79227 211.59329
-2.5596436e-13 2.1275384e-21 -271.9401 353.98907 213.51846 8.9169915e-23 6e-45 20.487326
6e-45 6e-45 6e-45 6e-45 6e-45 6e-45 6e-45 0.0
0.0 0.0 6e-45 0.0 6e-45 0.0 6e-45 6e-45
6e-45 6e-45 6e-45 6e-45 6e-45 6e-45 6e-45 6e-45
6e-45 36.749043 96.07485 26.212288 50.63605 -36.39899 10.5354 0.0
0.0 0.0 -20.3997 -6e-45 -3.71e-43 0.0 8.859753 -9.174348

exp_avg_sq f4 [24, 24]
00000000: 83a3 b746 6762 044a 6abc dc4b b1ef 2a4b
00000010: ff26 944a a2fd 8d4a e9c1 8a48 0000 0000
00000020: 0000 0000 0000 0000 613b 8e49 0000 0000
00000030: 2b09 564b 0000 0000 cba3 404b 7b66 4a47
00000040: da97 8048 ec61 194a 965d 794a 27a3 014b
00000050: 328b 8e49 5363 7648 86f6 1049 d9ab 294b
00000060: 0000 0000 0000 0000 0000 0000 0000 0000
00000070: 0000 0000 0000 0000 0000 0000 0000 0000
00000080: 0000 0000 0000 0000 0000 0000 0000 0000
00000090: 0000 0000 0000 0000 0000 0000 0000 0000
000000a0: 0000 0000 0000 0000 0000 0000 0000 0000
000000b0: 0000 0000 0000 0000 0000 0000 0000 0000
000000c0: 0000 0000 0000 0000 0000 0000 0000 0000
000000d0: 0000 0000 0000 0000 0000 0000 0000 0000
000000e0: 0000 0000 0000 0000 0000 0000 0000 0000
000000f0: 0000 0000 0000 0000 0000 0000 0000 0000
00000100: 0000 0000 0000 0000 0000 0000 0000 0000
00000110: 0000 0000 0000 0000 0000 0000 0000 0000
00000120: 1bc5 e146 9546 934b bee2 ab4c 62ac ae4b
00000130: a5a5 8a4a 54b7 144c e1cf 7748 0000 0000
00000140: 0000 0000 0000 0000 d236 b64b 0000 0000
00000150: c8e9 5c4b 0000 0000 bfaa 044d f55c 9e4b
00000160: 8d3f 8548 eb18 2e4a 108a 334c 1751 ee4c
00000170: 1064 274c 3777 8448 3bca 0e49 9f39 284b
00000180: 81aa 6347 187d 494f 75e1 4650 9f14 984e
00000190: 504d 924b 5df4 9c4f 2dbf ee48 0000 0000
000001a0: 0000 0000 0000 0000 0ec9 6b4f 0000 0000
000001b0: 9922 f74b 0000 0000 6ed5 a650 09eb 574f
000001c0: 60d3 c248 b8af df4a fcfc 914f 4178 b750
000001d0: fadb 0850 68d9 c548 f036 8b49 6a37 e74b
000001e0: ff69 ac47 6781 8f4f 1aa9 9450 12b6 044f
000001f0: 2a57 234b eee8 d74f 15f3 b047 0000 0000
00000200: 0000 0000 0000 0000 44b4 a04f 6fcc e93f
00000210: be59 c84a 0000 0000 674f e750 218b 8f4f
00000220: e584 b846 2fe7 314a 4ee4 cf4f 1ee2 f550
00000230: 6666 3350 0760 1c47 1992 ba47 e002 1e4b
00000240: 55f2 ee43 570b 304d 4a67 4b4e 6e72 774d
00000250: 01ea d44b 47a1 084d 4e4f b449 0000 0000
00000260: 0000 0000 0000 0000 cd01 9a4c 0000 0000
00000270: 72f4 bb4c 0000 0000 d310 c94d be94 914c
00000280: 160e 4e4a 50c1 844b 3487 014d 839e 174e
00000290: ffc1 104d 03f8 344a d784 344a 8d3c 7f4c
000002a0: 9924 a547 1b2b 884f 29f2 7d50 fa6e 884e
000002b0: 0578 994b adca b64f 0000 0000 0000 0000
000002c0: 0000 0000 0000 0000 2942 934f 2059 1841
000002d0: 284b c848 0000 0000 c41d bb50 d0eb 744f
000002e0: b078 3347 acc7 5548 fa39 864f 0938 0551
000002f0: 739e 1f50 af61 4b3b 0000 0000 0d9d 254a
00000300: a002 c547 2eef 824f bd75 9950 6e2f 204f
00000310: 72f2 924d da22 ba4f 1aae 1b4b 0000 0000
00000320: 0000 0000 0000 0000 436e 8d4f 0000 0000
00000330: e498 104e 0000 0000 e4e4 c950 36e0 824f
00000340: fbef d249 1735 844d d402 af4f df9e e050
00000350: 01a9 2350 4df2 d84a f01d da4a 3e43 6a4e
00000360: 72dd bd46 8977 554f 5e83 5750 cd44 004f
00000370: 6ba1 e84c f6d8 844f 5bf2 fb4a 0000 0000
00000380: 0000 0000 0000 0000 3426 4c4f 0000 0000
00000390: 351d b14d 0000 0000 12ba 8e50 8714 474f
000003a0: 4b0a c14a 7a06 884c 0096 844f 9cb9 9b50
000003b0: 3fe2 e64f 211c dd4a 4a8d 904b a144 864d
000003c0: 74ed 1848 98bc 1850 afb8 4651 2c3e 824f
000003d0: 439c 264e eed2 5450 52cb aa4b 0000 0000
000003e0: 0000 0000 0000 0000 b172 2350 ef43 3141
000003f0: d4b2 834e 0000 0000 20e5 6751 2618 1050
23505.756 2.1689858e+06 2.8932308e+07 1.1202481e+07 4.8546555e+06 4.652753e+06 284175.28 0.0
0.0 0.0 1.1651641e+06 0.0 1.4027051e+07 0.0 1.2624843e+07 51814.48
263358.8 2.513019e+06 4.0856055e+06 8.495911e+06 1.1677182e+06 252301.3 593768.4 1.1119577e+07
0.0 0.0 0.0 0.0 0.0 0.0 0.0 0.0
0.0 0.0 0.0 0.0 0.0 0.0 0.0 0.0
0.0 0.0 0.0 0.0 0.0 0.0 0.0 0.0
0.0 0.0 0.0 0.0 0.0 0.0 0.0 0.0
0.0 0.0 0.0 0.0 0.0 0.0 0.0 0.0
0.0 0.0 0.0 0.0 0.0 0.0 0.0 0.0
28898.553 1.9303722e+07 9.011762e+07 2.2894788e+07 4.5431865e+06 3.898504e+07 253759.52 0.0
0.0 0.0 2.3883172e+07 0.0 1.4477768e+07 0.0 1.3911141e+08 2.075697e+07
272892.4 2.8524108e+06 4.706515e+07 1.24946616e+08 4.388051e+07 271289.72 584867.7 1.1024799e+07
58282.504 3.3804186e+09 1.3346657e+10 1.2757441e+09 1.9176096e+07 5.2665206e+09 488953.4 0.0
0.0 0.0 3.955822e+09 0.0 3.2392498e+07 0.0 2.2392041e+10 3.6225047e+09
399003.0 7.329756e+06 4.898552e+09 2.4624892e+10 9.184471e+09 405195.25 1.140446e+06 3.0306004e+07
88275.99 4.815245e+09 1.9952882e+10 2.2265247e+09 1.0704682e+07 7.2447334e+09 90598.164 0.0
0.0 0.0 5.392337e+09 1.8265513 6.565087e+06 0.0 3.1045925e+10 4.8165197e+09
23618.447 2.9147638e+06 6.975692e+09 3.3001894e+10 1.203933e+10 40032.027 95524.195 1.0355424e+07
477.89322 1.8459582e+08 8.53136e+08 2.5946698e+08 2.7907074e+07 1.4326693e+08 1.4770978e+06 0.0
0.0 0.0 8.074404e+07 0.0 9.854248e+07 0.0 4.2166538e+08 7.632638e+07
3.3760055e+06 1.740048e+07 1.358201e+08 6.3593696e+08 1.5178955e+08 2.9649928e+06 2.9576218e+06 6.6908724e+07
84553.195 4.5690527e+09 1.7042023e+10 1.1444872e+09 2.0115466e+07 6.1334717e+09 0.0 0.0
0.0 0.0 4.941173e+09 9.521759 410201.25 0.0 2.511432e+10 4.109095e+09
45944.688 218910.69 4.503893e+09 3.5760673e+10 1.0711846e+10 0.0031033566 0.0 2.7134112e+06
100869.25 4.393426e+09 2.0597041e+10 2.687463e+09 3.081703e+08 6.2456924e+09 1.020265e+07 0.0
0.0 0.0 4.745627e+09 0.0 6.0648474e+08 0.0 2.7097768e+10 4.391464e+09
1.7279994e+06 2.7725898e+08 5.8723963e+09 3.0148065e+10 1.0983048e+10 7.1089025e+06 7.147256e+06 9.825688e+08
24302.723 3.5813809e+09 1.4462843e+10 2.1519926e+09 1.219654e+08 4.4576225e+09 8.2557895e+06 0.0
0.0 0.0 3.4250557e+09 0.0 3.7143517e+08 0.0 1.9156472e+10 3.3400113e+09
6.3255415e+06 7.131643e+07 4.448846e+09 2.090106e+10 7.747174e+09 7.2453285e+06 1.8946708e+07 2.8158058e+08
156597.81 1.0249986e+10 5.3343875e+10 4.370225e+09 6.9881466e+08 1.4282373e+10 2.238634e+07 0.0
0.0 0.0 1.096881e+10 11.079085 1.1047675e+09 0.0 6.2248845e+10 9.670007e+09

exp_avg f4 [24]
00000000: 0400 0000 0000 0000 0000 0000 0400 0000
00000010: 5764 db18 8c31 5a37 0400 0000 0400 0080
00000020: 2e23 6037 0400 0000 b257 5a36 ca56 2928
00000030: 0000 0000 f259 8e2e 0400 0000 0400 0000
00000040: 0400 0000 168a 8c37 0400 0000 0400 0000
00000050: 122c cf38 3ac1 b638 0400 0000 500a 5c36
6e-45 0.0 0.0 6e-45 5.671149e-24 1.3005349e-05 6e-45 -6e-45
1.3359631e-05 6e-45 3.2535577e-06 9.400204e-15 0.0 6.47339e-11 6e-45 6e-45
6e-45 1.6753602e-05 6e-45 6e-45 9.878738e-05 8.7144275e-05 6e-45 3.2788557e-06

exp_avg_sq f4 [24]
00000000: 2bee ae32 0000 0000 0000 0000 eaa6 9433
00000010: 8be3 8537 fec2 b137 1544 1235 aed0 0338
00000020: 8dd1 ad37 f8c0 5637 2c12 a638 cfce 0638
00000030: 0000 0000 6550 412e 1fbf 8434 7d10 dc34
00000040: 1968 8130 8882 ce36 951a 7831 a9d8 bd33
00000050: 6c11 3d35 f477 1c39 7023 062f eef8 5039
2.0364572e-08 0.0 0.0 6.9221485e-08 1.5960793e-05 2.1190845e-05 5.448831e-07 3.1427182e-05
2.0720787e-05 1.2800323e-05 7.9188816e-05 3.2140695e-05 0.0 4.3954524e-11 2.4725975e-07 4.099019e-07
9.415572e-10 6.1544742e-06 3.610386e-09 8.8404086e-08 7.043334e-07 0.00014922005 1.2199819e-10 0.0001992916

exp_avg f4 [4, 24]
00000000: 0400 0080 0000 0000 0000 0000 0400 0000
00000010: bc40 48a3 c4b9 87c4 0400 0080 0400 0080
00000020: 6061 4642 0400 0000 79c6 ec42 23e4 75b1
00000030: 0000 0000 b787 3eb5 0000 0000 0400 0080
00000040: 0400 0000 d886 06c3 0000 0000 0400 0080
00000050: d7b1 dcc3 9840 da43 0400 0000 bb74 2544
00000060: 0400 0080 0000 0000 0000 0000 0400 0080
00000070: 0400 0000 0b01 2bbf 0400 0080 0400 0080
00000080: 4677 57c3 0400 0000 e69b ee42 3cf0 7384
00000090: 0000 0000 0000 0000 0400 0080 0400 0080
000000a0: 0400 0080 d4ea 4c35 0400 0080 0400 0080
000000b0: 8ff5 80be fae7 b4c4 0000 0000 d27f 5cc4
000000c0: 0400 0080 0000 0000 0000 0000 0400 0080
000000d0: 6944 8004 0041 b4c0 0400 0000 0400 0080
000000e0: c453 0544 0400 0000 12d5 d943 b8f4 05a6
000000f0: 0000 0000 0000 0000 0400 0000 0400 0000
00000100: 0400 0000 5897 2044 0400 0080 0400 0080
00000110: 0628 5744 684f 1543 0400 0080 8840 8244
00000120: 0400 0080 0000 0000 0000 0000 0400 0080
00000130: 0400 0080 44be 93c2 0400 0080 0400 0000
00000140: 60c0 8a42 0400 0000 1b27 0b44 0cd1 9da2
00000150: 0000 0000 0000 0000 0000 0000 0400 0080
00000160: 0400 0080 4044 e3bf 0000 0000 0400 0080
00000170: fb31 313c a515 1ac4 0400 0080 808b 2f42
-6e-45 0.0 0.0 6e-45 -1.085573e-17 -1085.8052 -6e-45 -6e-45
49.595093 6e-45 118.38764 -3.5781873e-09 0.0 -7.0978007e-07 0.0 -6e-45
6e-45 -134.52673 0.0 -6e-45 -441.38937 436.50464 6e-45 661.8239
-6e-45 0.0 0.0 -6e-45 6e-45 -0.66798466 -6e-45 -6e-45
-215.46591 6e-45 119.30449 -2.8674823e-36 0.0 0.0 -6e-45 -6e-45
-6e-45 7.633764e-07 -6e-45 -6e-45 -0.25187346 -1447.2493 0.0 -881.9972
-6e-45 0.0 0.0 -6e-45 3.015548e-36 -5.6329346 6e-45 -6e-45
533.30884 6e-45 435.6646 -4.64753e-16 0.0 0.0 6e-45 6e-45
6e-45 642.36475 -6e-45 -6e-45 860.62537 149.31018 -6e-45 1042.0166
-6e-45 0.0 0.0 -6e-45 -6e-45 -73.87161 -6e-45 6e-45
69.37573 6e-45 556.611 -4.2776272e-18 0.0 0.0 0.0 -6e-45
-6e-45 -1.7755203 0.0 -6e-45 0.010815139 -616.3382 -6e-45 43.88623

exp_avg_sq f4 [4, 24]
00000000: 31c9 af49 0000 0000 0000 0000 154f 6549
00000010: de1e 0251 538b 4850 1f9f 8d4b b4d5 c552
00000020: b920 6e50 5165 5b4f c41e 3b52 4ad6 e452
00000030: 0000 0000 e927 ad3b 0000 0000 2904 a34c
00000040: 4b19 5f46 8fdd bd50 0000 0000 1eb5 cb4a
00000050: b263 2f4f fcce f552 63a7 ab44 72a7 3c52
00000060: bca9 d448 0000 0000 0000 0000 9da2 f448
00000070: bb14 884c 1101 144e 919f 3a47 22b8 9f4f
00000080: 935b c64c 9569 274a 314d d94f 70e2 9a4f
00000090: 0000 0000 0000 0000 510f 5946 5091 c048
000000a0: c686 0743 5bb0 384c 8fec 3740 225b 3d46
000000b0: 2a45 484a 2a98 ca4f 0000 0000 7f60 1850
000000c0: ae04 964d 0000 0000 0000 0000 c1c1 8b4c
000000d0: a515 844e 460b c34f 61a7 6c4b 343f 0850
000000e0: 8b4a 654f d372 b14c b1c6 e350 ebd6 b550
000000f0: 0000 0000 0000 0000 f343 3d4c c242 9a4c
00000100: 7378 8b48 30fc 664d 66ca 2346 b0a1 ce48
00000110: 9650 f64c 82ce 3350 21c1 e247 f42c 4850
00000120: 5c7c 9248 0000 0000 0000 0000 48f0 d348
00000130: a245 b84c 0cae 914e 60af e246 f291 da4f
00000140: 66eb 194c 76f1 ba49 661c 0950 7cca c64f
00000150: 0000 0000 0000 0000 0000 0000 21ec 7f48
00000160: 2da0 5745 3de8 a54c 0000 0000 bd96 3346
00000170: a94f d04a 793d 0950 3490 1e44 dfc0 0e50
1.4400381e+06 0.0 0.0 939249.3 3.4928976e+10 1.3458296e+10 1.8562622e+07 4.2484695e+11
1.5980488e+10 3.6808502e+09 2.0091876e+11 4.9142386e+11 0.0 0.0052842987 0.0 8.5467464e+07
14278.323 2.5483311e+10 0.0 6.675087e+06 2.9425464e+09 5.278698e+11 1373.2308 2.0256578e+11
435533.88 0.0 0.0 501012.9 7.1345624e+07 6.2077446e+08 47775.566 5.3592893e+09
1.0399657e+08 2.7428852e+06 7.2914294e+09 5.197062e+09 0.0 0.0 13891.829 394378.5
135.52646 4.8415084e+07 2.8738134 12118.783 3.2812265e+06 6.7979397e+09 0.0 1.0225843e+10
3.1461114e+08 0.0 0.0 7.327284e+07 1.1080055e+09 6.544592e+09 1.5509345e+07 9.143374e+09
3.8468677e+09 9.3034136e+07 3.0571596e+10 2.4406088e+10 0.0 0.0 4.9614796e+07 8.087707e+07
285635.6 2.4220544e+08 10482.6 423181.5 1.2913989e+08 1.2066621e+10 116098.26 1.3433557e+10
300002.88 0.0 0.0 434050.25 9.66116e+07 1.2220513e+09 29015.688 7.3339955e+09
4.034908e+07 1.5314388e+06 9.201359e+09 6.6703176e+09 0.0 0.0 0.0 262064.52
3450.011 8.6983144e+07 0.0 11493.685 6.8259405e+06 9.210029e+09 634.2532 9.580019e+09

exp_avg f4 [4]
00000000: 4421 f23b 749c 3a3c 391c c43c 29f0 9d3b
0.0073892195 0.01138984 0.023939239 0.004819889

exp_avg_sq f4 [4]
00000000: a224 883c dd1a d53c 1cc8 a73c 9c03 a73c
0.01661903 0.026013786 0.020481162 0.020387463
