test_model/covid0.pth (torch, 6807 bytes, 6 tensors)

weight f4 [24, 4]
000000 70 b3 9a 3d 60 4b 8c bd 00 30 57 3b a4 26 c9 be
       0.07553756 -0.06850314 0.0032835007 -0.39287293
000010 80 5b d6 3b 90 cf af 3e f8 69 b2 be 40 bb f1 3d
       0.0065416694 0.34338045 -0.34846473 0.11803293
000020 e4 2c e0 3e 48 06 9f bd 98 55 a8 3e 02 f8 91 3e
       0.4378425 -0.0776487 0.32877803 0.28509527
000030 a0 c8 fb bc e0 0c 8e 3c 2a 2d f7 be 70 9f 53 be
       -0.030735314 0.017340124 -0.48276645 -0.2066629
000040 8e 13 e7 3e d0 b1 a2 3d 58 dd 13 3e 58 8a 23 be
       0.45132107 0.07944071 0.14439905 -0.15970743
000050 40 a5 d2 bc d6 c7 88 be ac d2 61 3e be 35 d2 be
       -0.025713563 -0.26714963 0.22053021 -0.41056627
000060 56 ca fb be 10 02 9c bd 8c 5d 3f be a8 fe 9d bd
       -0.49177808 -0.07617581 -0.18688029 -0.077145875
000070 10 99 e9 be 80 14 ef 3d 82 6a b0 3e 00 da 75 3e
       -0.4562459 0.11673832 0.3445626 0.24008942
000080 98 5c 29 be d0 88 80 bd bc f7 eb be 80 78 5b 3e
       -0.16539228 -0.06276095 -0.46087444 0.21432686
000090 70 22 0e 3e 68 0c b7 3d d8 59 a4 bd d8 a1 a1 be
       0.13880324 0.08937913 -0.08024949 -0.3156879
0000a0 38 ce d5 bd d0 c1 ef 3e 88 8d 7f 3e 66 64 99 3e
       -0.10439724 0.46827555 0.24956334 0.2995941
0000b0 ee 08 bf be 24 d7 62 3e b6 51 dd 3e 94 3d 82 be
       -0.373115 0.22152382 0.43226403 -0.25437605
0000c0 9a b8 b5 be 9c 63 ef be c0 6a 0c be 50 8f 2b bd
       -0.35492402 -0.46755683 -0.13712597 -0.04188472
0000d0 c0 69 19 bd 70 6c 4f be 28 13 6e be 7c 5d 8a be
       -0.037454367 -0.2025621 -0.23249495 -0.27024448
0000e0 04 a6 2a 3e 40 17 5f 3d c0 2c 08 be 20 d9 af bd
       0.16664892 0.054465532 -0.13298321 -0.08586335
0000f0 4a c4 a8 be aa da ea be a0 86 de 3e c8 ce 63 3e
       -0.32962257 -0.45869952 0.43462086 0.2224685
000100 14 6f f0 be 58 8d e5 3e ae 33 a0 3e 7c 2d f4 be
       -0.46959746 0.448344 0.31289428 -0.47690952
000110 2a fb b7 3e fc c5 83 3e 82 3d 9d be b4 bb 2f 3e
       0.3593381 0.25736988 -0.3071099 0.17161447
000120 48 d0 44 3e a2 2b f9 3e 80 92 85 3b 38 b0 af 3e
       0.19220078 0.48666102 0.004076302 0.34314132
000130 20 04 3b be 10 f7 d1 be 58 44 cd bd a4 d1 52 be
       -0.18263292 -0.41008806 -0.10022801 -0.20587784
000140 0c 1d 60 3e f0 27 f1 bd 98 40 fd be 9a 7b 80 be
       0.2188608 -0.117751956 -0.49463344 -0.250943
000150 aa a9 fe 3e 20 04 ca 3e 34 dc 19 be 18 03 7c be
       0.49738818 0.39456272 -0.15025407 -0.24610555
000160 2c 06 c4 be e4 6e f8 be 28 d4 8b 3d 8c 8a 46 be
       -0.3828596 -0.48522103 0.06827575 -0.19388789
000170 00 db e2 3e 14 a2 0d be b0 02 d8 3e 00 9d 6e bc
       0.4430771 -0.13831359 0.4218955 -0.014563799

bias f4 [24]
000000 a8 52 2c be 64 63 4f 3e e0 09 b9 bd ec 2e 74 be
       -0.16828406 0.20252758 -0.09035087 -0.23846024
000010 0c 45 db be d8 76 fa be e0 f4 51 3e 60 75 fc 3d
       -0.42826116 -0.48918796 0.20503569 0.12327075
000020 c0 77 5f be ac 34 1d be 18 25 2a be ee db da be
       -0.21823025 -0.15352124 -0.16615713 -0.42745918
000030 48 9c a4 3e 08 f5 54 be c6 5d b2 be 5c 13 10 3e
       0.32150483 -0.20796597 -0.34837168 0.14069885
000040 2c b3 c8 3e cc 7f 0b 3e 10 f1 8c 3d 20 62 a6 3c
       0.39199197 0.1362297 0.068819165 0.020310462
000050 a4 90 d8 be 32 6f a6 be 88 a1 49 be 00 56 6d bc
       -0.42297852 -0.3250671 -0.19690526 -0.014485836

weight f4 [24, 24]
000000 72 c4 2a be 44 81 65 bd 00 ae a3 39 04 a7 01 3d
       -0.166765 -0.05603148 0.00031219423 0.03165342
000010 87 ae ba bd ec 0e 2c 3e b4 85 8f 3d e0 b7 d2 3b
       -0.0911532 0.16802567 0.07007924 0.006430611
000020 e0 d7 f1 bd bc 69 00 3d ce 82 f2 bd a8 c6 96 bc
       -0.11808753 0.031350836 -0.11841355 -0.018405274
000030 b8 f5 22 3e b8 a1 87 3d bb 60 44 be ba 5b 40 3e
       0.15914047 0.06622642 -0.19177525 0.18784991
000040 d0 40 26 3c 99 a0 e7 bd f8 e6 35 3e 60 8b 33 3d
       0.010147288 -0.113099284 0.17763889 0.04383409
000050 48 10 a2 3d b2 90 af bd 10 81 a7 bc 8c c7 3e 3e
       0.07913262 -0.0857252 -0.020447284 0.18630809
000060 08 e2 0c 3d 19 a3 2a be d8 70 72 3d d8 8c ee 3c
       0.034395248 -0.1666378 0.059189647 0.029119894
000070 f8 c0 9c bc a0 2d b0 bc d8 e8 b8 bc 9a c3 db bd
       -0.019134983 -0.02150613 -0.022571966 -0.107306674
000080 e8 f4 5c 3d f4 30 fd 3d 18 5c a8 3c c0 c9 39 3b
       0.0539445 0.12362853 0.020551726 0.0028349012
000090 2e 47 00 3e cf cc 1d be 60 41 4b 3d 08 83 c9 3c
       0.12527153 -0.1541016 0.049622893 0.024598613
0000a0 9c 84 17 3e d8 89 d5 3d f4 bc 6a bd be ad 33 3e
       0.1479668 0.10426682 -0.057309106 0.17546746
0000b0 0a 70 14 3e b8 3d ff bc a0 85 cf 3d f8 61 d9 bc
       0.14495865 -0.03115736 0.10132909 -0.026535973
0000c0 b0 ef 9e bd 57 b9 a6 bd 4e 08 46 3e 90 8b 1c 3d
       -0.077605605 -0.081408195 0.19339105 0.038219035
0000d0 90 74 61 bd 28 fc 37 be 77 77 0d be 6c 51 bc 3d
       -0.055042803 -0.17967284 -0.13815103 0.091952175
0000e0 98 07 e5 3d ab 0d 32 be 7c 75 09 3e 84 d3 99 bd
       0.11183089 -0.17388026 0.13423723 -0.075110465
0000f0 08 10 48 3d 68 9e 36 bd 8a 43 30 be 66 a3 34 3e
       0.048843414 -0.04458466 -0.17213264 0.17640457
000100 f6 cf 03 3e 70 43 0e 3e 18 41 55 3d f8 83 e6 3d
       0.128723 0.13892913 0.05206403 0.1125564
000110 f2 12 32 be 5b 5e 42 be 3c c0 36 be fe eb 12 3e
       -0.1739004 -0.18981306 -0.17846769 0.14347836
000120 5c cb c7 3d 18 c8 6a 3d cf a7 4e be 3c 34 19 3d
       0.097555846 0.05731973 -0.20181201 0.03740333
000130 60 34 59 3d 48 12 8b 3d 40 52 fd bc f0 87 4e be
       0.053028464 0.06790596 -0.030923009 -0.20169044
000140 e0 28 5b 3d 4c 67 2e be 54 4d bf bd f8 10 8e 3c
       0.05350578 -0.17031592 -0.09340921 0.017342076
000150 06 d6 20 3e 74 28 94 3d ea 88 0d 3e 70 ed 9b 3d
       0.15706643 0.07234278 0.1382176 0.07613647
000160 e7 2e ac bd 0c 7d 3d be ab 25 cf bd b8 97 ee 3d
       -0.084073834 -0.18504733 -0.101146065 0.11650032
000170 48 fd a3 3d be e6 1e 3e dc 43 31 be 44 64 e8 3d
       0.08007294 0.15517709 -0.17311043 0.11347249
000180 ee d1 30 be 8b 69 03 be a4 7e 56 bd e8 aa 36 be
       -0.17267582 -0.1283323 -0.052366868 -0.17838633
000190 20 a2 72 3d 40 7d af bd 42 84 47 be e8 d4 d4 bc
       0.059236646 -0.085688114 -0.19484046 -0.025980428
0001a0 64 ad 93 3d 04 c7 db 3d 97 04 15 be f0 72 7c 3d
       0.07210806 0.107313186 -0.14552532 0.06163305
0001b0 a6 b5 a8 bd 29 f6 39 be 28 51 86 3d d2 d3 10 3e
       -0.08237772 -0.18160309 0.06558448 0.14143303
0001c0 00 5f 4b 3e 88 3a 73 3d 6e e5 4e 3e 68 71 70 bd
       0.19860458 0.05938199 0.20204708 -0.058701903
0001d0 82 ac 84 bd 20 cf d5 3d 30 23 bb 3c 40 6a a9 bb
       -0.06478216 0.104398966 0.022843927 -0.0051701367
0001e0 b7 d2 34 be 9c 4d d6 3d 60 e7 9c 3b 0c 36 87 bd
       -0.17658506 0.104640216 0.0047883242 -0.066021055
0001f0 1c d4 63 bd 60 10 f9 3b 04 b5 05 be d8 8f 02 3e
       -0.055622205 0.007600829 -0.13057333 0.12750185
000200 00 42 28 be 40 f0 5f 3b 50 dc 18 3e 1a 2e 30 3e
       -0.16431427 0.00341703 0.14927793 0.17205086
000210 d6 50 40 3e 92 30 36 3e c0 66 37 3e 5a 50 01 3e
       0.18780836 0.17791966 0.1791029 0.12628308
000220 30 71 c2 3d 1f ca 17 be d0 0c 2a 3c d3 3a b3 bd
       0.09494245 -0.14823197 0.010379031 -0.08751454
000230 3e 7a 26 be 30 21 13 3d c0 3f 87 3d a8 ac ff 3d
       -0.16257569 0.035920322 0.06603956 0.124841034
000240 18 58 38 3d 02 a2 34 3e 28 00 18 3e 18 ad 1c 3e
       0.045005888 0.17639926 0.1484381 0.15300405
000250 00 74 40 3d d4 04 d4 3d 40 f0 ba 3d 62 ee 24 3e
       0.046985626 0.103524834 0.09127855 0.16106561
000260 c0 1b 9b bc e1 8c 3b be 3d b1 22 be fc dd 7e bd
       -0.01893413 -0.1831546 -0.15887924 -0.06222342
000270 be f6 16 be 80 af 40 bb 68 bc 17 3e 60 8b 2f 3c
       -0.14742562 -0.002940148 0.14817965 0.010714382
000280 08 ad 37 3e 66 1e 99 bd b4 60 8c 3d e0 09 96 3d
       0.179371 -0.07476501 0.06854382 0.07326102
000290 1a a3 a7 bd a8 6c 45 bd 88 f2 9d 3c bd 3c 17 be
       -0.08185406 -0.048199326 0.019280687 -0.14769264
0002a0 e2 fa 4c 3e c0 7e 6e 3d 28 be a5 3c dc 0b a4 3d
       0.20017579 0.058226347 0.020232275 0.080100745
0002b0 fc 2b b8 3d a4 4f bc 3d 5e 18 3e be 34 e5 29 be
       0.08992764 0.09194878 -0.18563983 -0.1659134
0002c0 70 b4 14 3c 4f 25 22 be 0c b0 b1 3d 66 c2 0e 3e
       0.009076223 -0.15834545 0.086761564 0.13941345
0002d0 f7 e0 bd bd e8 b7 ce bc 60 ec 2e bd 88 8c 2c 3e
       -0.09271424 -0.025234178 -0.042705894 0.16850483
0002e0 e4 66 4e bd 1c f3 78 bd 8c e7 46 3e ba 61 e8 bd
       -0.050391093 -0.060778722 0.19424266 -0.11346765
0002f0 94 91 2b bd 76 19 c6 bd c0 15 46 bd 07 02 4e be
       -0.04188688 -0.09672825 -0.048360586 -0.20117961
000300 00 a8 76 bc e8 8a bd 3d a6 e4 32 3e 78 6d 12 3e
       -0.015054703 0.0925501 0.17470035 0.14299572
000310 95 cd 05 be 08 a6 d7 3c 88 8c fc 3d c0 ed e3 3c
       -0.13066705 0.026324287 0.12331492 0.027823329
000320 88 71 fd 3c 18 f2 2d be f8 dd 66 3d 70 40 1e be
       0.030937925 -0.16986883 0.05636403 -0.15454268
000330 da 31 44 3e ba e6 10 3e 08 c5 0b 3d 14 fe d1 3d
       0.19159642 0.14150515 0.03412345 0.1025354
000340 bc 8d b3 3d 2c d8 ba 3d 44 46 ee 3d e0 2a 49 bc
       0.08767268 0.09123263 0.11634496 -0.012278289
000350 00 e5 71 3d e8 d1 6d 3d aa 45 04 3e 04 9b 3a bd
       0.059056282 0.05806151 0.129172 -0.04555799
000360 f8 c5 c2 bc 8c b8 0a bd 40 c4 45 bd d8 8c 3f bd
       -0.02377604 -0.033867404 -0.04828286 -0.04676518
000370 30 6a 51 3d e8 85 13 3e a4 35 92 3d 98 7e 41 3d
       0.05112666 0.1440655 0.071391374 0.04723987
000380 74 bc 5d bd 7e 57 39 3e 50 9a 01 3c 3e e4 24 be
       -0.0541348 0.18099782 0.007910326 -0.16102692
000390 90 d4 0e bc 14 82 eb 3d b4 85 0b 3e 88 61 40 be
       -0.008717671 0.1149942 0.13625222 -0.18787205
0003a0 d6 d3 34 3e 98 d9 30 bd f0 a7 0d bd 7a ec 00 3e
       0.17658934 -0.043176264 -0.034583986 0.12590209
0003b0 be 7b 05 3e a0 70 d2 3d 20 22 cf bb 50 ed 93 3c
       0.13035485 0.10275388 -0.0063212067 0.018057495
0003c0 0c e3 ce 3d 26 a9 33 3e ae 13 05 3e 2a ac bc bd
       0.101018995 0.17544994 0.12995788 -0.09212525
0003d0 80 01 26 bd 78 24 d6 3d e9 c3 c3 bd d3 7d 1b be
       -0.040528774 0.104561746 -0.09558851 -0.15184717
0003e0 70 c1 9f 3c 6e de 06 3e 8c da 3a 3e 44 12 55 bd
       0.019501418 0.13170788 0.18247432 -0.052019373
0003f0 78 a8 bf bc 58 6a c5 3d 75 cc bf bd 1d 3e e5 bd
       -0.023395762 0.09639424 -0.09365169 -0.11193488

bias f4 [24]
000000 ec c7 08 be 50 3d 18 bc 18 fb 5b bd 26 69 1a be
       -0.13357514 -0.009291962 -0.05370626 -0.15079173
000010 f8 60 ca 3c 0f 11 ff bd 1c 86 d2 bd 34 fe 35 3e
       0.024704441 -0.124544255 -0.102794856 0.17772752
000020 4a 82 2b be 63 86 d3 bd f0 a5 25 be ac 3f 47 be
       -0.1674892 -0.103283666 -0.16176581 -0.19457883
000030 f8 25 97 bc 16 d2 d0 bd 6c c3 cc 3d 51 54 c8 bd
       -0.018450722 -0.10196321 0.09998211 -0.09781707
000040 f4 be 06 be 70 42 1d 3e 70 cf 4c 3d a8 53 6e 3d
       -0.1315878 0.15357375 0.050002515 0.05818525
000050 f8 8f 15 3d 0c 39 b0 bd 9a 2f 46 be b4 06 1d bd
       0.036514252 -0.08604631 -0.19354096 -0.03833647

weight f4 [4, 24]
000000 50 65 64 3c f8 99 b0 3d 40 2e b0 3d 3d 1a dc bd
       0.01394017 0.08623117 0.086025715 -0.10747192
000010 cc 80 20 3e d7 2f d3 bd b0 36 0f 3d d8 a4 4b be
       0.15674132 -0.10311859 0.034964263 -0.19887102
000020 ec 8f 4c 3e 50 2b 18 3d 2a 28 1e be 18 bd f2 bd
       0.19976777 0.03715068 -0.15445009 -0.11852473
000030 46 e8 9e bd 38 35 3c 3e 00 c1 a9 3d f6 20 2e 3e
       -0.077591464 0.18379676 0.08288765 0.17004761
000040 20 e7 7c 3d 96 52 2e be 3a 08 d3 bd 14 b2 88 bd
       0.061743855 -0.17023692 -0.103043035 -0.06674591
000050 dc af b3 3d 30 29 3c 3d 32 83 19 3e 80 6c 20 bd
       0.08773777 0.045937717 0.14991453 -0.039165974
000060 e3 1d 18 be d8 c9 b9 3c 2c 70 18 bd dc 62 94 3d
       -0.14855151 0.022679254 -0.03721635 0.072454184
000070 9a 7a 4e 3e 80 06 3c 3e 76 da 1e be e4 7a 34 be
       0.20163956 0.18361855 -0.15513024 -0.17625004
000080 20 53 15 3c b0 3a 37 3c f0 5e 1d bc 50 95 57 3d
       0.009114057 0.011183426 -0.009605154 0.05263263
000090 e8 db 84 3d 60 06 93 3d 00 fe 7d 3d 97 72 46 be
       0.06487256 0.0717895 0.06200981 -0.1937965
0000a0 2a 78 8d bd 00 35 dd ba 0e 27 00 3e a0 11 d7 bb
       -0.06907685 -0.0016876757 0.12514898 -0.0065633804
0000b0 a3 68 ae bd 1a c7 47 3e cd c7 a3 bd fe 4f 20 3e
       -0.085160516 0.19509545 -0.07997093 0.15655515
0000c0 86 57 13 3e 0c 8b 85 bd 00 68 c2 3d 0f ea 15 be
       0.14388856 -0.06520662 0.09492493 -0.14640068
0000d0 08 3f d9 3d 10 29 65 3d a6 24 c6 bd 62 b6 c0 bd
       0.106077254 0.055947363 -0.09674959 -0.09409787
0000e0 76 76 29 3e da e5 0a 3e a0 66 f9 3d f4 e7 dc 3d
       0.16549096 0.13564244 0.12177777 0.10786429
0000f0 25 0a 33 be f2 2c 2c be 4e de 21 be e8 cc ce 3d
       -0.17484339 -0.1681402 -0.15807459 0.100976765
000100 b0 14 6f bc 60 5f 5a bc 74 3d c2 3d e0 de 24 bc
       -0.014592335 -0.013328403 0.094843775 -0.010062903
000110 6e fe 10 be 48 fa 02 bd 62 6f 25 3e aa 19 13 3e
       -0.14159557 -0.031976968 0.1615577 0.14365259
000120 c7 a3 be bd 30 b1 8b bd f8 c1 2b 3d b2 ab e3 bd
       -0.09308582 -0.06820905 0.04193303 -0.11116733
000130 84 85 d0 bd c0 76 10 3d 69 f8 47 be c0 1b ee bc
       -0.10181716 0.0352695 -0.19528355 -0.029065967
000140 ac 24 89 3d 4c 51 1b be 38 b1 fb bd 90 01 e0 3c
       0.06696448 -0.15167731 -0.12289661 0.027344495
000150 37 6d 16 be 5a 39 01 3e d0 fe c8 bc 2c d5 1f bd
       -0.146901 0.12619534 -0.024535567 -0.039021656
000160 66 ee 39 be 18 98 4d be 88 dc 16 3e 78 a5 96 3c
       -0.18157348 -0.2007755 0.14732563 0.018389449
000170 c8 0d 44 3e 92 1b 3a be 67 e4 c0 bd 30 06 dd 3d
       0.19145882 -0.1817458 -0.09418564 0.10792196

bias f4 [4]
000000 4f 2b 2c be 04 06 c7 3d c4 0d 58 bd 50 ad 5c 3c
       -0.16813396 0.09717944 -0.052747503 0.013469055
