test_model/covid729.pth (torch, 16239 bytes, 18 tensors)

weight f4 [24, 4]
00000000: dab6 44bd b922 71bc 01e7 453e b4ab 333e
00000010: 89c7 13bd 8dda 2cbe de13 133e 9587 233e
00000020: e5d1 42be 64fc 683e d19b 233c 6eba c63d
00000030: 377b 3dbd f6b5 e33d 9fd9 a53d fcf1 843d
00000040: 0a50 103e 06d4 23be df5b 193e af18 cc3d
00000050: e872 853e 8fe5 7cbe f8be c7bd 1572 8dbd
00000060: b2cb 1b3e 35c5 6e3e 0641 91be 9677 ddbe
00000070: 3ae8 953e 30a7 6f3e 2854 e6be 6405 d7be
00000080: 9e5f ccbe a85d f3bd 7844 82be 1087 eebd
00000090: 1551 38bd a2ab 06be 690a b23d d83a a73d
000000a0: b88b 71bd bc7f a43d 2be4 a03d 0349 3b3e
000000b0: 049b afbe c81c 153e 6669 a7be 8888 99bd
000000c0: 2ce0 683e 84f5 2bbe 2297 a8bd 942c 71bd
000000d0: 5a21 adbe 6222 efbe 14c1 babe 0417 9cbe
000000e0: 85fc 10be 914d 993c e1a9 e83c 6db0 2d3c
000000f0: 4b49 793e cef0 26be fc79 1a3e d2ac 0fbe
00000100: 5e34 23bd 0d83 3d3c 3d85 693e 86fb 903e
00000110: bcc3 d13e 58bf f6bd 882b cfbd e310 23be
00000120: d0c8 f03e f711 c73d c193 17bf 4c3c aabe
00000130: 5130 993c 63df a13a 4bfc 963d f126 e33c
00000140: 4b2f 903d 9167 423e d096 2c37 7ba2 483b
00000150: e868 f4be c4f6 293e b091 1f3e c435 e0be
00000160: 147c d6be 2858 3f3e 1ca8 743e 0c95 e7be
00000170: 108e 7abd 80a5 053c 3458 d2be 4886 d5be
-0.048025943 -0.014717751 0.19326402 0.17545968 -0.036078963 -0.16880246 0.14363047 0.15969689
-0.19025381 0.2275253 0.00998588 0.097035274 -0.046260085 0.11118691 0.080981486 0.06491467
0.14093032 -0.1599885 0.14976452 0.099656455 0.2606423 -0.24696945 -0.09753221 -0.06906525
0.15214422 0.23317416 -0.2836992 -0.432553 0.29278737 0.2340362 -0.4498608 -0.419963
-0.399167 -0.11883098 -0.25442863 -0.11646855 -0.0449992 -0.1315141 0.08693392 0.081655204
-0.058971137 0.08032176 0.078560196 0.1828957 -0.34297955 0.1456176 -0.326976 -0.074967444
0.22741765 -0.16792876 -0.08231951 -0.058880404 -0.33814508 -0.4670592 -0.36475432 -0.3048631
-0.14158829 0.018713744 0.028401317 0.010601145 0.24344365 -0.16302797 0.15085596 -0.1403077
-0.039844863 0.0115668895 0.22804733 0.28316897 0.40969646 -0.12048215 -0.10115725 -0.1592441
0.47028208 0.097202234 -0.5920983 -0.33249128 0.018699797 0.00123499 0.0737234 0.02772853
0.070402704 0.1898482 1.0287113e-05 0.0030614424 -0.47736287 0.1659804 0.15582919 -0.4379102
-0.4189154 0.18685973 0.23892254 -0.452309 -0.061170638 0.008157134 -0.4108292 -0.4170401

bias f4 [24]
00000000: 1c5a bf3e 80b0 e5be ffee e33e a51e 003f
00000010: 2388 87bd f9f3 91be 0365 673d 3dc5 b83e
00000020: 7c30 713e f2ad b1be a24e 49bd 003d 8ebc
00000030: 8f89 45be 3467 6a3e ab48 ca3e 95d7 be3e
00000040: eafe b1be f2f1 bbbe fbe5 f13b a754 16bd
00000050: 8d2e 653e a019 363d 6cae a43e 6234 a63e
0.37373435 -0.4486122 0.44518277 0.5004676 -0.06617763 -0.2850645 0.056492817 0.3608798
0.23553652 -0.34703022 -0.049147256 -0.017363071 -0.19290756 0.22890931 0.39508566 0.3727385
-0.34764796 -0.36708027 0.007382152 -0.036701825 0.22381039 0.04445803 0.32164323 0.3246184

weight f4 [24, 24]
00000000: 3ed1 ab3d 7b3b 1ebe 69ad 01bb 3108 1abe
00000010: f7fe 7e3c 3c1d 06be fed1 7a3c 461d b6bd
00000020: 844b 72bd 7063 863a 2335 6b3d f022 cb3c
00000030: 51f1 9fbd dc06 c33d c8d2 0abe ec17 923d
00000040: f5a1 9d3c b0ea e2bd 032a f03d 8c9c 34bc
00000050: c64c 73bd 384c 4ebe 8685 adbd 189c 083e
00000060: c308 9e3d 690f 81be d24c 10be 6daa 0c3e
00000070: 683f ecbd f42f 463d 0efc 10bd 4826 193d
00000080: dac8 9dbd 10d1 a43c 042c f03d ee04 d5bd
00000090: 929c 54be 00a4 673b e579 e73e a7a5 e83d
000000a0: 2f9a 7fbe 268d b0bd e797 f5bd 94e3 373c
000000b0: 26e5 fe3b 0927 afbd d458 433e 6872 a2bc
000000c0: cbbe 543d d340 46be 60ac 203e 64b9 0abd
000000d0: ef2e d0bc ab7b fb3d 470e 86bd 44cc f03d
000000e0: 88ef 3b3e 943f 16be d550 ecbd 00d9 1a3e
000000f0: 3fa0 703d d08a d33d e8e3 a33d 5366 7cbe
00000100: 1f5e b43d a931 2a3c b215 16be 577f a2bd
00000110: e8ed 79be 127c 34be 2f10 34be fc19 f13d
00000120: ac91 f23d df02 2abd 1b53 9f3d fd48 973c
00000130: ebb5 02be 0a10 0ebd 57d6 1dbc 09c0 57be
00000140: 20ca 693d 2392 22be 34ba 75be b080 6abd
00000150: 499d c33d c71c 3cbe 8773 6b3e 1000 2d3e
00000160: 1073 41be b8dd 73bd 8738 25bd 03a0 023e
00000170: 76a6 1b3e 0c5e 9cbd e08c 003e 7068 803d
00000180: 6c1d c83c d6da 07be 0d92 01bd 09da 07be
00000190: 6645 60bd 922b b73d 477b 6e3e 6953 88bd
000001a0: 708e 163c cfcd bf3d 368e b2bc 6800 11be
000001b0: 62cd 953d 1c31 7bbd 17b8 313d 17bd b3bd
000001c0: 53c3 d93d 5ac3 bdbd 6205 c5bd 1216 50be
000001d0: d3c7 673d d031 ec3d 5a01 adbd 4099 113c
000001e0: 1dd6 8f3d 8318 06be dbed 45be 466b 49be
000001f0: ba18 28be fadf 83be 47f9 f3be 722f d6bd
00000200: e0ea ca3d 3648 24be fc77 123e 9edc 0c3e
00000210: bbec 97bd d759 ffbd c599 bdbc 385d 2a3e
00000220: 8148 113e 31ff 493d 39a1 f03c fba0 a43b
00000230: a7f0 57be b448 983d 620b 193e 8846 bd3d
00000240: 1967 423d 0a37 2e3e a841 71be 80f3 4b3d
00000250: 3a38 ac3d f8cd 9cbd 98fb dfbe 44d2 433e
00000260: d459 bbbd 2710 d2bd 1be5 963d 748c 6fbd
00000270: c3c8 f63d d845 8ebd 61d8 97be 43a3 3ebe
00000280: 59d5 5fbe 3c0f e93c 8f00 73be ac4e a53d
00000290: 7aab 853d 6e7e 4b3e e097 353e fe52 223e
000002a0: 686b e73d bc30 113e d037 3cbd b284 d1bd
000002b0: d5b1 4dbe 8d18 30be eece a1bd 74cb 013e
000002c0: 189f e6bc 6ed2 47be 90a1 383d e05f 3c3e
000002d0: 74c2 8dbd b8a6 b63c 2c96 1ebd bc59 3a3e
000002e0: a048 d8bd 3708 cdbd 289e 20bd 6400 1fbe
000002f0: 4026 8fbb a8e4 ca3d 98ed 8b3d 969f 363e
00000300: e44f f8bc fb24 a3bc a41b 49be 0740 e23d
00000310: 521f 1bbe 93b1 f8bb 8a35 a6be e1d5 34be
00000320: 5000 ad3c 5ef4 343d d1fe 43bd dcef 0d3e
00000330: d0b5 063c d228 b4bd dda8 773e 5210 1cbd
00000340: 0515 983d 8373 abbd 4400 163e a15c 843d
00000350: 26f9 273d 0cf3 ef3d 407f 1b3d 5a8b 183e
00000360: 43da b93d 73e8 093e a146 fc3d 1d7a 26bc
00000370: 6811 26bd aed1 af3d cb18 e0bd 2a82 a5be
00000380: 7c8b 1dbd e51b ddbd b00a 01be 34f4 99bd
00000390: 1b09 2c3e be9d 1bbe 87ca 7cbd 0317 a13d
000003a0: e6ad 6cbd 7cd3 5dbe cb2e 8f3d cbb4 443d
000003b0: 1cad b6bd c483 cf3d f866 e53d 4062 67bd
000003c0: 56fc 19be 4e4b 4cbe f86f 18bd 484a 5bbd
000003d0: f8e6 6bbd 0885 e93c 4747 24be 003e 9aba
000003e0: f430 283e 0224 273e 583b 86bc b88d 983d
000003f0: 24b2 f23d 3416 82bd b876 3d3e 4bbd 4ebe
0.08389519 -0.15452377 -0.0019787198 -0.15042187 0.015563718 -0.1309709 0.015308855 -0.08892302
-0.05915405 0.0010253023 0.057423722 0.024796933 -0.07809699 0.09522793 -0.13556969 0.07133469
0.019242266 -0.11079919 0.11726763 -0.011023652 -0.05939939 -0.20146263 -0.08472733 0.13340795
0.07716515 -0.2520707 -0.14091805 0.13736887 -0.11535531 0.048385575 -0.035396628 0.037390023
-0.07704325 0.02011922 0.11727145 -0.10401331 -0.20762852 0.0035345554 0.45210186 0.11359721
-0.2496116 -0.08620672 -0.11991864 0.011223692 0.0077787815 -0.08552367 0.19076854 -0.019829944
0.051939767 -0.19360666 0.15690756 -0.03386821 -0.025413005 0.12279447 -0.06545692 0.117577106
0.18353093 -0.1467269 -0.11538855 0.15121841 0.058746573 0.10329211 0.08002454 -0.24648409
0.08807015 0.0103878165 -0.14656714 -0.079344444 -0.2440716 -0.17625454 -0.17584299 0.11772534
0.11844191 -0.041506644 0.07779523 0.01846742 -0.12764709 -0.034683265 -0.009633622 -0.2106935
0.057077527 -0.15876059 -0.23996812 -0.057251632 0.09551484 -0.18370353 0.22993289 0.16894555
-0.18891549 -0.05953762 -0.04033711 0.12756352 0.15200219 -0.076351255 0.1255374 0.0626992
0.024428092 -0.13267073 -0.031633426 -0.13266768 -0.054753684 0.08943857 0.23289214 -0.06656534
0.009189233 0.09365427 -0.021796327 -0.14160311 0.07314564 -0.06132613 0.043388452 -0.087763004
0.10632958 -0.09265776 -0.09620167 -0.20320919 0.05658705 0.115329385 -0.084475234 0.008886635
0.07023261 -0.13095288 -0.19329016 -0.19669828 -0.16415682 -0.25756818 -0.4765112 -0.10458268
0.0990808 -0.16043171 0.14303583 0.13756034 -0.074182 -0.124683075 -0.023144612 0.16637123
0.14187814 0.049315635 0.029373752 0.005024073 -0.21087895 0.07435742 0.14945748 0.092419684
0.047461603 0.17013183 -0.23560202 0.049792767 0.08409162 -0.07656473 -0.43746638 0.19123179
-0.09147993 -0.10256987 0.07367917 -0.058483556 0.12050011 -0.069469154 -0.29657272 -0.18616967
-0.2185873 0.028449647 -0.23730682 0.08071646 0.06526847 0.19872448 0.17733717 0.15851972
0.11299783 0.14178747 -0.045951664 -0.10230388 -0.20087369 -0.17196865 -0.07900797 0.12675267
-0.028152034 -0.19513866 0.045075953 0.18395948 -0.069218546 0.022296295 -0.038717434 0.18198293
-0.10560727 -0.100113325 -0.03921333 -0.15527493 -0.0043685734 0.09906894 0.06832427 0.17834315
-0.030311532 -0.019915095 -0.1963945 0.110473685 -0.15148667 -0.007589528 -0.32462722 -0.17659713
0.021118313 0.04417836 -0.047850434 0.1386103 0.008222058 -0.08796848 0.2418551 -0.0381015
0.07425884 -0.083716415 0.14648539 0.0646298 0.04100909 0.117162794 0.037963152 0.14896908
0.09074833 0.13467579 0.12318159 -0.01016095 -0.040543944 0.08584915 -0.10942229 -0.3232587
-0.0384631 -0.10796336 -0.12601733 -0.07517281 0.16800348 -0.15196893 -0.061716583 0.07865717
-0.05778303 -0.21662706 0.06991347 0.04802398 -0.08919737 0.10132554 0.1120128 -0.056490183
-0.15037665 -0.19950601 -0.037216157 -0.053537637 -0.057593316 0.028505817 -0.16042815 -0.0011767745
0.16424924 0.1632233 -0.01638572 0.07448906 0.11850384 -0.06351891 0.18502319 -0.20189397

bias f4 [24]
00000000: a3eb aebb a447 073d 0e9a d63d 2871 043e
00000010: bcdf d0bc 809d bb3d 4092 373d 8451 973d
00000020: ba1d 533d 4a08 103e f8b8 0fbe b970 0ebe
00000030: c3e7 55bd ec64 8e3d 5c93 d5bc fb77 16be
00000040: 524d 23bd 08e5 acbd 6b01 133e 5be8 213e
00000050: fb12 54be fe94 1f3e c031 e43d d9b6 5abe
-0.0053381487 0.033027306 0.10478602 0.1293379 -0.02549731 0.091609 0.04481721 0.07388595
0.05154202 0.14065662 -0.14035404 -0.13910188 -0.05222298 0.06952843 -0.026071243 -0.14694206
-0.03986866 -0.08442122 0.1435601 0.15811293 -0.20710365 0.1558418 0.111423016 -0.21358813

weight f4 [4, 24]
00000000: 6c32 01bb 5f2b ad3d 1455 0b3d 98dd a53b
00000010: 21ee 89ba 7981 40bb 0674 a23b 3240 e0bd
00000020: f814 fd38 d387 89ba eccc 043d ff0f 453b
00000030: b850 813c 23dc e8bd ca86 213a 2f8c 73bb
00000040: 2f3c 50bc 5dc8 733b 216b 843a dc81 803b
00000050: c6bb 033b a518 3239 c7d0 2c3b 455a 843b
00000060: 20b1 90b8 26b1 aabd 04ea 953d 4f93 26bc
00000070: ce99 2bbd 4fa5 e73b 9a84 a53b c464 203d
00000080: 88c0 d0ba 7ca3 96bb f20f 09be 4e4c 1d3b
00000090: 4025 423e d3cd 42bd e452 2b3b d12b dc39
000000a0: 9b91 903d 290c 2dba 8545 7a3a d96c 19bb
000000b0: 900a 703b 9fb9 6639 82bf 2a3b 0ee8 6e3b
000000c0: 24d3 5bba 87b0 303d 4f57 46bc 4c0f 2cbd
000000d0: 5c3b 2ebb 3a15 ddba 9f27 9e3b b05b c33d
000000e0: 8dfc ce3a e06e 37bb 52c8 93bd 6dd1 1a3b
000000f0: fc25 1b3e 1116 aa3b d600 3e3b d837 f6ba
00000100: 5a59 cd3d f833 673b 54d0 573a 490b 81bc
00000110: dfb0 90bb 4fb6 26b9 7ccd 073b 2667 473b
00000120: f198 043a 3540 b63d 98ca ac3d 03e9 b73c
00000130: b36a 6abb ed63 d5bb 2788 b13b 34bc cf3d
00000140: 900e e839 72ea 2a3a 581d 653d ca09 453b
00000150: 1c89 423d 34ed b83d fadd 8c3b 9d99 bb3a
00000160: 173b 4dbb 5f77 bdb8 a8c4 2b3a eb69 62bc
00000170: 2fb9 f838 cbc0 1836 170b ee3a b191 7a3b
-0.0019713892 0.08455538 0.034016684 0.0050618164 -0.0010523238 -0.0029374047 0.0049576787 -0.10949744
0.00012067886 -0.0010492749 0.03242199 0.003006935 0.01578556 -0.11370113 0.0006161748 -0.0037162413
-0.012709661 0.0037198283 0.0010102728 0.0039217304 0.0020100935 0.00016984584 0.0026369558 0.0040390813
-6.899447e-05 -0.0833457 0.073200256 -0.010166957 -0.041894726 0.007069267 0.0050512077 0.039158598
-0.0015926519 -0.0045971256 -0.13384989 0.002400178 0.18959522 -0.04755957 0.0026141936 0.00041994316
0.07059022 -0.0006601238 0.00095471024 -0.0023410826 0.003662739 0.00022003659 0.002605409 0.0036454233
-0.00083856494 0.0431371 -0.012105777 -0.042006776 -0.0026585674 -0.0016867288 0.0048265005 0.095389724
0.0015791819 -0.002798967 -0.072159424 0.0023623363 0.15151209 0.005190619 0.0028992197 -0.0018784953
0.10026808 0.0035278779 0.00082326424 -0.015752451 -0.004415616 -0.00015898909 0.0020721843 0.0030426471
0.00050581904 0.08898965 0.08437079 0.022449976 -0.0035769164 -0.006512156 0.005417842 0.10143319
0.00044261338 0.00065199204 0.055936188 0.003006565 0.04749404 0.09029618 0.0042989226 0.0014312748
-0.0031315738 -9.034457e-05 0.00065524364 -0.013819198 0.00011860055 2.2761985e-06 0.0018161264 0.0038233812

bias f4 [4]
00000000: d3b8 4fbe 0e40 42be 055c 41be 862e 47be
-0.20285349 -0.18969747 -0.18882759 -0.19451341

exp_avg f4 [24, 4]
00000000: 4045 f441 2196 0b41 2052 a840 7be1 0541
00000010: c048 73c0 9a40 62bf e0ae a8bf 8ecd 10c0
00000020: e163 832c d3d6 422c 4115 902c bac4 1d2d
00000030: e51f 1141 38ca 2540 1c3f c83f 4c53 1f40
00000040: 7cae 94c1 e0fd a9c0 2abc 4cc0 52ce a2c0
00000050: 75ef 9c3f fe3c b33e 55d1 573e dcae ab3e
00000060: 4b4a 2341 2892 4440 91e5 9f3f 5407 ee3f
00000070: 5635 6fc1 ce02 90c0 3233 eabf c849 2ec0
00000080: 0000 0000 0000 0000 0000 0000 0000 0000
00000090: f7fc e13f ce2a d23e d6b0 1c3f 2082 863f
000000a0: f687 f341 3b2b 0b41 8eca a740 ed74 0541
000000b0: 0000 0000 0000 0000 0000 0000 0000 0000
000000c0: a65b d0c0 403d eebf d07e 8fbf 8c36 e4bf
000000d0: 0000 0000 0000 0000 0000 0000 0000 0000
000000e0: 0400 0000 0400 0000 0400 0000 0400 0000
000000f0: 680c 0640 0825 193f dc74 b83e 24b9 123f
00000100: 5248 35bf 42d5 50be 1ce3 f5bd 249f 42be
00000110: 341c 50c1 37ef 6dc0 244f 0fc0 93ec 63c0
00000120: 721e fa41 eff6 0e41 0731 ac40 48ef 0841
00000130: ae6e b33e d396 cb3d 8adf 773d 0fd8 c53d
00000140: c8e5 77c1 b6b6 8dc0 ccb4 2ac0 59bf 87c0
00000150: 0000 0000 0000 0000 0000 0000 0000 0000
00000160: 0000 0000 0000 0000 0000 0000 0000 0000
00000170: 0000 0000 0000 0000 0000 0000 0000 0000
30.533813 8.724153 5.260025 8.367549 -3.8013153 -0.88379824 -1.3178368 -2.262546
3.7343327e-12 2.768831e-12 4.095086e-12 8.968099e-12 9.070287 2.5904675 1.564426 2.489459
-18.585197 -5.3122406 -3.1989846 -5.0876856 1.2260576 0.3500747 0.21075948 0.33531845
10.205638 3.0714207 1.2491933 1.8595986 -14.950521 -4.5003424 -1.8296874 -2.7232533
0.0 0.0 0.0 0.0 1.7655324 0.41048282 0.6120733 1.0508461
30.441387 8.698054 5.243476 8.341046 0.0 0.0 0.0 0.0
-6.5111876 -1.8612442 -1.1210575 -1.7829146 0.0 0.0 0.0 0.0
6e-45 6e-45 6e-45 6e-45 2.0945072 0.5982213 0.36026657 0.5731375
-0.7081348 -0.20393851 -0.12006208 -0.1900602 -13.006886 -3.7177255 -2.2392054 -3.5613143
31.264866 8.9352865 5.380985 8.558418 0.3504538 0.09940877 0.060515918 0.096603505
-15.493599 -4.4285536 -2.667285 -4.242108 0.0 0.0 0.0 0.0
0.0 0.0 0.0 0.0 0.0 0.0 0.0 0.0

exp_avg_sq f4 [24, 4]
00000000: 2ddd bf47 817e 3145 9a0f d344 347d d148
00000010: df83 4348 d931 6c43 bd7e 1844 b60c a348
00000020: 31b1 9e45 db3d 3b43 800c dd42 2f3a 2547
00000030: 3a93 0347 342c c944 cde1 5844 654e ee48
00000040: 5fd2 a848 f93e db44 d656 9944 90cc 2948
00000050: 8fbd 4f46 46ce 2e43 3d83 2443 63e3 9346
00000060: b042 f546 7fd5 1644 9fbf 4743 f264 3d44
00000070: 87b5 4447 369a d844 73f6 ea43 a324 4945
00000080: 0000 0000 0000 0000 0000 0000 0000 0000
00000090: cf4f 0948 c4d5 4742 2d59 3144 fcc4 0249
000000a0: 8990 b247 ffd6 1d45 76ef b844 e697 e048
000000b0: 0000 0000 0000 0000 0000 0000 0000 0000
000000c0: 34bb 6348 8006 1c44 9eaf 1444 4f31 3048
000000d0: 0000 0000 0000 0000 0000 0000 0000 0000
000000e0: d4a8 0f41 38f6 273e 8860 2d40 7ef1 e244
000000f0: 1179 9b46 fd08 f141 3cbb e342 15d0 3b47
00000100: a1b4 3348 73b5 5b44 bd1c 3e44 ae7c 5548
00000110: 7d61 3847 ea65 a744 d6d1 1144 d3ec b745
00000120: b2e9 3d48 2e2a 7945 ed88 a644 af1f ca46
00000130: a756 9747 b5b0 a343 59e1 9743 e10d 3148
00000140: 7800 1c47 3b6d 5044 6ad9 ce43 91fe ee47
00000150: 0000 0000 0000 0000 0000 0000 0000 0000
00000160: 0000 0000 0000 0000 0000 0000 0000 0000
00000170: 0000 0000 0000 0000 0000 0000 0000 0000
98234.35 2839.9065 1688.4875 429033.62 200207.48 236.19472 609.9803 333925.7
5078.149 187.24162 110.524414 42298.184 33683.227 1609.3813 867.52814 488051.16
345746.97 1753.9679 1226.7136 173874.25 13295.39 174.80576 164.51265 18929.693
31393.344 603.3359 199.74852 757.5773 50357.527 1732.8191 469.92538 3218.2898
0.0 0.0 0.0 0.0 140607.23 49.958755 709.3934 535631.75
91425.07 2525.4373 1479.4832 459967.2 0.0 0.0 0.0 0.0
233196.81 624.10156 594.744 180421.23 0.0 0.0 0.0 0.0
8.978718 0.16402519 2.7090168 1815.5466 19900.533 30.129389 113.86569 48080.082
184018.52 878.83514 760.44904 218610.72 47201.49 1339.1848 583.2787 5885.603
194470.78 3986.6362 1332.2789 25871.842 77485.305 327.38052 303.76053 181303.52
39936.47 833.7067 413.69855 122365.13 0.0 0.0 0.0 0.0
0.0 0.0 0.0 0.0 0.0 0.0 0.0 0.0

exp_avg f4 [24]
00000000: aaf6 0d35 0a80 b1b3 a7ff 6620 12bc 2834
00000010: 80c9 acb4 e64b b632 14f1 2f34 94de 80b4
00000020: 0000 0000 8ae1 2433 a287 0d35 0000 0000
00000030: b028 f2b3 0000 0000 0400 0000 c1bd 1b33
00000040: bef8 51b2 9cdc 71b4 6a54 1135 b68e d031
00000050: ff0c 90b4 0000 0000 0000 0000 0000 0000
5.2885537e-07 -8.265495e-08 1.9566346e-19 1.5714639e-07 -3.2184107e-07 2.1222103e-08 1.6385849e-07 -2.4003805e-07
0.0 3.8389352e-08 5.2723965e-07 0.0 -1.1276404e-07 0.0 6e-45 3.626133e-08
-1.2221959e-08 -2.2525131e-07 5.413955e-07 6.069821e-09 -2.6831546e-07 0.0 0.0 0.0

exp_avg_sq f4 [24]
00000000: bdde b72e 3da6 d32e 7e7e 082d e1fc a72e
00000010: 2da5 e42e 5b44 dd2c 3f5a bd2c 2728 302d
00000020: 0000 0000 20ba ec2e 371d bc2e 0000 0000
00000030: 30d5 b72e 0000 0000 d5cd 7c2a f299 6c2d
00000040: 2df6 af2e 3d83 382d 5844 372e 9d20 3d2e
00000050: 467b df2d 0000 0000 0000 0000 0000 0000
8.361443e-11 9.624699e-11 7.758792e-12 7.639201e-11 1.0397581e-10 6.2887868e-12 5.3817224e-12 1.0013357e-11
0.0 1.07651e-10 8.55444e-11 0.0 8.359746e-11 0.0 2.2453509e-13 1.344923e-11
8.001808e-11 1.048833e-11 4.1670084e-11 4.300259e-11 2.540691e-11 0.0 0.0 0.0

exp_avg f4 [24, 24]
00000000: 0400 0000 0400 0000 0400 0000 0400 0000
00000010: 0400 0000 0400 0000 0400 0000 0400 0000
00000020: 0000 0000 0400 0000 0400 0000 0000 0000
00000030: 0400 0000 0000 0000 0400 0000 0400 0000
00000040: 0400 0000 0400 0000 0400 0000 0400 0000
00000050: 0400 0000 0000 0000 0000 0000 0000 0000
00000060: 0400 0000 0400 0000 0400 0000 0400 0000
00000070: 0400 0000 0400 0080 0400 0000 0400 0000
00000080: 0000 0000 0400 0000 0400 0000 0000 0000
00000090: 0400 0000 0000 0000 0400 0000 0400 0000
000000a0: 0400 0000 0400 0000 0400 0000 0400 0000
000000b0: 0400 0000 0000 0000 0000 0000 0000 0000
000000c0: 0400 0080 0400 0000 0000 0000 0400 0000
000000d0: 0400 0000 0400 0000 0400 0000 0400 0000
000000e0: 0000 0000 0400 0000 0400 0080 0000 0000
000000f0: 0400 0000 0000 0000 0000 0000 0400 0000
00000100: 0400 0080 0400 0000 0400 0000 0400 0000
00000110: 0400 0000 0000 0000 0000 0000 0000 0000
00000120: 0400 0000 0400 0000 0400 0000 0400 0000
00000130: 0400 0000 0400 0000 0400 0000 0400 0000
00000140: 0000 0000 0400 0080 0400 0000 0000 0000
00000150: 0400 0000 0000 0000 0400 0000 0400 0000
00000160: 0400 0000 0400 0000 0400 0000 0400 0000
00000170: 0400 0000 0000 0000 0000 0000 0000 0000
00000180: 441f c001 0400 0000 d086 bb01 ab76 b401
00000190: 915f 2501 0400 0000 0400 0080 0400 0080
000001a0: 0000 0000 0400 0000 adbc e401 0000 0000
000001b0: 0400 0000 0000 0000 0400 0000 0400 0000
000001c0: f63a 2302 0400 0000 0400 0000 801b 0f01
000001d0: d9f7 f701 0000 0000 0000 0000 0000 0000
000001e0: 0400 0000 0400 0000 0400 0000 0400 0000
000001f0: 0400 0000 0400 0000 0400 0000 0400 0000
00000200: 0000 0000 0400 0000 0400 0000 0000 0000
00000210: 0400 0000 0000 0000 0400 0000 0400 0000
00000220: 0400 0000 0400 0000 0400 0000 0400 0000
00000230: 0400 0000 0000 0000 0000 0000 0000 0000
00000240: 0400 0000 0400 0000 0400 0000 0400 0000
00000250: 0400 0000 0400 0000 0400 0000 0400 0000
00000260: 0000 0000 0400 0000 0400 0000 0000 0000
00000270: 0400 0000 0000 0000 0400 0000 0400 0000
00000280: 0400 0000 0400 0000 0400 0000 0400 0000
00000290: 0400 0000 0000 0000 0000 0000 0000 0000
000002a0: 0000 0000 0000 0000 0000 0000 0000 0000
000002b0: 0000 0000 0000 0000 0000 0000 0000 0000
000002c0: 0000 0000 0000 0000 0000 0000 0000 0000
000002d0: 0000 0000 0000 0000 0000 0000 0000 0000
000002e0: 0000 0000 0000 0000 0000 0000 0000 0000
000002f0: 0000 0000 0000 0000 0000 0000 0000 0000
00000300: 0400 0000 0400 0000 0400 0000 0400 0000
00000310: 0400 0000 0400 0000 0400 0000 0400 0000
00000320: 0000 0000 0400 0000 0400 0000 0000 0000
00000330: 0400 0000 0000 0000 0400 0000 0400 0000
00000340: 0400 0000 0400 0000 0400 0000 0400 0000
00000350: 0400 0000 0000 0000 0000 0000 0000 0000
00000360: 0400 0000 0400 0000 0400 0000 0400 0000
00000370: 0400 0000 0400 0080 0400 0000 0400 0080
00000380: 0000 0000 0400 0000 0400 0000 0000 0000
00000390: 0400 0080 0000 0000 0400 0000 0400 0080
000003a0: 0400 0000 0400 0000 0400 0000 0400 0000
000003b0: 0400 0000 0000 0000 0000 0000 0000 0000
000003c0: 0000 0000 0000 0000 0000 0000 0000 0000
000003d0: 0000 0000 0000 0000 0000 0000 0000 0000
000003e0: 0000 0000 0000 0000 0000 0000 0000 0000
000003f0: 0000 0000 0000 0000 0000 0000 0000 0000
6e-45 6e-45 6e-45 6e-45 6e-45 6e-45 6e-45 6e-45
0.0 6e-45 6e-45 0.0 6e-45 0.0 6e-45 6e-45
6e-45 6e-45 6e-45 6e-45 6e-45 0.0 0.0 0.0
6e-45 6e-45 6e-45 6e-45 6e-45 -6e-45 6e-45 6e-45
0.0 6e-45 6e-45 0.0 6e-45 0.0 6e-45 6e-45
6e-45 6e-45 6e-45 6e-45 6e-45 0.0 0.0 0.0
-6e-45 6e-45 0.0 6e-45 6e-45 6e-45 6e-45 6e-45
0.0 6e-45 -6e-45 0.0 6e-45 0.0 0.0 6e-45
-6e-45 6e-45 6e-45 6e-45 6e-45 0.0 0.0 0.0
6e-45 6e-45 6e-45 6e-45 6e-45 6e-45 6e-45 6e-45
0.0 -6e-45 6e-45 0.0 6e-45 0.0 6e-45 6e-45
6e-45 6e-45 6e-45 6e-45 6e-45 0.0 0.0 0.0
7.0574525e-38 6e-45 6.88864e-38 6.629184e-38 3.037428e-38 6e-45 -6e-45 -6e-45
0.0 6e-45 8.402471e-38 0.0 6e-45 0.0 6e-45 6e-45
1.199227e-37 6e-45 6e-45 2.6284682e-38 9.1089114e-38 0.0 0.0 0.0
6e-45 6e-45 6e-45 6e-45 6e-45 6e-45 6e-45 6e-45
0.0 6e-45 6e-45 0.0 6e-45 0.0 6e-45 6e-45
6e-45 6e-45 6e-45 6e-45 6e-45 0.0 0.0 0.0
6e-45 6e-45 6e-45 6e-45 6e-45 6e-45 6e-45 6e-45
0.0 6e-45 6e-45 0.0 6e-45 0.0 6e-45 6e-45
6e-45 6e-45 6e-45 6e-45 6e-45 0.0 0.0 0.0
0.0 0.0 0.0 0.0 0.0 0.0 0.0 0.0
0.0 0.0 0.0 0.0 0.0 0.0 0.0 0.0
0.0 0.0 0.0 0.0 0.0 0.0 0.0 0.0
6e-45 6e-45 6e-45 6e-45 6e-45 6e-45 6e-45 6e-45
0.0 6e-45 6e-45 0.0 6e-45 0.0 6e-45 6e-45
6e-45 6e-45 6e-45 6e-45 6e-45 0.0 0.0 0.0
6e-45 6e-45 6e-45 6e-45 6e-45 -6e-45 6e-45 -6e-45
0.0 6e-45 6e-45 0.0 -6e-45 0.0 6e-45 -6e-45
6e-45 6e-45 6e-45 6e-45 6e-45 0.0 0.0 0.0
0.0 0.0 0.0 0.0 0.0 0.0 0.0 0.0
0.0 0.0 0.0 0.0 0.0 0.0 0.0 0.0

exp_avg_sq f4 [24, 24]
00000000: cd0b bc42 bfcb 8142 e687 a141 9fd7 fb40
00000010: ba73 6442 5a2b 5f3f 79bc 293b 1fbd 283c
00000020: 0000 0000 1a6e 8b41 b207 a942 0000 0000
00000030: 5688 bc3e 0000 0000 46b9 893f 0513 273c
00000040: 7730 7643 4e29 923c ab46 c53c e0bf 3f40
00000050: 0ed5 c340 0000 0000 0000 0000 0000 0000
00000060: a245 b939 6919 8f35 c36b a839 7f0b 7539
00000070: ceea 3038 8a1f 8236 ef4c 0f36 1e92 5637
00000080: 0000 0000 df4d 9b35 2285 7b39 0000 0000
00000090: 5d08 c837 0000 0000 af1b 9035 93b8 b837
000000a0: dc52 1a3a 3b76 3037 2f58 9137 b343 3338
000000b0: c8b6 2f3a 0000 0000 0000 0000 0000 0000
000000c0: 41af 3135 0688 2032 0000 0000 fec3 8529
000000d0: a02a 053d cb04 c83d a4b7 cd3c 3f63 b13d
000000e0: 0000 0000 b5d1 0331 ee7b d030 0000 0000
000000f0: 8994 973d 0000 0000 0000 0000 156e 903d
00000100: fb2c 2436 1f4d 3a3e d7d9 583e 67de 7f3a
00000110: 628b 943c 0000 0000 0000 0000 0000 0000
00000120: 38a0 df3b 1756 7b38 c4cc 743b e4ac 3b3b
00000130: d1d6 043b 97dd 173a 4618 7b38 b9da 0d3a
00000140: 0000 0000 106a 3b37 4800 913b 0000 0000
00000150: 5162 f73a 0000 0000 3261 9f35 4e7e 7a3a
00000160: 31be 553c 4fad 1b3b 4e25 6a3a f024 973a
00000170: 4a32 493c 0000 0000 0000 0000 0000 0000
00000180: 7789 8946 f318 4e46 b165 5c45 af5f e344
00000190: 97d3 2046 5380 5042 7ca3 723a f669 163b
000001a0: 0000 0000 4ab4 5145 92cd 8246 0000 0000
000001b0: e41f 4342 0000 0000 d62a af42 231a 7c40
000001c0: cbb7 3447 0766 8141 24f2 f43e 514c 0c44
000001d0: d2ef 1144 0000 0000 0000 0000 0000 0000
000001e0: 888b 563f 5979 0d3f 3222 5f3e 1709 763d
000001f0: f0cb f63e 9ef1 293c 7118 4934 4a63 ad36
00000200: 0000 0000 3221 243e 9680 3c3f 0000 0000
00000210: 007c 1b3b 0000 0000 2fd6 a53c 4d48 963b
00000220: 7ef6 0a40 62f2 cb3b 9ca4 7039 fdba c03c
00000230: 2a01 8c3d 0000 0000 0000 0000 0000 0000
00000240: 80ce 6347 6aaa 3547 87b8 3342 6a2f 9945
00000250: e1c9 ab47 1f63 7146 3f0e 8a34 cb8f 3338
00000260: 0000 0000 d1ed f445 836e 6447 0000 0000
00000270: 3649 5e46 0000 0000 063d 1632 ebe5 1544
00000280: 575b 2548 6b5e a746 85d3 563a 36b2 8b45
00000290: ebef ce45 0000 0000 0000 0000 0000 0000
000002a0: 0000 0000 0000 0000 0000 0000 0000 0000
000002b0: 0000 0000 0000 0000 0000 0000 0000 0000
000002c0: 0000 0000 0000 0000 0000 0000 0000 0000
000002d0: 0000 0000 0000 0000 0000 0000 0000 0000
000002e0: 0000 0000 0000 0000 0000 0000 0000 0000
000002f0: 0000 0000 0000 0000 0000 0000 0000 0000
00000300: 386f ec40 d764 3140 7974 d83f 29bb da3f
00000310: 8b89 b240 3f04 a73f 221a 113c f5fd d33d
00000320: 0000 0000 e7d0 2f3f ba3a bb40 0000 0000
00000330: ae5a 963f 0000 0000 068b 063c d37a 2b3f
00000340: a6a5 9741 8f3a 1340 3a58 2f3f a871 0a3f
00000350: 9930 6040 0000 0000 0000 0000 0000 0000
00000360: 2248 da3f e652 833f 1b77 8d3e 07db 963d
00000370: 9b43 ae3f 0a00 1d3e f18b b22e 14e4 d034
00000380: 0000 0000 2432 953e 5b7a ad3f 0000 0000
00000390: ef2a 923d 0000 0000 5406 073c 2fd7 103a
000003a0: ebf5 8c40 9ab6 cb3a ca5f 8e38 0df3 693d
000003b0: 1480 813e 0000 0000 0000 0000 0000 0000
000003c0: 0000 0000 0000 0000 0000 0000 0000 0000
000003d0: 0000 0000 0000 0000 0000 0000 0000 0000
000003e0: 0000 0000 0000 0000 0000 0000 0000 0000
000003f0: 0000 0000 0000 0000 0000 0000 0000 0000
94.02305 64.89794 20.191357 7.870071 57.113014 0.87175524 0.0025899692 0.010298996
0.0 17.42876 84.51503 0.0 0.36822766 0.0 1.0759666 0.010197406
246.18932 0.017841961 0.024081549 2.9960861 6.1197577 0.0 0.0 0.0
0.0003533783 1.0661726e-06 0.00032123746 0.00023369303 4.218035e-05 3.8779735e-06 2.1353442e-06 1.27894145e-05
0.0 1.1571063e-06 0.00023986821 0.0 2.3845752e-05 0.0 1.0736893e-06 2.2020458e-05
0.0005886981 1.0517945e-05 1.732641e-05 4.2739975e-05 0.0006702957 0.0 0.0 0.0
6.6192666e-07 9.344154e-09 0.0 5.940386e-14 0.032511353 0.09766539 0.02511198 0.08661508
0.0 1.9182214e-09 1.5169215e-09 0.0 0.07401378 0.0 0.0 0.070522465
2.4464086e-06 0.18193482 0.2117685 0.00097606186 0.01813287 0.0 0.0 0.0
0.0068245195 5.992324e-05 0.0037353495 0.0028636986 0.0020269642 0.00057932123 5.986567e-05 0.00054113154
0.0 1.1170763e-05 0.0044250824 0.0 0.0018873905 0.0 1.1874711e-06 0.0009555564
0.013045833 0.0023754423 0.00089319504 0.0011531394 0.012280056 0.0 0.0 0.0
17604.732 13190.237 3526.3557 1818.9901 10292.897 52.125317 0.00092559285 0.0022951341
0.0 3355.268 16742.785 0.0 48.781143 0.0 87.583664 3.9390953
46263.793 16.174818 0.4784099 561.19244 583.7472 0.0 0.0 0.0
0.8380666 0.55263287 0.21790388 0.060067263 0.48202467 0.010372547 1.8728475e-07 5.1673605e-06
0.0 0.16028288 0.73633707 0.0 0.0023725033 0.0 0.020243732 0.0045862556
2.1712947 0.0062239626 0.00022949505 0.023526663 0.068361595 0.0 0.0 0.0
58318.5 46506.414 44.930202 4901.927 87955.76 15448.78 2.5714868e-07 4.2810843e-05
0.0 7837.727 58478.51 0.0 14226.303 0.0 8.745024e-09 599.59247
169325.36 21423.209 0.0008194971 4470.2764 6621.9897 0.0 0.0 0.0
0.0 0.0 0.0 0.0 0.0 0.0 0.0 0.0
0.0 0.0 0.0 0.0 0.0 0.0 0.0 0.0
0.0 0.0 0.0 0.0 0.0 0.0 0.0 0.0
7.3885765 2.7717798 1.6910545 1.7088367 5.57929 1.3048171 0.008856328 0.10351173
0.0 0.68678135 5.850919 0.0 1.1746423 0.0 0.008211857 0.6698429
18.955883 2.3004491 0.68494 0.54079676 3.5029662 0.0 0.0 0.0
1.7053263 1.0259674 0.27629933 0.07365995 1.3614382 0.15332046 8.1193614e-11 3.8908968e-07
0.0 0.29139817 1.3552965 0.0 0.07137095 0.0 0.008241255 0.0005525229
4.4050193 0.001554209 6.78893e-05 0.057116557 0.25293028 0.0 0.0 0.0
0.0 0.0 0.0 0.0 0.0 0.0 0.0 0.0
0.0 0.0 0.0 0.0 0.0 0.0 0.0 0.0

exp_avg f4 [24]
00000000: 0400 0000 0400 0000 0400 0000 0400 0000
00000010: 0800 0000 0400 0000 0400 0000 0000 0000
00000020: 0400 0000 0400 0000 0000 0000 9312 37b6
00000030: 0400 0000 0400 0000 0400 0000 0400 0000
00000040: 0400 0000 0400 0000 a601 b322 0400 0000
00000050: 0400 0000 0400 0000 f0e6 8829 a610 002b
6e-45 6e-45 6e-45 6e-45 1.1e-44 6e-45 6e-45 0.0
6e-45 6e-45 0.0 -2.7279937e-06 6e-45 6e-45 6e-45 6e-45
6e-45 6e-45 4.8519793e-18 6e-45 6e-45 6e-45 6.0796745e-14 4.549784e-13

exp_avg_sq f4 [24]
00000000: dacd ba2a 87e0 8922 04f7 de24 33a2 bd24
00000010: 7d76 962e a396 3f27 24a9 2830 0000 0000
00000020: 64da 9829 02c3 eb27 0000 0000 2119 2530
00000030: 3934 ab18 8338 0f21 cf97 d930 010b 5d2a
00000040: dc21 a519 8942 b42d 420a 0231 4b2a 2f26
00000050: 9bc1 3d29 7c7e 112c 4dce 4330 775e 1e2e
3.3183075e-13 3.737165e-18 9.6695614e-17 8.224046e-17 6.842258e-11 2.6588235e-15 6.135841e-10 0.0
6.788041e-14 6.543703e-15 0.0 6.006236e-10 4.4255195e-24 4.8525077e-19 1.5831975e-09 1.9632561e-13
1.7074276e-23 2.0493178e-11 1.892332e-09 6.077264e-16 4.2134356e-14 2.0675952e-12 7.123376e-10 3.6008942e-11

exp_avg f4 [4, 24]
00000000: 0400 0080 0400 0000 0400 0080 0400 0000
00000010: dc7f 9d80 0400 0000 0400 0000 0000 0000
00000020: 0400 0000 0400 0080 0000 0000 0400 0080
00000030: 0400 0080 0400 0080 0400 0000 0400 0000
00000040: 0400 0000 0400 0080 0400 0080 0400 0000
00000050: 0400 0080 0400 0000 0400 0080 5a74 3ab7
00000060: 0400 0000 0400 0080 0400 0000 0400 0000
00000070: 0400 0080 0400 0000 0400 0000 0000 0000
00000080: 0400 0000 0400 0080 0000 0000 faf6 a9c2
00000090: 0400 0080 0400 0080 0400 0000 0400 0080
000000a0: 0400 0000 0400 0000 0400 0080 0400 0080
000000b0: 0400 0080 0400 0080 3072 2db7 0400 0000
000000c0: 0400 0000 0400 0000 0400 0000 0400 0080
000000d0: 0400 0080 0400 0000 0400 0000 0000 0000
000000e0: 0400 0000 0400 0080 0000 0000 f149 ee41
000000f0: 0400 0000 0400 0080 0400 0000 0400 0000
00000100: 0400 0000 0400 0000 0400 0000 0400 0080
00000110: 0400 0000 0400 0000 0400 0000 0400 0000
00000120: 0400 0000 0400 0000 0400 0000 0400 0000
00000130: 0400 0000 0400 0000 0400 0000 0000 0000
00000140: 0400 0000 0400 0080 0000 0000 371f c9c2
00000150: 0400 0080 0400 0000 0400 0080 0400 0080
00000160: 0400 0000 0400 0000 8818 c12d 0400 0080
00000170: 0400 0000 0400 0080 0400 0000 633c 2f33
-6e-45 6e-45 -6e-45 6e-45 -1.446404e-38 6e-45 6e-45 0.0
6e-45 -6e-45 0.0 -6e-45 -6e-45 -6e-45 6e-45 6e-45
6e-45 -6e-45 -6e-45 6e-45 -6e-45 6e-45 -6e-45 -1.1113554e-05
6e-45 -6e-45 6e-45 6e-45 -6e-45 6e-45 6e-45 0.0
6e-45 -6e-45 0.0 -84.982376 -6e-45 -6e-45 6e-45 -6e-45
6e-45 6e-45 -6e-45 -6e-45 -6e-45 -6e-45 -1.033819e-05 6e-45
6e-45 6e-45 6e-45 -6e-45 -6e-45 6e-45 6e-45 0.0
6e-45 -6e-45 0.0 29.786104 6e-45 -6e-45 6e-45 6e-45
6e-45 6e-45 6e-45 -6e-45 6e-45 6e-45 6e-45 6e-45
6e-45 6e-45 6e-45 6e-45 6e-45 6e-45 6e-45 0.0
6e-45 -6e-45 0.0 -100.56097 -6e-45 6e-45 -6e-45 -6e-45
6e-45 6e-45 2.1952454e-11 -6e-45 6e-45 -6e-45 6e-45 4.0800284e-08

exp_avg_sq f4 [4, 24]
00000000: 98a9 b941 f0bd 9838 ed99 d738 006a 503e
00000010: c747 0744 611d 853f c593 1448 0000 0000
00000020: c1d5 c841 7286 be3f 0000 0000 df2b a247
00000030: c5ff c72d cb5d 2a35 9750 de45 f9dc 0f42
00000040: cb36 4b2e 8019 8945 e7e4 5d49 a847 053e
00000050: 3dd1 d741 0a64 5944 650e bb45 b367 8348
00000060: e35c 0b42 f398 f92f 6d3f 1e3a 1520 7c37
00000070: 9fce 0644 226b 0d3f c525 dd48 0000 0000
00000080: cfd4 a940 6792 6e3f 0000 0000 677c f449
00000090: 7b10 2129 d32d 2d36 d872 5c4a eadd 0043
000000a0: 0d51 a02d 7ac0 9b45 f261 8d49 aea2 b53e
000000b0: fb43 da43 6827 3445 a191 804a c3bd 5742
000000c0: 1db5 8341 b336 2c34 8001 4b39 4e26 4139
000000d0: c0c8 d543 c542 0f3f 386d 0449 0000 0000
000000e0: 63a1 af42 8e41 043f 0000 0000 ded1 414a
000000f0: 0ca2 ee2c 5b56 e635 c5e3 294a 5ff6 a942
00000100: f0b6 892d 8054 8846 3388 9449 c21f e63d
00000110: f5cb bf42 87c7 9544 d548 604a 0a2a 0344
00000120: 16d9 c341 81ff cc34 aaff 013a 3b9c 543b
00000130: 9801 9843 3b16 563f 1dc9 2c48 0000 0000
00000140: 7510 3442 132f 233f 0000 0000 db12 1049
00000150: 1b4b 222a f7f2 4836 96c1 9147 838f 5942
00000160: f4af 8d2e 13e8 be45 818f 7449 8247 3e3e
00000170: 2c52 8942 9ee1 4d44 ca2d ec47 9fcf b143
23.20781 7.2833034e-05 0.0001028067 0.20352936 541.1215 1.0399591 152143.08 0.0
25.104372 1.488478 0.0 83031.74 2.2737265e-11 6.346642e-07 7114.0737 35.965794
4.6205522e-11 4387.1875 908878.44 0.13015616 26.977167 869.5631 5985.7993 269117.6
34.84071 4.5401513e-10 0.0006036673 1.502784e-05 539.22845 0.55241597 452910.16 0.0
5.3072276 0.9319214 0.0 2.0028289e+06 3.5763476e-14 2.5805682e-06 3.61183e+06 128.86685
1.8225888e-11 4984.0596 1.1582062e+06 0.35475677 436.5311 2882.463 4.2129445e+06 53.935314
16.463434 1.6038648e-07 0.00019360147 0.00018420184 427.56836 0.5596126 542419.5 0.0
87.81521 0.5166253 0.0 3.1755435e+06 6.7823577e-12 1.7161468e-06 2.7834732e+06 84.98119
1.5656337e-11 17450.25 1.2167744e+06 0.11236526 95.89835 1198.2352 3.6746772e+06 524.65686
24.480999 3.8183865e-07 0.00049590564 0.0032441753 304.01245 0.8362767 176932.45 0.0
45.01607 0.63743705 0.0 590125.7 1.4414548e-13 2.9943747e-06 74627.17 54.39015
6.443193e-11 6109.0093 1.00172006e+06 0.18581966 68.66049 823.52527 120923.58 355.62204

exp_avg f4 [4]
00000000: 575e 5f3a 4afb 923a 0808 3e3a e63b d83a
0.00085208326 0.0011213806 0.00072491216 0.0016497343

exp_avg_sq f4 [4]
00000000: cfcb 3639 5d7b 9739 b4d3 9a39 0b27 3c39
0.00017432797 0.00028892877 0.000295309 0.00017943622
