test_model/covid39.pth (torch, 16239 bytes, 18 tensors)

weight f4 [24, 4]
00000000: afc9 1cbb b0eb 763e 096e 4b3e 9b1e 923e
00000010: 1365 813c d508 c9be c4ff 1d3e 532d 293e
00000020: 7fb3 37be 7810 373e 8e35 06be a26a 2f3e
00000030: fca4 e9bd cd8e bb3e 1f83 a33e 4814 8d3c
00000040: cec5 853e 11b0 65ba bd84 803e c090 593e
00000050: b173 d23e 113f 55be 6f28 5dbe 7663 9e3d
00000060: d22a 223e c761 613e 683a e5be 39ea 07bf
00000070: afda 9f3e 23ae f23e e91c 76be a0d5 c6be
00000080: 9e5f ccbe a85d f3bd 7844 82be 1087 eebd
00000090: 7ed7 a6ba 1b69 e3bd d09b 023e 2e97 0a3e
000000a0: 561a 03bd 46df 3a3e ef01 743d eaf5 633e
000000b0: 049b afbe c81c 153e 6669 a7be 8888 99bd
000000c0: 5153 b93e aa71 81bd 766e 363e ba7c 30bc
000000d0: 5a21 adbe 6222 efbe 14c1 babe 0417 9cbe
000000e0: 10ce 31be bf4d b1bd 8d2f f03d f0f1 373d
000000f0: e815 a53e de3d c6bd 26e7 ec3e 461f fdbd
00000100: a600 9f3a f967 b63d a905 cc3e 268c c53e
00000110: 891a f23e c2f5 5abe 07c2 a7bd 1d9d 14be
00000120: cdf0 f73e e44e b93e 4ed1 dcbe 5823 babe
00000130: a07f 1e3d 068b 993e 16e6 133e de51 033d
00000140: 3aa7 853e 4fcc 853e 25f0 243e b17f bc3d
00000150: e868 f4be c4f6 293e b091 1f3e c435 e0be
00000160: 147c d6be 2858 3f3e 1ca8 743e 0c95 e7be
00000170: 108e 7abd 80a5 053c 3458 d2be 4886 d5be
-0.0023923924 0.24113345 0.19866194 0.28538975 0.015795266 -0.3926455 0.15429598 0.16521196
-0.17939566 0.17877376 -0.13106367 0.17130521 -0.114084214 0.36632386 0.31935975 0.017221585
0.26127476 -0.00087618927 0.2510127 0.21246624 0.4110389 -0.20824839 -0.21597455 0.077338144
0.15836647 0.22009955 -0.44771123 -0.5309177 0.3122153 0.4739848 -0.24034466 -0.38834858
-0.399167 -0.11883098 -0.25442863 -0.11646855 -0.0012729017 -0.11104032 0.1275475 0.13534233
-0.032007538 0.18249235 0.059572157 0.22261778 -0.34297955 0.1456176 -0.326976 -0.074967444
0.36196378 -0.06320508 0.17815575 -0.010771925 -0.33814508 -0.4670592 -0.36475432 -0.3048631
-0.17363763 -0.08657407 0.117278196 0.044908464 0.32243276 -0.09679769 0.46270102 -0.123594806
0.001213093 0.0890655 0.39848068 0.38583487 0.4728587 -0.21382812 -0.08191305 -0.14513059
0.48425904 0.36193 -0.43128437 -0.3635509 0.03869593 0.2998888 0.1444324 0.032060497
0.26104146 0.26132438 0.16107233 0.09204043 -0.47736287 0.1659804 0.15582919 -0.4379102
-0.4189154 0.18685973 0.23892254 -0.452309 -0.061170638 0.008157134 -0.4108292 -0.4170401

bias f4 [24]
00000000: d968 ee3e b5ac dfbe cbce 003f f8fe ed3e
00000010: 290a 6f3d e104 edbd 22aa 6c3d 6669 c73e
00000020: 7c30 713e b89e 96be 765c 23bc 003d 8ebc
00000030: 56bd cbbd 3467 6a3e d293 d83e e3bb e43e
00000040: 7dd7 81be 92c5 a1be edcf 063d bae7 b6bc
00000050: 9fb2 aa3e a019 363d 6cae a43e 6234 a63e
0.46564367 -0.43686453 0.5031554 0.46483588 0.0583593 -0.11573196 0.05777944 0.389476
0.23553652 -0.29417968 -0.009970775 -0.017363071 -0.09948222 0.22890931 0.42300278 0.44674596
-0.25359717 -0.31596047 0.032913137 -0.022327293 0.33339402 0.04445803 0.32164323 0.3246184

weight f4 [24, 24]
00000000: f4fa f53d c456 f2bd 1ded dd3c 5d56 19be
00000010: 0992 3b3d e982 02be c674 c93d 0bad a0bd
00000020: 844b 72bd 21dd 463d 4e92 de3d f022 cb3c
00000030: cfc2 6bbd dc06 c33d d895 02be e4a3 bc3d
00000040: 3c98 6d3d 3c70 aebd 8681 213e 7035 c1bb
00000050: bd3c d8bc 384c 4ebe 8685 adbd 189c 083e
00000060: ef9c ec3d 2500 29be a470 d0bd 23ad 143e
00000070: 7d9e 9abd ca8f 9c3d 3b33 7dbc 0dbf b83d
00000080: dac8 9dbd 808f 463d af36 2b3e ee04 d5bd
00000090: 4a1b 22be 00a4 673b 7e55 043d d9ae 163e
000000a0: 58d3 54be a15e 3cbd 7b77 d3bd 5614 093d
000000b0: fd0b 8c3d 0927 afbd d458 433e 6872 a2bc
000000c0: a6e4 db3b d340 46be 60ac 203e 64b9 0abd
000000d0: cc6e 223c 5ff0 213e be02 f6bc 8ca3 1c3e
000000e0: 88ef 3b3e 943f 16be b8f8 20be 00d9 1a3e
000000f0: beb6 c03d d08a d33d e8e3 a33d d331 58be
00000100: 1b24 2f3d 065c 3b3d 9fb4 e3bd 6b17 34bd
00000110: bfb2 55be 127c 34be 2f10 34be fc19 f13d
00000120: 5154 1f3e b3bb 0f3e 0179 1a3e 7b57 1b3e
00000130: 00c1 01be 7c91 11bd 1491 673d 4a59 2dbe
00000140: 20ca 693d a64c 88bd a0fb 45be b080 6abd
00000150: e6e7 963d c71c 3cbe 0555 6d3e 7684 1a3e
00000160: f733 17be 7456 b7bd c631 1e3d f267 083e
00000170: 2d49 313e 0c5e 9cbd e08c 003e 7068 803d
00000180: 9ec7 563d a246 e1bd f4af a6bc 7e34 d2bd
00000190: 9a83 e9bc de77 0b3e 1eb0 b83d 7c34 dbbc
000001a0: 708e 163c 2ba5 103e 22a3 b13c 6800 11be
000001b0: aa89 323e 1c31 7bbd cada 9d3c d07a 4ebe
000001c0: 988c 123e 40c8 c0bd 1c83 11be 9e30 3bbe
000001d0: 23a9 a93d d031 ec3d 5a01 adbd 4099 113c
000001e0: b041 f93d 6e7e 96bd 0ef9 14be 4cd9 08be
000001f0: c346 d8bd 712d 41be e8a3 49be eb44 6dbe
00000200: e0ea ca3d 77b0 dbbd a2f2 4b3e 9edc 0c3e
00000210: b688 a3bc d759 ffbd 6cb1 3f3d 1eda a1bb
00000220: aa55 4b3e e519 1d3e 05d7 61bb 8bff 853d
00000230: 6fd1 1fbe b448 983d 620b 193e 8846 bd3d
00000240: 7dbb 863d 000a 453e a20b 61be 8c02 103d
00000250: d6f4 d83d 49bb 94bd ef8c 0cbe 2722 383e
00000260: d459 bbbd 135b a9bd 00d8 a73d 748c 6fbd
00000270: 79a5 ff3d d845 8ebd 4fc4 38be 47be 14be
00000280: f447 52be a229 28bc fdf7 29be e89e e03d
00000290: 500e 923d 6e7e 4b3e e097 353e fe52 223e
000002a0: 686b e73d bc30 113e d037 3cbd b284 d1bd
000002b0: d5b1 4dbe 8d18 30be eece a1bd 74cb 013e
000002c0: 189f e6bc 6ed2 47be 90a1 383d e05f 3c3e
000002d0: 74c2 8dbd b8a6 b63c 2c96 1ebd bc59 3a3e
000002e0: a048 d8bd 3708 cdbd 289e 20bd 6400 1fbe
000002f0: 4026 8fbb a8e4 ca3d 98ed 8b3d 969f 363e
00000300: 257f 9cbc 8f12 d7bc 4367 43be 2304 3e3e
00000310: fc0a 05be 471a 22bd b20a 86bc 51db babd
00000320: 5000 ad3c aa98 183c c3bf 3ebd dcef 0d3e
00000330: be79 ac3d d228 b4bd 4fdf 10bd 7fbc ccbb
00000340: 226b b83d b650 76bd 08b8 083d 9d3e f13d
00000350: e7ec fc3d 0cf3 ef3d 407f 1b3d 5a8b 183e
00000360: 5f58 bb3d a567 0e3e 1602 063e 1c7d 08be
00000370: 3279 1abd f2de c13d 3c7c 6bbd 2cca 48be
00000380: 7c8b 1dbd 165d cabd dcae e7bd 34f4 99bd
00000390: 989c 503e be9d 1bbe e256 f5bd ac41 94bc
000003a0: 5b52 53bd f3f5 34be d9d7 58bc cd0f 633d
000003b0: c67b bbbd c483 cf3d f866 e53d 4062 67bd
000003c0: 56fc 19be 4e4b 4cbe f86f 18bd 484a 5bbd
000003d0: f8e6 6bbd 0885 e93c 4747 24be 003e 9aba
000003e0: f430 283e 0224 273e 583b 86bc b88d 983d
000003f0: 24b2 f23d 3416 82bd b876 3d3e 4bbd 4ebe
0.12010756 -0.118329555 0.027090603 -0.14974351 0.045793567 -0.12745251 0.09836726 -0.07845505
-0.05915405 0.04855073 0.10867749 0.024796933 -0.05755883 0.09522793 -0.12752473 0.09210947
0.05800651 -0.08517501 0.15772066 -0.005896263 -0.02639615 -0.20146263 -0.08472733 0.13340795
0.1155337 -0.16503961 -0.101777345 0.14519171 -0.075497605 0.07644613 -0.015454109 0.09020815
-0.07704325 0.048476696 0.16720079 -0.10401331 -0.15830722 0.0035345554 0.032308094 0.14715137
-0.20783746 -0.045988683 -0.103255235 0.03346666 0.06838224 -0.08552367 0.19076854 -0.019829944
0.0067106066 -0.19360666 0.15690756 -0.03386821 0.009914111 0.1581435 -0.030030604 0.15296763
0.18353093 -0.1467269 -0.15719879 0.15121841 0.09409855 0.10329211 0.08002454 -0.21112756
0.042759042 0.045742057 -0.11118435 -0.043967646 -0.20868967 -0.17625454 -0.17584299 0.11772534
0.15559508 0.14036445 0.15085222 0.1517009 -0.1267128 -0.035539135 0.05653484 -0.16928592
0.057077527 -0.066552445 -0.19334269 -0.057251632 0.0736845 -0.18370353 0.23176964 0.15089592
-0.14765917 -0.089520365 0.038621686 0.13320902 0.1731307 -0.076351255 0.1255374 0.0626992
0.052436464 -0.109998 -0.020347573 -0.10263918 -0.028505135 0.13619944 0.09017967 -0.026758425
0.009189233 0.14125507 0.021684233 -0.14160311 0.17435327 -0.06132613 0.019269366 -0.20164037
0.14311445 -0.09413195 -0.1421017 -0.18280265 0.082842134 0.115329385 -0.084475234 0.008886635
0.12170732 -0.07348333 -0.14548132 -0.13364142 -0.10560372 -0.18864991 -0.19691432 -0.23170821
0.0990808 -0.107270174 0.19916776 0.13756034 -0.01996265 -0.124683075 0.046800062 -0.0049393317
0.19856897 0.15341909 -0.0034460437 0.065428816 -0.15607236 0.07435742 0.14945748 0.092419684
0.06578729 0.19242096 -0.21977094 0.03515868 0.10593574 -0.07262284 -0.13725637 0.17981778
-0.09147993 -0.08269324 0.081954956 -0.058483556 0.12482733 -0.069469154 -0.18043636 -0.1452571
-0.2053526 -0.010263832 -0.16598506 0.10967809 0.07131636 0.19872448 0.17733717 0.15851972
0.11299783 0.14178747 -0.045951664 -0.10230388 -0.20087369 -0.17196865 -0.07900797 0.12675267
-0.028152034 -0.19513866 0.045075953 0.18395948 -0.069218546 0.022296295 -0.038717434 0.18198293
-0.10560727 -0.100113325 -0.03921333 -0.15527493 -0.0043685734 0.09906894 0.06832427 0.17834315
-0.019103596 -0.026253967 -0.1908236 0.18556266 -0.12992471 -0.03957584 -0.016362522 -0.091238625
0.021118313 0.009313742 -0.046569597 0.1386103 0.08421658 -0.08796848 -0.035369214 -0.0062480564
0.09004809 -0.060135566 0.03337863 0.11779521 0.12349873 0.117162794 0.037963152 0.14896908
0.09147715 0.13906725 0.13086733 -0.13328975 -0.037713237 0.094663516 -0.057491526 -0.19608372
-0.0384631 -0.09881036 -0.11312649 -0.07517281 0.20372236 -0.15196893 -0.11979462 -0.018097721
-0.051592212 -0.17671947 -0.013235056 0.05543499 -0.09154467 0.10132554 0.1120128 -0.056490183
-0.15037665 -0.19950601 -0.037216157 -0.053537637 -0.057593316 0.028505817 -0.16042815 -0.0011767745
0.16424924 0.1632233 -0.01638572 0.07448906 0.11850384 -0.06351891 0.18502319 -0.20189397

bias f4 [24]
00000000: 0e79 003d 4836 bd3d c97d 0f3e 9a6c 1f3e
00000010: 0c03 313c 6ed6 1e3e 5538 603d 8451 973d
00000020: 6757 c23d 8569 153e f8b8 0fbe c832 f4bd
00000030: c3e7 55bd 84d2 c63d abe3 2bbb 3d4f eebd
00000040: 10f8 25bc 858f 04bd 553b 253e 670d 2a3e
00000050: 51eb 29be b575 513e 301e 023e b918 33be
0.031365447 0.09238869 0.14012827 0.15568772 0.010803949 0.15511486 0.054741222 0.07388595
0.09489327 0.14591034 -0.14035404 -0.11923748 -0.05222298 0.097081214 -0.002622823 -0.11636207
-0.0101299435 -0.032363433 0.16135915 0.16606675 -0.16593672 0.20455058 0.12706828 -0.174899

weight f4 [4, 24]
00000000: d21a 1b3e 0148 af3d a955 7fbb 2b98 e9bc
00000010: 2f4e 9f3d 0dcb 0ebd 9a9d fc3d 3240 e0bd
00000020: b73e cb3d c188 443d eccc 043d 098a a93d
00000030: b850 813c fd9d 11be a93b d6bd ea66 9ebd
00000040: 983f 833c 120d f3bc 28b9 a7bc 1bdb 7b3d
00000050: 9436 a13d 0cc6 e73c 25b0 cb3d 5a30 ad3d
00000060: 6e73 d1bb 26b1 aabd b3ab e43d 9e5a b23d
00000070: 6915 41be 3b98 a3bd 1e1a 233e c464 203d
00000080: 32ff eb3c 6880 05be f20f 09be 4030 d3bd
00000090: 4025 423e 1975 a2bd 0771 053e e931 c0bd
000000a0: 7c36 d13d 703b 923d 0cbf 3e3e a561 44bd
000000b0: 8fe6 143d 4b99 6c3c 42b9 6a3d c878 f4bc
000000c0: 399a c6bd 9549 1cbc 6817 b53c 3559 5ebd
000000d0: 78da 82bd 56b9 b13c 8851 e13d b05b c33d
000000e0: 896d ba3d c799 023e 52c8 93bd 15e6 2b3d
000000f0: fc25 1b3e 40b3 d9bc 9f36 bcbd 8819 b13d
00000100: 1eff 063e 061e ea3d f312 65bd 0053 a03d
00000110: 0bb5 02bc 8c31 053e f55d c73c 3a5e cebc
00000120: 3e69 cebd affd 403e 2c86 fa3d b9b0 d13d
00000130: af0c bcbd 9463 223d 1d31 cdbd 34bc cf3d
00000140: 0858 953e b7fd a9ba 581d 653d b333 e03d
00000150: 1c89 423d 64fb f93d ab9c d73c c721 973d
00000160: 4830 ea3c bcdc debd 5969 2f3e 7a88 45be
00000170: e955 86bd d6f0 553d 57a0 a1bd 231d 133e
0.1514695 0.085586555 -0.003896097 -0.028514942 0.07778584 -0.034861613 0.123347476 -0.10949744
0.09924071 0.04798198 0.03242199 0.08278281 0.01578556 -0.14220424 -0.10460598 -0.07734473
0.016021535 -0.029669318 -0.020474032 0.061488252 0.07871738 0.028292678 0.09945706 0.08456488
-0.006391934 -0.0833457 0.111655615 0.0870869 -0.18855824 -0.0798802 0.15927932 0.039158598
0.02880821 -0.13037264 -0.13384989 -0.10311937 0.18959522 -0.07932491 0.13031398 -0.093845196
0.1021547 0.07140243 0.18627566 -0.047944684 0.03635269 0.014440845 0.057305582 -0.02984275
-0.096973844 -0.009539028 0.022105888 -0.054284293 -0.06389326 0.02169482 0.11001879 0.095389724
0.091029234 0.12753974 -0.072159424 0.04196747 0.15151209 -0.02657473 -0.09190106 0.08647448
0.13183257 0.11431508 -0.055926275 0.07828331 -0.007977734 0.13007182 0.024336794 -0.025191415
-0.10078667 0.18846773 0.122326225 0.10238785 -0.09182107 0.039645746 -0.10019133 0.10143319
0.29168725 -0.001296929 0.055936188 0.10947361 0.04749404 0.12206152 0.026319822 0.073794894
0.028587475 -0.108819455 0.1713003 -0.19290343 -0.06559355 0.052231632 -0.078919105 0.14366584

bias f4 [4]
00000000: 1cb1 e73d 237b 2d3e 10b3 513e 3787 c43d
0.11313078 0.16941504 0.20478463 0.09596103

exp_avg f4 [24, 4]
00000000: 1c49 1846 d702 1ac5 42c5 08c4 48cd c446
00000010: cee4 a545 0291 3e44 84ae b145 a05f 1c46
00000020: 22e1 b3c5 953b 8243 4679 68c5 24b6 16c7
00000030: f67e bc45 8b02 d844 fff6 b245 bc60 f045
00000040: c4d9 dfc5 30ac 35c5 851f 10c5 b281 64c6
00000050: 4fc7 7ac6 ca5b c5c4 042a 79c5 0016 d743
00000060: d036 35c6 d652 69c5 7b76 30c5 18c0 1145
00000070: 9263 8d46 eda1 7d45 d871 6345 247d 76c5
00000080: 0000 0000 0000 0000 0000 0000 0000 0000
00000090: 68d2 5c46 749b 9ac4 fe58 79c5 98e2 9346
000000a0: f00f 19c5 0485 39c5 c8c1 b7c5 048d 35c6
000000b0: 0000 0000 0000 0000 0000 0000 0000 0000
000000c0: 64bb 1946 8641 a1c4 30c4 6042 dbcd 0046
000000d0: 0000 0000 0000 0000 0000 0000 0000 0000
000000e0: d0db 56c3 019d 4243 1f99 aa44 60a7 2445
000000f0: 67aa 11c6 2c6e 10c4 c836 ffc2 00b9 0fc3
00000100: 24dc 6c46 fd6d 4a45 9189 e844 7c48 1fc6
00000110: 483a c846 e969 3845 d2f4 0943 e814 05c6
00000120: 4e85 26c6 98d6 67c3 00c6 40c4 36df b645
00000130: 40b7 fec4 a599 9144 9afa f045 68e9 c7c6
00000140: 74e3 5745 405f 0344 c5b9 8245 b17e 0547
00000150: 0000 0000 0000 0000 0000 0000 0000 0000
00000160: 0000 0000 0000 0000 0000 0000 0000 0000
00000170: 0000 0000 0000 0000 0000 0000 0000 0000
9746.277 -2464.1775 -547.08215 25190.64 5308.6006 762.26575 5685.8145 10007.906
-5756.1416 260.46548 -3719.5796 -38582.14 6031.87 1728.0795 5726.8745 7692.092
-7163.2207 -2906.7617 -2305.97 -14624.424 -16049.827 -1578.8684 -3986.626 430.17188
-11597.703 -3733.1772 -2823.405 2332.0059 18097.785 4058.1204 3639.1152 -3943.8213
0.0 0.0 0.0 0.0 14132.602 -1236.8579 -3989.562 18929.297
-2448.996 -2968.3135 -5880.2227 -11619.254 0.0 0.0 0.0 0.0
9838.848 -1290.0476 56.19159 8243.464 0.0 0.0 0.0 0.0
-214.85864 194.6133 1364.785 2634.461 -9322.601 -577.72144 -127.606995 -143.72266
15159.035 3238.8743 1860.299 -10194.121 25629.14 2950.6194 137.95633 -8517.227
-10657.326 -231.83826 -771.09375 5851.9014 -2037.7266 1164.8014 7711.325 -25588.703
3454.2158 525.4883 4183.221 34174.69 0.0 0.0 0.0 0.0
0.0 0.0 0.0 0.0 0.0 0.0 0.0 0.0

exp_avg_sq f4 [24, 4]
00000000: e253 a852 d516 4d4c e627 ee4d b40b e952
00000010: e7da 0a52 2c22 534c 4c1c 174e fd1d c552
00000020: 8137 b550 1b02 2c4c a1f6 324d 7375 5952
00000030: 4fc9 ad4f f9c3 8b4d b345 044e 9134 8c50
00000040: b27b 0d52 dc47 194d aacc 064e 1fb8 9852
00000050: 9966 1c51 8670 a44c 19b5 234d db39 0752
00000060: 1986 4451 2464 224c 4d13 1f4b 51bb 1d4c
00000070: a2f8 e651 5fdc 0b4d 960f bd4c b6de 3c50
00000080: 0000 0000 0000 0000 0000 0000 0000 0000
00000090: ba95 a151 c82e 264c cfff c14d d9b6 a252
000000a0: 0c84 9451 2f47 374d 64eb 324e 7fd3 b152
000000b0: 0000 0000 0000 0000 0000 0000 0000 0000
000000c0: b73e bf51 5337 cd4c 1a4f ad4c d0ab 1052
000000d0: 0000 0000 0000 0000 0000 0000 0000 0000
000000e0: d351 184f 53b5 674b 63fb 174d cdc1 e751
000000f0: e732 0252 9f5e b14c 650f 424d d63e 8a51
00000100: 54d2 ee52 81bc fd4c 80c7 7d4e 145b 2053
00000110: 39dc 3652 9f02 7a4c 8f26 334d 17aa 1052
00000120: 7ab3 ba51 edb6 a84c 3f90 844c ccfe 9f50
00000130: e4ec 8f52 5c1a b24d 5cae 114f 20b9 bc53
00000140: aebe 4851 f4b0 c94c 53a4 c14d e210 7252
00000150: 0000 0000 0000 0000 0000 0000 0000 0000
00000160: 0000 0000 0000 0000 0000 0000 0000 0000
00000170: 0000 0000 0000 0000 0000 0000 0000 0000
3.614809e+11 5.37629e+07 4.9944902e+08 5.0046186e+11 1.4909451e+11 5.5347376e+07 6.338035e+08 4.2330584e+11
2.4322509e+10 4.5090924e+07 1.8765672e+08 2.334946e+11 5.8313027e+09 2.9310954e+08 5.547901e+08 1.8818042e+10
1.5191641e+11 1.6072646e+08 5.6538995e+08 3.2796203e+11 4.1983513e+10 8.621368e+07 1.7165966e+08 1.4519781e+11
5.275396e+10 4.256987e+07 1.0425165e+07 4.134842e+07 1.2400173e+11 1.466547e+08 9.912235e+07 1.2674849e+10
0.0 0.0 0.0 0.0 8.675022e+10 4.356381e+07 4.0684592e+08 3.494262e+11
7.973382e+10 1.9218098e+08 7.5044275e+08 3.8187876e+11 0.0 0.0 0.0 0.0
1.0267387e+11 1.07592344e+08 9.086382e+07 1.5533946e+11 0.0 0.0 0.0 0.0
2.5554993e+09 1.5185235e+07 1.5936466e+08 1.2442361e+11 1.3979994e+11 9.299276e+07 2.034868e+08 7.421996e+10
5.1286547e+11 1.3303092e+08 1.0644275e+09 6.887228e+11 1.963447e+11 6.5538684e+07 1.8785304e+08 1.5533223e+11
1.0023438e+11 8.8455016e+07 6.950143e+07 2.1474206e+10 3.0907734e+11 3.73509e+08 2.4441231e+09 1.6211195e+12
5.3887033e+10 1.0574429e+08 4.0609648e+08 2.5991633e+11 0.0 0.0 0.0 0.0
0.0 0.0 0.0 0.0 0.0 0.0 0.0 0.0

exp_avg f4 [24]
00000000: e461 a739 dc37 6439 9a98 fab9 bd13 5e39
00000010: 528f 8db9 7224 5eb9 9ce8 25b9 6020 6539
00000020: 0000 0000 26f0 9139 c44c 70b9 0000 0000
00000030: 39ab 3039 0000 0000 28e4 2638 a650 d5b8
00000040: 280f d338 3fd1 5339 b69e 73b8 789c 44b9
00000050: 90f8 dd39 0000 0000 0000 0000 0000 0000
0.00031925656 0.00021764584 -0.00047797413 0.00021178923 -0.00027000398 -0.00021185147 -0.0001582228 0.00021851202
0.0 0.0002783548 -0.00022916781 0.0 0.00016848453 0.0 3.978997e-05 -0.000101716534
0.00010064087 0.00020200478 -5.8083526e-05 -0.00018750306 0.00042337598 0.0 0.0 0.0

exp_avg_sq f4 [24]
00000000: d78b 2f39 d379 df38 6f46 2838 e957 b736
00000010: 5015 c138 d914 0038 9303 c436 73ef ad37
00000020: 0000 0000 8365 a438 9090 a938 0000 0000
00000030: 8fb6 1e38 0000 0000 b982 8e37 e68b 2d38
00000040: ba0e 7939 1758 8b38 2f39 aa37 5208 b139
00000050: 5110 5f38 0000 0000 0000 0000 0000 0000
0.00016741395 0.0001065616 4.0119918e-05 5.464059e-06 9.206927e-05 3.0536994e-05 5.8416713e-06 2.073471e-05
0.0 7.8390374e-05 8.085475e-05 0.0 3.7840156e-05 0.0 1.6988592e-05 4.1376705e-05
0.00023751977 6.6444445e-05 2.0292207e-05 0.0003376627 5.318254e-05 0.0 0.0 0.0

exp_avg f4 [24, 24]
00000000: 3c58 df46 fa0d 8646 e4b3 4f46 632c b7c5
00000010: 70ce f246 3c77 b846 7000 5945 b656 0446
00000020: 0000 0000 08b4 5646 b431 a746 0000 0000
00000030: 2515 4346 0000 0000 e060 e3c3 aafe 8045
00000040: f4c5 1547 5293 9245 96a0 2746 3e88 9345
00000050: 2c48 9746 0000 0000 0000 0000 0000 0000
00000060: c471 4645 7688 9f43 0967 4d44 b539 f444
00000070: 83cc 5345 6244 9044 d59e 9c41 aca1 2c44
00000080: 0000 0000 b9cd 6a44 a44b f444 0000 0000
00000090: 436c 0045 0000 0000 bc0e e442 2f0c 0a45
000000a0: ab8c 7f45 a2fe 6d44 a2d1 8b44 fadb e644
000000b0: 9f95 4445 0000 0000 0000 0000 0000 0000
000000c0: 3d50 d035 1faa 0338 0000 0000 0400 0000
000000d0: a4e8 0c3a 381d 603a a329 a939 175f 283a
000000e0: 0000 0000 a11e 6236 e05e 8029 0000 0000
000000f0: 1c47 443a 0000 0000 0000 0000 7fd4 2c3a
00000100: 7fec d836 157c 7e3a fd56 823a 4f4e a638
00000110: c37c 0c3a 0000 0000 0000 0000 0000 0000
00000120: 85b1 b445 bf7b 7c45 449a 2c44 0f7c 4645
00000130: 14d0 0f45 a05f ffc4 7ff7 d3c5 5698 15c6
00000140: 0000 0000 b683 3e45 3ccb 2345 0000 0000
00000150: 303a 42c5 0000 0000 321b 8b43 4a72 90c5
00000160: 9b38 0146 7cd0 c5c5 6ae6 24c6 4076 3c42
00000170: 90ae 1ec4 0000 0000 0000 0000 0000 0000
00000180: e84d 3d46 d0e6 fd45 506e f945 7e15 9dc5
00000190: f0bc 3a46 7c97 3e46 0400 0000 e62b 7c44
000001a0: 0000 0000 00af be45 1824 1e46 0000 0000
000001b0: e0b7 2645 0000 0000 6057 e943 c85a ffc4
000001c0: e84d 7646 c714 6945 35ac ba44 0098 0ec3
000001d0: 70a5 b945 0000 0000 0000 0000 0000 0000
000001e0: a69f 19c6 ecd2 d2c5 fc14 5bc5 1194 b344
000001f0: 64f4 29c6 8339 fac5 0000 0000 6b41 4542
00000200: 0000 0000 428f 9dc5 b05a e3c5 0000 0000
00000210: f35a 83c5 0000 0000 946f 3744 7f7f 06c4
00000220: ceaf 56c6 ea4a 2444 a73c 3643 a853 92c4
00000230: c2b4 bfc5 0000 0000 0000 0000 0000 0000
00000240: 4273 5346 5052 1346 f272 7045 3ccd b1c4
00000250: 7d10 5546 3071 8f45 ea3b 2c44 cefb 1144
00000260: 0000 0000 32da e545 0003 1246 0000 0000
00000270: 4edd 8545 0000 0000 c703 1d40 e6a9 4945
00000280: 5aa4 9d46 201a 49c5 5517 eb44 f2a1 1745
00000290: 96d4 d645 0000 0000 0000 0000 0000 0000
000002a0: 0000 0000 0000 0000 0000 0000 0000 0000
000002b0: 0000 0000 0000 0000 0000 0000 0000 0000
000002c0: 0000 0000 0000 0000 0000 0000 0000 0000
000002d0: 0000 0000 0000 0000 0000 0000 0000 0000
000002e0: 0000 0000 0000 0000 0000 0000 0000 0000
000002f0: 0000 0000 0000 0000 0000 0000 0000 0000
00000300: 501f c546 2de4 2c46 558e 8f45 fd0d 0546
00000310: 9f12 da46 5001 3446 2bbe c642 8862 7643
00000320: 0000 0000 cad1 2346 6d2a 8046 0000 0000
00000330: 1ebd 6346 0000 0000 5b8b ae44 ef29 4046
00000340: f582 0847 9992 b045 a05e b942 7054 1646
00000350: 9cd0 a146 0000 0000 0000 0000 0000 0000
00000360: fc3c 4dc5 b257 0dc5 182d b1c5 2350 a0c2
00000370: 3274 0c45 d74f 9c45 0000 0000 32e2 d5b9
00000380: 0000 0000 861a e2c4 bde1 52c5 0000 0000
00000390: 271a dc45 0000 0000 7d1f 16c4 8ebf c345
000003a0: 888a 85c5 e9f4 0046 12d2 9644 d525 9544
000003b0: 0a25 7e45 0000 0000 0000 0000 0000 0000
000003c0: 0000 0000 0000 0000 0000 0000 0000 0000
000003d0: 0000 0000 0000 0000 0000 0000 0000 0000
000003e0: 0000 0000 0000 0000 0000 0000 0000 0000
000003f0: 0000 0000 0000 0000 0000 0000 0000 0000
28588.117 17158.988 13292.973 -5861.5483 31079.219 23611.617 3472.0273 8469.678
0.0 13741.008 21400.852 0.0 12485.286 0.0 -454.75684 4127.833
38341.953 4690.415 10728.146 4721.0303 19364.086 0.0 0.0 0.0
3175.1104 319.0661 821.6099 1953.8033 3388.782 1154.137 19.577555 690.5261
0.0 939.2144 1954.3638 0.0 2054.7664 0.0 114.02878 2208.7615
4088.7917 951.97864 1118.551 1846.8743 3145.3513 0.0 0.0 0.0
1.552056e-06 3.139127e-05 0.0 6e-45 0.00053752423 0.0008549276 0.00032265214 0.0006422861
0.0 3.3694453e-06 5.7008e-14 0.0 0.0007487403 0.0 0.0 0.00065929437
6.4648334e-06 0.0009707821 0.0009944137 7.930083e-05 0.0005359167 0.0 0.0 0.0
5782.19 4039.7341 690.4104 3175.7537 2301.005 -2042.9883 -6782.937 -9574.084
0.0 3048.232 2620.7021 0.0 -3107.6367 0.0 278.21246 -4622.286
8270.151 -6330.0605 -10553.604 47.11548 -634.72754 0.0 0.0 0.0
12115.477 8124.8516 7981.789 -5026.6865 11951.234 12197.871 6e-45 1008.6859
0.0 6101.875 10121.023 0.0 2667.4922 0.0 466.68262 -2042.8369
15763.477 3729.2986 1493.3815 -142.59375 5940.6797 0.0 0.0 0.0
-9831.912 -6746.365 -3505.3115 1436.6271 -10877.098 -8007.189 0.0 49.313885
0.0 -5041.907 -7275.336 0.0 -4203.3687 0.0 733.7434 -537.9921
-13739.951 657.17053 182.23692 -1170.6143 -6134.5947 0.0 0.0 0.0
13532.814 9428.578 3847.184 -1422.4136 13636.122 4590.1484 688.93616 583.93445
0.0 7355.2744 9344.75 0.0 4283.663 0.0 2.4533556 3226.6187
20178.176 -3217.6328 1880.7291 2426.1216 6874.573 0.0 0.0 0.0
0.0 0.0 0.0 0.0 0.0 0.0 0.0 0.0
0.0 0.0 0.0 0.0 0.0 0.0 0.0 0.0
0.0 0.0 0.0 0.0 0.0 0.0 0.0 0.0
25231.656 11065.044 4593.7915 8515.497 27913.31 11520.328 99.37142 246.38489
0.0 10484.447 16405.213 0.0 14575.279 0.0 1396.3549 12298.483
34946.957 5650.3247 92.684814 9621.109 20712.305 0.0 0.0 0.0
-3283.8115 -2261.481 -5669.6367 -80.15652 2247.2622 5001.98 0.0 -0.00040795055
0.0 -1808.8289 -3374.1086 0.0 7043.269 0.0 -600.492 6263.9443
-4273.3164 8253.228 1206.5647 1193.1823 4066.315 0.0 0.0 0.0
0.0 0.0 0.0 0.0 0.0 0.0 0.0 0.0
0.0 0.0 0.0 0.0 0.0 0.0 0.0 0.0

exp_avg_sq f4 [24, 24]
00000000: f871 d952 5a5a 1052 e8e9 7f51 0afe 794e
00000010: da2c ed52 4900 6252 73cb a74c d1c7 4b4e
00000020: 0000 0000 9e85 c251 7ed3 6f52 0000 0000
00000030: ea61 8b51 0000 0000 12d1 fc4e d7ea ac4f
00000040: e69a 4453 6aba 6850 ffc5 eb4e 3507 5c50
00000050: a7f8 2f52 0000 0000 0000 0000 0000 0000
00000060: 9c65 6b4d 6838 044c cc86 794b 4486 6e4c
00000070: 0fe0 ab4d 5f6f 6d4d 0d07 c94b 4e59 1e4d
00000080: 0000 0000 ed85 e44b 007c eb4c 0000 0000
00000090: 35c3 694d 0000 0000 2dcb de49 228e 324d
000000a0: 1cea b84d 82ad 7f4d bd77 a94d ff06 8b4c
000000b0: 1cc8 954d 0000 0000 0000 0000 0000 0000
000000c0: 77f5 b24b 80b3 0a4c 0000 0000 7826 6743
000000d0: 4eca 6150 6d9f 0d51 565a 844f c36c 9d50
000000e0: 0000 0000 afc9 e34a 614e 6449 0000 0000
000000f0: 66fb d050 0000 0000 0000 0000 080f a350
00000100: 59bb 934b 817e 2a51 a7c2 3951 eb6f b84d
00000110: d665 6650 0000 0000 0000 0000 0000 0000
00000120: 6182 3650 a20b 844f 54bc 084b 3ce4 b94c
00000130: 5ce2 6c51 ff25 b651 9881 814f 3154 ba50
00000140: 0000 0000 656b 374f 3aa2 a44f 0000 0000
00000150: 3521 7351 0000 0000 43d1 854a fe44 1a51
00000160: 273e 9d50 b84f 9951 c980 8251 b42f e64e
00000170: 3df1 3151 0000 0000 0000 0000 0000 0000
00000180: 7481 f352 7e77 2852 d239 2d51 9fd3 014e
00000190: d41f 5153 a472 2e53 d384 b648 87e5 ce4f
000001a0: 0000 0000 59e6 e551 cd45 8152 0000 0000
000001b0: cd5f a352 0000 0000 579e 884e 3afb df51
000001c0: 2f07 5a53 8328 6e52 5fb2 a351 81bd ae50
000001d0: 7f44 cb52 0000 0000 0000 0000 0000 0000
000001e0: 86dc 2151 64d4 5850 fd30 d04f 4c22 ea4c
000001f0: 2870 2551 0d9f 9050 0000 0000 8961 4547
00000200: 0000 0000 c4dd 1250 ccb9 b450 0000 0000
00000210: d4dd a24f 0000 0000 bc41 7d4d 6328 ae4d
00000220: 673f 9251 1645 554e 393e d04b 6848 924e
00000230: 58cf 6550 0000 0000 0000 0000 0000 0000
00000240: ccc3 9552 4689 cc51 cb22 8b50 bc39 9d4d
00000250: 3192 f152 2012 ad52 c839 014b baf4 804d
00000260: 0000 0000 3f68 8951 ad65 1d52 0000 0000
00000270: 4202 1752 0000 0000 4c94 a24b 24d1 f450
00000280: 92f4 0653 e9c3 8551 daaf 3150 ba55 5b50
00000290: 2a63 5f52 0000 0000 0000 0000 0000 0000
000002a0: 0000 0000 0000 0000 0000 0000 0000 0000
000002b0: 0000 0000 0000 0000 0000 0000 0000 0000
000002c0: 0000 0000 0000 0000 0000 0000 0000 0000
000002d0: 0000 0000 0000 0000 0000 0000 0000 0000
000002e0: 0000 0000 0000 0000 0000 0000 0000 0000
000002f0: 0000 0000 0000 0000 0000 0000 0000 0000
00000300: eebd 7750 8eed 5b4f ec1e 6a4d d299 6d4e
00000310: cd6c d550 00a8 2650 6854 af4a ccd3 054e
00000320: 0000 0000 380e 1a4f 633a dc4f 0000 0000
00000330: d8eb 2650 0000 0000 2450 9d4c a125 b64f
00000340: 8e81 e050 1bd3 844f 61a9 e44e da7e 1b4f
00000350: 2a21 8050 0000 0000 0000 0000 0000 0000
00000360: 17a1 7652 5677 a951 21fa 0651 880f b14c
00000370: ae80 8b52 1b03 0f52 0000 0000 9dcf 1549
00000380: 0000 0000 91d6 6151 429e 0752 0000 0000
00000390: 1f70 3051 0000 0000 e52d 224e 1fb0 664f
000003a0: 0b15 e052 be59 1850 0897 4a4e 412b e44f
000003b0: c91b ce51 0000 0000 0000 0000 0000 0000
000003c0: 0000 0000 0000 0000 0000 0000 0000 0000
000003d0: 0000 0000 0000 0000 0000 0000 0000 0000
000003e0: 0000 0000 0000 0000 0000 0000 0000 0000
000003f0: 0000 0000 0000 0000 0000 0000 0000 0000
4.6696e+11 1.5499778e+11 6.869631e+10 1.0485439e+09 5.0932987e+11 2.4266685e+11 8.797276e+07 8.547175e+08
0.0 1.0443317e+11 2.5751136e+11 0.0 7.48304e+10 0.0 2.12078e+09 5.802143e+09
8.4441235e+11 1.5618124e+10 1.9778108e+09 1.4765839e+10 1.8894774e+11 0.0 0.0 0.0
2.4683155e+08 3.466077e+07 1.6352972e+07 6.252776e+07 3.6044848e+08 2.4896869e+08 2.6349082e+07 1.660408e+08
0.0 2.9952986e+07 1.2346163e+08 0.0 2.4511778e+08 0.0 1.8251256e+06 1.872287e+08
3.877938e+08 2.6809757e+08 3.5539958e+08 7.289036e+07 3.1411494e+08 0.0 0.0 0.0
2.3456494e+07 3.635968e+07 0.0 231.15027 1.5152527e+10 3.801657e+10 4.4410255e+09 2.1129206e+10
0.0 7.4641515e+06 935142.06 0.0 2.8049093e+10 0.0 0.0 2.188537e+10
1.9363506e+07 4.5766676e+10 4.9864667e+10 3.867928e+08 1.5461734e+10 0.0 0.0 0.0
1.2247991e+10 4.43071e+09 8.961108e+06 9.74607e+07 6.3588123e+10 9.779019e+10 4.345508e+09 2.5008638e+10
0.0 3.0772687e+09 5.52419e+09 0.0 6.5264636e+10 0.0 4.3849295e+06 4.1411404e+10
2.110477e+10 8.230843e+10 7.00633e+10 1.930943e+09 4.7766032e+10 0.0 0.0 0.0
5.2292446e+11 1.8088981e+11 4.6499963e+10 5.445324e+08 8.9818215e+11 7.4924766e+11 373798.6 6.9422976e+09
0.0 1.2342651e+11 2.7761092e+11 0.0 3.5084347e+11 0.0 1.1460392e+09 1.2024907e+11
9.364234e+11 2.5572047e+11 8.788403e+10 2.345324e+10 4.3651377e+11 0.0 0.0 0.0
4.3449344e+10 1.4551192e+10 6.985743e+09 1.2275363e+08 4.4409455e+10 1.9410741e+10 0.0 50529.535
0.0 9.856029e+09 2.4256602e+10 0.0 5.4648934e+09 0.0 2.6555898e+08 3.652353e+08
7.851612e+10 8.9451866e+08 2.7294834e+07 1.2271094e+09 1.5422284e+10 0.0 0.0 0.0
3.2161753e+11 1.0980955e+11 1.8674506e+10 3.2972582e+08 5.187699e+11 3.716667e+11 8.468936e+06 2.7044026e+08
0.0 7.3769935e+10 1.6900393e+11 0.0 1.6214449e+11 0.0 2.1309592e+07 3.2858776e+10
5.796288e+11 7.1814685e+10 1.1924367e+10 1.4719314e+10 2.3986035e+11 0.0 0.0 0.0
0.0 0.0 0.0 0.0 0.0 0.0 0.0 0.0
0.0 0.0 0.0 0.0 0.0 0.0 0.0 0.0
0.0 0.0 0.0 0.0 0.0 0.0 0.0 0.0
1.6625678e+10 3.6897787e+09 2.4549344e+08 9.9657024e+08 2.864542e+10 1.1184112e+10 5.745204e+06 5.613125e+08
0.0 2.584623e+09 7.389628e+09 0.0 1.1201896e+10 0.0 8.247734e+07 6.1118387e+09
3.0132695e+10 4.456855e+09 1.9181528e+09 2.6087818e+09 1.7197257e+10 0.0 0.0 0.0
2.6481615e+11 9.098145e+10 3.623263e+10 9.283078e+07 2.9957967e+11 1.535581e+11 0.0 613625.8
0.0 6.0622967e+10 1.4561893e+11 0.0 4.7362208e+10 0.0 6.802292e+08 3.870302e+09
4.8121286e+11 1.0224073e+10 8.497239e+08 7.65608e+09 1.1065368e+11 0.0 0.0 0.0
0.0 0.0 0.0 0.0 0.0 0.0 0.0 0.0
0.0 0.0 0.0 0.0 0.0 0.0 0.0 0.0

exp_avg f4 [24]
00000000: 6cc0 b53a b5a9 3539 cb31 b52d 2cc2 ea38
00000010: 5ca6 093a 846f f4b9 e836 173a 0000 0000
00000020: a903 aa3a 3aea 9b38 0000 0000 0957 a33a
00000030: 2e27 ba2b 0000 0000 4261 19ba 9812 e2b9
00000040: 0000 0000 4295 a5ba f4fa 8739 0070 a7b5
00000050: b83b df39 187f abb9 11e1 f3b9 cc5c b73a
0.001386655 0.00017324726 2.059943e-11 0.00011194157 0.0005250925 -0.00046622392 0.00057683745 0.0
0.0012971062 7.434604e-05 0.0 0.0012461852 1.3226969e-12 0.0 -0.00058509794 -0.00043119933
0.0 -0.0012632983 0.0002593618 -1.2475066e-06 0.00042578368 -0.00032710354 -0.0004651626 0.0013989448

exp_avg_sq f4 [24]
00000000: e171 813a 49c2 4c35 3706 b937 e2c7 d538
00000010: e5ad d03a 9b8a b338 83a2 763a 0000 0000
00000020: b326 6538 a1e3 163a 0000 0000 c305 243a
00000030: 39ec 9332 0000 0000 b813 993a 17f1 3f3a
00000040: 0000 0000 ad3d 383a 8f1f 873a 66d4 8938
00000050: 3c67 4e39 6451 1c3a ff08 9e39 5eb8 df39
0.0009875858 7.6278644e-07 2.2056613e-05 0.000101938625 0.0015920965 8.5612024e-05 0.00094083714 0.0
5.4633896e-05 0.0005755965 0.0 0.0006256962 1.7220474e-08 0.0 0.001167885 0.0007321997
0.0 0.00070282334 0.0010309088 6.572231e-05 0.00019684149 0.0005963056 0.0003014281 0.0004267124

exp_avg f4 [4, 24]
00000000: 24a5 de46 2369 2ec4 2967 9537 3aae 10c4
00000010: c861 4d47 7093 2846 d529 6f45 0000 0000
00000020: f2f5 06c5 dc7a e645 0000 0000 99e0 cb46
00000030: 6b2b 2db6 0000 0000 741a 3847 2089 9046
00000040: 0000 0000 7863 6147 08bb 1847 d2d3 8045
00000050: 2af6 2d45 c609 3047 4029 04c5 c04f 3b46
00000060: 8f1f e845 e610 f7a8 c8fa c637 9401 dfc5
00000070: a01e 0f45 c0a0 36c4 c60f 1bc5 0000 0000
00000080: afa5 1244 ad6b 5a45 0000 0000 c9e2 dec6
00000090: 24d9 dbb3 0000 0000 6cc5 c3c6 6e30 a5c5
000000a0: 0000 0000 4f13 aec6 e20b a245 ac32 a044
000000b0: 80b0 88c6 16b7 a845 598b 20c5 2d5c 18c7
000000c0: be06 d8c6 a723 29c4 0000 0000 3e6f 9043
000000d0: f2b5 2bc7 60f4 19c6 04e4 9444 0000 0000
000000e0: fae9 90c3 a099 20c5 0000 0000 f024 3ac4
000000f0: a2e8 c935 0000 0000 4078 cfc6 3405 92c6
00000100: 0000 0000 4a53 21c7 1b96 2fc7 6ef7 3039
00000110: 82ff 3545 fe60 10c7 4bbb bf45 244f 22c6
00000120: a850 0b45 322d 1e44 3021 7737 5c71 2646
00000130: 78cf 1946 c821 c945 eb0b b945 0000 0000
00000140: d7e7 2746 5367 2dc5 0000 0000 df15 c446
00000150: b8af 5cb4 0000 0000 702a fe46 fb49 0046
00000160: 0000 0000 d845 0047 0080 f9c2 8873 9045
00000170: a6d3 6546 a283 2246 fa73 6045 a2ee d746
28498.57 -697.64276 1.7810222e-05 -578.7223 52577.78 10788.859 3826.6145 0.0
-2159.3716 7375.3574 0.0 26096.299 -2.5804281e-06 0.0 47130.453 18500.562
0.0 57699.47 39099.03 4122.4775 2783.3853 45065.773 -2114.5781 11987.9375
7427.945 -2.7429837e-14 2.3720218e-05 -7136.1973 2289.914 -730.5117 -2480.9858 0.0
586.5888 3494.7297 0.0 -28529.393 -1.023748e-07 0.0 -25058.71 -5286.0537
0.0 -22281.654 5185.4854 1281.5835 -17496.25 5398.8857 -2568.7092 -39004.176
-27651.371 -676.55707 0.0 288.86908 -43957.945 -9853.094 1191.1255 0.0
-289.82794 -2569.6016 0.0 -744.57715 1.5043372e-06 0.0 -26556.125 -18690.602
0.0 -41299.29 -44950.105 0.00016876843 2911.9692 -36960.992 6135.4116 -10387.785
2229.041 632.7062 1.4730074e-05 10652.34 9843.867 6436.2227 5921.4897 0.0
10745.96 -2774.4578 0.0 25098.936 -2.0553023e-07 0.0 32533.219 8210.495
0.0 32837.844 -124.75 4622.4414 14708.912 10400.908 3591.2485 27639.316

exp_avg_sq f4 [4, 24]
00000000: 0cb7 6e52 d3ab 2e4c d502 824e 97fb 844f
00000010: 854b b553 43e4 a851 ae87 ae4f 0000 0000
00000020: 3997 904d d888 9a50 0000 0000 c7db 7c52
00000030: 66cd ac47 0000 0000 6d4c c153 c24d ad52
00000040: 0000 0000 43cf 1054 7a21 4553 349b 4b50
00000050: 242d a151 854e 2353 1830 434f 861c 0653
00000060: 9773 ad51 0ea8 d749 5254 1c4d 204e 6150
00000070: 2d72 9353 1566 bb50 1556 d64f 0000 0000
00000080: 40c2 504d 7651 0b50 0000 0000 a6fa 3053
00000090: 6c29 0b43 0000 0000 9fa3 3b54 d321 d452
000000a0: 0000 0000 ebd6 4354 852c a252 50f3 ec50
000000b0: 3025 ab52 50a2 8b52 a5fc 6851 a2df 8753
000000c0: 417b a452 4b12 414c 0000 0000 43c1 394e
000000d0: a7e4 cd53 8519 0d52 88c9 cc4f 0000 0000
000000e0: aba4 9a4e 96ec 9050 0000 0000 ad71 3252
000000f0: 1a2f ce46 0000 0000 637c c553 55b5 c452
00000100: 0000 0000 3879 1f54 18bf 6753 cbbe 134f
00000110: ca5f 3151 295b 6753 7ec8 cc4f af6a fd52
00000120: e3a9 8d51 6036 ed4a 8cd9 2350 7afb 3150
00000130: f537 c152 3e18 0051 695a 1b4f 0000 0000
00000140: f95b 2e4e 3008 1a4f 0000 0000 7490 4552
00000150: 9e39 0c44 0000 0000 1054 1c53 f09e d751
00000160: 0000 0000 0ed4 5753 7290 5d52 9d6a b850
00000170: 8679 c451 96ff 7052 1cbc 844f a8e1 a852
2.5631831e+11 4.5789004e+07 1.0906118e+09 4.4621614e+09 1.5573122e+12 9.067301e+10 5.856255e+09 0.0
3.032287e+08 2.0741276e+10 0.0 2.7150475e+11 88474.8 0.0 1.6604218e+12 3.7216695e+11
0.0 2.4878103e+12 8.466702e+11 1.3663785e+10 8.653088e+10 7.01397e+11 3.274709e+09 5.7600416e+11
9.312108e+10 1.7666578e+06 1.6392323e+08 1.5119974e+10 1.2665515e+12 2.5152236e+10 7.1919314e+09 0.0
2.1889946e+08 9.349487e+09 0.0 7.601194e+11 139.1618 0.0 3.223616e+12 4.5555027e+11
0.0 3.3644974e+12 3.482658e+11 3.180295e+10 3.6753166e+11 2.998618e+11 6.2541943e+10 1.167145e+12
3.5322125e+11 5.0612524e+07 0.0 7.7911264e+08 1.7686089e+12 1.5150463e+11 6.871519e+09 0.0
1.2972415e+09 1.9451392e+10 0.0 1.9160284e+11 26391.55 0.0 1.6963908e+12 4.2242792e+11
0.0 2.739734e+12 9.9534347e+11 2.4787546e+09 4.7613518e+10 9.9366686e+11 6.871383e+09 5.442083e+11
7.605508e+10 7.772976e+06 1.0995773e+10 1.1944192e+10 4.1493375e+11 3.438516e+10 2.6063936e+09 0.0
7.313158e+08 2.5842278e+09 0.0 2.1213302e+11 560.90027 0.0 6.7142523e+11 1.1576056e+11
0.0 9.2697566e+11 2.3790279e+11 2.4751958e+10 1.0548155e+11 2.5877004e+11 4.453841e+09 3.626702e+11

exp_avg f4 [4]
00000000: 30a5 013c 4e04 05bb 2042 8bbb 9ba4 793b
0.007912919 -0.0020296755 -0.004249826 0.0038092497

exp_avg_sq f4 [4]
00000000: c9c0 dd3c 20c2 0d3d bfb2 f83c 3bc8 1a3c
0.027069466 0.03460896 0.03035867 0.009447153
