test_model/covid2.pth (torch, 6807 bytes, 6 tensors)

weight f4 [24, 4]
000000 00 cd 95 3b bc 4f 95 3e 68 8f 77 3e b2 64 9a 3e
       0.004571557 0.29162395 0.24175799 0.3015495
000010 c0 f0 6c 3c 36 f5 a3 be c0 b3 77 3e 14 ed 25 3e
       0.014461696 -0.3202302 0.24189663 0.1620372
000020 30 7a 2f be ce 84 a9 3e dc 73 74 be c8 46 21 3e
       -0.17136455 0.33109134 -0.23872322 0.15749657
000030 78 2a e2 bd ac 27 aa 3e b4 59 9e 3e 10 5f 4a 3d
       -0.110432565 0.33233392 0.30927813 0.049407065
000040 5c 62 89 3e 20 a6 66 3d 5a c5 a3 3e 70 00 63 3e
       0.26832855 0.056310773 0.31986505 0.22168136
000050 4a 55 ec 3e 04 34 0a be 84 11 a7 be f0 ae c0 3d
       0.4615882 -0.13496405 -0.3263055 0.09408367
000060 88 70 18 3e 40 63 9c 3e 02 f6 f0 be 1c 24 d4 be
       0.14886677 0.30544472 -0.4706269 -0.414338
000070 9e db 9f 3e b8 f2 be 3e 24 42 59 be d4 dc d4 be
       0.31222242 0.37294555 -0.21216637 -0.41574728
000080 9e 5f cc be a8 5d f3 bd 78 44 82 be 10 87 ee bd
       -0.399167 -0.11883098 -0.25442863 -0.11646855
000090 80 2c 67 3c 7c 59 3e be 00 cd 40 3d 48 69 1c 3e
       0.014109731 -0.18588823 0.047070503 0.15274537
0000a0 e0 fb c1 bc b8 d2 52 3e f0 63 76 3d f8 f0 72 3e
       -0.023679674 0.20588195 0.0601539 0.23724735
0000b0 04 9b af be c8 1c 15 3e 66 69 a7 be 88 88 99 bd
       -0.34297955 0.1456176 -0.326976 -0.074967444
0000c0 3e 1f c4 3e e0 b9 e5 bc d4 b3 5f 3e 00 54 42 ba
       0.38305086 -0.028042734 0.21845943 -0.00074130297
0000d0 5a 21 ad be 62 22 ef be 14 c1 ba be 04 17 9c be
       -0.33814508 -0.4670592 -0.36475432 -0.3048631
0000e0 bc d2 23 be 3c 36 a3 be 50 a2 1a 3e e0 70 3b 3d
       -0.15998358 -0.31877315 0.1510098 0.045761943
0000f0 50 52 a7 3e c8 36 30 be 26 5d e1 3e c8 2f fa bd
       0.32679987 -0.17208397 0.4401638 -0.12216145
000100 00 50 31 ba 98 b9 aa 3d 08 07 d7 3e 60 24 c8 3e
       -0.0006763935 0.083361804 0.41997552 0.39090252
000110 22 b7 f1 3e 66 d2 ce be 30 09 43 be c0 d2 28 be
       0.47210032 -0.40394896 -0.19046474 -0.16486645
000120 14 b6 fb 3e 4a 6a d7 3e 28 6d e9 be 56 e3 ad be
       0.49162352 0.4207328 -0.45591092 -0.33962506
000130 10 88 10 3d b8 e9 aa 3e 28 08 1b 3e d0 8e 16 3d
       0.03528601 0.33381438 0.1513983 0.03675729
000140 26 6b 8b 3e 9e 47 89 3e 4c 71 7b 3e c8 e1 c9 3d
       0.27230185 0.26812452 0.24554938 0.098575175
000150 e8 68 f4 be c4 f6 29 3e b0 91 1f 3e c4 35 e0 be
       -0.47736287 0.1659804 0.15582919 -0.4379102
000160 14 7c d6 be 28 58 3f 3e 1c a8 74 3e 0c 95 e7 be
       -0.4189154 0.18685973 0.23892254 -0.452309
000170 10 8e 7a bd 80 a5 05 3c 34 58 d2 be 48 86 d5 be
       -0.061170638 0.008157134 -0.4108292 -0.4170401

bias f4 [24]
000000 ce c0 f4 3e 24 c4 df be 2c e8 fe 3e 92 eb f5 3e
       0.47803348 -0.4370433 0.49786508 0.48031288
000010 88 ea 8c 3d 80 a5 b0 bd 50 78 5b 3d 7e ec c1 3e
       0.06880671 -0.086253166 0.053581536 0.37875742
000020 7c 30 71 3e 2e 59 8f be 00 0c e0 3a 00 3d 8e bc
       0.23553652 -0.27997726 0.001709342 -0.017363071
000030 48 2c a7 bd 34 67 6a 3e 4c 5f d9 3e e0 c1 e5 3e
       -0.08162743 0.22890931 0.42455518 0.44874477
000040 ec cf 80 be 3a 8c a8 be b0 39 42 3d 00 8f a5 bc
       -0.25158632 -0.32919484 0.047418296 -0.02020979
000050 7c 08 b0 3e a0 19 36 3d 6c ae a4 3e 62 34 a6 3e
       0.34381473 0.04445803 0.32164323 0.3246184

weight f4 [24, 24]
000000 ae 69 15 3e ad f2 c0 bd c8 ff c6 3d c0 a4 0c be
       0.14591095 -0.09421287 0.09716755 -0.13734722
000010 00 d0 77 3d 7e 16 04 be e6 07 2a 3e ca ca 17 be
       0.0605011 -0.12899205 0.16604576 -0.14823452
000020 84 4b 72 bd c0 53 a1 3d 6a 19 0d 3e f0 22 cb 3c
       -0.05915405 0.07877302 0.13779226 0.024796933
000030 fc c2 99 bd dc 06 c3 3d b6 88 bb bd 08 5f 8b 3d
       -0.075078934 0.09522793 -0.09156935 0.06805235
000040 60 30 ac 3d de 1c d8 bd 6e cb 05 3e 20 05 fd bb
       0.08407664 -0.10552381 0.13065884 -0.007721558
000050 40 29 cb bc 38 4c 4e be 86 85 ad bd 18 9c 08 3e
       -0.024799943 -0.20146263 -0.08472733 0.13340795
000060 62 89 00 3e f7 6c ff bd 28 40 62 bd 08 88 e5 3d
       0.12552407 -0.12471955 -0.055236965 0.112075865
000070 76 dc 83 bd 04 82 92 3d 0b bd b3 bd 64 27 31 3d
       -0.06438534 0.07153705 -0.087762915 0.043250456
000080 da c8 9d bd ac 16 ab 3d 42 71 36 3e ee 04 d5 bd
       -0.07704325 0.08353934 0.17816642 -0.10401331
000090 3c ae 2f be 00 a4 67 3b 68 20 69 3d 3c 26 0c 3e
       -0.17156309 0.0035345554 0.05691567 0.1368646
0000a0 a6 a2 42 be b0 3a 7d bc 7b a1 19 be 20 51 39 3c
       -0.19007358 -0.015455887 -0.15003006 0.011310846
0000b0 f8 fd 78 3d 09 27 af bd d4 58 43 3e 68 72 a2 bc
       0.06078908 -0.08552367 0.19076854 -0.019829944
0000c0 46 1e 9c bd 3b 43 e1 bd 60 ac 20 3e 68 90 20 bd
       -0.07622962 -0.10999151 0.15690756 -0.039200217
0000d0 84 42 25 3d 10 cc 45 3e 40 8f fd 3b 22 8e 3c 3e
       0.040346637 0.19316125 0.007738024 0.18413594
0000e0 88 ef 3b 3e 91 90 ca bd 3a dc 34 be 00 d9 1a 3e
       0.18353093 -0.09890855 -0.17662135 0.15121841
0000f0 a4 c1 02 3e d0 8a d3 3d e8 e3 a3 3d 4d 58 35 be
       0.1276918 0.10329211 0.08002454 -0.17709465
000100 fe 83 84 bd 80 f0 a8 3d bc 41 a1 bd b4 ca 21 bd
       -0.06470488 0.08248997 -0.07873866 -0.039499953
000110 26 b1 38 be 12 7c 34 be 2f 10 34 be fc 19 f1 3d
       -0.18036327 -0.17625454 -0.17584299 0.11772534
000120 9e 6c 17 3e 0a 71 0c 3e ec 4e 36 3d 2c 97 37 3e
       0.14787528 0.13714996 0.04450886 0.17928761
000130 f2 ca f8 bd 68 b6 bd bc f4 31 80 3d ea 35 15 be
       -0.12148084 -0.023158267 0.06259528 -0.14571348
000140 20 ca 69 3d dc 57 92 bd 7f 6f 50 be b0 80 6a bd
       0.057077527 -0.07145664 -0.20355032 -0.057251632
000150 20 bd b0 3d c7 1c 3c be 04 44 db 3d 70 42 2b 3e
       0.08629823 -0.18370353 0.10706332 0.16724563
000160 cd a4 1f be de 01 91 bd c8 bf 80 3d 46 30 07 3e
       -0.1559021 -0.07080434 0.06286579 0.13202009
000170 16 56 39 3e 0c 5e 9c bd e0 8c 00 3e 70 68 80 3d
       0.18099245 -0.076351255 0.1255374 0.0626992
000180 80 0f 6a 3d 84 0b dd bd 40 1b 67 bc cd 2d f1 bd
       0.05714369 -0.10793212 -0.014105618 -0.11776314
000190 20 88 cb bc a0 68 0f 3e f8 62 e4 3d 00 80 0b 39
       -0.024845183 0.14004755 0.11151689 0.00013303757
0001a0 70 8e 16 3c 1c 76 15 3e 20 8f e2 3c 68 00 11 be
       0.009189233 0.14595836 0.027656138 -0.14160311
0001b0 ca 46 36 3e 1c 31 7b bd a8 63 c0 3d bc 1d 4c be
       0.17800441 -0.06132613 0.09394008 -0.19933218
0001c0 06 6a 17 3e 16 dd b9 bd c7 31 11 be 42 10 37 be
       0.14786538 -0.09075372 -0.14179145 -0.17877296
0001d0 e0 10 b2 3d d0 31 ec 3d 5a 01 ad bd 40 99 11 3c
       0.08694625 0.115329385 -0.084475234 0.008886635
0001e0 7c 41 f4 3d 1a 9a 95 bd 08 9d 09 be 22 d0 bf bd
       0.11926553 -0.07304783 -0.13438809 -0.0936587
0001f0 75 77 e2 bd 28 54 47 be e8 a3 49 be 19 db d3 bd
       -0.11057941 -0.19465697 -0.19691432 -0.10344524
000200 e0 ea ca 3d 62 38 dd bd 26 53 4a 3e 9e dc 0c 3e
       0.0990808 -0.1080177 0.19758281 0.13756034
000210 40 87 fa bc d7 59 ff bd f4 0b 42 3e 18 31 85 bc
       -0.03058207 -0.124683075 0.18949872 -0.016258761
000220 4c cb 49 3e e2 9f 44 3e c0 7a 87 bc e0 c0 60 3d
       0.19706458 0.19201615 -0.016538024 0.05487144
000230 31 a1 28 be b4 48 98 3d 62 0b 19 3e 88 46 bd 3d
       -0.1646774 0.07435742 0.14945748 0.092419684
000240 c4 ba 93 3d 54 23 49 3e 14 65 40 be a0 00 14 3e
       0.07213357 0.19642383 -0.18788558 0.14453363
000250 04 a7 de 3d 38 2a 9e bd d4 30 b1 3d 0c 78 88 3d
       0.108716995 -0.07722896 0.08651891 0.06663522
000260 d4 59 bb bd ec d1 a2 bd 30 a7 b2 3d 74 8c 6f bd
       -0.09147993 -0.07950196 0.08723295 -0.058483556
000270 28 d5 fd 3d d8 45 8e bd c8 37 e3 bd 65 4f 11 be
       0.12394172 -0.069469154 -0.11094624 -0.14190443
000280 f6 67 4c be 78 85 a5 bc 58 ba 29 be e8 2b fd 3d
       -0.19961533 -0.020205244 -0.16574991 0.1236189
000290 34 48 96 3d 6e 7e 4b 3e e0 97 35 3e fe 52 22 3e
       0.073379904 0.19872448 0.17733717 0.15851972
0002a0 68 6b e7 3d bc 30 11 3e d0 37 3c bd b2 84 d1 bd
       0.11299783 0.14178747 -0.045951664 -0.10230388
0002b0 d5 b1 4d be 8d 18 30 be ee ce a1 bd 74 cb 01 3e
       -0.20087369 -0.17196865 -0.07900797 0.12675267
0002c0 18 9f e6 bc 6e d2 47 be 90 a1 38 3d e0 5f 3c 3e
       -0.028152034 -0.19513866 0.045075953 0.18395948
0002d0 74 c2 8d bd b8 a6 b6 3c 2c 96 1e bd bc 59 3a 3e
       -0.069218546 0.022296295 -0.038717434 0.18198293
0002e0 a0 48 d8 bd 37 08 cd bd 28 9e 20 bd 64 00 1f be
       -0.10560727 -0.100113325 -0.03921333 -0.15527493
0002f0 40 26 8f bb a8 e4 ca 3d 98 ed 8b 3d 96 9f 36 3e
       -0.0043685734 0.09906894 0.06832427 0.17834315
000300 40 6f a9 bc 40 9f 05 3b d6 17 4a be 08 e5 17 3e
       -0.020682931 0.002038911 -0.19735655 0.14833462
000310 ab 3e 0d be e4 dc 5a bd 58 8d 04 bd ff ed 16 be
       -0.13793437 -0.053433314 -0.03236136 -0.14739226
000320 50 00 ad 3c 94 eb 00 3d 60 86 3b bd dc ef 0d 3e
       0.021118313 0.031474665 -0.045782447 0.1386103
000330 70 7a 6c 3d d2 28 b4 bd c0 a5 5d 3d 1c a4 36 bd
       0.057733953 -0.08796848 0.05411315 -0.0445901
000340 60 e8 c3 3d 20 49 40 bd 23 48 de bd b0 cb a5 3d
       0.095658064 -0.046944737 -0.10853603 0.08095491
000350 e4 fc cb 3d 0c f3 ef 3d 40 7f 1b 3d 5a 8b 18 3e
       0.099603444 0.117162794 0.037963152 0.14896908
000360 7c 57 b5 3d a6 48 08 3e e4 c5 18 3e b8 b3 1e bd
       0.08854577 0.13308963 0.1491924 -0.038745612
000370 64 8e 32 bd dc 08 ae 3d 3c 7c 6b bd 16 c2 43 be
       -0.043592826 0.084977835 -0.057491526 -0.19117007
000380 7c 8b 1d bd 20 2a d2 bd e8 e4 eb bd 34 f4 99 bd
       -0.0384631 -0.10261941 -0.1151827 -0.07517281
000390 c4 d2 45 3e be 9d 1b be 24 97 b0 3d 40 95 42 bb
       0.19318682 -0.15196893 0.08622578 -0.002969101
0003a0 2c 7c 60 bd 85 45 31 be e0 f2 81 3c a8 de 68 3d
       -0.05480592 -0.17311676 0.015862882 0.056852967
0003b0 76 f2 c9 bd c4 83 cf 3d f8 66 e5 3d 40 62 67 bd
       -0.09860699 0.10132554 0.1120128 -0.056490183
0003c0 56 fc 19 be 4e 4b 4c be f8 6f 18 bd 48 4a 5b bd
       -0.15037665 -0.19950601 -0.037216157 -0.053537637
0003d0 f8 e6 6b bd 08 85 e9 3c 47 47 24 be 00 3e 9a ba
       -0.057593316 0.028505817 -0.16042815 -0.0011767745
0003e0 f4 30 28 3e 02 24 27 3e 58 3b 86 bc b8 8d 98 3d
       0.16424924 0.1632233 -0.01638572 0.07448906
0003f0 24 b2 f2 3d 34 16 82 bd b8 76 3d 3e 4b bd 4e be
       0.11850384 -0.06351891 0.18502319 -0.20189397

bias f4 [24]
000000 60 c6 3e 3d fc a3 c8 3d 0c 73 2b 3e 40 77 23 3e
       0.046575904 0.097969025 0.16743106 0.15963459
000010 60 21 78 3c 12 eb 19 3e 80 73 6b 3d 84 51 97 3d
       0.015144676 0.15031078 0.057483196 0.07388595
000020 fc 57 a9 3d d6 64 10 3e f8 b8 0f be 20 a0 03 be
       0.08268735 0.14100966 -0.14035404 -0.12854052
000030 30 33 bf bc 84 d2 c6 3d e0 74 a7 3b d5 1d e7 bd
       -0.023339838 0.097081214 0.005110368 -0.11284987
000040 10 f8 25 bc 38 f6 be bc b2 3b 27 3e 2c 57 2d 3e
       -0.0101299435 -0.023310766 0.16331366 0.16927785
000050 fa f9 31 be b6 16 43 3e de c7 06 3e 4c cd 37 be
       -0.17380515 0.19051632 0.13162181 -0.17949408

weight f4 [4, 24]
000000 6c 32 2f 3e 0a 42 87 bd a4 36 d0 3d 42 a8 fc bd
       0.17109078 -0.06604393 0.10166672 -0.1233678
000010 40 01 c9 3c e8 93 8a bc d4 ad c6 3d 32 40 e0 bd
       0.024536729 -0.01691623 0.09701124 -0.10949744
000020 f0 39 20 bc c8 27 fe bd ec cc 04 3d d8 4e 7b 3d
       -0.009779438 -0.124099314 0.03242199 0.061354488
000030 c0 11 14 bc fd 9d 11 be e2 5d 19 be 3c 30 04 be
       -0.009037435 -0.14220424 -0.1497722 -0.12909025
000040 98 3f 83 3c 95 72 a7 bd b2 4d 80 bd e4 4e 0b 3e
       0.016021535 -0.08176152 -0.06264819 0.13604313
000050 78 89 a7 3d 58 29 82 bc 1c 47 ab 3d 18 de 84 3d
       0.08180517 -0.015888855 0.083631724 0.064876735
000060 80 59 b0 3b 54 e7 dc 3d 63 64 1f be 74 a6 c5 3d
       0.005381763 0.1078631 -0.15565638 0.09650889
000070 2c 5d 44 be f7 8f 0b be 60 bb 38 3e c4 64 20 3d
       -0.19176167 -0.13629137 0.18040228 0.039158598
000080 1c 63 f5 3d 1e cc f9 bd f2 0f 09 be fe e9 d1 bd
       0.11981794 -0.121971354 -0.13384989 -0.102497086
000090 2a e6 25 3e 19 75 a2 bd e6 ce 0a 3e 48 d8 c5 bd
       0.16201082 -0.07932491 0.13555488 -0.09660393
0000a0 7c 36 d1 3d b8 d2 9b 3d 82 e5 42 3e 00 f6 cd 3a
       0.1021547 0.07608551 0.19032863 0.0015713573
0000b0 c0 08 4e 3d f8 b1 c0 3c 40 aa 7d 3d d8 55 dc bc
       0.050301313 0.023522362 0.06192994 -0.026896402
0000c0 92 12 e6 bd bc fa 54 bd 68 17 b5 3c a6 5b 47 be
       -0.11234011 -0.05199693 0.022105888 -0.19468555
0000d0 7d ad 01 be c0 dd 45 3d f4 2b 09 3e b0 5b c3 3d
       -0.12663837 0.04830718 0.13395673 0.095389724
0000e0 ca 1d 15 3e 5a 88 92 bd 52 c8 93 bd 30 11 4b bc
       0.14562145 -0.07154913 -0.072159424 -0.012394235
0000f0 a8 19 39 3e 40 b3 d9 bc 5e 2c 1c be 24 3f 1f 3d
       0.18076193 -0.02657473 -0.152513 0.038878575
000100 1e ff 06 3e 40 db 73 3d 7e e6 08 be 76 0b 33 be
       0.13183257 0.059535265 -0.13369176 -0.17484841
000110 08 d8 c2 bd c0 77 ab 3d 60 2c e6 3b dd 36 b0 bd
       -0.09513861 0.0837245 0.007024333 -0.08604214
000120 f2 a9 09 be 0a 7d 0e 3e 74 90 1b 3e e0 e5 e0 3d
       -0.13443735 0.13914886 0.15191823 0.10981345
000130 9f fc 0e be d8 40 5a 3d 86 f8 1c be 34 bc cf 3d
       -0.13963555 0.053284496 -0.15329179 0.10143319
000140 e0 47 ee 3d 00 20 8f b7 58 1d 65 3d 9c 93 03 3e
       0.11634803 -1.706183e-05 0.055936188 0.12849277
000150 68 19 a3 3c 64 fb f9 3d 10 e7 a8 3c a8 0b 68 3d
       0.019909576 0.12206152 0.020617992 0.05665174
000160 48 30 ea 3c 68 5d fd bd 98 a2 2a 3e 6b a8 35 be
       0.028587475 -0.123713315 0.16663587 -0.17740028
000170 80 5b 52 bd 80 dd 0a 3b 06 b3 30 be 0e 66 24 3e
       -0.051356792 0.0021189153 -0.17255792 0.16054556

bias f4 [4]
000000 f0 7f 78 3d 66 ed 30 3e ca ef 16 3e b0 53 ad 3d
       0.060668886 0.1727806 0.1473991 0.08463228
