demo/covid2.pth (torch, 242613 bytes, 16 tensors)

weight f4 [50, 4]
000000 07 cd 93 bc da dc e4 bd 6c 53 0d be d4 90 38 bb
       -0.0180421 -0.111749366 -0.13801354 -0.0028162496
000010 e0 49 a8 be aa 25 02 be c6 63 33 be 85 f4 c4 3b
       -0.32868862 -0.1270968 -0.1751853 0.0060105943
000020 89 71 74 bd 50 46 d8 3b 53 a5 f0 bd 84 de a8 bd
       -0.059678588 0.006600179 -0.11750283 -0.082455665
000030 c1 5d 1a be f7 09 35 be 44 df 3d be 28 78 84 bd
       -0.15074827 -0.17679583 -0.185422 -0.064682305
000040 d1 99 a9 bd e2 fe f6 3c cc 3b 12 3c 47 e7 70 be
       -0.08281291 0.030150834 0.0089253895 -0.23525725
000050 aa ae 7f be ec b2 3f bd e3 87 5b be 65 bc 3c bd
       -0.24968973 -0.046801493 -0.21438555 -0.046078105
000060 b4 c4 aa bc 65 2f 71 bd 0e f1 04 bc b5 fb 04 bb
       -0.020845748 -0.05888309 -0.008114113 -0.002029163
000070 bf 66 b3 bb da c8 ac be fd be 3c be ac cb 0a be
       -0.005474895 -0.33746988 -0.18432231 -0.13554257
000080 07 eb 30 bb 35 ed 82 be 23 ce 20 be e4 bd 45 be
       -0.0026995556 -0.255716 -0.15703635 -0.19310719
000090 de 36 58 ba 0b c9 24 bf 05 b8 0d bf f1 86 88 be
       -0.0008247922 -0.6436927 -0.55358917 -0.26665452
0000a0 98 15 d8 bb d7 55 fe bd f1 ce 45 bb 1b 6c 24 bd
       -0.006594371 -0.124187164 -0.003018316 -0.04014216
0000b0 d9 12 fa 3a 75 ec 87 b9 fc 5a 3f 3b 39 07 3f 3a
       0.0019079103 -0.0002592538 0.0029198518 0.0007287148
0000c0 82 a8 9a ba 73 02 28 3c bc 54 59 bc 38 1b dd bb
       -0.0011799487 0.01025449 -0.013264831 -0.0067476295
0000d0 86 9e 01 ba 22 4f 15 bf 4c 5b 2d bf 45 fb 96 be
       -0.00049445813 -0.5832387 -0.6771743 -0.29488578
0000e0 20 e3 02 bc d5 9c 1f bf ab b7 a9 bd 8c eb ae bc
       -0.007988721 -0.6234868 -0.08286985 -0.021352552
0000f0 e6 34 50 bc 6e d4 1c bd ec e9 05 be a0 9a 0e bc
       -0.0127079245 -0.038288526 -0.13077515 -0.008703858
000100 79 93 9d bd c3 9c ac 3c 0f 68 15 3d 80 42 07 bd
       -0.07694144 0.021070844 0.03647619 -0.033022404
000110 fb 59 b9 bc 28 91 06 bd 92 2b d1 3d e2 3f eb bd
       -0.022625914 -0.032853276 0.102133885 -0.11486794
000120 7c cf 09 bd 35 7b 2c bd cd 0b 42 bd b5 d1 17 bb
       -0.03364514 -0.042109687 -0.047374535 -0.0023165767
000130 99 3b 13 be fa 27 08 3b 77 9a d6 bd 6a a8 0b bd
       -0.14378203 0.002077578 -0.104786806 -0.03409616
000140 5c 4b cb bb 8b c7 f0 be cf 8d c2 be 2e 0a 7e be
       -0.006204052 -0.4702724 -0.37998816 -0.2480857
000150 34 22 5b be a1 c7 dd bd c8 d5 74 bd dc 1a 02 3c
       -0.21399766 -0.10829092 -0.05977419 0.007940974
000160 0b b9 d9 ba cf d9 43 be 95 7c 86 be 6a ce f4 bd
       -0.0016610933 -0.19126056 -0.26266924 -0.11953433
000170 ea fc 82 ba b0 a6 19 bf a7 91 13 bf 50 64 b8 be
       -0.0009993587 -0.6001997 -0.5764412 -0.36014032
000180 55 c6 d4 bb 32 27 b1 bc f2 57 2f bd ba f5 29 bb
       -0.0064933696 -0.021625135 -0.04280848 -0.0025933818
000190 6a be 01 bc 1c 08 a1 be 7b 1e 87 be 19 a5 0b bf
       -0.007918933 -0.314515 -0.26390442 -0.54548794
0001a0 85 f0 70 bd 01 21 84 bd 8e 3c 53 be 5a 0b 04 be
       -0.058823127 -0.064516075 -0.20628569 -0.12894955
0001b0 5a ad fd ba 52 bf c5 be 4e 59 71 be 1c 86 9d be
       -0.0019354031 -0.38622528 -0.23569223 -0.3076638
0001c0 de cc ab bb 1b 2e 3d 3c b1 e1 72 bd 57 48 27 bd
       -0.005242928 0.011546637 -0.059297267 -0.040840473
0001d0 d0 d1 39 bc bb f6 86 bd ea 87 6e 3d a1 78 7d be
       -0.011341527 -0.06590029 0.058235087 -0.24753048
0001e0 78 55 17 bc 16 25 21 bd d3 82 a4 3d 5c 1c 21 bd
       -0.009236686 -0.03934201 0.08032765 -0.039333686
0001f0 75 4a 80 ba 1f b4 03 bf 12 c0 ea be fb fb dc be
       -0.0009787815 -0.5144672 -0.45849663 -0.43160996
000200 d1 ad 02 bb 16 22 1a bf f1 1b 9b be 75 04 0f be
       -0.0019940028 -0.6020826 -0.30294755 -0.13966544
000210 04 74 19 be 36 b3 90 3d f5 b5 4c be f3 30 24 3b
       -0.14985663 0.07065432 -0.19991286 0.002505359
000220 75 a1 0c bc 80 8a 34 bc 47 8e c7 bb 14 05 d7 ba
       -0.008583416 -0.011019349 -0.006089959 -0.0016404712
000230 e8 7f 8e b9 31 82 94 bf ca 65 99 be 50 f0 bb be
       -0.00027179648 -1.1602231 -0.2996047 -0.3670678
000240 a8 c1 a6 bb 7f 48 9d bd 43 10 5e bd 4a 6e 98 bc
       -0.0050890036 -0.07679843 -0.054214727 -0.018607277
000250 d7 e0 24 bd ac 3c 70 3c 3e f8 66 ba ec 7c 03 be
       -0.040253486 0.014662903 -0.00088107947 -0.12840623
000260 13 6c b2 bd 5c 22 d4 bd 43 21 b8 bd 57 e2 75 3b
       -0.0871202 -0.10358116 -0.08990719 0.0037518942
000270 a2 3a c6 bb 1b fa a3 bc 64 8b a7 3c ba 0c 0a bc
       -0.00604947 -0.02001672 0.020452209 -0.008425886
000280 d5 a5 15 bb fc b8 2a be dc e2 0c bf 41 43 bf bd
       -0.002283444 -0.16672128 -0.5503366 -0.093389995
000290 e3 54 95 b9 70 d7 ff be b7 99 31 bf ba d5 01 bf
       -0.0002848274 -0.49969053 -0.69375175 -0.50716746
0002a0 7e 52 b3 ba 47 e7 a7 bd af 1a 03 bc e9 6e 2b bc
       -0.0013681201 -0.081984095 -0.008001967 -0.010463455
0002b0 55 df 99 b9 0d 03 6c bf 74 cf ad be d1 3e ae bd
       -0.0002934883 -0.92192155 -0.33947337 -0.08508075
0002c0 22 e2 ab bc 28 a8 8a bd cf ca 81 bd 80 a2 24 be
       -0.020981852 -0.067703545 -0.06337511 -0.16077614
0002d0 bf 95 f9 bd d8 53 35 bd b6 e4 bd bd 1c fc 37 be
       -0.12186765 -0.044269413 -0.09272139 -0.17967266
0002e0 9f 25 91 bd b0 50 80 bd f8 86 de 3b 4f 8c 95 bd
       -0.07087254 -0.0626539 0.006790992 -0.07302152
0002f0 55 4c be be 04 45 9b be 74 e7 97 be f8 b1 78 be
       -0.37167612 -0.30326092 -0.29668772 -0.2428664
000300 7e 99 bf b9 d2 b1 b2 be 4e 0d 49 bd 3a 2b af be
       -0.0003654472 -0.3490129 -0.049084954 -0.34212667
000310 0b 0b 4d bb 1f bc a9 be ac 90 16 bf 22 63 d3 be
       -0.00312871 -0.33151338 -0.588145 -0.4128657

bias f4 [50]
000000 69 df 7f 3e 0a be 99 be 07 7c 99 be 0a 91 b9 bd
       0.24987568 -0.300278 -0.29977438 -0.09060867
000010 d5 c0 4d 3e 6c 2e f7 3d 38 a7 08 be 5f 0b 42 bd
       0.20093091 0.12069401 -0.13345039 -0.047374126
000020 ff e0 af bd 04 56 46 be 4e 63 8d be 12 98 a7 3d
       -0.085878365 -0.1936875 -0.27614826 0.08183302
000030 8c 57 84 be fa 0d b0 be 99 ab be be 6a 44 85 3e
       -0.25848043 -0.34385663 -0.37240294 0.26028758
000040 43 54 e7 be 40 40 17 be 96 96 e1 3e 1c 8e 14 3e
       -0.45181474 -0.14770603 0.440602 0.14507335
000050 a7 39 a0 be d1 59 47 be b5 99 ed be 78 e8 d3 be
       -0.31293985 -0.19467856 -0.46406332 -0.41388297
000060 fe 86 2b bf c0 96 f9 bd c1 34 ba 3d 0b c2 eb be
       -0.67002857 -0.121869564 0.09092093 -0.4604648
000070 51 8a 1a be b7 98 dd 3d 9d 28 7b be 57 9b b8 be
       -0.15091826 0.10820144 -0.24527211 -0.36056015
000080 68 2b ed be 20 cf 37 3e 19 d2 1e be bf bd bd be
       -0.4632218 0.17950106 -0.15509833 -0.37058827
000090 4c f5 49 3e ae 4d 7c 3e db 9b c1 bd a5 e5 be bd
       0.1972248 0.24639007 -0.09453555 -0.09321145
0000a0 df e2 ba 3e 04 12 3a be a7 65 6b be 20 58 84 3e
       0.36501214 -0.18170935 -0.22987996 0.25848484
0000b0 bc f0 e4 3e 25 90 14 bf 58 d0 ed bd 08 38 a1 be
       0.44714916 -0.5803245 -0.11612004 -0.3148806
0000c0 68 d4 ab bd b2 3c 73 be
       -0.08390123 -0.23753622

weight f4 [4, 50]
000000 bd 8b 51 ba c2 1d f4 3c 6f 31 99 3d d6 5b e2 bc
       -0.000799354 0.029799346 0.07480132 -0.027631681
000010 fc fd 31 be 1a d2 1c 3b 0a f8 bd 3d 19 f8 e9 3c
       -0.17382044 0.0023928941 0.09275825 0.028560685
000020 8f c8 5c 3d 50 79 81 3d 6b 0f b9 bd de 09 35 3b
       0.053902205 0.06321967 -0.09036144 0.002762429
000030 02 91 83 3a c9 f3 1c 3d 6f a9 83 3d 0a ae 46 3d
       0.0010037723 0.03831843 0.06428801 0.04850582
000040 6e a7 a4 bc cb e7 2f 3e d4 15 ed 3b df d4 98 3c
       -0.020099368 0.17178266 0.007235268 0.018656192
000050 4e fe 65 3d df 85 3d bd e4 dc 9a 3d 75 12 56 bc
       0.056150727 -0.046270248 0.07561663 -0.013065924
000060 65 57 31 3c ca 10 fb 3d 1c d0 1a 3e 19 de 8c 3c
       0.010824059 0.12259062 0.1511845 0.017195748
000070 c7 ce 7a 3a dd 4e 28 3e f5 64 b7 bc f4 52 fa bc
       0.00095675554 0.16436334 -0.022387007 -0.030557133
000080 81 a9 84 bb 73 68 ae 3c 1e ce 41 3c 2b 6d a1 bd
       -0.0040485268 0.02129004 0.011828927 -0.0788215
000090 f4 c3 13 be 5d 9a c5 3a 86 d7 21 3d b9 26 b0 3b
       -0.14430219 0.0015075911 0.03951218 0.00537571
0000a0 8d 25 d8 3b e1 12 37 be 39 cc a3 3b a7 ae 91 bd
       0.0065962733 -0.17878295 0.0049987105 -0.071133904
0000b0 b7 42 c3 bc e0 e7 52 3d 6b c6 03 3e 82 f3 a9 bd
       -0.023835523 0.051490664 0.12868659 -0.082983986
0000c0 6a cf fc 3d 44 1a a6 3d dc 22 48 3b de ee 03 bd
       0.123442486 0.081104785 0.0030538356 -0.032210223
0000d0 50 a3 94 3c 57 2e 6b bd dc 39 e3 3c 30 fb b9 bd
       0.01814428 -0.05741724 0.02773755 -0.09081113
0000e0 5d 36 dd bc 60 e1 13 bd 99 2b 16 3e 81 0a df bc
       -0.027003461 -0.036103606 0.14665069 -0.027226688
0000f0 85 68 ac 3c 84 77 3a 3b e5 d4 20 3b 15 70 b8 3d
       0.021045933 0.0028452585 0.0024540958 0.09005753
000100 43 72 44 bc 6e db 27 bc d1 03 02 3d 23 11 18 bc
       -0.011990133 -0.010245187 0.03174192 -0.009281429
000110 7c 42 19 3d f0 9b 90 3d 3c 17 93 bd b0 51 a2 bd
       0.03741692 0.07060993 -0.07182166 -0.07925737
000120 73 3e 11 bd ad 97 b6 3d 92 49 ec bb 1b 2c cb 3c
       -0.035459947 0.089156486 -0.0072109187 0.024801305
000130 cb 06 d1 bc 0f 82 34 bc 7b d3 12 3d bb 2f 60 bc
       -0.025515934 -0.0110173365 0.035846215 -0.013683255
000140 af 26 ec 3c d0 0d b8 bd 93 04 5e bc b6 83 ba bd
       0.02882704 -0.089870095 -0.013550895 -0.09107153
000150 ae 0f 00 3e 37 d3 b6 bd 0e 25 29 3e 20 09 7b 3c
       0.12505981 -0.08927005 0.16518041 0.015322
000160 5b 83 89 3d 57 92 49 3d 35 14 08 3d 37 e6 07 bd
       0.06714507 0.049211826 0.033222396 -0.033178534
000170 13 8c e5 bb 58 79 93 bd d7 61 9d 3c 41 01 a2 bd
       -0.0070052235 -0.07200879 0.019211693 -0.079103954
000180 88 eb 5b 3d 56 84 91 3b 3e b6 b8 3d 4c c0 80 bc
       0.053691417 0.0044408245 0.09019135 -0.015716694
000190 c4 b0 2d bd 9d 10 0c bd 5c 22 e7 3d e6 2f 9d bd
       -0.042404905 -0.03419553 0.112858504 -0.076751515
0001a0 6b 98 4d 3e 49 ae 0a 3e 50 bb 9b 3c b2 18 04 3d
       0.20077674 0.13543047 0.019010216 0.032250114
0001b0 55 9d 7f 3d 27 d0 20 bd 23 79 aa bc dd 7e 3a 3b
       0.062405903 -0.03926101 -0.020809716 0.0028456964
0001c0 2c d0 24 3b ae b6 b5 3d 55 69 1f bc cb c0 91 3d
       0.0025148494 0.08872734 -0.009729703 0.071168505
0001d0 11 fe 05 bd ef 7b 1c 3d c0 49 1b 3e 7b c3 bd 3d
       -0.032713 0.03820413 0.15164852 0.092658006
0001e0 9b 97 21 3d c0 6c 9b bb d2 02 33 be a6 14 aa 3b
       0.039451223 -0.0047431886 -0.17481545 0.0051904498
0001f0 ed bf 0b 3c f8 5a f5 3d 40 03 09 be d2 28 82 3c
       0.008529645 0.119802415 -0.13380146 0.015888605
000200 5e d8 c4 bc 23 0a 71 bd b8 bd 8a 3d d3 a2 04 bd
       -0.024028953 -0.058847558 0.06774467 -0.032381844
000210 49 f3 2d bd 3b 08 69 3d 2a d8 0b 3d bb 65 57 bd
       -0.042468343 0.056892615 0.034141697 -0.052587252
000220 4a b5 9b bd 54 76 c1 3d c3 9a 40 3d 22 93 e3 3c
       -0.076029375 0.094463974 0.047022592 0.02778012
000230 be cc 63 be 7d 17 28 bd ba 02 ff 3b d9 5b 94 3c
       -0.22246072 -0.041038025 0.0077823075 0.018110203
000240 4d 87 7d 3d 88 fc c4 bd ae 16 80 3e 11 6c e5 3d
       0.06189661 -0.09618479 0.25017303 0.11202253
000250 11 26 b0 bd 8a c6 52 3c 7e 41 9b 3d 9b 18 e9 bd
       -0.086010106 0.012864718 0.07580851 -0.11381646
000260 05 be be 3d 48 97 e6 bd 84 97 54 bd 9c 42 89 bd
       0.09313587 -0.11259323 -0.05190231 -0.06702158
000270 73 a1 6d 3c 89 39 6e 3d d6 d1 e2 bc ae 86 dc 3c
       0.0145038245 0.05816034 -0.027687948 0.026919689
000280 50 5d d2 3d 9b 24 3a 3b 0d d8 2d 3b 5f 8c d6 3d
       0.10271704 0.0028403166 0.0026526481 0.104759924
000290 27 3d 8c 3d 50 55 c6 bb 44 0a d1 bc c6 4b 45 3e
       0.068476014 -0.0060526505 -0.02551759 0.19267187
0002a0 85 82 09 3d d8 bd df bc a7 97 26 bc b5 c8 02 3d
       0.03357174 -0.027312204 -0.010167993 0.03192969
0002b0 e7 be c9 3d 21 15 a1 3c 57 55 57 3c 46 a6 18 bd
       0.09850865 0.019663395 0.013142905 -0.037267946
0002c0 cc b1 51 3e 06 74 bc bd a5 03 d0 3c 67 02 5b 3d
       0.2047798 -0.09201817 0.025392363 0.053469088
0002d0 dc 29 13 bc b5 85 88 3a 8e 80 00 bd 56 d7 46 3e
       -0.008982148 0.0010415824 -0.0313726 0.19418082
0002e0 04 c7 34 3c 41 e7 5e bd 0d f1 92 bb 07 88 90 3d
       0.011033777 -0.05441976 -0.004484302 0.07057195
0002f0 7d a7 7c 3c 80 48 e4 3b ca e2 fa 3d 6c 5d dd bd
       0.015420792 0.0069666505 0.12250288 -0.108088344
000300 90 7a 4d 3c ba 13 97 bd a3 aa a2 3c bd 10 6d bd
       0.012541428 -0.073768094 0.019856757 -0.05787729
000310 b6 2d 95 bc c7 02 92 bd 27 5c 33 3e 60 d4 17 bc
       -0.018210273 -0.07129436 0.17515622 -0.009266943

bias f4 [4]
000000 51 ba 08 3f 28 a4 c0 bd 9b 51 aa 3d 74 d1 9b 3e
       0.53409296 -0.0940631 0.08316346 0.30433238

weight f4 [50, 4]
000000 07 cd 93 bc da dc e4 bd 6c 53 0d be d4 90 38 bb
       -0.0180421 -0.111749366 -0.13801354 -0.0028162496
000010 e0 49 a8 be aa 25 02 be c6 63 33 be 85 f4 c4 3b
       -0.32868862 -0.1270968 -0.1751853 0.0060105943
000020 89 71 74 bd 50 46 d8 3b 53 a5 f0 bd 84 de a8 bd
       -0.059678588 0.006600179 -0.11750283 -0.082455665
000030 c1 5d 1a be f7 09 35 be 44 df 3d be 28 78 84 bd
       -0.15074827 -0.17679583 -0.185422 -0.064682305
000040 d1 99 a9 bd e2 fe f6 3c cc 3b 12 3c 47 e7 70 be
       -0.08281291 0.030150834 0.0089253895 -0.23525725
000050 aa ae 7f be ec b2 3f bd e3 87 5b be 65 bc 3c bd
       -0.24968973 -0.046801493 -0.21438555 -0.046078105
000060 b4 c4 aa bc 65 2f 71 bd 0e f1 04 bc b5 fb 04 bb
       -0.020845748 -0.05888309 -0.008114113 -0.002029163
000070 bf 66 b3 bb da c8 ac be fd be 3c be ac cb 0a be
       -0.005474895 -0.33746988 -0.18432231 -0.13554257
000080 07 eb 30 bb 35 ed 82 be 23 ce 20 be e4 bd 45 be
       -0.0026995556 -0.255716 -0.15703635 -0.19310719
000090 de 36 58 ba 0b c9 24 bf 05 b8 0d bf f1 86 88 be
       -0.0008247922 -0.6436927 -0.55358917 -0.26665452
0000a0 98 15 d8 bb d7 55 fe bd f1 ce 45 bb 1b 6c 24 bd
       -0.006594371 -0.124187164 -0.003018316 -0.04014216
0000b0 2c 16 08 3b ee 60 da 37 19 eb 4d 3b 12 51 52 3a
       0.0020765169 2.6032762e-05 0.0031420647 0.00080229447
0000c0 d5 ab 9a ba 58 f7 27 3c d1 56 59 bc db 1b dd bb
       -0.0011800478 0.010251842 -0.013265328 -0.0067477054
0000d0 86 9e 01 ba 22 4f 15 bf 4c 5b 2d bf 45 fb 96 be
       -0.00049445813 -0.5832387 -0.6771743 -0.29488578
0000e0 20 e3 02 bc d5 9c 1f bf ab b7 a9 bd 8c eb ae bc
       -0.007988721 -0.6234868 -0.08286985 -0.021352552
0000f0 e6 34 50 bc 6e d4 1c bd ec e9 05 be a0 9a 0e bc
       -0.0127079245 -0.038288526 -0.13077515 -0.008703858
000100 79 93 9d bd c3 9c ac 3c 0f 68 15 3d 80 42 07 bd
       -0.07694144 0.021070844 0.03647619 -0.033022404
000110 fb 59 b9 bc 28 91 06 bd 92 2b d1 3d e2 3f eb bd
       -0.022625914 -0.032853276 0.102133885 -0.11486794
000120 7c cf 09 bd 35 7b 2c bd cd 0b 42 bd b5 d1 17 bb
       -0.03364514 -0.042109687 -0.047374535 -0.0023165767
000130 99 3b 13 be fa 27 08 3b 77 9a d6 bd 6a a8 0b bd
       -0.14378203 0.002077578 -0.104786806 -0.03409616
000140 5c 4b cb bb 8b c7 f0 be cf 8d c2 be 2e 0a 7e be
       -0.006204052 -0.4702724 -0.37998816 -0.2480857
000150 34 22 5b be a1 c7 dd bd c8 d5 74 bd dc 1a 02 3c
       -0.21399766 -0.10829092 -0.05977419 0.007940974
000160 0b b9 d9 ba cf d9 43 be 95 7c 86 be 6a ce f4 bd
       -0.0016610933 -0.19126056 -0.26266924 -0.11953433
000170 ea fc 82 ba b0 a6 19 bf a7 91 13 bf 50 64 b8 be
       -0.0009993587 -0.6001997 -0.5764412 -0.36014032
000180 55 c6 d4 bb 32 27 b1 bc f2 57 2f bd ba f5 29 bb
       -0.0064933696 -0.021625135 -0.04280848 -0.0025933818
000190 6a be 01 bc 1c 08 a1 be 7b 1e 87 be 19 a5 0b bf
       -0.007918933 -0.314515 -0.26390442 -0.54548794
0001a0 85 f0 70 bd 01 21 84 bd 8e 3c 53 be 5a 0b 04 be
       -0.058823127 -0.064516075 -0.20628569 -0.12894955
0001b0 5a ad fd ba 52 bf c5 be 4e 59 71 be 1c 86 9d be
       -0.0019354031 -0.38622528 -0.23569223 -0.3076638
0001c0 de cc ab bb 1b 2e 3d 3c b1 e1 72 bd 57 48 27 bd
       -0.005242928 0.011546637 -0.059297267 -0.040840473
0001d0 d0 d1 39 bc bb f6 86 bd ea 87 6e 3d a1 78 7d be
       -0.011341527 -0.06590029 0.058235087 -0.24753048
0001e0 78 55 17 bc 16 25 21 bd d3 82 a4 3d 5c 1c 21 bd
       -0.009236686 -0.03934201 0.08032765 -0.039333686
0001f0 75 4a 80 ba 1f b4 03 bf 12 c0 ea be fb fb dc be
       -0.0009787815 -0.5144672 -0.45849663 -0.43160996
000200 d1 ad 02 bb 16 22 1a bf f1 1b 9b be 75 04 0f be
       -0.0019940028 -0.6020826 -0.30294755 -0.13966544
000210 04 74 19 be 36 b3 90 3d f5 b5 4c be f3 30 24 3b
       -0.14985663 0.07065432 -0.19991286 0.002505359
000220 75 a1 0c bc 80 8a 34 bc 47 8e c7 bb 14 05 d7 ba
       -0.008583416 -0.011019349 -0.006089959 -0.0016404712
000230 e8 7f 8e b9 31 82 94 bf ca 65 99 be 50 f0 bb be
       -0.00027179648 -1.1602231 -0.2996047 -0.3670678
000240 a8 c1 a6 bb 7f 48 9d bd 43 10 5e bd 4a 6e 98 bc
       -0.0050890036 -0.07679843 -0.054214727 -0.018607277
000250 d7 e0 24 bd ac 3c 70 3c 3e f8 66 ba ec 7c 03 be
       -0.040253486 0.014662903 -0.00088107947 -0.12840623
000260 13 6c b2 bd 5c 22 d4 bd 43 21 b8 bd 57 e2 75 3b
       -0.0871202 -0.10358116 -0.08990719 0.0037518942
000270 a2 3a c6 bb 1b fa a3 bc 64 8b a7 3c ba 0c 0a bc
       -0.00604947 -0.02001672 0.020452209 -0.008425886
000280 d5 a5 15 bb fc b8 2a be dc e2 0c bf 41 43 bf bd
       -0.002283444 -0.16672128 -0.5503366 -0.093389995
000290 e3 54 95 b9 70 d7 ff be b7 99 31 bf ba d5 01 bf
       -0.0002848274 -0.49969053 -0.69375175 -0.50716746
0002a0 7e 52 b3 ba 47 e7 a7 bd af 1a 03 bc e9 6e 2b bc
       -0.0013681201 -0.081984095 -0.008001967 -0.010463455
0002b0 55 df 99 b9 0d 03 6c bf 74 cf ad be d1 3e ae bd
       -0.0002934883 -0.92192155 -0.33947337 -0.08508075
0002c0 22 e2 ab bc 28 a8 8a bd cf ca 81 bd 80 a2 24 be
       -0.020981852 -0.067703545 -0.06337511 -0.16077614
0002d0 bf 95 f9 bd d8 53 35 bd b6 e4 bd bd 1c fc 37 be
       -0.12186765 -0.044269413 -0.09272139 -0.17967266
0002e0 9f 25 91 bd b0 50 80 bd f8 86 de 3b 4f 8c 95 bd
       -0.07087254 -0.0626539 0.006790992 -0.07302152
0002f0 55 4c be be 04 45 9b be 74 e7 97 be f8 b1 78 be
       -0.37167612 -0.30326092 -0.29668772 -0.2428664
000300 7e 99 bf b9 d2 b1 b2 be 4e 0d 49 bd 3a 2b af be
       -0.0003654472 -0.3490129 -0.049084954 -0.34212667
000310 0b 0b 4d bb 1f bc a9 be ac 90 16 bf 22 63 d3 be
       -0.00312871 -0.33151338 -0.588145 -0.4128657

bias f4 [50]
000000 69 df 7f 3e 0a be 99 be 07 7c 99 be 0a 91 b9 bd
       0.24987568 -0.300278 -0.29977438 -0.09060867
000010 d5 c0 4d 3e 6c 2e f7 3d 38 a7 08 be 5f 0b 42 bd
       0.20093091 0.12069401 -0.13345039 -0.047374126
000020 ff e0 af bd 04 56 46 be 4e 63 8d be 3f f6 a7 3d
       -0.085878365 -0.1936875 -0.27614826 0.082012646
000030 99 57 84 be fa 0d b0 be 99 ab be be 6a 44 85 3e
       -0.25848082 -0.34385663 -0.37240294 0.26028758
000040 43 54 e7 be 40 40 17 be 96 96 e1 3e 1c 8e 14 3e
       -0.45181474 -0.14770603 0.440602 0.14507335
000050 a7 39 a0 be d1 59 47 be b5 99 ed be 78 e8 d3 be
       -0.31293985 -0.19467856 -0.46406332 -0.41388297
000060 fe 86 2b bf c0 96 f9 bd c1 34 ba 3d 0b c2 eb be
       -0.67002857 -0.121869564 0.09092093 -0.4604648
000070 51 8a 1a be b7 98 dd 3d 9d 28 7b be 57 9b b8 be
       -0.15091826 0.10820144 -0.24527211 -0.36056015
000080 68 2b ed be 20 cf 37 3e 19 d2 1e be bf bd bd be
       -0.4632218 0.17950106 -0.15509833 -0.37058827
000090 4c f5 49 3e ae 4d 7c 3e db 9b c1 bd a5 e5 be bd
       0.1972248 0.24639007 -0.09453555 -0.09321145
0000a0 df e2 ba 3e 04 12 3a be a7 65 6b be 20 58 84 3e
       0.36501214 -0.18170935 -0.22987996 0.25848484
0000b0 bc f0 e4 3e 25 90 14 bf 58 d0 ed bd 08 38 a1 be
       0.44714916 -0.5803245 -0.11612004 -0.3148806
0000c0 68 d4 ab bd b2 3c 73 be
       -0.08390123 -0.23753622

weight f4 [4, 50]
000000 bd 8b 51 ba c2 1d f4 3c 6f 31 99 3d d6 5b e2 bc
       -0.000799354 0.029799346 0.07480132 -0.027631681
000010 fc fd 31 be 1a d2 1c 3b 0a f8 bd 3d 19 f8 e9 3c
       -0.17382044 0.0023928941 0.09275825 0.028560685
000020 8f c8 5c 3d 50 79 81 3d 6b 0f b9 bd 04 dc 3b 3b
       0.053902205 0.06321967 -0.09036144 0.0028665075
000030 02 91 83 3a c9 f3 1c 3d 6f a9 83 3d 0a ae 46 3d
       0.0010037723 0.03831843 0.06428801 0.04850582
000040 6e a7 a4 bc cb e7 2f 3e d4 15 ed 3b df d4 98 3c
       -0.020099368 0.17178266 0.007235268 0.018656192
000050 4e fe 65 3d df 85 3d bd e4 dc 9a 3d 75 12 56 bc
       0.056150727 -0.046270248 0.07561663 -0.013065924
000060 65 57 31 3c ca 10 fb 3d 1c d0 1a 3e 19 de 8c 3c
       0.010824059 0.12259062 0.1511845 0.017195748
000070 c7 ce 7a 3a dd 4e 28 3e f5 64 b7 bc f4 52 fa bc
       0.00095675554 0.16436334 -0.022387007 -0.030557133
000080 81 a9 84 bb 73 68 ae 3c 1e ce 41 3c 2b 6d a1 bd
       -0.0040485268 0.02129004 0.011828927 -0.0788215
000090 f4 c3 13 be 5d 9a c5 3a 86 d7 21 3d b9 26 b0 3b
       -0.14430219 0.0015075911 0.03951218 0.00537571
0000a0 8d 25 d8 3b e1 12 37 be 39 cc a3 3b a7 ae 91 bd
       0.0065962733 -0.17878295 0.0049987105 -0.071133904
0000b0 b7 42 c3 bc e0 e7 52 3d 6b c6 03 3e 82 f3 a9 bd
       -0.023835523 0.051490664 0.12868659 -0.082983986
0000c0 6a cf fc 3d 44 1a a6 3d dc 22 48 3b de ee 03 bd
       0.123442486 0.081104785 0.0030538356 -0.032210223
0000d0 50 a3 94 3c 57 2e 6b bd dc 39 e3 3c 30 fb b9 bd
       0.01814428 -0.05741724 0.02773755 -0.09081113
0000e0 5d 36 dd bc 60 e1 13 bd 99 2b 16 3e 81 0a df bc
       -0.027003461 -0.036103606 0.14665069 -0.027226688
0000f0 85 68 ac 3c f5 9e 3e 3b e5 d4 20 3b 15 70 b8 3d
       0.021045933 0.0029086445 0.0024540958 0.09005753
000100 43 72 44 bc 6e db 27 bc d1 03 02 3d 23 11 18 bc
       -0.011990133 -0.010245187 0.03174192 -0.009281429
000110 7c 42 19 3d f0 9b 90 3d 3c 17 93 bd b0 51 a2 bd
       0.03741692 0.07060993 -0.07182166 -0.07925737
000120 73 3e 11 bd ad 97 b6 3d 92 49 ec bb 1b 2c cb 3c
       -0.035459947 0.089156486 -0.0072109187 0.024801305
000130 cb 06 d1 bc 0f 82 34 bc 7b d3 12 3d bb 2f 60 bc
       -0.025515934 -0.0110173365 0.035846215 -0.013683255
000140 af 26 ec 3c d0 0d b8 bd 93 04 5e bc b6 83 ba bd
       0.02882704 -0.089870095 -0.013550895 -0.09107153
000150 ae 0f 00 3e 37 d3 b6 bd 0e 25 29 3e 20 09 7b 3c
       0.12505981 -0.08927005 0.16518041 0.015322
000160 5b 83 89 3d 57 92 49 3d 35 14 08 3d 37 e6 07 bd
       0.06714507 0.049211826 0.033222396 -0.033178534
000170 13 8c e5 bb 58 79 93 bd d7 61 9d 3c 41 01 a2 bd
       -0.0070052235 -0.07200879 0.019211693 -0.079103954
000180 88 eb 5b 3d 56 84 91 3b 3e b6 b8 3d 4c c0 80 bc
       0.053691417 0.0044408245 0.09019135 -0.015716694
000190 c4 b0 2d bd 9d 10 0c bd 5c 22 e7 3d e6 2f 9d bd
       -0.042404905 -0.03419553 0.112858504 -0.076751515
0001a0 6b 98 4d 3e 49 ae 0a 3e 50 bb 9b 3c b2 18 04 3d
       0.20077674 0.13543047 0.019010216 0.032250114
0001b0 55 9d 7f 3d 27 d0 20 bd 23 79 aa bc a5 60 3e 3b
       0.062405903 -0.03926101 -0.020809716 0.0029049304
0001c0 90 cf 24 3b ae b6 b5 3d 55 69 1f bc cb c0 91 3d
       0.002514813 0.08872734 -0.009729703 0.071168505
0001d0 11 fe 05 bd ef 7b 1c 3d c0 49 1b 3e 7b c3 bd 3d
       -0.032713 0.03820413 0.15164852 0.092658006
0001e0 9b 97 21 3d c0 6c 9b bb d2 02 33 be a6 14 aa 3b
       0.039451223 -0.0047431886 -0.17481545 0.0051904498
0001f0 ed bf 0b 3c f8 5a f5 3d 40 03 09 be d2 28 82 3c
       0.008529645 0.119802415 -0.13380146 0.015888605
000200 5e d8 c4 bc 23 0a 71 bd b8 bd 8a 3d d3 a2 04 bd
       -0.024028953 -0.058847558 0.06774467 -0.032381844
000210 49 f3 2d bd 3b 08 69 3d 2a d8 0b 3d bb 65 57 bd
       -0.042468343 0.056892615 0.034141697 -0.052587252
000220 4a b5 9b bd 54 76 c1 3d c3 9a 40 3d 22 93 e3 3c
       -0.076029375 0.094463974 0.047022592 0.02778012
000230 be cc 63 be 7d 17 28 bd ba 02 ff 3b d9 5b 94 3c
       -0.22246072 -0.041038025 0.0077823075 0.018110203
000240 4d 87 7d 3d 88 fc c4 bd ae 16 80 3e 11 6c e5 3d
       0.06189661 -0.09618479 0.25017303 0.11202253
000250 11 26 b0 bd 8a c6 52 3c 7e 41 9b 3d 9b 18 e9 bd
       -0.086010106 0.012864718 0.07580851 -0.11381646
000260 05 be be 3d 48 97 e6 bd 84 97 54 bd 9c 42 89 bd
       0.09313587 -0.11259323 -0.05190231 -0.06702158
000270 73 a1 6d 3c 89 39 6e 3d d6 d1 e2 bc ae 86 dc 3c
       0.0145038245 0.05816034 -0.027687948 0.026919689
000280 50 5d d2 3d ee 05 3e 3b 27 d8 2d 3b 5f 8c d6 3d
       0.10271704 0.0028995234 0.0026526542 0.104759924
000290 27 3d 8c 3d 50 55 c6 bb 44 0a d1 bc c6 4b 45 3e
       0.068476014 -0.0060526505 -0.02551759 0.19267187
0002a0 85 82 09 3d d8 bd df bc a7 97 26 bc b5 c8 02 3d
       0.03357174 -0.027312204 -0.010167993 0.03192969
0002b0 e7 be c9 3d 21 15 a1 3c 57 55 57 3c 46 a6 18 bd
       0.09850865 0.019663395 0.013142905 -0.037267946
0002c0 cc b1 51 3e 06 74 bc bd a5 03 d0 3c 67 02 5b 3d
       0.2047798 -0.09201817 0.025392363 0.053469088
0002d0 dc 29 13 bc b5 85 88 3a 8e 80 00 bd 56 d7 46 3e
       -0.008982148 0.0010415824 -0.0313726 0.19418082
0002e0 04 c7 34 3c 41 e7 5e bd 0d f1 92 bb 07 88 90 3d
       0.011033777 -0.05441976 -0.004484302 0.07057195
0002f0 7d a7 7c 3c 80 48 e4 3b ca e2 fa 3d 6c 5d dd bd
       0.015420792 0.0069666505 0.12250288 -0.108088344
000300 90 7a 4d 3c ba 13 97 bd a3 aa a2 3c bd 10 6d bd
       0.012541428 -0.073768094 0.019856757 -0.05787729
000310 b6 2d 95 bc c7 02 92 bd 27 5c 33 3e 60 d4 17 bc
       -0.018210273 -0.07129436 0.17515622 -0.009266943

bias f4 [4]
000000 0e f3 08 3f e2 ae be bd b6 6d ab 3d ed 35 9c 3e
       0.5349587 -0.093107 0.08370535 0.30509892

exp_avg f4 [50, 4]
000000 04 00 00 00 04 00 00 80 04 00 00 80 04 00 00 00
       6e-45 -6e-45 -6e-45 6e-45
000010 04 00 00 00 04 00 00 00 04 00 00 00 04 00 00 00
       6e-45 6e-45 6e-45 6e-45
000020 04 00 00 00 04 00 00 00 04 00 00 00 04 00 00 00
       6e-45 6e-45 6e-45 6e-45
000030 04 00 00 00 04 00 00 00 04 00 00 00 04 00 00 00
       6e-45 6e-45 6e-45 6e-45
000040 04 00 00 00 04 00 00 00 04 00 00 00 04 00 00 00
       6e-45 6e-45 6e-45 6e-45
000050 04 00 00 00 04 00 00 00 04 00 00 00 04 00 00 00
       6e-45 6e-45 6e-45 6e-45
000060 00 00 00 00 00 00 00 00 00 00 00 00 00 00 00 00
       0.0 0.0 0.0 0.0
000070 04 00 00 00 04 00 00 00 04 00 00 00 04 00 00 00
       6e-45 6e-45 6e-45 6e-45
000080 04 00 00 00 04 00 00 00 04 00 00 00 04 00 00 00
       6e-45 6e-45 6e-45 6e-45
000090 04 00 00 00 04 00 00 00 04 00 00 00 04 00 00 00
       6e-45 6e-45 6e-45 6e-45
0000a0 00 00 00 00 00 00 00 00 00 00 00 00 00 00 00 00
       0.0 0.0 0.0 0.0
0000b0 8e e1 24 c8 ba 13 a5 46 56 cb c1 46 1c 54 be 47
       -168838.22 21129.863 24805.668 97448.22
0000c0 94 03 f5 42 b4 b9 4b 42 82 11 80 41 17 f8 a9 41
       122.50699 50.93135 16.008549 21.246138
0000d0 04 00 00 00 04 00 00 00 04 00 00 00 04 00 00 00
       6e-45 6e-45 6e-45 6e-45
0000e0 04 00 00 00 04 00 00 00 04 00 00 00 04 00 00 00
       6e-45 6e-45 6e-45 6e-45
0000f0 04 00 00 00 04 00 00 80 04 00 00 80 04 00 00 00
       6e-45 -6e-45 -6e-45 6e-45
000100 04 00 00 00 04 00 00 00 04 00 00 00 04 00 00 00
       6e-45 6e-45 6e-45 6e-45
000110 00 00 00 00 00 00 00 00 00 00 00 00 00 00 00 00
       0.0 0.0 0.0 0.0
000120 04 00 00 00 04 00 00 80 04 00 00 00 04 00 00 00
       6e-45 -6e-45 6e-45 6e-45
000130 04 00 00 00 04 00 00 00 04 00 00 00 04 00 00 00
       6e-45 6e-45 6e-45 6e-45
000140 04 00 00 00 04 00 00 00 04 00 00 00 04 00 00 00
       6e-45 6e-45 6e-45 6e-45
000150 04 00 00 00 04 00 00 00 04 00 00 00 04 00 00 00
       6e-45 6e-45 6e-45 6e-45
000160 04 00 00 00 04 00 00 00 04 00 00 00 04 00 00 00
       6e-45 6e-45 6e-45 6e-45
000170 04 00 00 00 04 00 00 00 04 00 00 00 04 00 00 00
       6e-45 6e-45 6e-45 6e-45
000180 04 00 00 00 04 00 00 00 04 00 00 00 04 00 00 00
       6e-45 6e-45 6e-45 6e-45
000190 04 00 00 00 04 00 00 00 04 00 00 00 04 00 00 00
       6e-45 6e-45 6e-45 6e-45
0001a0 04 00 00 00 04 00 00 00 04 00 00 00 04 00 00 00
       6e-45 6e-45 6e-45 6e-45
0001b0 04 00 00 00 04 00 00 00 04 00 00 00 04 00 00 00
       6e-45 6e-45 6e-45 6e-45
0001c0 04 00 00 00 04 00 00 00 04 00 00 00 04 00 00 00
       6e-45 6e-45 6e-45 6e-45
0001d0 04 00 00 00 04 00 00 00 04 00 00 00 04 00 00 00
       6e-45 6e-45 6e-45 6e-45
0001e0 04 00 00 00 04 00 00 00 04 00 00 00 04 00 00 00
       6e-45 6e-45 6e-45 6e-45
0001f0 04 00 00 00 04 00 00 00 04 00 00 00 04 00 00 80
       6e-45 6e-45 6e-45 -6e-45
000200 04 00 00 00 04 00 00 00 04 00 00 00 04 00 00 00
       6e-45 6e-45 6e-45 6e-45
000210 00 00 00 00 00 00 00 00 00 00 00 00 00 00 00 00
       0.0 0.0 0.0 0.0
000220 04 00 00 00 04 00 00 00 04 00 00 00 04 00 00 00
       6e-45 6e-45 6e-45 6e-45
000230 04 00 00 00 04 00 00 00 04 00 00 00 04 00 00 00
       6e-45 6e-45 6e-45 6e-45
000240 00 00 00 00 00 00 00 00 00 00 00 00 00 00 00 00
       0.0 0.0 0.0 0.0
000250 04 00 00 00 04 00 00 00 04 00 00 00 04 00 00 00
       6e-45 6e-45 6e-45 6e-45
000260 04 00 00 00 04 00 00 00 04 00 00 00 04 00 00 00
       6e-45 6e-45 6e-45 6e-45
000270 04 00 00 00 04 00 00 00 04 00 00 00 04 00 00 00
       6e-45 6e-45 6e-45 6e-45
000280 04 00 00 00 04 00 00 00 04 00 00 00 04 00 00 00
       6e-45 6e-45 6e-45 6e-45
000290 04 00 00 00 04 00 00 00 04 00 00 00 04 00 00 00
       6e-45 6e-45 6e-45 6e-45
0002a0 04 00 00 00 04 00 00 00 04 00 00 00 04 00 00 00
       6e-45 6e-45 6e-45 6e-45
0002b0 04 00 00 00 04 00 00 00 04 00 00 00 04 00 00 00
       6e-45 6e-45 6e-45 6e-45
0002c0 00 00 00 00 00 00 00 00 00 00 00 00 00 00 00 00
       0.0 0.0 0.0 0.0
0002d0 04 00 00 00 04 00 00 00 04 00 00 00 04 00 00 00
       6e-45 6e-45 6e-45 6e-45
0002e0 00 00 00 00 00 00 00 00 00 00 00 00 00 00 00 00
       0.0 0.0 0.0 0.0
0002f0 04 00 00 00 04 00 00 00 04 00 00 00 04 00 00 00
       6e-45 6e-45 6e-45 6e-45
000300 04 00 00 00 04 00 00 00 04 00 00 00 04 00 00 00
       6e-45 6e-45 6e-45 6e-45
000310 04 00 00 00 04 00 00 00 04 00 00 00 04 00 00 00
       6e-45 6e-45 6e-45 6e-45

exp_avg_sq f4 [50, 4]
000000 9c 87 82 5c e6 ac 61 4d d8 f9 82 4b cc 83 e7 50
       2.939268e+17 2.366378e+08 1.716728e+07 3.1073395e+10
000010 ed 28 50 58 d9 b9 b1 53 a4 91 c1 56 61 71 23 5a
       9.154968e+14 1.5266544e+12 1.0641563e+14 1.1501271e+16
000020 da 02 8e 59 a5 ff df 4a a3 f1 e6 4a 22 b1 58 50
       4.996573e+15 7.3399865e+06 7.5675695e+06 1.4541949e+10
000030 c2 a5 10 59 e2 6b e0 54 be 5d 96 56 b5 bd 49 5a
       2.5446656e+15 7.711061e+12 8.266468e+13 1.4196264e+16
000040 f8 94 4c 5a ee eb ce 55 27 0c d4 55 d5 ef 2d 57
       1.4396172e+16 2.8439088e+13 2.9143582e+13 1.9124558e+14
000050 ca 06 ab 56 f4 6a 4a 54 1a e6 3a 55 31 5b 48 58
       9.402282e+13 3.477511e+12 1.284359e+13 8.8117596e+14
000060 00 00 00 00 00 00 00 00 00 00 00 00 00 00 00 00
       0.0 0.0 0.0 0.0
000070 9a 2d 10 5f bc 77 cd 58 a3 49 6c 58 fb b7 63 5a
       1.0389129e+19 1.8073131e+15 1.03920405e+15 1.6024277e+16
000080 35 ab 7f 60 48 16 79 58 c5 8d fa 57 0e 5c 08 5a
       7.369151e+19 1.0954964e+15 5.509736e+14 9.595453e+15
000090 45 c0 7f 5e 51 29 68 54 51 a1 6a 53 4d 3c 7f 55
       4.6072014e+18 3.9885023e+12 1.0077288e+12 1.7539653e+13
0000a0 00 00 00 00 00 00 00 00 00 00 00 00 00 00 00 00
       0.0 0.0 0.0 0.0
0000b0 46 26 c1 5d ea e9 11 58 59 a3 d0 58 bd 74 24 5c
       1.7397361e+18 6.4173536e+14 1.8351999e+15 1.85161e+17
0000c0 c4 45 d7 5d 38 95 b3 57 3e 2e 67 58 dc 41 83 5b
       1.9390025e+18 3.9490694e+14 1.0167432e+15 7.389127e+16
0000d0 77 b2 d0 5f a7 ff af 56 56 9b ea 55 a4 94 d6 57
       3.0076426e+19 9.675628e+13 3.224411e+13 4.718678e+14
0000e0 dd ea f1 5d 31 17 6d 55 94 bf 0a 57 ae 5a 4b 5a
       2.1789985e+18 1.6292741e+13 1.5255543e+14 1.4309781e+16
0000f0 10 5b 0b 5e 82 b7 9a 55 12 16 1a 57 ab d4 70 5a
       2.5104093e+18 2.1264119e+13 1.6941958e+14 1.6946956e+16
000100 d3 7f cf 59 1f c9 43 55 d9 c6 88 56 29 74 2c 59
       7.300733e+15 1.3454286e+13 7.519381e+13 3.0338385e+15
000110 00 00 00 00 00 00 00 00 00 00 00 00 00 00 00 00
       0.0 0.0 0.0 0.0
000120 d5 85 43 5a be 48 ea 54 85 0e 0a 57 f5 1e 45 5a
       1.3758693e+16 8.049942e+12 1.5179497e+14 1.3871152e+16
000130 9b 9f b5 58 2c 91 c5 53 78 1c d7 56 6b 44 16 5a
       1.5975768e+15 1.6970883e+12 1.1825864e+14 1.0574118e+16
000140 fa a7 9c 5f 9c 0e 29 57 46 59 2f 57 b7 63 61 5a
       2.2576532e+19 1.8588021e+14 1.9279796e+14 1.5860377e+16
000150 21 6c 8c 58 c5 cf 28 56 5a 6e 4b 57 f0 db 12 5a
       1.2351683e+15 4.640258e+13 2.2367482e+14 1.0334293e+16
000160 eb f2 aa 5e f4 28 11 58 97 4c fe 57 5e 95 c0 5a
       6.159083e+18 6.384203e+14 5.592098e+14 2.7103713e+16
000170 9a cb 2d 60 1f 8e 0a 57 8e 0c 9a 56 36 1e 49 59
       5.009309e+19 1.5234301e+14 8.468936e+13 3.5381055e+15
000180 f7 b3 33 5e 7c 01 ce 58 0f a9 18 59 38 8c cc 5c
       3.2372412e+18 1.8120462e+15 2.68563e+15 4.6060054e+17
000190 31 bf 44 5e c0 d6 4f 55 55 5e 70 54 ee 3f 6c 55
       3.544276e+18 1.4282578e+13 4.129499e+12 1.6234958e+13
0001a0 cf 75 e6 5b 8b ca ae 49 d8 da b4 49 1a a9 30 50
       1.2973755e+17 1.4318894e+06 1.481563e+06 1.1855489e+10
0001b0 66 27 95 5d 0e b1 04 57 d5 4a b2 56 89 39 33 58
       1.3434589e+18 1.4589598e+14 9.8017235e+13 7.882388e+14
0001c0 2f fe 9d 5f b9 a5 9b 58 5f 42 d2 58 ad 8a a3 5c
       2.2769177e+19 1.3690886e+15 1.84946e+15 3.6826317e+17
0001d0 59 01 98 5d a1 d1 1c 4f 09 c6 54 4f 98 ea ba 52
       1.3691417e+18 2.630984e+09 3.5697482e+09 4.0139987e+11
0001e0 55 bf 07 5e e0 1f 56 56 08 97 3e 57 dd 9a ca 5a
       2.4454076e+18 5.8858098e+13 2.0955588e+14 2.851411e+16
0001f0 9c ad 87 5f 52 13 6f 57 06 4f 2b 57 b4 42 3a 59
       1.9553284e+19 2.6286626e+14 1.8835589e+14 3.2767304e+15
000200 d0 54 8a 5d 50 c9 0c 56 d5 53 3d 56 d1 de aa 57
       1.2459776e+18 3.8699065e+13 5.204194e+13 3.7574793e+14
000210 00 00 00 00 00 00 00 00 00 00 00 00 00 00 00 00
       0.0 0.0 0.0 0.0
000220 90 1d 08 61 0b f4 49 5a 41 2c b0 5a 8d 21 c0 5e
       1.5693046e+20 1.42112e+16 2.4794127e+16 6.922251e+18
000230 84 56 ba 5f c2 09 74 54 e4 9b de 53 47 ca b7 56
       2.685413e+19 4.192543e+12 1.9121963e+12 1.010397e+14
000240 00 00 00 00 00 00 00 00 00 00 00 00 00 00 00 00
       0.0 0.0 0.0 0.0
000250 a1 ff ef 5c 33 42 93 4e 8c 13 bb 4e a4 e5 f7 51
       5.404287e+17 1.2352946e+09 1.5693102e+09 1.3308871e+11
000260 96 6d 13 5a 68 4f ae 56 36 d0 f8 57 ca 27 51 5b
       1.0374328e+16 9.5828035e+13 5.471463e+14 5.887202e+16
000270 1e 94 a7 5f 60 32 40 58 ab aa e8 58 d1 77 ce 5c
       2.415062e+19 8.4529037e+14 2.0465577e+15 4.6492468e+17
000280 d0 b5 c0 5e 04 9a c2 55 a9 24 c8 54 c8 6b 86 5a
       6.943117e+18 2.6745843e+13 6.876868e+12 1.8918077e+16
000290 fe b0 20 5f e4 2a 9f 56 e2 9c bc 55 d0 31 dc 56
       1.1579034e+19 8.750328e+13 2.592275e+13 1.2105325e+14
0002a0 f9 34 d4 5d 23 60 a4 58 cf a6 05 59 d9 a0 8d 5c
       1.91139e+18 1.4458625e+15 2.3512237e+15 3.189186e+17
0002b0 eb 58 2c 5f 94 c8 a7 55 dc 3f b1 56 0e 5c 7c 5a
       1.2418934e+19 2.305999e+13 9.744392e+13 1.7758227e+16
0002c0 00 00 00 00 00 00 00 00 00 00 00 00 00 00 00 00
       0.0 0.0 0.0 0.0
0002d0 3d 83 86 53 1b 3e 23 51 24 1c 3f 4f 41 3b bb 4f
       1.1554549e+12 4.38201e+10 3.2062925e+09 6.2824453e+09
0002e0 00 00 00 00 00 00 00 00 00 00 00 00 00 00 00 00
       0.0 0.0 0.0 0.0
0002f0 3f cf 25 52 d0 db c3 48 48 4f cd 50 97 88 83 55
       1.7803665e+11 401118.5 2.75562e+10 1.8077834e+13
000300 fb 88 bc 5f 1c 14 89 55 cc 9a 7b 54 33 bc 93 55
       2.7170769e+19 1.8839933e+13 4.3225354e+12 2.0304565e+13
000310 cd 5c 5b 5e ee 99 85 54 6d 38 db 52 fb 4a 22 54
       3.9516835e+18 4.5905053e+12 4.7077225e+11 2.7881707e+12

exp_avg f4 [50]
000000 04 00 00 00 04 00 00 00 04 00 00 00 04 00 00 00
       6e-45 6e-45 6e-45 6e-45
000010 04 00 00 00 04 00 00 00 00 00 00 00 04 00 00 00
       6e-45 6e-45 0.0 6e-45
000020 04 00 00 00 04 00 00 00 00 00 00 00 6a 74 85 b9
       6e-45 6e-45 0.0 -0.00025454472
000030 c7 64 0d 36 04 00 00 00 04 00 00 00 04 00 00 00
       2.1069297e-06 6e-45 6e-45 6e-45
000040 04 00 00 00 00 00 00 00 04 00 00 00 04 00 00 00
       6e-45 0.0 6e-45 6e-45
000050 04 00 00 00 04 00 00 00 04 00 00 00 04 00 00 00
       6e-45 6e-45 6e-45 6e-45
000060 04 00 00 00 04 00 00 00 04 00 00 00 04 00 00 00
       6e-45 6e-45 6e-45 6e-45
000070 04 00 00 00 04 00 00 00 04 00 00 00 04 00 00 00
       6e-45 6e-45 6e-45 6e-45
000080 04 00 00 00 00 00 00 00 04 00 00 00 04 00 00 00
       6e-45 0.0 6e-45 6e-45
000090 00 00 00 00 04 00 00 00 04 00 00 00 04 00 00 00
       0.0 6e-45 6e-45 6e-45
0000a0 04 00 00 00 04 00 00 00 04 00 00 00 04 00 00 00
       6e-45 6e-45 6e-45 6e-45
0000b0 00 00 00 00 04 00 00 00 00 00 00 00 04 00 00 00
       0.0 6e-45 0.0 6e-45
0000c0 04 00 00 00 04 00 00 00
       6e-45 6e-45

exp_avg_sq f4 [50]
000000 cc 48 eb 41 ee 6e 07 40 65 5e 00 3f d4 fb 35 40
       29.410545 2.1161456 0.50144035 2.8434954
000010 b1 a2 c4 3f e5 06 35 3e 00 00 00 00 56 f9 85 44
       1.536215 0.17678411 0.0 1071.7917
000020 4e ec e8 45 4f cb e6 43 00 00 00 00 f9 44 63 43
       7453.538 461.58835 0.0 227.26942
000030 6f 8f 55 43 1a a8 3c 45 78 ff 5e 43 f1 71 7e 43
       213.56029 3018.5063 222.99792 254.44508
000040 7e f0 a4 3f 00 00 00 00 73 60 87 40 3b b2 04 40
       1.2885892 0.0 4.2305236 2.0733783
000050 c8 31 0f 45 73 fa 10 40 09 b2 1d 44 77 f0 9d 45
       2291.1113 2.2652862 630.7818 5054.058
000060 fb 6d de 43 73 79 b1 43 4b b5 4f 41 fc d2 08 43
       444.85922 354.94882 12.981761 136.82416
000070 c4 de 13 45 d4 12 09 43 aa ed 7a 43 91 71 f8 44
       2365.9229 137.07355 250.92838 1987.549
000080 49 eb fa 42 00 00 00 00 60 4b 87 46 fc 2e 28 45
       125.45954 0.0 17317.688 2690.9365
000090 00 00 00 00 8b 68 58 42 5a 19 4d 41 06 a9 1e 45
       0.0 54.102093 12.818689 2538.564
0000a0 6b 7b 2e 44 34 1e 91 44 e1 4b 8c 43 11 fd 9b 44
       697.9284 1160.9438 280.5928 1247.9083
0000b0 00 00 00 00 dc 79 53 39 00 00 00 00 e7 8b 19 3b
       0.0 0.00020167924 0.0 0.0023429336
0000c0 2a 01 2a 45 27 d1 c5 43
       2720.0728 395.634

exp_avg f4 [4, 50]
000000 04 00 00 80 04 00 00 00 04 00 00 80 04 00 00 00
       -6e-45 6e-45 -6e-45 6e-45
000010 04 00 00 00 04 00 00 00 00 00 00 00 04 00 00 80
       6e-45 6e-45 0.0 -6e-45
000020 04 00 00 80 04 00 00 00 00 00 00 00 38 ee c2 47
       -6e-45 6e-45 0.0 99804.44
000030 82 bd b2 1f 04 00 00 00 04 00 00 00 04 00 00 00
       7.5699447e-20 6e-45 6e-45 6e-45
000040 04 00 00 80 00 00 00 00 04 00 00 00 04 00 00 00
       -6e-45 0.0 6e-45 6e-45
000050 04 00 00 80 04 00 00 80 04 00 00 80 04 00 00 80
       -6e-45 -6e-45 -6e-45 -6e-45
000060 04 00 00 00 04 00 00 00 04 00 00 80 04 00 00 80
       6e-45 6e-45 -6e-45 -6e-45
000070 04 00 00 80 04 00 00 00 04 00 00 80 04 00 00 80
       -6e-45 6e-45 -6e-45 -6e-45
000080 04 00 00 80 00 00 00 00 04 00 00 80 04 00 00 80
       -6e-45 0.0 -6e-45 -6e-45
000090 00 00 00 00 04 00 00 80 04 00 00 00 04 00 00 00
       0.0 -6e-45 6e-45 6e-45
0000a0 04 00 00 80 04 00 00 80 04 00 00 00 04 00 00 80
       -6e-45 -6e-45 6e-45 -6e-45
0000b0 00 00 00 00 00 00 00 00 00 00 00 00 00 00 00 00
       0.0 0.0 0.0 0.0
0000c0 04 00 00 00 04 00 00 00 04 00 00 00 00 00 00 00
       6e-45 6e-45 6e-45 0.0
0000d0 04 00 00 00 04 00 00 80 04 00 00 00 00 00 00 00
       6e-45 -6e-45 6e-45 0.0
0000e0 00 00 00 00 04 00 00 80 04 00 00 00 04 00 00 80
       0.0 -6e-45 6e-45 -6e-45
0000f0 00 00 00 00 f1 e3 0a c8 04 00 00 80 04 00 00 00
       0.0 -142223.77 -6e-45 6e-45
000100 04 00 00 80 04 00 00 00 04 00 00 00 00 00 00 00
       -6e-45 6e-45 6e-45 0.0
000110 04 00 00 80 04 00 00 80 04 00 00 80 00 00 00 00
       -6e-45 -6e-45 -6e-45 0.0
000120 04 00 00 00 04 00 00 00 04 00 00 80 04 00 00 00
       6e-45 6e-45 -6e-45 6e-45
000130 04 00 00 00 04 00 00 00 04 00 00 00 04 00 00 80
       6e-45 6e-45 6e-45 -6e-45
000140 04 00 00 00 04 00 00 80 04 00 00 80 00 00 00 00
       6e-45 -6e-45 -6e-45 0.0
000150 04 00 00 00 04 00 00 80 00 00 00 00 04 00 00 80
       6e-45 -6e-45 0.0 -6e-45
000160 04 00 00 00 04 00 00 00 04 00 00 00 04 00 00 00
       6e-45 6e-45 6e-45 6e-45
000170 04 00 00 80 04 00 00 80 00 00 00 00 04 00 00 00
       -6e-45 -6e-45 0.0 6e-45
000180 00 00 00 00 00 00 00 00 04 00 00 00 04 00 00 80
       0.0 0.0 6e-45 -6e-45
000190 04 00 00 00 00 00 00 00 04 00 00 80 04 00 00 80
       6e-45 0.0 -6e-45 -6e-45
0001a0 04 00 00 80 00 00 00 00 00 00 00 00 04 00 00 80
       -6e-45 0.0 0.0 -6e-45
0001b0 04 00 00 80 04 00 00 00 00 00 00 00 ca 76 37 c5
       -6e-45 6e-45 0.0 -2935.4243
0001c0 c5 68 13 41 04 00 00 00 04 00 00 80 04 00 00 00
       9.2130785 6e-45 -6e-45 6e-45
0001d0 04 00 00 00 00 00 00 00 04 00 00 00 04 00 00 80
       6e-45 0.0 6e-45 -6e-45
0001e0 04 00 00 80 04 00 00 80 04 00 00 80 04 00 00 80
       -6e-45 -6e-45 -6e-45 -6e-45
0001f0 04 00 00 80 04 00 00 00 04 00 00 80 04 00 00 80
       -6e-45 6e-45 -6e-45 -6e-45
000200 04 00 00 80 04 00 00 00 04 00 00 00 04 00 00 80
       -6e-45 6e-45 6e-45 -6e-45
000210 04 00 00 80 00 00 00 00 04 00 00 00 04 00 00 80
       -6e-45 0.0 6e-45 -6e-45
000220 00 00 00 00 04 00 00 80 04 00 00 80 04 00 00 80
       0.0 -6e-45 -6e-45 -6e-45
000230 04 00 00 80 04 00 00 00 04 00 00 00 04 00 00 80
       -6e-45 6e-45 6e-45 -6e-45
000240 00 00 00 00 00 00 00 00 00 00 00 00 04 00 00 80
       0.0 0.0 0.0 -6e-45
000250 04 00 00 80 04 00 00 00 04 00 00 00 04 00 00 00
       -6e-45 6e-45 6e-45 6e-45
000260 04 00 00 80 04 00 00 80 04 00 00 00 04 00 00 00
       -6e-45 -6e-45 6e-45 6e-45
000270 00 00 00 00 04 00 00 00 04 00 00 80 04 00 00 00
       0.0 6e-45 -6e-45 6e-45
000280 00 00 00 00 eb 5b 65 c6 a4 9c 5f 3c 04 00 00 00
       0.0 -14678.9795 0.013648186 6e-45
000290 04 00 00 00 04 00 00 80 04 00 00 80 00 00 00 00
       6e-45 -6e-45 -6e-45 0.0
0002a0 04 00 00 00 04 00 00 00 04 00 00 80 04 00 00 00
       6e-45 6e-45 -6e-45 6e-45
0002b0 04 00 00 80 04 00 00 80 04 00 00 80 04 00 00 00
       -6e-45 -6e-45 -6e-45 6e-45
0002c0 04 00 00 80 04 00 00 80 04 00 00 80 04 00 00 00
       -6e-45 -6e-45 -6e-45 6e-45
0002d0 04 00 00 80 04 00 00 80 04 00 00 80 00 00 00 00
       -6e-45 -6e-45 -6e-45 0.0
0002e0 04 00 00 00 04 00 00 80 00 00 00 00 04 00 00 80
       6e-45 -6e-45 0.0 -6e-45
0002f0 04 00 00 80 04 00 00 80 04 00 00 00 04 00 00 80
       -6e-45 -6e-45 6e-45 -6e-45
000300 04 00 00 00 04 00 00 80 00 00 00 00 00 00 00 00
       6e-45 -6e-45 0.0 0.0
000310 00 00 00 00 00 00 00 00 04 00 00 00 04 00 00 80
       0.0 0.0 6e-45 -6e-45

exp_avg_sq f4 [4, 50]
000000 a9 7d c2 5a 30 09 b5 58 a8 67 f4 52 a4 ac 88 59
       2.7372155e+16 1.5924085e+15 5.2485554e+11 4.808802e+15
000010 60 35 2e 55 3d f5 9a 58 00 00 00 00 f8 6e b0 5b
       1.1971517e+13 1.3630246e+15 0.0 9.9323215e+16
000020 a6 95 32 5c af d7 a9 5a 00 00 00 00 cf d7 a0 5b
       2.0106834e+17 2.3903209e+16 0.0 9.054656e+16
000030 b2 ed a2 5b 70 01 ab 5b f8 7b 9f 5a f5 c9 9e 59
       9.172059e+16 9.62676e+16 2.2445413e+16 5.5868876e+15
000040 71 52 e7 57 00 00 00 00 09 d4 61 59 99 b6 ad 58
       5.0868254e+14 0.0 3.9728128e+15 1.5279981e+15
000050 b2 92 4c 5b 89 67 f0 59 20 0f 02 5b f1 cb 93 5c
       5.758219e+16 8.458479e+15 3.6608377e+16 3.3280846e+17
000060 4c 8b 07 5d 6d eb 79 5a 7e db a3 54 85 e2 77 5c
       6.104365e+17 1.7586531e+16 5.630097e+12 2.7909352e+17
000070 73 a6 57 5c 88 eb 21 58 6a 04 c8 5a 9f 3f e3 5b
       2.4280053e+17 7.121319e+14 2.8149924e+16 1.2792954e+17
000080 16 9f be 5b 00 00 00 00 2d 6f 32 5c f1 28 d8 59
       1.07310325e+17 0.0 2.0089914e+17 7.6054513e+15
000090 00 00 00 00 e2 c3 57 57 6d af e8 5a ae 65 1e 5c
       0.0 2.3723631e+14 3.2747539e+16 1.7833938e+17
0000a0 9d b6 91 5a 5b dc 2f 5a d8 b2 f5 5c 5f 94 50 5b
       2.0507329e+16 1.2375101e+16 5.5326408e+17 5.870993e+16
0000b0 00 00 00 00 00 00 00 00 00 00 00 00 00 00 00 00
       0.0 0.0 0.0 0.0
0000c0 31 be 55 59 06 14 d6 59 dd ce 03 5e 00 00 00 00
       3.7602055e+15 7.5322076e+15 2.374443e+18 0.0
0000d0 5c ca 09 54 ff 0b e8 4c 4d a0 ae 52 00 00 00 00
       2.3672222e+12 1.21659384e+08 3.7500686e+11 0.0
0000e0 00 00 00 00 9d c2 d9 5e a0 a8 55 5f d9 56 ee 5d
       0.0 7.8456383e+18 1.5395731e+19 2.1467691e+18
0000f0 00 00 00 00 1c eb a2 5e 68 f1 31 5e 49 87 28 5f
       0.0 5.869754e+18 3.205536e+18 1.2143755e+19
000100 d1 a7 c9 5d c1 36 e2 5a f2 8e 16 54 00 00 00 00
       1.8163516e+18 3.1836774e+16 2.5865733e+12 0.0
000110 02 50 cb 57 81 d3 9b 54 79 ab 52 5e 00 00 00 00
       4.4708898e+14 5.354147e+12 3.79509e+18 0.0
000120 5c a6 0c 5e 4d ae ad 5f f7 14 a0 5f 19 a8 27 5e
       2.5337223e+18 2.503005e+19 2.3070232e+19 3.0202334e+18
000130 fe b8 b8 55 4a 68 c5 5f ca fe e5 5e 74 b4 21 5c
       2.5388084e+13 2.8449402e+19 8.286453e+18 1.8206353e+17
000140 c3 2c 93 5d 48 67 e6 5e 17 da 0f 5f 00 00 00 00
       1.3256332e+18 8.301159e+18 1.0365623e+19 0.0
000150 bd b0 00 5f bd e2 6c 5d 00 00 00 00 46 32 9d 5b
       9.273119e+18 1.0668383e+18 0.0 8.8493695e+16
000160 16 4b 3f 59 bc 5d b2 5e bf 8d ca 5d 1a 3a 2b 5d
       3.3652674e+15 6.426318e+18 1.8244415e+18 7.711377e+17
000170 e3 de 08 60 99 82 3e 5e 00 00 00 00 c5 e9 02 4f
       3.945028e+19 3.4319257e+18 0.0 2.1963584e+09
000180 00 00 00 00 00 00 00 00 c4 d8 a0 5c 2c af 81 5d
       0.0 0.0 3.6219466e+17 1.168092e+18
000190 43 90 9e 5b 00 00 00 00 f6 0a af 53 67 c9 2c 57
       8.926333e+16 0.0 1.5036063e+12 1.8998102e+14
0001a0 5f 9f a5 50 00 00 00 00 00 00 00 00 3f dc 2c 5c
       2.2229481e+10 0.0 0.0 1.9462344e+17
0001b0 61 bc b5 5c 8c f0 88 5b 00 00 00 00 1f 67 07 5c
       4.0923276e+17 7.709016e+16 0.0 1.5245002e+17
0001c0 ee 77 aa 5b 3f b7 65 5c e0 78 21 5b 69 40 81 58
       9.596522e+16 2.58637e+17 4.5450375e+16 1.1369091e+15
0001d0 9b ef 81 52 00 00 00 00 27 77 0d 57 c9 e7 76 51
       2.7903535e+11 0.0 1.555429e+14 6.6278167e+10
0001e0 55 09 ad 5b a5 5f 53 59 c3 de a3 5b 9b 76 0f 5d
       9.741086e+16 3.718524e+15 9.22507e+16 6.461013e+17
0001f0 13 21 24 5d cc 3b 66 5b c1 aa 6a 55 1b e1 38 5d
       7.391722e+17 6.480499e+16 1.6126194e+13 8.326224e+17
000200 b1 8e 83 5c 09 7f 43 59 95 dd 20 5b 76 04 3c 5c
       2.962409e+17 3.439206e+15 4.527963e+16 2.116888e+17
000210 bd 81 92 5c 00 00 00 00 24 2a 81 5c 4b 76 a3 5a
       3.2990396e+17 0.0 2.9085285e+17 2.3005243e+16
000220 00 00 00 00 71 3d 87 58 1d d1 3d 5a 63 9d 4b 5c
       0.0 1.1895837e+15 1.3357173e+16 2.2924988e+17
000230 26 90 5d 5b fe 0b 02 5b 9b fb 6b 5d 76 fd 9e 5b
       6.2364463e+16 3.6604933e+16 1.0627722e+18 8.950346e+16
000240 00 00 00 00 00 00 00 00 00 00 00 00 a5 6b f2 51
       0.0 0.0 0.0 1.3014851e+11
000250 e2 3f 25 5a f6 f0 ca 5a 4b c4 3f 5b 00 05 65 56
       1.1628403e+16 2.8561442e+16 5.3977547e+16 6.295241e+13
000260 44 d0 ba 52 6b 9b c5 57 f3 ec 39 57 ee 18 02 58
       4.0117902e+11 4.345426e+14 2.0442734e+14 5.7217434e+14
000270 00 00 00 00 be 4b 6d 5c c8 3f ef 5c d2 c7 49 5b
       0.0 2.671714e+17 5.3874118e+17 5.6796175e+16
000280 00 00 00 00 c5 62 37 5c fd ff d5 5b a9 ce 9b 5c
       0.0 2.0647408e+17 1.2047126e+17 3.5084677e+17
000290 4a 8f 1b 5b ce d3 ad 58 02 1d 1d 57 00 00 00 00
       4.378617e+16 1.5290016e+15 1.7274791e+14 0.0
0002a0 c9 26 4c 58 8f 19 51 57 fe 10 09 5c 7a df df 58
       8.978678e+14 2.299077e+14 1.5432302e+17 1.9692073e+15
0002b0 50 ed 86 5b 8d 68 4a 5d 0a d6 6b 5d ed ff 8a 5b
       7.595715e+16 9.115664e+17 1.0621113e+18 7.824988e+16
0002c0 8c 84 7a 54 ed 8c 31 5d 35 43 bd 5c b7 96 33 59
       4.3038624e+12 7.996163e+17 4.2618132e+17 3.1593583e+15
0002d0 fb 3c 2c 5b d3 1c 9a 5c 51 94 78 5c 00 00 00 00
       4.8480745e+16 3.470307e+17 2.7987548e+17 0.0
0002e0 a5 0c b3 5c 27 d8 bc 5a 00 00 00 00 8b 5b 8d 58
       4.031834e+17 2.6577479e+16 0.0 1.2433945e+15
0002f0 5e f1 61 5a d6 ed 92 5c 8a e6 2f 5b dd 42 97 5a
       1.5899314e+16 3.308548e+17 4.95116e+16 2.128812e+16
000300 98 e5 9a 5d 4a 60 b4 5b 00 00 00 00 00 00 00 00
       1.3951868e+18 1.0154273e+17 0.0 0.0
000310 00 00 00 00 00 00 00 00 53 f9 11 5a 7e 09 bb 5a
       0.0 0.0 1.0272002e+16 2.6323129e+16

exp_avg f4 [4]
000000 09 4e 06 3f 94 b0 2e bf 8c 7c e0 3d ac c2 20 bd
       0.5246282 -0.68238187 0.109612554 -0.039248154

exp_avg_sq f4 [4]
000000 87 07 8a 46 76 47 98 48 7a 7e 40 46 82 e3 c8 46
       17667.764 311867.7 12319.619 25713.754
