demo/covid2.pth (torch, 241525 bytes, 16 tensors)

weight f4 [50, 4]
-0.004032519 -0.4454064 0.07360274 0.008744264 -0.021619821 -0.5664129 -0.3373047 -0.352031
-0.18587323 -0.099582635 -0.18734427 0.021261971 0.011700813 -1.5440724 -0.7366478 -0.02844033
0.0042281738 0.019600783 0.06207639 0.019892992 0.032892235 -0.2591016 -0.19950026 -0.2989438
-0.06742499 -0.06554543 0.08016079 0.017948883 -0.117610015 0.103287645 0.09154066 0.02520105
-0.0187492 -0.18980844 -0.17426813 0.116233364 -0.04686347 0.020070227 0.07924425 -0.17507151
0.07515671 -0.14858915 0.12099036 0.05768664 -0.14629936 -0.02260757 -0.08099114 -0.12235623
-0.16816984 0.122145735 -0.16821392 -0.08702295 -0.03308472 0.04655901 -0.04942674 0.089531824
-0.12612537 -0.22755226 -0.10602369 -0.0012857848 -0.069303595 -0.021867573 -0.03697507 -0.070955746
-0.1473624 -0.15344413 -0.10351063 0.025357004 -0.3866379 -0.33239666 -0.28008524 -0.21574055
-0.016601227 0.28339776 -0.0006690628 0.010152558 -0.025916591 -0.17421187 -0.020791274 -0.09878108
0.008414346 0.0053710435 0.07071935 -0.039113384 -0.019361982 -0.20180027 -0.017829718 0.0036456243
-0.12538202 -0.028626 0.07749326 -0.00038035843 -0.0569777 -0.10629004 0.11112847 -0.01579875
-0.017905805 -0.1406813 -0.13923539 -0.0070625623 -0.11136942 0.038412627 0.05502845 -0.04880046
-0.013667954 -0.07026525 0.14878392 0.01638555 -0.21230234 0.106691204 -0.06735805 -0.10718614
-0.018122165 -0.20860408 0.04310692 -0.005863843 -0.015254151 0.08391467 0.16965437 -0.077496305
-0.030983219 -0.05779294 0.0148702925 0.0071309186 -0.0335998 0.070188016 -0.005772728 -0.21329641
-0.07350118 0.08420437 -0.1375043 0.0865533 -0.0759171 -0.035324667 -0.02287732 0.0025718568
-0.16357383 0.16037552 -0.16159609 -0.098525055 -0.052826576 -0.12692231 -0.13054456 -0.078418665
0.002486294 -1.7898116 -1.7165282 -0.46258923 -0.13522252 -0.047999542 0.107157715 0.00066308916
-0.2207668 -0.2250158 0.07282751 -0.019578367 -0.009302494 0.059588213 0.09544221 -0.042714253
-0.18950936 -0.17007418 -0.02536216 -0.012185042 -0.12401498 -0.00041790275 -0.09745721 0.013716231
-0.08051338 -0.109790914 -0.100135066 -0.05125826 0.011199326 0.054634 0.024372503 -0.0062423176
-0.008545902 -0.48053607 -0.090842634 0.10105044 0.031089216 0.086957805 -0.10139515 0.12957379
-0.04694669 0.10519981 -0.1426915 0.068975784 -0.093199946 -0.051499415 0.09063528 0.027485691
-0.00706243 -0.20816612 0.085024 -0.016721068 -0.06622899 0.0044972845 -0.009094567 0.028258577
00000000: 3923 84bb 4f0c e4be 09bd 963d 1a44 0f3c
00000010: 0d1c b1bc 7000 11bf 34b3 acbe 683d b4be
00000020: 8d55 3ebe fbf1 cbbd 2dd7 3fbe 962d ae3c
00000030: c4b4 3f3c 2aa4 c5bf f394 3cbf b2fb e8bc
00000040: 7e8c 8a3b d291 a03c d043 7e3d a1f6 a23c
00000050: 02ba 063d f7a8 84be cc49 4cbe 290f 99be
00000060: 1d16 8abd af3c 86bd 572b a43d 8909 933c
00000070: 85dd f0bd 7988 d33d ab79 bb3d 6f72 ce3c
00000080: ec97 99bc 255d 42be 5873 32be c20b ee3d
00000090: e9f3 3fbd 516a a43c cf4a a23d f245 33be
000000a0: c3eb 993d c127 18be cbc9 f73d d448 6c3d
000000b0: 80cf 15be 8333 b9bc afde a5bd e795 fabd
000000c0: b734 2cbe 8b27 fa3d 4540 2cbe 1739 b2bd
000000d0: d883 07bd a9b4 3e3d b173 4abd 765c b73d
000000e0: 0227 01be 7603 69be f322 d9bd c787 a8ba
000000f0: 0bef 8dbd a023 b3bc 2c73 17bd 3f51 91bd
00000100: 2be6 16be 7520 1dbe 62fd d3bd 7eb9 cf3c
00000110: 67f5 c5be e52f aabe 5567 8fbe 17eb 5cbe
00000120: 4cff 87bc 8319 913e 0b64 2fba ea56 263c
00000130: 084f d4bc 9964 32be 7652 aabc bc4d cabd
00000140: 53dc 093c 94ff af3b 4ed5 903d 5b35 20bd
00000150: 059d 9ebc bba4 4ebe a10f 92bc 6deb 6e3b
00000160: 2564 00be 1381 eabc c9b4 9e3d d86a c7b9
00000170: 7361 69bd 98ae d9bd 5397 e33d 616c 81bc
00000180: 32af 92bc c20e 10be b993 0ebe 116d e7bb
00000190: a715 e4bd 8f56 1d3d 8365 613d fee2 47bd
000001a0: 8eef 5fbc 3ae7 8fbd d05a 183e fd3a 863c
000001b0: c965 59be eb80 da3d 04f3 89bd 6884 dbbd
000001c0: ef74 94bc 4f9c 55be e290 303d 7b25 c0bb
000001d0: 8cec 79bc 74db ab3d e0b9 2d3e 62b6 9ebd
000001e0: 85d0 fdbc 4ab8 6cbd 87a2 733c 7baa e93b
000001f0: f29f 09bd bcbe 8f3d 2729 bdbb 606a 5abe
00000200: c987 96bd 5773 ac3d edcd 0cbe db42 b13d
00000210: 6d7a 9bbd 99b0 10bd 3869 bbbc 998c 283b
00000220: e67f 27be 7b39 243e 7279 25be 81c7 c9bd
00000230: ae60 58bd ecf7 01be 79ad 05be f799 a0bd
00000240: 17f1 223b 8c18 e5bf 32b7 dbbf 7fd8 ecbe
00000250: c677 0abe 2b9b 44bd 8175 db3d 29d3 2d3a
00000260: b110 62be 8b6a 66be 9726 953d d062 a0bc
00000270: 7d69 18bc c512 743d 3577 c33d 24f5 2ebd
00000280: be0e 42be ed27 2ebe 4ec4 cfbc c5a3 47bc
00000290: 91fb fdbd f519 dbb9 a597 c7bd 0bba 603c
000002a0: 33e4 a4bd 0fda e0bd 9d13 cdbd 2ef4 51bd
000002b0: 617d 373c e7c7 5f3d d8a8 c73c 5b8c ccbb
000002c0: 1c04 0cbc d308 f6be b40b babd 88f3 ce3d
000002d0: d0ae fe3c ef16 b23d 43a8 cfbd feae 043e
000002e0: 2c4b 40bd ff72 d73d b81d 12be 2d43 8d3d
000002f0: 9ddf bebd 0df1 52bd fd9e b93d ac29 e13c
00000300: f56b e7bb 8029 55be 1021 ae3d 9ffa 88bc
00000310: 11a3 87bd f55d 933b 6101 15bc 887e e73c

bias f4 [50]
0.41550592 0.33202064 -0.0077181603 -0.52509385 -0.44108126 -0.6713795 -0.23003972 -0.06561309
0.010189899 -0.4799257 -0.39104244 0.44708937 0.02736485 -0.07834203 -0.35095972 0.10738707
-0.32022226 -0.6996818 -0.26881382 0.25983912 0.38207087 -0.31221238 -0.29939124 -0.5548347
0.3212111 -0.47664016 -0.54622555 0.350527 0.14865513 -0.32922304 0.21359049 0.44930696
-0.39427456 -0.40593302 -0.026650956 0.122955225 -0.46413934 0.42573828 -0.38859883 0.27809805
-0.041661173 -0.3082769 0.32706332 -0.27978456 0.2620956 -0.019450575 -0.48101616 -0.4780999
-0.02807337 -0.48310912
00000000: 31bd d43e 9cfe a93e 9fe8 fcbb 8d6c 06bf
00000010: 67d5 e1be 87df 2bbf 888f 6bbe 2860 86bd
00000020: 89f3 263c d2b8 f5be b736 c8be e6e8 e43e
00000030: 402c e03c c971 a0bd feb0 b3be c1ed db3d
00000040: 2cf4 a3be 591e 33bf f7a1 89be a209 853e
00000050: cb9e c33e 4dda 9fbe cf49 99be a609 0ebf
00000060: c875 a43e 2e0a f4be 70d5 0bbf 4678 b33e
00000070: 0d39 183e ec8f a8be 77b7 5a3e 900b e63e
00000080: 5bde c9be 74d6 cfbe 1b53 dabc f3cf fb3d
00000090: aca3 edbe 5efa d93e 6df6 c6be de62 8e3e
000000a0: e8a4 2abd 78d6 9dbe d874 a73e ec3f 8fbe
000000b0: 6531 863e d056 9fbc c047 f6be 83c9 f4be
000000c0: 20fa e5bc 145a f7be

weight f4 [4, 50]
0.03237679 0.14779998 -0.016478932 0.110198505 -0.03591941 0.049306314 -0.053346403 0.025343815
0.0059964736 -0.060101964 0.06407554 0.003064703 -0.08551588 -0.03262468 -0.14946654 -0.0075518778
0.023253515 -0.1627791 0.068435974 -0.115514986 -0.009157716 0.038558062 0.016266808 0.0042168787
-0.06937945 -0.037772544 0.010601593 0.10296377 -0.004273177 0.006017857 -0.042516634 0.00011036966
4.1652704e-05 0.04707247 0.048166517 0.05397037 0.101768956 -0.02514156 -0.09488382 -0.08330622
0.023646068 0.02724339 -0.080371305 0.025982574 0.01167035 0.024704035 -0.03984205 0.00047422593
0.027128251 0.0956923 0.03980446 0.02474825 0.019386932 0.024223983 -0.06005158 0.08794387
-0.024428029 -0.024740126 0.08151325 -0.013206305 0.050306644 0.12954567 -0.07983004 -0.16578062
-0.0014311499 0.010577899 0.008027227 0.17296351 0.052867346 0.16092077 0.003497706 -0.023883527
-0.01605807 0.00024997993 -0.03085182 -0.06782033 0.04989105 -0.0007876599 -0.023944065 0.03736115
-0.03654421 -0.0042839064 0.10635257 -0.0028293196 -0.061128646 -0.06008313 0.07768141 -0.023344474
0.07203434 0.04386758 -0.02575096 -0.0072510256 -0.15911151 -0.01831226 -0.09034198 0.0770712
-0.041095715 0.15324341 0.006262656 -0.09428642 -0.0054710605 0.050029412 -0.02340591 0.087207414
-0.09972945 0.08392959 -0.10783556 -0.027360804 -0.09405657 -0.017563792 0.03038854 0.040413704
-0.05793463 -0.0427688 0.01583531 -0.08678489 0.04644379 -0.04317826 0.018629253 -0.0714228
0.026066713 -0.0030071675 0.035463344 -0.10032071 0.069024146 0.084869206 0.021935182 -0.03150515
0.05858365 0.02778381 -0.019879144 0.08245027 0.033769295 -0.08760345 -0.023222705 0.036317937
0.080416955 -0.02504411 -0.0019351122 0.032782726 0.17533424 0.036760043 0.09002105 0.014789568
0.03535098 0.09885752 -0.012033977 0.18406568 0.01616441 -0.056980833 0.007595733 0.15128708
0.016215865 0.105770186 -0.003736819 0.029459022 -0.015514658 -0.07568226 -0.18955013 -0.055644806
0.0919075 0.083255254 -0.017846808 0.031768557 -0.009750946 0.026990645 0.043435756 0.09566083
0.06716143 0.21733852 0.008698486 0.020030105 -0.01102974 0.052284688 -0.022067564 -0.091878176
-0.032591533 0.0860677 0.0071583297 -0.00051739305 0.0045345826 -0.06195593 0.091873616 0.19510068
0.12624004 -0.03860239 0.10772536 -0.0033375893 -0.024666918 -0.007553619 -0.013164883 -0.035903037
-0.056864835 0.016813293 0.11154919 -0.03396887 0.03982116 0.010682613 -0.025571145 0.08287843
00000000: 869d 043d e158 173e d3fe 86bc c1af e13d
00000010: 3b20 13bd 6bf5 493d c281 5abd d59d cf3c
00000020: 117e c43b 7a2d 76bd 093a 833d 2fd9 483b
00000030: f322 afbd 75a1 05bd c20d 19be be75 f7bb
00000040: 287e be3c 90af 26be 2928 8c3d 1f93 ecbd
00000050: 3f0a 16bc 0fef 1d3d f841 853c be2d 8a3b
00000060: d016 8ebd 62b7 1abd 4eb2 2d3c abde d23d
00000070: 0206 8cbb 7231 c53b ec25 2ebd 4376 e738
00000080: 40b4 2e38 10cf 403d 414a 453d 0910 5d3d
00000090: 3e6c d03d acf5 cdbc 7352 c2bd 749c aabd
000000a0: 66b5 c13c 882d df3c b699 a4bd 68d9 d43c
000000b0: ff34 3f3c 1e60 ca3c 6b31 23bd 87a1 f839
000000c0: 113c de3c 53fa c33d 000a 233d d8bc ca3c
000000d0: 58d1 9e3c 6071 c63c a5f8 75bd ea1b b43d
000000e0: 4a1d c8bc ceab cabc 6bf0 a63d 425f 58bc
000000f0: 570e 4e3d 9fa7 043e ef7d a3bd 65c2 29be
00000100: 6c95 bbba ed4e 2d3c a184 033c 591d 313e
00000110: 6e8b 583d 6ac8 243e c539 653b 63a7 c3bc
00000120: 378c 83bc bd0f 8339 f5bc fcbc 63e5 8abd
00000130: 8f5a 4c3d f67a 4eba 5826 c4bc 0108 193d
00000140: 62af 15bd 0360 8cbb 60cf d93d 1b6c 39bb
00000150: 0862 7abd ba19 76bd 6e17 9f3d e93c bfbc
00000160: bd86 933d 7eae 333d adf3 d2bc 039a edbb
00000170: 21ee 22be 9803 96bc 3705 b9bd 81d7 9d3d
00000180: fb53 28bd d7eb 1c3e f736 cd3b 3d19 c1bd
00000190: 9546 b3bb a4eb 4c3d c0bd bfbc cd99 b23d
000001a0: f43e ccbd 47e3 ab3d e4d8 dcbd c423 e0bc
000001b0: bba0 c0bd f1e1 8fbc 63f1 f83c d788 253d
000001c0: dd4c 6dbd 562e 2fbd 0db9 813c 47bc b1bd
000001d0: d83b 3e3d b0db 30bd 609c 983c 1e46 92bd
000001e0: dc89 d53c e613 45bb 0342 113d f274 cdbd
000001f0: 885c 8d3d e8cf ad3d 69b1 b33c 8b0b 01bd
00000200: 69f5 6f3d df9a e33c 96d9 a2bc b0db a83d
00000210: ac51 0a3d 7069 b3bd 8b3d bebc 1ec2 143d
00000220: a5b1 a43d 4e29 cdbc 97a3 fdba 2e47 063d
00000230: d28a 333e b391 163d f55c b83d f24f 723c
00000240: 30cc 103d d075 ca3d 282a 45bc b77b 3c3e
00000250: 3a6b 843c bc64 69bd a0e5 f83b 00eb 1a3e
00000260: 22d7 843c 0a9e d83d 6be5 74bb 0c54 f13c
00000270: 3131 7ebc 4dff 9abd 6e19 42be cfeb 63bd
00000280: 003a bc3d bb81 aa3d 7833 92bc bf1f 023d
00000290: 6fc2 1fbc 7c1b dd3c b1e9 313d d3e9 c33d
000002a0: ef8b 893d fd8d 5e3e 1884 0e3c 2d16 a43c
000002b0: 15b6 34bc 7828 563d 09c7 b4bc a02a bcbd
000002c0: b37e 05bd 4344 b03d 6c90 ea3b a9a1 07ba
000002d0: d696 943b 80c5 7dbd 3c28 bc3d 79c8 473e
000002e0: 1245 013e 8a1d 1ebd 1d9f dc3d 75bb 5abb
000002f0: 4712 cabc 5984 f7bb 85b1 57bc 100f 13bd
00000300: 1aeb 68bd 08bc 893c e773 e43d f122 0bbd
00000310: 831b 233d 2006 2f3c 947a d1bc 2bbc a93d

bias f4 [4]
-0.067223676 -0.14406979 -0.03985956 -0.010079066
00000000: 91ac 89bd 0887 13be c743 23bd ab22 25bc

weight f4 [50, 4]
-0.0039405315 -0.4454867 0.07402041 0.009091399 -0.021619821 -0.5664129 -0.3373047 -0.352031
-0.18570213 -0.09957988 -0.18748152 0.021206751 0.015315572 -1.5430446 -0.7360273 -0.014109248
0.0035669855 0.020151207 0.062738836 0.01965143 0.036778916 -0.2585473 -0.1984774 -0.29359102
-0.067457095 -0.06517513 0.08124899 0.017691009 -0.11782635 0.102900915 0.08926639 0.02466371
-0.016525932 -0.18902838 -0.17587563 0.116522044 -0.04686347 0.020070227 0.07924425 -0.17507151
0.07903626 -0.14872733 0.12318153 0.05841204 -0.14629936 -0.02260757 -0.08099114 -0.12235623
-0.16816984 0.122145735 -0.16821392 -0.08702295 -0.033329006 0.046999797 -0.04894663 0.08928257
-0.12612537 -0.22755226 -0.10602369 -0.0012857848 -0.069303595 -0.021867573 -0.03697507 -0.070955746
-0.14663017 -0.15347302 -0.10376761 0.026024487 -0.3866379 -0.33239666 -0.28008524 -0.21574055
-0.017622622 0.2832745 0.00080548984 0.010601095 -0.025916591 -0.17421187 -0.020791274 -0.09878108
0.008920919 0.005149957 0.07051054 -0.039114088 -0.019310964 -0.2018103 -0.018477796 0.003504673
-0.125441 -0.028791256 0.07712657 -0.00053098943 -0.05701493 -0.106446184 0.110724315 -0.015886977
-0.017905805 -0.1406813 -0.13923539 -0.0070625623 -0.11136942 0.038412627 0.05502845 -0.04880046
-0.01351961 -0.07048671 0.14828238 0.016693953 -0.21230234 0.106691204 -0.06735805 -0.10718614
-0.018122165 -0.20860408 0.04310692 -0.005863843 -0.015030729 0.08395613 0.1695614 -0.07753794
-0.03128282 -0.05783812 0.0147823505 0.006899577 -0.0335998 0.070188016 -0.005772728 -0.21329641
-0.07338192 0.0842897 -0.13629909 0.087120615 -0.0759171 -0.035324667 -0.02287732 0.0025718568
-0.16357383 0.16037552 -0.16159609 -0.098525055 -0.052826576 -0.12692231 -0.13054456 -0.078418665
0.007178937 -1.7892033 -1.714831 -0.45475078 -0.13502946 -0.046677995 0.10898134 0.001199087
-0.2207668 -0.2250158 0.07282751 -0.019578367 -0.007177103 0.059279628 0.094889686 -0.042894077
-0.18950936 -0.17007418 -0.02536216 -0.012185042 -0.12404556 -0.00042557303 -0.09730038 0.013812535
-0.08051338 -0.109790914 -0.100135066 -0.05125826 0.01175368 0.054197438 0.024479788 -0.0062542274
-0.009098801 -0.48051462 -0.08941599 0.10099194 0.031684034 0.086679995 -0.10210158 0.13014515
-0.04699381 0.10551682 -0.14140472 0.06900461 -0.09311862 -0.053033747 0.090212435 0.027891817
-0.0070543597 -0.20807293 0.085290514 -0.016684866 -0.06660434 0.0049408213 -0.008148172 0.028002732
00000000: 931f 81bb d516 e4be 0398 973d 17f4 143c
00000010: 0d1c b1bc 7000 11bf 34b3 acbe 683d b4be
00000020: b328 3ebe 89f0 cbbd 28fb 3fbe c8b9 ad3c
00000030: 2aee 7a3c 7c82 c5bf 496c 3cbf 7a2a 67bc
00000040: 16c4 693b 2514 a53c 387d 803d 09fc a03c
00000050: 7da5 163d 5060 84be a93d 4bbe 9051 96be
00000060: f226 8abd 8a7a 85bd df65 a63d bcec 903c
00000070: f14e f1bd b7bd d23d 4cd1 b63d 8c0b ca3c
00000080: 6461 87bc a890 41be be18 34be 1ca3 ee3d
00000090: e9f3 3fbd 516a a43c cf4a a23d f245 33be
000000a0: c3dd a13d fa4b 18be 9946 fc3d 7741 6f3d
000000b0: 80cf 15be 8333 b9bc afde a5bd e795 fabd
000000c0: b734 2cbe 8b27 fa3d 4540 2cbe 1739 b2bd
000000d0: ff83 08bd dc82 403d 437c 48bd c8d9 b63d
000000e0: 0227 01be 7603 69be f322 d9bd c787 a8ba
000000f0: 0bef 8dbd a023 b3bc 2c73 17bd 3f51 91bd
00000100: 3826 16be 0828 1dbe 1d84 d4bd 4e31 d53c
00000110: 67f5 c5be e52f aabe 5567 8fbe 17eb 5cbe
00000120: 515d 90bc 5b09 913e 8227 533a 37b0 2d3c
00000130: 084f d4bc 9964 32be 7652 aabc bc4d cabd
00000140: 0c29 123c f8c0 a83b d467 903d 1836 20bd
00000150: 0732 9ebc 5ca7 4ebe bf5e 97bc a8ae 653b
00000160: 9b73 00be a4db ebbc 89f4 9d3d 1932 0bba
00000170: 7d88 69bd 7500 dabd 6ec3 e23d 6825 82bc
00000180: 32af 92bc c20e 10be b993 0ebe 116d e7bb
00000190: a715 e4bd 8f56 1d3d 8365 613d fee2 47bd
000001a0: 5b81 5dbc 565b 90bd 56d7 173e c2c1 883c
000001b0: c965 59be eb80 da3d 04f3 89bd 6884 dbbd
000001c0: ef74 94bc 4f9c 55be e290 303d 7b25 c0bb
000001d0: 7243 76bc 31f1 ab3d 81a1 2d3e 36cc 9ebd
000001e0: 6a22 00bd aae7 6cbd ac31 723c d915 e23b
000001f0: f29f 09bd bcbe 8f3d 2729 bdbb 606a 5abe
00000200: 4349 96bd 14a0 ac3d fd91 0bbe 4b6c b23d
00000210: 6d7a 9bbd 99b0 10bd 3869 bbbc 998c 283b
00000220: e67f 27be 7b39 243e 7279 25be 81c7 c9bd
00000230: ae60 58bd ecf7 01be 79ad 05be f799 a0bd
00000240: 4a3d eb3b 9d04 e5bf 957f dbbf 18d5 e8be
00000250: 2a45 0abe 6d31 3fbd 9c31 df3d af2a 9d3a
00000260: b110 62be 8b6a 66be 9726 953d d062 a0bc
00000270: e72d ebbb 32cf 723d 8655 c23d b3b1 2fbd
00000280: be0e 42be ed27 2ebe 4ec4 cfbc c5a3 47bc
00000290: 990b febd 721f dfb9 6c45 c7bd f94d 623c
000002a0: 33e4 a4bd 0fda e0bd 9d13 cdbd 2ef4 51bd
000002b0: 8292 403c 22fe 5d3d d689 c83c 43f0 ccbb
000002c0: 2313 15bc 0306 f6be bb1f b7bd ddd4 ce3d
000002d0: 1ec7 013d 4885 b13d a21a d1bd c544 053e
000002e0: 957c 40bd 3419 d83d 66cc 10be 4a52 8d3d
000002f0: fab4 bebd ea39 59bd 4cc1 b83d 617d e43c
00000300: 4228 e7bb 1211 55be cbac ae3d b3ae 88bc
00000310: db67 88bd 9de6 a13b e97f 05bc fc65 e53c

bias f4 [50]
0.4158112 0.33202064 -0.007741095 -0.52135897 -0.44136402 -0.66737974 -0.2301846 -0.066231295
0.010735254 -0.4799257 -0.38916293 0.44708937 0.02736485 -0.07855919 -0.35095972 0.10738707
-0.31956688 -0.6996818 -0.26857248 0.25983912 0.38221467 -0.31233338 -0.29954976 -0.55493516
0.3212111 -0.47664016 -0.5459744 0.350527 0.14865513 -0.3290483 0.21335407 0.44930696
-0.39375502 -0.40593302 -0.026650956 0.122955225 -0.45943537 0.42628738 -0.38859883 0.27822444
-0.041661173 -0.30819902 0.32706332 -0.27967086 0.26196858 -0.018879568 -0.480937 -0.47778565
-0.028032707 -0.48332882
00000000: 35e5 d43e 9cfe a93e 03a9 fdbb c877 05bf
00000010: 77fa e1be 66d9 2abf 83b5 6bbe 46a4 87bd
00000020: ebe2 2f3c d2b8 f5be 5d40 c7be e6e8 e43e
00000030: 402c e03c a4e3 a0bd feb0 b3be c1ed db3d
00000040: 459e a3be 591e 33bf 5582 89be a209 853e
00000050: a4b1 c33e 29ea 9fbe 965e 99be 3b10 0ebf
00000060: c875 a43e 2e0a f4be fac4 0bbf 4678 b33e
00000070: 0d39 183e 0579 a8be 7d79 5a3e 900b e63e
00000080: 429a c9be 74d6 cfbe 1b53 dabc f3cf fb3d
00000090: 1d3b ebbe 5742 da3e 6df6 c6be 6f73 8e3e
000000a0: e8a4 2abd 43cc 9dbe d874 a73e 0531 8fbe
000000b0: bf20 863e 53a9 9abc 603d f6be 52a0 f4be
000000c0: d9a4 e5bc e076 f7be

weight f4 [4, 50]
0.03242497 0.14779998 -0.016700882 0.11141972 -0.035445612 0.049901035 -0.053693045 0.025380578
0.00618425 -0.060101964 0.06462385 0.003064703 -0.08551588 -0.03234991 -0.14946654 -0.0075518778
0.022792025 -0.1627791 0.068942696 -0.115514986 -0.009092864 0.038532734 0.016375413 0.004336755
-0.06937945 -0.037772544 0.010865884 0.10296377 -0.004273177 0.0060934355 -0.04284826 0.00011036966
7.809122e-05 0.04707247 0.048166517 0.05397037 0.102357626 -0.025349995 -0.09488382 -0.081774496
0.023646068 0.0270186 -0.080371305 0.026121486 0.011794633 0.025177509 -0.039808325 -1.0599135e-05
0.027135324 0.095449075 0.03986572 0.02474825 0.01938133 0.028224323 -0.060560517 0.092364125
-0.02434974 -0.024699053 0.08177063 -0.013206305 0.050968014 0.12954567 -0.07983004 -0.16554038
-0.0014311499 0.010577899 0.008021376 0.17296351 0.052944355 0.16092077 0.003941534 -0.02388529
-0.016050326 0.0002526757 -0.03085182 -0.06782033 0.04995597 -0.0007876599 -0.023944065 0.037200566
-0.036505174 -0.0042839064 0.10659872 -0.0028293196 -0.061128646 -0.06008313 0.08300093 -0.023337258
0.07203434 0.04367539 -0.02575096 -0.0072696074 -0.15911151 -0.018474454 -0.09010645 0.07766343
-0.040947143 0.15343376 0.006262656 -0.09410284 -0.0054800543 0.050029412 -0.02318324 0.086608864
-0.10259853 0.08401533 -0.10793409 -0.027522486 -0.09344536 -0.017563792 0.029886669 0.040413704
-0.05793463 -0.042252492 0.01583531 -0.08678489 0.04687665 -0.04317826 0.018008424 -0.0714228
0.025826965 -0.0029060247 0.03539228 -0.10031872 0.069024146 0.084869206 0.021777576 -0.03150515
0.05858365 0.02775864 -0.019835701 0.08245027 0.034445185 -0.08760345 -0.023222705 0.036317937
0.0804398 -0.025541985 -0.0019351122 0.0320492 0.17533424 0.03715458 0.09002105 0.013627374
0.035949565 0.0993701 -0.011526738 0.18412212 0.01616441 -0.056569587 0.0084239505 0.15128708
0.015907543 0.106241286 -0.0006882071 0.030670905 -0.014270481 -0.07494553 -0.18980557 -0.055644806
0.09444197 0.083255254 -0.017846808 0.032464698 -0.009750946 0.026990645 0.043242645 0.09566083
0.06788539 0.21733852 0.009696396 0.020062424 -0.008105692 0.05227812 -0.022067564 -0.091878176
-0.03140334 0.0860677 0.0071583297 -0.00026654085 0.0057966756 -0.06195593 0.092351146 0.19510068
0.12624004 -0.03860239 0.10730832 0.0014364992 -0.024666918 -0.0070221573 -0.013164883 -0.03742213
-0.056864835 0.018322522 0.11198769 -0.03314936 0.04011518 0.013107755 -0.025571145 0.0844337
00000000: 0cd0 043d e158 173e 4ad0 88bc 0630 e43d
00000010: 6b2f 11bd 0765 4c3d 3ded 5bbd eeea cf3c
00000020: 40a5 ca3b 7a2d 76bd 8259 843d 2fd9 483b
00000030: f322 afbd 5781 04bd c20d 19be be75 f7bb
00000040: 57b6 ba3c 90af 26be d431 8d3d 1f93 ecbd
00000050: 3cfa 14bc 80d4 1d3d bb25 863c 561b 8e3b
00000060: d016 8ebd 62b7 1abd d206 323c abde d23d
00000070: 0206 8cbb 71ab c73b a881 2fbd 4376 e738
00000080: e8c4 a338 10cf 403d 414a 453d 0910 5d3d
00000090: e0a0 d13d cbaa cfbc 7352 c2bd 6379 a7bd
000000a0: 66b5 c13c 1c56 dd3c b699 a4bd bafc d53c
000000b0: 473e 413c 1041 ce3c 0e0e 23bd f0d2 31b7
000000c0: e64a de3c ce7a c33d 3d4a 233d d8bc ca3c
000000d0: 98c5 9e3c b236 e73c 4e0e 78bd 6729 bd3d
000000e0: 1b79 c7bc ab55 cabc 5c77 a73d 425f 58bc
000000f0: d6c3 503d 9fa7 043e ef7d a3bd 6b83 29be
00000100: 6c95 bbba ed4e 2d3c 176c 033c 591d 313e
00000110: 2edc 583d 6ac8 243e fc27 813b 15ab c3bc
00000120: f97b 83bc 8f79 8439 f5bc fcbc 63e5 8abd
00000130: a29e 4c3d f67a 4eba 5826 c4bc 9f5f 183d
00000140: 7386 15bd 0360 8cbb 6e50 da3d 1b6c 39bb
00000150: 0862 7abd ba19 76bd 64fc a93d c72d bfbc
00000160: bd86 933d f7e4 323d adf3 d2bc e335 eebb
00000170: 21ee 22be bd57 97bc bb89 b8bd 010e 9f3d
00000180: 31b8 27bd bd1d 1d3e f736 cd3b fdb8 c0bd
00000190: 0792 b3bb a4eb 4c3d c7ea bdbc fd5f b13d
000001a0: 2e1f d2bd 3b10 ac3d 8c0c ddbd d676 e1bc
000001b0: 4860 bfbd f1e1 8fbc e3d4 f43c d788 253d
000001c0: dd4c 6dbd f310 2dbd 0db9 813c 47bc b1bd
000001d0: bb01 403d b0db 30bd 6786 933c 1e46 92bd
000001e0: 1293 d33c 0173 3ebb 7ff7 103d e773 cdbd
000001f0: 885c 8d3d e8cf ad3d e366 b23c 8b0b 01bd
00000200: 69f5 6f3d 1666 e33c 7b7e a2bc b0db a83d
00000210: 6516 0d3d 7069 b3bd 8b3d bebc 1ec2 143d
00000220: 9fbd a43d 6d3d d1bc 97a3 fdba 0646 033d
00000230: d28a 333e 672f 183d f55c b83d 5945 5f3c
00000240: da3f 133d 8d82 cb3d a5da 3cbc 828a 3c3e
00000250: 3a6b 843c 83b5 67bd 9c04 0a3c 00eb 1a3e
00000260: 8950 823c 0895 d93d cc68 34ba 8d41 fb3c
00000270: bcce 69bc 0b7d 99bd 645c 42be cfeb 63bd
00000280: cb6a c13d bb81 aa3d 7833 92bc b4f9 043d
00000290: 6fc2 1fbc 7c1b dd3c 331f 313d d3e9 c33d
000002a0: 7f07 8b3d fd8d 5e3e a2dd 1e3c f459 a43c
000002b0: bdcd 04bc 9521 563d 09c7 b4bc a02a bcbd
000002c0: caa0 00bd 4344 b03d 6c90 ea3b 82be 8bb9
000002d0: 0af2 bd3b 80c5 7dbd 9922 bd3d 79c8 473e
000002e0: 1245 013e 8a1d 1ebd 77c4 db3d ea48 bc3a
000002f0: 4712 cabc 201a e6bb 85b1 57bc f347 19bd
00000300: 1aeb 68bd 1d19 963c cd59 e53d a0c7 07bd
00000310: d14f 243d e9c1 563c 947a d1bc 93eb ac3d

bias f4 [4]
-0.06614004 -0.14308496 -0.04102442 -0.006527789
00000000: 6e74 87bd dd84 12be 3909 28bd 10e7 d5bb

exp_avg f4 [50, 4]
-1.9921245e+08 -9.777932e+06 1.625563e+08 -1.2179292e+09 6e-45 6e-45 6e-45 6e-45
-3.7992176e+07 13861.799 -6.431329e+06 -1.2898413e+09 5.213127e+10 4.105797e+07 4.1568696e+07 1.2677126e+09
-6.4495387e+10 -2.8233408e+07 7.232602e+07 -2.1532e+09 7.931541e+10 2.2139448e+08 1.6869418e+08 1.8030812e+09
5.7235923e+08 8.117424e+07 2.5798952e+08 3.7531218e+09 1.1526048e+08 -2.006353e+08 -6.581036e+08 4.0450796e+09
8.4838625e+09 1.3649232e+08 -4.7881462e+08 2.7813206e+10 0.0 0.0 0.0 0.0
3.0791705e+10 -6.341889e+08 5.294614e+08 -1.1680728e+10 0.0 0.0 0.0 0.0
0.0 0.0 0.0 0.0 -6.7597325e+08 2.9506592e+08 1.558188e+08 -9.497744e+09
6e-45 6e-45 6e-45 6e-45 6e-45 6e-45 6e-45 6e-45
-1.6903626e+08 -312189.5 -4.7977772e+07 -4.8568274e+09 6e-45 6e-45 6e-45 6e-45
-6.958552e+09 -5.759584e+08 3.0629885e+08 -1.1014179e+10 0.0 0.0 0.0 0.0
9.836898e+09 -8.963507e+07 -7.965968e+07 1.5862142e+08 -5.2970534e+08 -1.4624208e+06 -1.6279571e+08 -7.6750413e+09
-2.4336672e+07 -1.2623228e+07 -5.27779e+07 -3.7476954e+08 -5.1144104e+07 -2.0686268e+07 -1.2503321e+08 -5.2078064e+08
6e-45 6e-45 6e-45 6e-45 0.0 0.0 0.0 0.0
5.7577574e+08 -6.964839e+07 -8.7439784e+07 7.1895716e+09 6e-45 6e-45 6e-45 6e-45
-6.285721e-07 -1.3751495e-07 -2.3059038e-06 -9.871433e-06 1.526579e+09 1.7380042e+08 8.222466e+07 1.4734902e+08
-2.8383552e+08 -3.5130924e+07 -1.7554808e+08 3.7401178e+08 0.0 0.0 0.0 0.0
-5.680077e+08 5.235653e+07 8.110069e+08 -1.6262318e+09 6e-45 6e-45 6e-45 6e-45
6e-45 6e-45 6e-45 6e-45 6e-45 6e-45 6e-45 6e-45
6.2499398e+10 2.0776308e+07 3.2358236e+07 2.6508096e+08 2.8943028e+07 4.113152e+07 8.062032e+07 6.118727e+08
6e-45 6e-45 6e-45 6e-45 2.8353528e+09 3.3978685e+08 -5.991581e+07 -2.3175098e+08
6e-45 6e-45 6e-45 6e-45 2.4618509e+08 -87159.445 3.5229736e+07 4.7260416e+09
6e-45 6e-45 6e-45 6e-45 2.6811581e+09 -4.0697632e+08 -1.3946355e+08 -4.3383834e+08
-4.295495e+09 -1.0486525e+07 4.1190166e+08 -1.7771094e+10 7.83471e+10 5.6150016e+08 1.9706638e+08 1.2970308e+10
1.0251408e+08 2.0440042e+08 4.1005117e+08 -1.699746e+09 4.2871853e+08 -2.995139e+08 6.1283044e+07 1.4918226e+10
1.118201e+07 8.0804185e+06 5.8919108e+07 1.8757979e+08 -3.1093281e+09 7.938306e+07 -1.3169389e+08 -2.8178582e+10
00000000: dafb 3dcd 0c33 15cb 9906 1b4d 4030 91ce
00000010: 0400 0000 0400 0000 0400 0000 0400 0000
00000020: bced 10cc 3297 5846 c244 c4ca d5c2 99ce
00000030: 4134 4251 ac9f 1c4c 6e92 1e4c 851f 974e
00000040: 9843 70d1 6067 d7cb 70f3 894c 3a57 00cf
00000050: 89bc 9351 6323 534d 1ae1 204d acf1 d64e
00000060: 0976 084e dcd3 9a4c b909 764d 18b4 5f4f
00000070: 88d7 db4c 3a57 3fcd 75e7 1cce 041b 714f
00000080: bcd6 fc4f 522b 024d 0d51 e4cd 7b39 cf50
00000090: 0000 0000 0000 0000 0000 0000 0000 0000
000000a0: 846a e550 d233 17ce 8577 fc4d 710e 2ed0
000000b0: 0000 0000 0000 0000 0000 0000 0000 0000
000000c0: 0000 0000 0000 0000 0000 0000 0000 0000
000000d0: 222a 21ce cab2 8c4d b399 144d 0587 0dd0
000000e0: 0400 0000 0400 0000 0400 0000 0400 0000
000000f0: 0400 0000 0400 0000 0400 0000 0400 0000
00000100: 9e34 21cd b06f 98c8 4b05 37cc a7be 90cf
00000110: 0400 0000 0400 0000 0400 0000 0400 0000
00000120: 8a61 cfcf b651 09ce ff0d 924d c21f 24d0
00000130: 0000 0000 0000 0000 0000 0000 0000 0000
00000140: ca94 1250 20f7 aacc 54f0 97cc ef45 174d
00000150: 4c95 fccd a684 b2c9 0c41 1bcd ebbb e4cf
00000160: 90ac b9cb 7c9d 40cb eb54 49cc 3cb4 b2cd
00000170: 6a19 43cc ded2 9dcb 5f7b eecc db53 f8cd
00000180: 0400 0000 0400 0000 0400 0000 0400 0000
00000190: 0000 0000 0000 0000 0000 0000 0000 0000
000001a0: 9046 094e 01d8 84cc 35c7 a6cc 1444 d64f
000001b0: 0400 0000 0400 0000 0400 0000 0400 0000
000001c0: 25bb 28b5 d2a7 13b4 20bf 1ab6 7b9d 25b7
000001d0: 7efb b54e bebf 254d c2d4 9c4c e285 0c4d
000001e0: e457 87cd 8b03 06cc 6b6a 27cd bc57 b24d
000001f0: 0000 0000 0000 0000 0000 0000 0000 0000
00000200: 706c 07ce 6cb9 474c ef5b 414e a8dc c1ce
00000210: 0400 0000 0400 0000 0400 0000 0400 0000
00000220: 0400 0000 0400 0000 0400 0000 0400 0000
00000230: 0400 0000 0400 0000 0400 0000 0400 0000
00000240: 12d4 6851 ba82 9e4b aedf f64b 08cd 7c4d
00000250: 5ad1 dc4b 80e7 1c4c 64c5 994c bfe1 114e
00000260: 0400 0000 0400 0000 0400 0000 0400 0000
00000270: 0d00 294f e305 a24d 888f 64cc d403 5dcd
00000280: 0400 0000 0400 0000 0400 0000 0400 0000
00000290: c8c7 6a4d b93b aac7 0a64 064c d6d8 8c4f
000002a0: 0400 0000 0400 0000 0400 0000 0400 0000
000002b0: 3acf 1f4f ba0f c2cd b800 05cd c8de cecd
000002c0: 0704 80cf fd02 20cb f768 c44d ac67 84d0
000002d0: cfee 9151 40df 054e e9ef 3b4d cc45 4150
000002e0: b487 c34c 72ee 424d 1387 c34d 22a0 cace
000002f0: ce6d cc4d c1d1 8ecd b9c6 694c 844c 5e50
00000300: ba9f 2a4b 4598 f64a 31c2 604c d9e3 324d
00000310: 9554 39cf 4269 974c a82f fbcc 61f2 d1d0

exp_avg_sq f4 [50, 4]
5.4392855e+22 2.1692087e+20 9.7781705e+20 4.6692272e+23 6.91479e+22 3.6325087e+19 5.6827885e+18 1.1713845e+19
6.631424e+20 1.8070757e+17 2.9761046e+19 1.8046407e+22 1.3725059e+23 8.0657446e+18 1.0315764e+18 1.5276041e+19
7.4852163e+22 1.11590044e+21 2.2965338e+21 1.0488663e+24 1.4230846e+23 4.3156542e+20 6.0339135e+19 2.1074139e+20
8.279249e+21 4.9560707e+20 8.1004e+20 2.1965832e+23 4.339389e+21 9.61408e+20 5.5384906e+20 1.2743604e+23
4.393502e+22 1.8158199e+20 2.131108e+21 1.1073874e+24 0.0 0.0 0.0 0.0
1.1294298e+23 1.15539926e+21 1.5697809e+21 5.883134e+23 0.0 0.0 0.0 0.0
0.0 0.0 0.0 0.0 2.3082213e+23 3.0781073e+21 7.7842265e+21 3.8570732e+24
6.3733523e+21 9.469824e+16 6.9777115e+19 1.7859096e+23 9.673282e+19 2.663781e+18 8.2528183e+18 5.1159097e+19
3.558953e+21 1.6039085e+18 1.419166e+20 1.20849935e+23 3.9421215e+13 2.1793869 2.0584532e+11 2.5603468e+16
3.638556e+22 1.1852305e+21 1.9211585e+21 8.4717105e+23 0.0 0.0 0.0 0.0
4.6572746e+22 5.4280852e+20 8.068795e+20 2.6102599e+23 2.4838255e+22 2.2912441e+20 3.8941852e+20 2.8036275e+23
4.6162808e+21 1.6025185e+20 7.5447165e+20 1.495274e+23 6.282256e+21 4.655503e+19 2.7579254e+20 8.72137e+22
2.0092549e+22 1.0807169e+16 7.3493596e+19 5.8991816e+23 0.0 0.0 0.0 0.0
7.3996957e+22 1.3144318e+21 1.5858418e+21 6.8977744e+23 2.7247397e+20 4.289773e+20 1.3341727e+20 7.740792e+20
2.834613e+22 2.0055307e+20 6.148232e+20 2.9399275e+23 1.2358724e+22 4.2978777e+20 1.8617063e+20 5.445862e+20
2.6945753e+22 9.988744e+20 1.9858195e+21 6.624573e+23 0.0 0.0 0.0 0.0
6.4219137e+22 1.1402661e+21 3.1292325e+21 1.6962722e+24 2.5499603e+21 3.377849e+17 1.1396386e+20 6.8070418e+22
6.516574e+20 9.123823e+20 1.8256041e+20 6.199192e+20 7.9977956e+21 7.536374e+19 1.516038e+19 1.5069461e+20
1.5188354e+23 6.7378754e+18 3.6715573e+17 2.1023774e+18 2.1343248e+21 1.8674196e+19 1.1999813e+20 5.5382413e+22
5.32685e+20 1.9050684e+19 5.1019887e+20 2.5422507e+22 3.1321272e+21 8.491874e+20 1.4382251e+21 6.341227e+22
4.4375389e+21 7.6402995e+17 5.7652452e+19 1.4811927e+23 2.6557056e+22 1.5340961e+18 3.0721414e+20 7.735453e+23
3.0942768e+19 2.9474512e+14 4.910428e+18 1.3347086e+21 3.507998e+22 5.7745812e+20 7.136048e+20 3.8632883e+23
1.0395352e+23 2.0937815e+20 2.0430642e+21 1.2664768e+24 1.4680786e+23 1.1565277e+21 2.2623685e+21 1.1298029e+24
3.3054757e+22 9.863531e+20 1.0625407e+21 3.2723576e+23 1.8811123e+23 6.3442025e+20 7.8206353e+21 5.005317e+24
1.0037303e+22 3.932377e+19 2.5549881e+20 1.4035191e+23 5.4813888e+22 2.1401138e+21 2.8098434e+21 1.525705e+24
00000000: 484a 3865 1c26 3c61 c007 5462 ddbf c566
00000010: 3e48 6a65 510e fc5f a4ba 9d5e f08f 225f
00000020: cccb 0f62 2580 205c 3d82 ce5f 0d93 7464
00000030: f582 e865 90de df5e 540e 655d 66ff 535f
00000040: e79b 7d65 ebf8 7162 9efd f862 281b 5e67
00000050: 7514 f165 6329 bb61 eb57 5160 fdc9 3661
00000060: d568 e063 70ef d661 41a6 2f62 ce0e 3a66
00000070: 1f3d 6b63 dd78 5062 9931 f061 93e2 d765
00000080: 8edb 1465 4d7f 1d61 210e e762 977f 6a67
00000090: 0000 0000 0000 0000 0000 0000 0000 0000
000000a0: 3655 bf65 8b89 7a62 2c32 aa62 1129 f966
000000b0: 0000 0000 0000 0000 0000 0000 0000 0000
000000c0: 0000 0000 0000 0000 0000 0000 0000 0000
000000d0: 9283 4366 52dd 2663 ecfd d263 1731 4c68
000000e0: 04c0 ac63 c637 a85b 8716 7260 be45 1766
000000f0: 00ce a760 9bde 135e cd0f e55e 687e 3160
00000100: 65ee 4063 d211 b25d a12f f660 4eba cc65
00000110: de69 0f56 137b 0b40 59b5 3f52 70ec b55a
00000120: e38e f664 c180 8062 dc4a d062 3c65 3367
00000130: 0000 0000 0000 0000 0000 0000 0000 0000
00000140: 6bcb 1d65 da67 eb61 cff6 2e62 fd18 5d66
00000150: 814f a864 d7bb 4661 24e2 a861 fb79 6d66
00000160: c43f 7a63 0fff 0a61 9799 2362 2c4f fd65
00000170: e847 aa63 2c85 2160 3f36 6f61 eabe 9365
00000180: 0427 8864 4094 195a 6dfb 7e60 0ed7 f966
00000190: 0000 0000 0000 0000 0000 0000 0000 0000
000001a0: 21b6 7a65 d082 8e62 f4ef ab62 e910 1267
000001b0: 6055 6c61 0c0a ba61 2c71 e760 07da 2762
000001c0: b214 c064 baf3 2d61 8b51 0562 8405 7966
000001d0: f07d 2764 0764 ba61 2f7a 2161 372d ec61
000001e0: 6e97 b664 ab98 5862 904d d762 e247 0c67
000001f0: 0000 0000 0000 0000 0000 0000 0000 0000
00000200: 3995 5965 7c41 7762 d3a2 2963 8d99 b367
00000210: cf3b 0a63 b201 965c 1fb2 c560 ada1 6665
00000220: 414e 0d62 64d7 4562 8e58 1e61 6e6c 0662
00000230: dbc7 d863 39bc 8260 7d64 525f edb4 0261
00000240: 7ea6 0066 7c03 bb5e c60c a35c 2969 e95d
00000250: 6a67 e762 0994 815f e029 d060 96a4 3b65
00000260: ea03 e761 d030 845f 7443 dd61 0545 ac64
00000270: ffca 2963 5f23 3862 c4ee 9b62 60d9 5665
00000280: 398f 7063 13a6 295d aa05 4860 7eec fa65
00000290: 26f5 b364 a251 aa5d 9f3b 8561 facd 2367
000002a0: 66b5 d65f d908 8657 b04a 885e 9bb5 9062
000002b0: 11b6 ed64 bb6e fa61 06bd 1a62 db9d a366
000002c0: a71a b065 4a9b 3561 6c82 dd62 ec17 8667
000002d0: c3b3 f865 2fc8 7a62 5749 f562 bd3e 6f67
000002e0: ddfc df64 99e1 5562 dc66 6662 f996 8a66
000002f0: 1f56 1f66 6691 0962 8ffa d363 597d 8468
00000300: e407 0864 866e 0860 229c 5d61 f0c3 ed65
00000310: 78b7 3965 1708 e862 6952 1863 518a a167

exp_avg f4 [50]
-12.643629 6e-45 -13.342515 534.8161 -666.045 815.0858 46.64644 33.016
359.54745 0.0 190.0625 0.0 0.0 -97.22832 6e-45 6e-45
-50.741524 6e-45 -182.42389 0.0 98.26225 -83.69003 -4.645074 -7.1764426
6e-45 0.0 76.0826 6e-45 -1.294344e-13 19.299532 -1.2050295 0.0
-13.308777 6e-45 6e-45 6e-45 628.1762 7.625677 6e-45 28.834726
6e-45 50.07369 6e-45 17.008804 -216.65178 920.7595 -9.827805 151.08717
2.6576128 -313.40222
00000000: 4e4c 4ac1 0400 0000 f17a 55c1 3bb4 0544
00000010: e182 26c4 7ec5 4b44 f495 3a42 6210 0442
00000020: 13c6 b343 0000 0000 0010 3e43 0000 0000
00000030: 0000 0000 e674 c2c2 0400 0000 0400 0000
00000040: 52f7 4ac2 0400 0000 846c 36c3 0000 0000
00000050: 4686 c442 4c61 a7c2 72a4 94c0 6ba5 e5c0
00000060: 0400 0000 0000 0000 4b2a 9842 0400 0000
00000070: edba 11aa 7165 9a41 683e 9abf 0000 0000
00000080: c0f0 54c1 0400 0000 0400 0000 0400 0000
00000090: 470b 1d44 8c05 f440 0400 0000 85ad e641
000000a0: 0400 0000 754b 4842 0400 0000 0812 8841
000000b0: dba6 58c3 9c30 6644 b03e 1dc1 5116 1743
000000c0: 5416 2a40 7cb3 9cc3

exp_avg_sq f4 [50]
7.851758e+07 7.189497e+06 2.68789e+06 1.4024381e+07 1.702176e+08 1.5272059e+07 3.407055e+07 1.9300314e+07
1.6764171e+08 0.0 1.0655509e+08 0.0 0.0 6.184548e+08 2.5980922e+07 38527.67
1.7306282e+07 2.7803297 1.3310361e+08 0.0 4.631891e+07 4.3217164e+07 2.2038458e+07 1.3411188e+07
8.407634e+07 0.0 1.1427377e+08 457033.78 4.788397e+07 1.8027264e+06 1.0548229e+08 0.0
2.6105056e+08 1.016445e+07 682980.06 1.0146042e+06 1.5347338e+07 8.569508e+06 4.247841e+06 1.1958291e+07
2.1141844e+07 1.1214113e+08 196509.78 6.1312544e+07 1.9923627e+08 1.8836469e+08 5.7103964e+07 7.62583e+08
2.2332716e+07 2.3003549e+08
00000000: aac2 954c f267 db4a 480e 244a bdfe 554b
00000010: 0855 224d 7b08 694b 06f8 014c ed3f 934b
00000020: 27e0 1f4d 0000 0000 da3c cb4c 0000 0000
00000030: 0000 0000 7c73 134e fd37 c64b ac7f 1647
00000040: 5509 844b ecf0 3140 ffdf fd4c 0000 0000
00000050: 50b1 304c 43dc 244c dd23 a84b 74a3 4c4b
00000060: e65c a04c 0000 0000 bdf5 d94c 3929 df48
00000070: b0a9 364c 330f dc49 0631 c94c 0000 0000
00000080: 0cf5 784d e218 1b4b 41be 2649 c3b4 7749
00000090: 8a2e 6a4b a4c2 024b 42a2 814a 1378 364b
000000a0: aa4c a14b 69e4 d54c 72e7 3f48 88e3 694c
000000b0: ab01 3e4d 79a3 334d 97d5 594c 5fd0 354e
000000c0: 9662 aa4b 0261 5b4d

exp_avg f4 [4, 50]
-8.151236e+08 6e-45 -4.0289398e+08 3.187658e+09 -1.6179131e+09 8.065112e+09 -1.5066872e+09 -1.6673244e+09
-1.1480782e+10 0.0 9.85286e+09 0.0 0.0 -8.72975e+09 6e-45 6e-45
-1.3260517e+09 6e-45 -1.2240526e+09 0.0 1.7676017e+09 -1.6697992e+08 4.5704148e+07 5.7376676e+07
-6e-45 0.0 -1.2839066e+09 -6e-45 -3.0019304e-26 -2.8123652e+07 -5.0853126e+08 0.0
-8.2461983e+09 6e-45 6e-45 6e-45 1.1672732e+09 3.2770406e+07 -6e-45 -2.6163446e+07
-6e-45 -2.1108662e+08 -6e-45 2.4288668e+09 -9.999965e+09 -6.740359e+09 -6.7354194e+09 -2.306968e+09
5.069351e+06 -2.3397138e+09 8.040122e+08 -6e-45 -4.030846e+07 4.839681e+09 -4.2727667e+09 1.4294139e+10
1.1591506e+09 1.1296274e+09 6.635375e+09 0.0 3.651882e+10 0.0 0.0 4.9373834e+09
6e-45 -6e-45 4.493873e+07 0.0 1.4939359e+09 0.0 3.8854364e+09 3.2290852e+06
1.4292914e+07 1.6199413e+07 -6e-45 0.0 1.2091438e+09 6e-45 3.5247496e-08 -1.2656659e+08
2.5812059e+08 0.0 4.628798e+09 -6e-45 -6e-45 -6e-45 2.1221364e+09 7.468025e+07
6e-45 2.8137106e+07 -6e-45 -3.991697e+07 6e-45 2.373622e+09 5.9034593e+09 2.9488017e+10
3.5744627e+09 1.7159132e+09 -5.042079 1.4398166e+09 1.8618354e+08 6e-45 3.1212637e+08 4.8684964e+09
-1.280269e+09 1.2322901e+10 2.874766e+08 3.1239942e+08 3.6732111e+09 0.0 3.0349036e+10 0.0
0.0 2.708631e+09 6e-45 0.0 6.0029894e+08 0.0 -1.9991045e+08 0.0
3.2524547e+09 8.018348e+07 6.8804425e+06 2.5442468e+06 6e-45 0.0 2.4927677e+08 6e-45
9.143903e-26 -3.1384648e+07 1.3450994e+08 0.0 2.7587192e+09 -6e-45 6e-45 -6e-45
7.345462e+08 -2.4830354e+07 0.0 -5.2999764e+07 -6e-45 1.8557166e+08 0.0 3.4411356e+09
3.3396792e+09 1.8280438e+10 2.305953e+09 5.841237e+08 0.011116586 7.4978086e+08 -5.8614995e+08 -6e-45
-1.01641734e+09 -2.9218506e+09 -1.7138852e+09 -5.753471e+09 -9.442954e+08 -1.734411e+09 -1.559189e+10 0.0
-1.8099587e+10 0.0 0.0 -1.0298681e+10 6e-45 -6e-45 -1.9160622e+09 0.0
-2.0486446e+09 0.0 -1.5182789e+09 -2.5678534e+08 2.5453114e+08 -2.2443295e+06 6e-45 0.0
-9.934835e+08 6e-45 -3.213543e-20 1.4023786e+08 -3.6455283e+08 0.0 -9.87984e+09 6e-45
6e-45 -6e-45 -7.9308883e+08 7.620418e+08 -6e-45 4.626177e+07 -6e-45 -7.9794586e+08
-6e-45 -1.7720113e+09 -1.2372859e+10 -2.4134762e+10 -8.068899e+09 -1.5501668e+09 -0.00020650678 -2.3312384e+09
00000000: 3257 42ce 0400 0000 651d c0cd cdff 3d4f
00000010: cade c0ce ec5b f04f 729c b3ce b4c2 c6ce
00000020: b513 2bd0 0000 0000 aed1 1250 0000 0000
00000030: 0000 0000 5a15 02d0 0400 0000 0400 0000
00000040: e313 9ece 0400 0000 1feb 91ce 0000 0000
00000050: ecb6 d24e 953e 1fcd f558 2e4c e9df 5a4c
00000060: 0400 0080 0000 0000 b80d 99ce 0400 0080
00000070: fda5 1495 0291 d6cb 927c f2cd 0000 0000
00000080: 80c1 f5cf 0400 0000 0400 0000 0400 0000
00000090: 5a26 8b4e b304 fa4b 0400 0080 7b9c c7cb
000000a0: 0400 0080 d24e 49cd 0400 0080 91c5 104f
000000b0: d702 15d0 dce0 c8cf 2cbb c8cf 8a81 09cf
000000c0: 4eb4 9a4a 3375 0bcf 03b1 3f4e 0400 0080
000000d0: bbc3 19cc d63b 904f 3fad 7ecf d0ff 5450
000000e0: 782e 8a4e 7ea9 864e e5bf c54f 0000 0000
000000f0: 100b 0851 0000 0000 0000 0000 3f25 934f
00000100: 0400 0000 0400 0080 7a6d 2b4c 0000 0000
00000110: 4e17 b24e 0000 0000 0e97 674f 7516 454a
00000120: b217 5a4b f52e 774b 0400 0080 0000 0000
00000130: 2424 904e 0400 0000 0863 1733 1868 f1cc
00000140: b929 764d 0000 0000 edf2 894f 0400 0080
00000150: 0400 0080 0400 0080 77fa fc4e f770 8e4c
00000160: 0400 0000 49ab d64b 0400 0080 6a45 18cc
00000170: 0400 0000 997a 0d4f d2ef af4f eeb3 db50
00000180: f90d 554f 848d cc4e b658 a1c0 b7a3 ab4e
00000190: f78e 314d 0400 0000 5dd5 944d ae17 914f
000001a0: b69e 98ce 23a0 3750 5c14 894d b2f6 944d
000001b0: c1f0 5a4f 0000 0000 311e e250 0000 0000
000001c0: 0000 0000 6e72 214f 0400 0000 0000 0000
000001d0: 571f 0f4e 0000 0000 43a6 3ecd 0000 0000
000001e0: 85dc 414f 17f0 984c 75f9 d14a db49 1b4a
000001f0: 0400 0000 0000 0000 96ba 6d4d 0400 0000
00000200: 5f64 e215 2472 efcb 5747 004d 0000 0000
00000210: b76e 244f 0400 0080 0400 0000 0400 0080
00000220: 2421 2f4e c970 bdcb 0000 0000 952d 4acc
00000230: 0400 0080 95f9 304d 0000 0000 901b 4d4f
00000240: 760f 474f 2b33 8850 0d72 094f 1544 0b4e
00000250: 5722 363c fec2 324e c1bf 0bce 0400 0080
00000260: 3155 72ce e727 2ecf a04f ccce 8077 abcf
00000270: 3823 61ce 06c2 cece 5756 68d0 0000 0000
00000280: 39da 86d0 0000 0000 0000 0000 5a76 19d0
00000290: 0400 0000 0400 0080 9469 e4ce 0000 0000
000002a0: ac37 f4ce 0000 0000 32fe b4ce bce3 74cd
000002b0: 64bd 724d a6fb 08ca 0400 0000 0000 0000
000002c0: 6cdd 6cce 0400 0000 5ac1 179f c2bd 054d
000002d0: 14d5 adcd 0000 0000 9938 13d0 0400 0000
000002e0: 0400 0000 0400 0080 4d16 3dce 57af 354e
000002f0: 0400 0080 8279 304c 0400 0080 c03e 3ece
00000300: 0400 0080 7e3d d3ce b65e 38d0 68d1 b3d0
00000310: d078 f0cf 56cb b8ce be89 58b9 e0f3 0acf

exp_avg_sq f4 [4, 50]
3.3500877e+22 1.8670186e+21 1.3839975e+21 3.6614476e+21 5.246689e+21 1.0963249e+23 4.0213156e+21 4.4200207e+21
4.39082e+22 0.0 2.8617061e+23 0.0 0.0 4.4650817e+22 1.7995385e+19 8.7143586e+18
2.0169733e+21 3.274313e+08 4.773727e+21 0.0 7.584639e+22 7.383226e+21 6.6306383e+19 8.012325e+20
3.4597285e+18 0.0 3.8365715e+22 7.988253e+19 4.684985e+22 8.186103e+22 4.760541e+20 0.0
2.1870603e+22 1.19553726e+20 8.536717e+19 1.4972025e+20 3.5067473e+21 1.38700595e+20 8.414752e+17 7.455633e+19
1.3651564e+19 2.5087873e+20 4.216317e+17 7.854543e+22 7.731782e+22 1.0820708e+23 2.9462596e+22 2.676879e+21
2.7214726e+21 2.1210727e+21 7.416757e+23 5.789994e+19 1.2761035e+24 1.0921876e+21 3.290622e+23 8.960757e+21
6.492292e+23 1.0553228e+24 3.2505498e+24 0.0 2.7090906e+24 0.0 0.0 1.7481162e+24
1.1045554e+22 1.6676773e+18 6.0967505e+23 0.0 2.4627713e+23 0.0 3.8741833e+22 2.1515518e+23
4.225211e+22 4.4781608e+23 1.7876814e+22 0.0 9.0523714e+23 5.6930165e+20 5.7674952e+23 8.001758e+21
1.173148e+23 0.0 1.5327443e+24 1.7825838e+23 1.5619534e+20 6.1786286e+18 3.7629105e+20 8.131602e+22
1.7347343e+20 8.8732974e+20 5.269604e+21 8.872768e+22 6.0339466e+17 2.6132061e+23 2.9961182e+24 4.7912665e+24
2.5397376e+24 2.5114442e+23 7.0010487e+22 2.250757e+23 8.475562e+21 7.0852477e+19 7.133366e+21 7.866992e+20
4.1000414e+21 1.1055095e+22 7.2672684e+21 1.098653e+22 5.651497e+22 0.0 9.276494e+22 0.0
0.0 3.2687896e+22 9.66432e+18 0.0 5.62869e+21 0.0 2.8327898e+21 0.0
4.2707936e+21 1.937365e+21 2.3088194e+20 2.6343578e+21 8.8696855e+19 0.0 1.2537841e+22 3.1341283e+17
7.396599e+21 3.5135894e+21 1.2054253e+21 0.0 2.5620618e+22 9.20647e+20 1.516206e+13 1.9253619e+17
4.8523696e+20 1.981747e+20 0.0 2.6791468e+19 3.5570864e+18 8.2263525e+20 0.0 6.638152e+21
5.260202e+22 9.004918e+22 3.760964e+22 3.292983e+21 3.062232e+20 3.4399792e+21 4.669489e+21 3.8122355e+19
3.74483e+21 7.2981515e+20 2.9014579e+21 1.0249766e+22 4.991133e+21 6.173034e+21 4.787969e+22 0.0
8.857835e+22 0.0 0.0 2.8181653e+22 3.0661225e+19 2.8954773e+18 3.0194417e+21 0.0
5.08151e+21 0.0 3.802901e+21 8.3118716e+20 9.396563e+19 1.4475865e+21 1.7926156e+19 0.0
9.525441e+21 1.2878412e+20 3.8438383e+21 3.8757038e+21 6.098725e+20 0.0 2.3017267e+22 3.868307e+20
4.7397712e+20 6.63386e+18 4.7825315e+20 3.1596038e+20 3.461002e+18 3.1952902e+20 6.5451926e+19 3.6796122e+20
7.861929e+17 5.9404827e+21 4.0719607e+22 8.214613e+22 2.7634445e+22 2.7944135e+21 3.1041796e+20 2.392087e+21
00000000: c202 e364 2d6c ca62 a60d 9662 cb7c 4663
00000010: 3836 8e63 83b9 b965 f7fe 5963 1c9c 6f63
00000020: 4bc4 1465 0000 0000 5c65 7266 0000 0000
00000030: 0000 0000 6948 1765 73bc 795f 3edf f15e
00000040: 41ae da62 a421 9c4d 6364 8163 0000 0000
00000050: 217d 8065 6c1f c863 e60b 6660 57bd 2d62
00000060: b30d 405e 0000 0000 f4fc 0165 f892 8a60
00000070: c4bb 1e65 90ad 8a65 9f74 ce61 0000 0000
00000080: 7333 9464 8564 cf60 a416 9460 93dc 0161
00000090: e519 3e63 709b f060 54d8 3a5d a955 8160
000000a0: 1974 3d5f 459a 5961 fa3d bb5c a60f 8565
000000b0: 42fb 8265 574f b765 75a5 c764 291d 1163
000000c0: 0588 1363 98f7 e562 520e 1d67 7ae1 4860
000000d0: db1c 8767 97d4 6c62 ff5c 8b66 bee1 f263
000000e0: c97a 0967 2a79 5f67 2a15 2c68 0000 0000
000000f0: 066b 0f68 0000 0000 0000 0000 c916 b967
00000100: f7b1 1564 3d26 b95d 8d1a 0167 0000 0000
00000110: d79a 5066 0000 0000 2f43 0365 583e 3666
00000120: dd27 0f65 51a8 bd66 a846 7264 0000 0000
00000130: 01b1 3f67 2ee5 f661 4f43 f466 5ae3 d863
00000140: 2fbd c665 0000 0000 1e49 a267 a0fd 1666
00000150: 557a 0761 cc7d ab5e b330 a361 34c1 8965
00000160: d776 1661 b268 4062 39d5 8e63 7f4f 9665
00000170: 04fb 055d e058 5d66 f99c 1e68 c5a5 7d68
00000180: dd73 0668 44ba 5466 6b34 6d65 83a5 3e66
00000190: 07bb e563 a4d1 7560 ab59 c163 9496 2a62
000001a0: 8143 5e63 11d3 1564 cefa c463 2fe5 1464
000001b0: ec7a 3f65 0000 0000 6126 9d65 0000 0000
000001c0: 0000 0000 7680 dd64 901e 065f 0000 0000
000001d0: e290 9863 0000 0000 db90 1963 0000 0000
000001e0: 2b85 6763 ae0c d262 1742 4861 0fcf 0e63
000001f0: 51dd 9960 0000 0000 60eb 2964 ea2e 8b5c
00000200: 377c c863 d978 3e63 46b1 8262 0000 0000
00000210: b09c ad64 2da2 4762 13a3 5c55 a901 2b5c
00000220: 2070 d261 9fe3 2b61 0000 0000 35e7 b95f
00000230: 3d75 455e 6e61 3262 0000 0000 6fed b363
00000240: fb38 3265 9b8c 9865 53da fe64 5283 3263
00000250: 9bcd 8461 4d7b 3a63 2d22 7d63 7443 0460
00000260: f501 4b63 e140 1e62 d149 1d63 05e9 0a64
00000270: f148 8763 0752 a763 0339 2265 0000 0000
00000280: bc0e 9665 0000 0000 0000 0000 60f7 be64
00000290: 47c1 d45f 35bb 205e 2caf 2363 0000 0000
000002a0: 0fbc 8963 0000 0000 da27 4e63 283c 3462
000002b0: 1f01 a360 99f2 9c62 80c6 785f 0000 0000
000002c0: 0318 0164 a367 df60 f95f 5063 321a 5263
000002d0: b93e 0462 0000 0000 98f8 9b64 d6c2 a761
000002e0: 088e cd61 6920 b85e c468 cf61 a606 8961
000002f0: cc1f 405e d992 8a61 fd14 6360 e793 9f61
00000300: e491 2e5d 6104 a163 a1f6 0965 3429 8b65
00000310: 1f42 bb64 477c 1763 519f 8661 e0ac 0163

exp_avg f4 [4]
938.0718 4821.9795 3896.6733 -3030.0437
00000000: 9884 6a44 d6af 9645 c68a 7345 b360 3dc5

exp_avg_sq f4 [4]
1.109308e+09 1.7580351e+10 6.524871e+08 6.48288e+08
00000000: 653d 844e dcfb 8250 a790 1b4e 5c90 1a4e
