demo/covid2.pth (torch, 239349 bytes, 16 tensors)

weight f4 [50, 4]
00000000: f774 8ebd ef8a 46bd 6575 66bd 533f eebd
00000010: 1601 fdba 22b8 d4bd 03c6 cfbd 9b54 2bbc
00000020: ef88 19bd 289d 27bd 784f e13c c3df 33bb
00000030: 3f22 80bc 8a25 90be c3f2 04be 80ea 7139
00000040: 76fb 11bd d621 81bd ac82 8d3d 866f 67bc
00000050: 33ee f7bc 35ef 1ebe 2219 fcbd c8e0 47be
00000060: 74d6 04be 60e1 013d 37ac 7ebd f95b b9bd
00000070: e6d5 eebc bef5 d4bd 56b9 e8bb b8ee 34be
00000080: 3ba5 39bb c190 a4bf c822 19be beb3 e6bc
00000090: d79f 76ba ed6b fdbd 4a35 1ebe df09 8fbe
000000a0: 1442 8fba 39e6 89bb cadb ecbc e1f7 08be
000000b0: ddf4 27bc a34a aabf c1cf 1cbf 639b 2bbe
000000c0: 1aa2 1cbe 8009 ed3d a144 1abe ddbb b13b
000000d0: 3487 b9bc e46c 8abe c726 2dbe bfac 81bb
000000e0: 54c8 f0bd 89af dabd b81a 8f3d 6c80 70bd
000000f0: c6ec b9bc bb34 423e 28a5 9cbe 1eca ccbd
00000100: c2f7 f8bd b535 f53c 02d8 913d eeba 7dbd
00000110: 4615 3cbe 294d acbb ff01 b83c af50 14bd
00000120: 81a9 0ebe 2b1b 213e 4cb7 fdbc 5529 8abd
00000130: da12 61bb e658 1cbd a26d a73a 3bc7 a7ba
00000140: 62ed e0ba 4fb5 11be e815 873d 4a6f 74bc
00000150: ea2b 58be 01df 193e b81b 2a3b 97e8 ecbd
00000160: bccb dcbc 6be4 383e de67 0ebe 7a9f 5ebe
00000170: 1f8c ccbd 812e 083d 3a37 1f3d 29e1 3bbd
00000180: 0a5f 53bb 586b a8bf 4676 63be 4d43 2cbe
00000190: 09bb 13bc 7d31 22be 5e8c ebbd 2f04 e2bb
000001a0: cf4e e3bd 1053 fdbd 7a5c 2bbd 00d3 e8bd
000001b0: e01f 0aba 6c8e 31bf b9e7 eabd ecff 4dbd
000001c0: 8b5c 6fbd d061 0f3c f09b 08be 89b1 a3bb
000001d0: 588a 65bd 3f19 33be e33f 8bbd 637f a8bc
000001e0: 9356 c3bd 06e6 053e 7dad ccbb e341 b1bd
000001f0: f67c 20bd a04d debd cc3b 063e 1574 9fbd
00000200: 8d4b 80bd 222b 80bc 2495 8e3d 68de 5cbd
00000210: ff62 60bd fcf0 27bd ec98 8f3c 7fe7 55bc
00000220: 8c31 32bc 901d fc3d d121 4bbd cd2f 53be
00000230: aaee 88ba 1f50 593d e54b 66bc 241e 373c
00000240: 764f e6bc 63f1 c4bc c576 3d3e d858 3fbe
00000250: c0d4 8ebd 0197 9cbe 2e79 463d 1ace a1bc
00000260: e54d 05be 46d3 c03d 7c81 f6bd 3eda 78bc
00000270: 857d 703d db38 f2be 0767 9abe d756 72bd
00000280: a148 09bd ae80 2c3e 20e5 0bbd a820 8339
00000290: 1df3 26bd 114a da3c 7fff d6bc 11f9 503b
000002a0: 4591 8fba 22fe b53c 105e 9dbd e574 83bb
000002b0: ad8d 5abb 28dc 67bc b77a dabc 8ac1 aebd
000002c0: 2633 b2bb e049 a0bf 2f55 e9be cab4 93bc
000002d0: e0c5 f7bc 010a 2f3d 8254 efbd 7669 c3bd
000002e0: 4509 5abe c739 58bd f250 263e 5263 0cbd
000002f0: b71c 2b3d 9363 abbe 5e28 5fbe 1a30 2cbd
00000300: c274 16be d7dd 9bbc 2d7a d6bd 10ed cebd
00000310: 5b51 d8bb 5fb2 023c b547 edbd 5c65 99bc
-0.06955903 -0.04847234 -0.0562643 -0.11633172 -0.0019302692 -0.10386683 -0.101451896 -0.010457183
-0.037484106 -0.04092136 0.027503714 -0.0027446605 -0.01564133 -0.2815364 -0.12983231 0.00023070909
-0.035640202 -0.06305282 0.06909689 -0.01412571 -0.03026495 -0.15520938 -0.12309481 -0.19519341
-0.12972432 0.031709075 -0.062175956 -0.090507455 -0.02915473 -0.10398434 -0.007102172 -0.17669189
-0.0028327245 -1.2856675 -0.14954674 -0.02816188 -0.0009407973 -0.12374101 -0.15450016 -0.2793722
-0.0010929727 -0.004208353 -0.028913397 -0.13375808 -0.010251251 -1.3304027 -0.6125451 -0.16758494
-0.15296212 0.115740776 -0.15065242 0.0054240064 -0.022647478 -0.27036202 -0.16909324 -0.0039573605
-0.117569596 -0.10678012 0.06987518 -0.058716223 -0.02269591 0.18965428 -0.30594754 -0.09999488
-0.12156631 0.029932836 0.07121278 -0.06194585 -0.1836749 -0.0052582216 0.02246189 -0.03620976
-0.13931848 0.1573302 -0.030971192 -0.06746165 -0.0034343512 -0.038170718 0.0012773762 -0.0012800464
-0.0017160589 -0.1422932 0.06595975 -0.0149191115 -0.21110502 0.15026475 0.0025956463 -0.115678005
-0.026952617 0.18055885 -0.1390681 -0.21740523 -0.099876635 0.033247475 0.038871028 -0.045869026
-0.0032252693 -1.3157759 -0.22213086 -0.16822548 -0.009016761 -0.15839191 -0.11501382 -0.0068974714
-0.11099016 -0.123693585 -0.04183624 -0.1136837 -0.0005269032 -0.69357944 -0.11469979 -0.050292894
-0.058437865 0.008751348 -0.13340735 -0.004995529 -0.056040138 -0.174901 -0.06799295 -0.020568555
-0.09537997 0.13076028 -0.0062462674 -0.08655145 -0.039181672 -0.108546495 0.13108748 -0.07785813
-0.0626441 -0.015645567 0.0696204 -0.05392304 -0.05478191 -0.041001305 0.017528974 -0.013055681
-0.010876071 0.12310326 -0.049592797 -0.20623703 -0.0010447104 0.053054925 -0.014056181 0.01117662
-0.028114062 -0.024040883 0.18502338 -0.18686235 -0.069741726 -0.30583957 0.04845541 -0.019751597
-0.13017996 0.09415297 -0.12036416 -0.015188752 0.058713455 -0.47309002 -0.3015673 -0.05916485
-0.03351653 0.16845962 -0.034154058 0.00025010598 -0.040759195 0.026646646 -0.026244877 0.0031886736
-0.0010953328 0.022215907 -0.076839566 -0.0040117376 -0.0033348606 -0.01415161 -0.026669843 -0.085330084
-0.0054382263 -1.2522545 -0.45572802 -0.018030543 -0.030245721 0.04273415 -0.116860405 -0.095415995
-0.21292599 -0.052789476 0.16241816 -0.034274407 0.04177543 -0.33474407 -0.21792743 -0.04203806
-0.14692977 -0.01902668 -0.10472522 -0.1010381 -0.006601495 0.007977097 -0.11585943 -0.01872509

bias f4 [50]
00000000: ba27 8cbe 1881 0ebf 53c6 cdbe 1eaf 22be
00000010: 9372 6e3e 7ded d3be 8a2a c9be d603 413d
00000020: 73cc 983e 31a3 f6be c1a3 dbbd 8cc3 67be
00000030: e0ec a03e 20a3 b73e 17fa 0ebe 7538 e4be
00000040: 78dd 0cbf 1c07 ef3e 0bb0 af3e cc44 8dbe
00000050: 66f1 0e3e 2033 98bc c78d f1bd d27e c7bd
00000060: 3958 ba3e 6781 5ebd 788f 713e 5c42 38be
00000070: e30a 623e 823d af3e 8220 eb3e 38a0 96bd
00000080: db33 4f3d 42ff f63e 4545 06be 5433 403e
00000090: afbf ae3e e0be 07bf 714c 87bd 7677 653e
000000a0: ed7c f1bd 7cba ad3e 5be4 943e be91 ef3e
000000b0: d322 82be e8fc be3e 3911 bc3d 8484 1bbf
000000c0: 0804 dcbd 7e4b a73e
-0.2737406 -0.5566573 -0.40190372 -0.15887114 0.23285894 -0.41392127 -0.39290267 0.0471228
0.29843482 -0.4817138 -0.10724593 -0.22633189 0.3143072 0.35866642 -0.13962589 -0.44574323
-0.55025434 0.46685112 0.34313998 -0.2759155 0.13959274 -0.018579066 -0.1179462 -0.09740986
0.36395434 -0.054322626 0.23589885 -0.17994064 0.22074465 0.34226614 0.4592324 -0.07354778
0.050586563 0.4824162 -0.13112362 0.1876958 0.34130618 -0.5302563 -0.06606377 0.22408852
-0.11791406 0.3393134 0.2908047 0.4679088 -0.25417194 0.37302327 0.091829725 -0.6074908
-0.107429564 0.32674783

weight f4 [4, 50]
00000000: fce5 3d3d f7ce 313b bb9f 59bb bfa1 8bbd
00000010: b9bb 073c 977c 8e3d 3d22 87bd a4b3 51bd
00000020: 423b 5abe 484b 5e3c 65b0 363d eb35 c9bd
00000030: 199f 0dbe ff04 313d db43 37bd 6d3a 5dbd
00000040: 6ded 13bd d7d9 533d 593b ae3b ad66 143c
00000050: b461 fd3c 6395 31be abda 51bc 81ae 9e3b
00000060: ee35 61be 09c3 50bb 7a26 1e3d 4d59 673c
00000070: 21af 1dbd 1d65 2dbd cbe1 d43d f5e8 e9bc
00000080: fba6 f6bd 1f81 f53d d2b4 43bc 9523 593c
00000090: 4872 633c 2700 8bb9 c858 dd3d 881b 92bc
000000a0: 356c b6bb 9880 d03a a2ea 603c 70e7 c6bd
000000b0: a01d 74be 1fbf 7e3d 5889 5abe 7a01 033d
000000c0: db28 73be 964c b6bb 3fb6 f1bd a564 9e3d
000000d0: ca92 a0bb 5cc9 dbbd a0ae d83a 0514 84bd
000000e0: b7bc 31bb 5351 b43c c02f df3c 4d56 c33d
000000f0: b159 d1bc 21f7 b3ba 519e 1dbe 7a70 913d
00000100: fb48 26be cb63 70bd 5a2e e23c 6e55 983c
00000110: eb44 7bbd 544f 073d 00b8 213d 5738 ab3d
00000120: b24b 043c 1fb0 acbd f096 89bd 9105 31bd
00000130: 238c 6ebd 7205 133b 83fd 42ba 4b9b c3bb
00000140: 50d0 3fbd 06b3 81bd 451e 9d3d 97a7 29bd
00000150: acff 9abc 6e5d 503c baf5 8cbc 610c 153c
00000160: 0f89 00be 3a49 b33d e698 0dbd 32f5 0d3b
00000170: afc0 95bc 8756 02be 254f 6c3b 08f9 2b3d
00000180: d039 1a3b b1f5 f3bd da35 d0bd 177d 6dbc
00000190: 999c 00be 4b7c 873b a9d2 f9bb 1ee5 10bd
000001a0: 3645 a33b 65d0 433e a2e0 dc3c ec1c 263b
000001b0: ee2c 5b3b 43aa 853d dfa0 093e 4bff 113c
000001c0: 07f8 d5bd 0a41 973c e9f7 92bd c5db c2bc
000001d0: 48f5 83bc ea43 7e3e 5379 9dbd 0daf 4e3c
000001e0: 85f0 51bb 3ff0 1bbe 2243 0c3c 774a d3bc
000001f0: 0c19 4cbe ce3c 533b 837a 9bbd 744b 463c
00000200: c416 b63d d7ee 2a3e 1372 44bd 0bf7 8abc
00000210: 07ca b6bd d5a8 693d 2343 38bd 526b 443c
00000220: 9449 86bd afda b53d c8fb 0fbe 38bd 163d
00000230: ef92 c6bb d11c a93b 0bd3 ae3b 498a 2ebe
00000240: 8b74 3dbd b9fa 04be a76c b13b d9c2 3dbd
00000250: 85f4 e7bd c323 883d 771d b23d aa07 a1bb
00000260: ddea 2fbc 212c 193b c64f 133c fc38 42bc
00000270: b5df e5bd aa61 413d f7ea 41be 1e74 0c3d
00000280: 81f9 40bc c708 cfbd b5c8 d6bd 6deb 26bc
00000290: deba 20bd fb13 5fbd 79f2 6a3c aa62 203e
000002a0: 6523 0f3d 8016 123c 1071 143b 523c 003e
000002b0: ff4e 543e e0d0 22be d1a0 19be a7de 1f3c
000002c0: afa1 5cbe 8029 ab3b 71ce 9fbd 5845 563d
000002d0: 70fa 0c3c 6734 4ebd 4bd7 843d 2ef7 473c
000002e0: 255e 523d 9a01 5f3c a080 f83d e025 b03d
000002f0: c480 8e3c 0927 dcbb 64a6 91bb d47d b03b
00000300: e29c e43c bb90 ed3c 1909 09bc c8be 40be
00000310: faee 52bd 5902 843c 700d 8c3d f432 8cb8
0.04636191 0.0027131417 -0.003320678 -0.0681796 0.008284503 0.069573574 -0.06598327 -0.05119671
-0.21311668 0.013567753 0.044601817 -0.09824737 -0.13830222 0.043217655 -0.044742446 -0.054010797
-0.0361151 0.05172142 0.0053171334 0.009057683 0.030930378 -0.17342143 -0.012808482 0.00484258
-0.21993229 -0.0031854531 0.038610913 0.014120412 -0.038497094 -0.042332757 0.10394629 -0.028553465
-0.12043568 0.119875185 -0.011944966 0.013253112 0.013882227 -0.0002651226 0.10807949 -0.017835394
-0.0055670985 0.0015907465 0.013727816 -0.09712112 -0.23839426 0.062193986 -0.21341455 0.03198383
-0.23746054 -0.005563329 -0.11802339 0.0773404 -0.004900311 -0.10731766 0.0016531534 -0.06449131
-0.002712054 0.022011435 0.027244449 0.09537945 -0.025555464 -0.0013730266 -0.15392424 0.07101531
-0.16238777 -0.05868892 0.027609993 0.018595424 -0.061345022 0.033034638 0.039482117 0.08360355
0.008074688 -0.0843203 -0.06718242 -0.0432182 -0.058239114 0.0022433666 -0.0007438289 -0.00596944
-0.04682952 -0.06332974 0.07671789 -0.04141959 -0.018920742 0.012717588 -0.017207015 0.00909719
-0.12552284 0.08754201 -0.034569643 0.002166104 -0.018280355 -0.1272832 0.0036057916 0.04198554
0.0023532994 -0.11912096 -0.10166521 -0.014495156 -0.12559737 0.00413469 -0.0076239896 -0.035374753
0.004982616 0.19122465 0.026962582 0.0025346829 0.0033443528 0.065266155 0.13440274 0.008910964
-0.10447698 0.01846363 -0.07176191 -0.023786435 -0.01610817 0.24830595 -0.076891564 0.012614978
-0.003203423 -0.15228365 0.008560928 -0.025792344 -0.1993143 0.0032232287 -0.07591727 0.01210295
0.08891061 0.16692673 -0.047960352 -0.016963502 -0.089252524 0.057045776 -0.0449859 0.011988478
-0.06557003 0.08879601 -0.1406089 0.036801547 -0.0060599963 0.005160906 0.005335217 -0.17044939
-0.046253722 -0.12986268 0.0054145637 -0.0463284 -0.11325935 0.06647446 0.08697026 -0.0049142437
-0.010737148 0.002337225 0.008991187 -0.011854406 -0.11224309 0.04721228 -0.18937288 0.034290425
-0.011778236 -0.10109096 -0.104875006 -0.010187966 -0.03924071 -0.054462414 0.014340037 0.15662637
0.034945864 0.008916497 0.0022650398 0.1252301 0.2073326 -0.15899992 -0.15002753 0.009757674
-0.21546052 0.005223453 -0.078030474 0.052312225 0.008604631 -0.050342944 0.064863764 0.012204928
0.051359314 0.013611222 0.12133908 0.08600974 0.017395385 -0.0067185205 -0.004444884 0.0053860936
0.027906839 0.028999677 -0.008363985 -0.18822777 -0.051497437 0.0161144 0.068385005 -6.685211e-05

bias f4 [4]
00000000: bbd5 143f f0a8 75bd 8681 2c3e 2ecb c23e
0.58138627 -0.059975564 0.16846284 0.3804564

weight f4 [50, 4]
00000000: f774 8ebd ef8a 46bd 6575 66bd 533f eebd
00000010: 1601 fdba 22b8 d4bd 03c6 cfbd 9b54 2bbc
00000020: ef88 19bd 289d 27bd 784f e13c c3df 33bb
00000030: 3f22 80bc 8a25 90be c3f2 04be 80ea 7139
00000040: 76fb 11bd d621 81bd ac82 8d3d 866f 67bc
00000050: 33ee f7bc 35ef 1ebe 2219 fcbd c8e0 47be
00000060: 74d6 04be 60e1 013d 37ac 7ebd f95b b9bd
00000070: e6d5 eebc bef5 d4bd 56b9 e8bb b8ee 34be
00000080: 3ba5 39bb c190 a4bf c822 19be beb3 e6bc
00000090: d79f 76ba ed6b fdbd 4a35 1ebe df09 8fbe
000000a0: 1442 8fba 39e6 89bb cadb ecbc e1f7 08be
000000b0: ddf4 27bc a34a aabf c1cf 1cbf 639b 2bbe
000000c0: 1aa2 1cbe 8009 ed3d a144 1abe ddbb b13b
000000d0: 3487 b9bc e46c 8abe c726 2dbe bfac 81bb
000000e0: 54c8 f0bd 89af dabd b81a 8f3d 6c80 70bd
000000f0: c6ec b9bc bb34 423e 28a5 9cbe 1eca ccbd
00000100: c2f7 f8bd b535 f53c 02d8 913d eeba 7dbd
00000110: 4615 3cbe 294d acbb ff01 b83c af50 14bd
00000120: 81a9 0ebe 2b1b 213e 4cb7 fdbc 5529 8abd
00000130: da12 61bb e658 1cbd a26d a73a 3bc7 a7ba
00000140: 62ed e0ba 4fb5 11be e815 873d 4a6f 74bc
00000150: ea2b 58be 01df 193e b81b 2a3b 97e8 ecbd
00000160: bccb dcbc 6be4 383e de67 0ebe 7a9f 5ebe
00000170: 1f8c ccbd 812e 083d 3a37 1f3d 29e1 3bbd
00000180: 0a5f 53bb 586b a8bf 4676 63be 4d43 2cbe
00000190: 09bb 13bc 7d31 22be 5e8c ebbd 2f04 e2bb
000001a0: cf4e e3bd 1053 fdbd 7a5c 2bbd 00d3 e8bd
000001b0: e01f 0aba 6c8e 31bf b9e7 eabd ecff 4dbd
000001c0: 8b5c 6fbd d061 0f3c f09b 08be 89b1 a3bb
000001d0: 588a 65bd 3f19 33be e33f 8bbd 637f a8bc
000001e0: 9356 c3bd 06e6 053e 7dad ccbb e341 b1bd
000001f0: f67c 20bd a04d debd cc3b 063e 1574 9fbd
00000200: 8d4b 80bd 222b 80bc 2495 8e3d 68de 5cbd
00000210: ff62 60bd fcf0 27bd ec98 8f3c 7fe7 55bc
00000220: 8c31 32bc 901d fc3d d121 4bbd cd2f 53be
00000230: df32 aeba 1cd1 5e3d a161 6dbc f9da 373c
00000240: 764f e6bc 63f1 c4bc c576 3d3e d858 3fbe
00000250: c0d4 8ebd 0197 9cbe 2e79 463d 1ace a1bc
00000260: e54d 05be 46d3 c03d 7c81 f6bd 3eda 78bc
00000270: 4a35 753d 103b f1be cfaf 9abe e483 75bd
00000280: f86b 09bd 5364 2c3e 74fb 0abd 8ea8 8839
00000290: 57db 26bd 114a da3c 9ae1 d6bc 2a25 693b
000002a0: 4591 8fba 22fe b53c 105e 9dbd e574 83bb
000002b0: ad8d 5abb 28dc 67bc b77a dabc 8ac1 aebd
000002c0: 2633 b2bb e049 a0bf 2f55 e9be cab4 93bc
000002d0: e0c5 f7bc 010a 2f3d 8254 efbd 7669 c3bd
000002e0: 4509 5abe c739 58bd f250 263e 5263 0cbd
000002f0: 681a 2c3d 48a1 aabe 6eb4 5cbe eec8 29bd
00000300: c274 16be d7dd 9bbc 2d7a d6bd 10ed cebd
00000310: 5b51 d8bb 5fb2 023c b547 edbd 5c65 99bc
-0.06955903 -0.04847234 -0.0562643 -0.11633172 -0.0019302692 -0.10386683 -0.101451896 -0.010457183
-0.037484106 -0.04092136 0.027503714 -0.0027446605 -0.01564133 -0.2815364 -0.12983231 0.00023070909
-0.035640202 -0.06305282 0.06909689 -0.01412571 -0.03026495 -0.15520938 -0.12309481 -0.19519341
-0.12972432 0.031709075 -0.062175956 -0.090507455 -0.02915473 -0.10398434 -0.007102172 -0.17669189
-0.0028327245 -1.2856675 -0.14954674 -0.02816188 -0.0009407973 -0.12374101 -0.15450016 -0.2793722
-0.0010929727 -0.004208353 -0.028913397 -0.13375808 -0.010251251 -1.3304027 -0.6125451 -0.16758494
-0.15296212 0.115740776 -0.15065242 0.0054240064 -0.022647478 -0.27036202 -0.16909324 -0.0039573605
-0.117569596 -0.10678012 0.06987518 -0.058716223 -0.02269591 0.18965428 -0.30594754 -0.09999488
-0.12156631 0.029932836 0.07121278 -0.06194585 -0.1836749 -0.0052582216 0.02246189 -0.03620976
-0.13931848 0.1573302 -0.030971192 -0.06746165 -0.0034343512 -0.038170718 0.0012773762 -0.0012800464
-0.0017160589 -0.1422932 0.06595975 -0.0149191115 -0.21110502 0.15026475 0.0025956463 -0.115678005
-0.026952617 0.18055885 -0.1390681 -0.21740523 -0.099876635 0.033247475 0.038871028 -0.045869026
-0.0032252693 -1.3157759 -0.22213086 -0.16822548 -0.009016761 -0.15839191 -0.11501382 -0.0068974714
-0.11099016 -0.123693585 -0.04183624 -0.1136837 -0.0005269032 -0.69357944 -0.11469979 -0.050292894
-0.058437865 0.008751348 -0.13340735 -0.004995529 -0.056040138 -0.174901 -0.06799295 -0.020568555
-0.09537997 0.13076028 -0.0062462674 -0.08655145 -0.039181672 -0.108546495 0.13108748 -0.07785813
-0.0626441 -0.015645567 0.0696204 -0.05392304 -0.05478191 -0.041001305 0.017528974 -0.013055681
-0.010876071 0.12310326 -0.049592797 -0.20623703 -0.0013290307 0.05439864 -0.014488609 0.011221641
-0.028114062 -0.024040883 0.18502338 -0.18686235 -0.069741726 -0.30583957 0.04845541 -0.019751597
-0.13017996 0.09415297 -0.12036416 -0.015188752 0.059865274 -0.47115374 -0.30212256 -0.059940234
-0.033550233 0.16835146 -0.03393121 0.00026065524 -0.040736523 0.026646646 -0.026230622 0.003557513
-0.0010953328 0.022215907 -0.076839566 -0.0040117376 -0.0033348606 -0.01415161 -0.026669843 -0.085330084
-0.0054382263 -1.2522545 -0.45572802 -0.018030543 -0.030245721 0.04273415 -0.116860405 -0.095415995
-0.21292599 -0.052789476 0.16241816 -0.034274407 0.04201737 -0.33326173 -0.21553203 -0.041451387
-0.14692977 -0.01902668 -0.10472522 -0.1010381 -0.006601495 0.007977097 -0.11585943 -0.01872509

bias f4 [50]
00000000: ba27 8cbe 1881 0ebf 53c6 cdbe 1eaf 22be
00000010: 9372 6e3e 7ded d3be 8a2a c9be d603 413d
00000020: 73cc 983e 31a3 f6be c1a3 dbbd 8cc3 67be
00000030: e0ec a03e 20a3 b73e 17fa 0ebe 7538 e4be
00000040: 78dd 0cbf 1c07 ef3e 0bb0 af3e cc44 8dbe
00000050: 66f1 0e3e 2033 98bc c78d f1bd d27e c7bd
00000060: 3958 ba3e 6781 5ebd 788f 713e 5c42 38be
00000070: e30a 623e 823d af3e 8220 eb3e 38a0 96bd
00000080: db33 4f3d 42ff f63e 4545 06be cf01 403e
00000090: afbf ae3e e0be 07bf 714c 87bd a961 663e
000000a0: 3f84 f1bd 04d8 ad3e 5be4 943e be91 ef3e
000000b0: d322 82be e8fc be3e 3911 bc3d 056e 1bbf
000000c0: 0804 dcbd 7e4b a73e
-0.2737406 -0.5566573 -0.40190372 -0.15887114 0.23285894 -0.41392127 -0.39290267 0.0471228
0.29843482 -0.4817138 -0.10724593 -0.22633189 0.3143072 0.35866642 -0.13962589 -0.44574323
-0.55025434 0.46685112 0.34313998 -0.2759155 0.13959274 -0.018579066 -0.1179462 -0.09740986
0.36395434 -0.054322626 0.23589885 -0.17994064 0.22074465 0.34226614 0.4592324 -0.07354778
0.050586563 0.4824162 -0.13112362 0.1875069 0.34130618 -0.5302563 -0.06606377 0.22498192
-0.11792802 0.3395387 0.2908047 0.4679088 -0.25417194 0.37302327 0.091829725 -0.6071475
-0.107429564 0.32674783

weight f4 [4, 50]
00000000: fce5 3d3d f7ce 313b bb9f 59bb bfa1 8bbd
00000010: b9bb 073c 977c 8e3d 3d22 87bd a4b3 51bd
00000020: 423b 5abe 484b 5e3c 65b0 363d eb35 c9bd
00000030: 199f 0dbe ff04 313d db43 37bd 6d3a 5dbd
00000040: 6ded 13bd d7d9 533d 593b ae3b ad66 143c
00000050: b461 fd3c 6395 31be abda 51bc 81ae 9e3b
00000060: ee35 61be 09c3 50bb 7a26 1e3d 4d59 673c
00000070: 21af 1dbd 1d65 2dbd cbe1 d43d f5e8 e9bc
00000080: fba6 f6bd 1f81 f53d d2b4 43bc fc58 5b3c
00000090: 4872 633c 2700 8bb9 c858 dd3d 18d2 90bc
000000a0: 8e85 a6bb c680 d03a a2ea 603c 70e7 c6bd
000000b0: a01d 74be 1fbf 7e3d 5889 5abe a039 043d
000000c0: db28 73be 964c b6bb 3fb6 f1bd a564 9e3d
000000d0: ca92 a0bb 5cc9 dbbd a0ae d83a 0514 84bd
000000e0: b7bc 31bb 5351 b43c c02f df3c 4d56 c33d
000000f0: b159 d1bc 21f7 b3ba 519e 1dbe 7a70 913d
00000100: fb48 26be cb63 70bd 5a2e e23c 6e55 983c
00000110: eb44 7bbd 544f 073d 00b8 213d 5738 ab3d
00000120: b24b 043c 1fb0 acbd f096 89bd 9105 31bd
00000130: 238c 6ebd 7205 133b 83fd 42ba 4b9b c3bb
00000140: 50d0 3fbd 06b3 81bd 451e 9d3d 97a7 29bd
00000150: acff 9abc f06d 5c3c baf5 8cbc 610c 153c
00000160: 0f89 00be 46ef b43d e698 0dbd 10f6 0d3b
00000170: afc0 95bc 8756 02be 254f 6c3b 08f9 2b3d
00000180: d039 1a3b a39a f4bd da35 d0bd 177d 6dbc
00000190: 999c 00be 4b7c 873b a9d2 f9bb 1ee5 10bd
000001a0: 3645 a33b 65d0 433e a2e0 dc3c ec1c 263b
000001b0: ee2c 5b3b 43aa 853d dfa0 093e 4bff 113c
000001c0: 07f8 d5bd 0a41 973c e9f7 92bd c5db c2bc
000001d0: 48f5 83bc ea43 7e3e 5379 9dbd 0daf 4e3c
000001e0: 85f0 51bb 3ff0 1bbe 2243 0c3c 774a d3bc
000001f0: 0c19 4cbe ce3c 533b 837a 9bbd 744b 463c
00000200: c416 b63d d7ee 2a3e 1372 44bd 0bf7 8abc
00000210: 07ca b6bd d5a8 693d 2343 38bd a7c4 5f3c
00000220: 9449 86bd afda b53d c8fb 0fbe d6ef 173d
00000230: abe6 9fbb aa4d aa3b 0bd3 ae3b 498a 2ebe
00000240: 8b74 3dbd b9fa 04be a76c b13b e51e 3fbd
00000250: 85f4 e7bd c323 883d 771d b23d aa07 a1bb
00000260: ddea 2fbc 212c 193b c64f 133c fc38 42bc
00000270: b5df e5bd aa61 413d f7ea 41be 1e74 0c3d
00000280: 81f9 40bc c708 cfbd b5c8 d6bd 6deb 26bc
00000290: deba 20bd fb13 5fbd 79f2 6a3c aa62 203e
000002a0: 6523 0f3d 8016 123c 1071 143b 523c 003e
000002b0: ff4e 543e e0d0 22be d1a0 19be a7de 1f3c
000002c0: afa1 5cbe 8029 ab3b 71ce 9fbd 5845 563d
000002d0: 70fa 0c3c 6734 4ebd 4bd7 843d 2ef7 473c
000002e0: 255e 523d c93a 5b3c a080 f83d e025 b03d
000002f0: c480 8e3c bac1 dcbb ce7f 8abb 01d8 b13b
00000300: e29c e43c bb90 ed3c 1909 09bc c8be 40be
00000310: faee 52bd ec88 853c 700d 8c3d f432 8cb8
0.04636191 0.0027131417 -0.003320678 -0.0681796 0.008284503 0.069573574 -0.06598327 -0.05119671
-0.21311668 0.013567753 0.044601817 -0.09824737 -0.13830222 0.043217655 -0.044742446 -0.054010797
-0.0361151 0.05172142 0.0053171334 0.009057683 0.030930378 -0.17342143 -0.012808482 0.00484258
-0.21993229 -0.0031854531 0.038610913 0.014120412 -0.038497094 -0.042332757 0.10394629 -0.028553465
-0.12043568 0.119875185 -0.011944966 0.013387915 0.013882227 -0.0002651226 0.10807949 -0.017678306
-0.005081839 0.0015907518 0.013727816 -0.09712112 -0.23839426 0.062193986 -0.21341455 0.032281518
-0.23746054 -0.005563329 -0.11802339 0.0773404 -0.004900311 -0.10731766 0.0016531534 -0.06449131
-0.002712054 0.022011435 0.027244449 0.09537945 -0.025555464 -0.0013730266 -0.15392424 0.07101531
-0.16238777 -0.05868892 0.027609993 0.018595424 -0.061345022 0.033034638 0.039482117 0.08360355
0.008074688 -0.0843203 -0.06718242 -0.0432182 -0.058239114 0.0022433666 -0.0007438289 -0.00596944
-0.04682952 -0.06332974 0.07671789 -0.04141959 -0.018920742 0.0134539455 -0.017207015 0.00909719
-0.12552284 0.088347 -0.034569643 0.0021661557 -0.018280355 -0.1272832 0.0036057916 0.04198554
0.0023532994 -0.11943557 -0.10166521 -0.014495156 -0.12559737 0.00413469 -0.0076239896 -0.035374753
0.004982616 0.19122465 0.026962582 0.0025346829 0.0033443528 0.065266155 0.13440274 0.008910964
-0.10447698 0.01846363 -0.07176191 -0.023786435 -0.01610817 0.24830595 -0.076891564 0.012614978
-0.003203423 -0.15228365 0.008560928 -0.025792344 -0.1993143 0.0032232287 -0.07591727 0.01210295
0.08891061 0.16692673 -0.047960352 -0.016963502 -0.089252524 0.057045776 -0.0449859 0.013657725
-0.06557003 0.08879601 -0.1406089 0.03709396 -0.0048797927 0.0051972466 0.005335217 -0.17044939
-0.046253722 -0.12986268 0.0054145637 -0.046660323 -0.11325935 0.06647446 0.08697026 -0.0049142437
-0.010737148 0.002337225 0.008991187 -0.011854406 -0.11224309 0.04721228 -0.18937288 0.034290425
-0.011778236 -0.10109096 -0.104875006 -0.010187966 -0.03924071 -0.054462414 0.014340037 0.15662637
0.034945864 0.008916497 0.0022650398 0.1252301 0.2073326 -0.15899992 -0.15002753 0.009757674
-0.21546052 0.005223453 -0.078030474 0.052312225 0.008604631 -0.050342944 0.064863764 0.012204928
0.051359314 0.013380715 0.12133908 0.08600974 0.017395385 -0.006736961 -0.0042266613 0.005427361
0.027906839 0.028999677 -0.008363985 -0.18822777 -0.051497437 0.016300641 0.068385005 -6.685211e-05

bias f4 [4]
00000000: 0668 163f 2104 77bd 9421 2f3e bb3b c43e
0.5875248 -0.060306672 0.17102653 0.3832682

exp_avg f4 [50, 4]
00000000: 0000 0000 0000 0000 0000 0000 0000 0000
00000010: 0400 0000 0400 0000 0400 0000 0400 0000
00000020: 0400 0000 0400 0000 0400 0000 0400 0000
00000030: ca31 c306 3f19 0100 53c6 b103 3600 f607
00000040: 0400 0000 0400 0000 0400 0000 0400 0000
00000050: 0400 0000 0400 0000 0400 0000 0400 0000
00000060: 0000 0000 0000 0000 0000 0000 0000 0000
00000070: 0400 0000 0400 0000 0400 0000 0400 0000
00000080: 0400 0000 0400 0000 0400 0000 0400 0000
00000090: 0400 0000 0400 0000 0400 0000 0400 0000
000000a0: 0400 0000 0400 0080 0400 0080 0400 0080
000000b0: 0400 0000 0400 0000 0400 0000 0400 0000
000000c0: 0000 0000 0000 0000 0000 0000 0000 0000
000000d0: 210e 8707 0f32 0500 a387 6904 158a e508
000000e0: 0400 0000 0400 0000 0400 0000 0400 0000
000000f0: 0400 0000 0400 0000 0400 0000 0400 0000
00000100: 0400 0000 0400 0000 0400 0000 0400 0000
00000110: 0000 0000 0000 0000 0000 0000 0000 0000
00000120: 0400 0000 0400 0000 0400 0000 0400 0000
00000130: 0b20 0000 0400 0000 3f02 0000 02c1 0000
00000140: 0400 0000 0400 0000 0400 0000 0400 0000
00000150: 0000 0000 0000 0000 0000 0000 0000 0000
00000160: 0400 0000 0400 0000 0400 0000 0400 0000
00000170: 0400 0000 0400 0000 0400 0000 0400 0000
00000180: 0400 0000 0400 0000 0400 0000 0400 0000
00000190: 0400 0000 0400 0000 0400 0000 0400 0000
000001a0: 0000 0000 0000 0000 0000 0000 0000 0000
000001b0: 0400 0000 0400 0000 0400 0000 0400 0000
000001c0: 0400 0000 0400 0000 0400 0000 0400 0000
000001d0: 0000 0000 0000 0000 0000 0000 0000 0000
000001e0: 0000 0000 0000 0000 0000 0000 0000 0000
000001f0: 0000 0000 0000 0000 0000 0000 0000 0000
00000200: 0400 0000 0400 0080 0400 0080 0400 0000
00000210: 0000 0000 0000 0000 0000 0000 0000 0000
00000220: 0400 0000 0400 0000 0400 0000 0400 0000
00000230: f645 c24c 8675 2d4a 123c f6c8 a8dc 4ccb
00000240: 0400 0000 0400 0000 0400 0000 0400 0000
00000250: 0400 0000 0400 0000 0400 0000 0400 0000
00000260: 0400 0000 0400 0000 0400 0000 0400 0000
00000270: f8ed f94e b499 114b 4f39 884b 9c41 404d
00000280: 324c 0b4a 1c95 9f49 ee42 e249 0a15 7b4a
00000290: 0dc3 1dc8 8e3b 24bc 6e24 c9c5 77ca 0fca
000002a0: 0400 0000 0400 0000 0400 0000 0400 0000
000002b0: 0000 0000 0000 0000 0000 0000 0000 0000
000002c0: 0400 0000 0400 0000 0400 0000 0400 0000
000002d0: 0000 0000 0000 0000 0000 0000 0000 0000
000002e0: 0400 0000 0400 0000 0400 0000 0400 0000
000002f0: 1e00 23cf 1dac 16cb 3990 adcb c60c 84cd
00000300: 0000 0000 0000 0000 0000 0000 0000 0000
00000310: 0400 0000 0400 0000 0400 0000 0400 0000
0.0 0.0 0.0 0.0 6e-45 6e-45 6e-45 6e-45
6e-45 6e-45 6e-45 6e-45 7.3424006e-35 1.00892e-40 1.0448658e-36 3.701409e-34
6e-45 6e-45 6e-45 6e-45 6e-45 6e-45 6e-45 6e-45
0.0 0.0 0.0 0.0 6e-45 6e-45 6e-45 6e-45
6e-45 6e-45 6e-45 6e-45 6e-45 6e-45 6e-45 6e-45
6e-45 -6e-45 -6e-45 -6e-45 6e-45 6e-45 6e-45 6e-45
0.0 0.0 0.0 0.0 2.0320847e-34 4.77135e-40 2.74513e-36 1.3814899e-33
6e-45 6e-45 6e-45 6e-45 6e-45 6e-45 6e-45 6e-45
6e-45 6e-45 6e-45 6e-45 0.0 0.0 0.0 0.0
6e-45 6e-45 6e-45 6e-45 1.1495e-41 6e-45 8.06e-43 6.9238e-41
6e-45 6e-45 6e-45 6e-45 0.0 0.0 0.0 0.0
6e-45 6e-45 6e-45 6e-45 6e-45 6e-45 6e-45 6e-45
6e-45 6e-45 6e-45 6e-45 6e-45 6e-45 6e-45 6e-45
0.0 0.0 0.0 0.0 6e-45 6e-45 6e-45 6e-45
6e-45 6e-45 6e-45 6e-45 0.0 0.0 0.0 0.0
0.0 0.0 0.0 0.0 0.0 0.0 0.0 0.0
6e-45 -6e-45 -6e-45 6e-45 0.0 0.0 0.0 0.0
6e-45 6e-45 6e-45 6e-45 1.0185515e+08 2.8419535e+06 -504288.56 -1.3425832e+07
6e-45 6e-45 6e-45 6e-45 6e-45 6e-45 6e-45 6e-45
6e-45 6e-45 6e-45 6e-45 2.0965612e+09 9.542068e+06 1.7855134e+07 2.0159533e+08
2.2822525e+06 1.3072995e+06 1.8535338e+06 4.1137305e+06 -161548.2 -0.010023965 -6436.5537 -2.3558698e+06
6e-45 6e-45 6e-45 6e-45 0.0 0.0 0.0 0.0
6e-45 6e-45 6e-45 6e-45 0.0 0.0 0.0 0.0
6e-45 6e-45 6e-45 6e-45 -2.734694e+09 -9.874461e+06 -2.2749298e+07 -2.769287e+08
0.0 0.0 0.0 0.0 6e-45 6e-45 6e-45 6e-45

exp_avg_sq f4 [50, 4]
00000000: 0000 0000 0000 0000 0000 0000 0000 0000
00000010: b664 a362 d897 375c 6b8f c55c ada3 0c61
00000020: 1eff 8660 3353 395b 5abb ba5b 82d0 375f
00000030: ad60 d462 0bd7 4b5c ee9b 1d5d 53f7 8861
00000040: c8b5 425d e8ca 6c5a 473e cd5b f70d 6b5f
00000050: 4271 f05f 51d2 405a 920b d159 898b e75c
00000060: 0000 0000 0000 0000 0000 0000 0000 0000
00000070: 1c46 875f 72ca 6f57 6fbb 0459 9e2c 895d
00000080: 4c2c 4d61 29c6 165a 3c18 9e5a eb87 315f
00000090: d735 da60 c269 5c5d 55af 6b5c 3a4b 375e
000000a0: 433b 6f61 4375 b65b e8d0 945b a46d bb5f
000000b0: 0a05 1460 7ad8 5159 11a3 6658 fbb6 065d
000000c0: 0000 0000 0000 0000 0000 0000 0000 0000
000000d0: cafe ac61 d1e3 245b 78af 9d5c 9084 0861
000000e0: e693 bc5c dc7f a75a 0df3 685b 44ca 855d
000000f0: f4a0 715e 5844 b15c 61af 615c 9809 2b5f
00000100: 7a2a 765d 855e 7f5a a975 025b b8d3 f45c
00000110: 0000 0000 0000 0000 0000 0000 0000 0000
00000120: ae4f 425a 77a5 0b59 2392 205a 7bbf 915b
00000130: 7c33 1662 89cc ba5c 93d3 ad5c f132 7860
00000140: e718 c761 1dc3 5d5b e9dc ee5b 0a16 3a60
00000150: 0000 0000 0000 0000 0000 0000 0000 0000
00000160: c03f 1b5f fa75 345b c7b2 cf59 aeff fc5c
00000170: 39f6 fa5b 9f4d 1d5a ccc4 5c5a 18e6 a25c
00000180: 0318 c861 8ca1 c05a aaad 315b 64de 9f5f
00000190: 7e4f 0962 95a9 b55b d935 3c5c a47b 8260
000001a0: 0000 0000 0000 0000 0000 0000 0000 0000
000001b0: 3697 1962 7110 1b5b ab67 085c 5bb6 5f60
000001c0: 79d4 265f 7fce 585a 0a09 1b59 7fdf 9a5d
000001d0: 0000 0000 0000 0000 0000 0000 0000 0000
000001e0: 0000 0000 0000 0000 0000 0000 0000 0000
000001f0: 0000 0000 0000 0000 0000 0000 0000 0000
00000200: 3755 4c5d 6aad ae4a 4e5b 2d52 e5c1 2b5c
00000210: 0000 0000 0000 0000 0000 0000 0000 0000
00000220: 4481 b35f 251c ca58 d5b5 6459 8c54 a35d
00000230: 133b 6062 015e bc5b 31a5 ae5c 472d 1361
00000240: 0c7e 0a5f 91ef 585b 9ff0 8d5a 31af 525d
00000250: 1a93 b65e 1e5a c857 c65e a95a f6bd ec5d
00000260: dc9b 3f5c 8866 925b f0e1 8f5b 8795 c55d
00000270: ab10 3f63 4fb9 965c 7152 a45c 14e6 c060
00000280: b6ee 2e61 2e5b 935b ed76 2b5c 2992 7d60
00000290: 72d2 ab5f b75b f75b 196d ec5b 4015 8a5f
000002a0: 190e 8761 7e5e bc5b 3e7b dc5b 7f98 0160
000002b0: 0000 0000 0000 0000 0000 0000 0000 0000
000002c0: 6162 6b61 cc3c 155b feac 9459 886f 115e
000002d0: 0000 0000 0000 0000 0000 0000 0000 0000
000002e0: 8bd9 465c 65f5 c75b 6e4f 805c fd07 085e
000002f0: d0d8 e663 90c9 f05c b1b7 7c5d 2cd6 b361
00000300: 0000 0000 0000 0000 0000 0000 0000 0000
00000310: 52da e460 2282 295a 31cf f15a b0fc 4f5f
0.0 0.0 0.0 0.0 1.5070381e+21 2.067075e+17 4.4486608e+17 1.6214614e+20
7.782021e+19 5.216435e+16 1.0512068e+17 1.3245229e+19 1.958838e+21 2.2950345e+17 7.098083e+17 3.1582235e+20
8.7689626e+17 1.6662798e+16 1.1554169e+17 1.6937465e+19 3.4651404e+19 1.356861e+16 7.355124e+15 5.2139312e+17
0.0 0.0 0.0 0.0 1.9495018e+19 2.6365278e+14 2.335049e+15 1.2355561e+18
2.365484e+20 1.0609781e+16 2.2249846e+16 1.2792452e+19 1.2578968e+20 9.926524e+17 2.653576e+17 3.3019285e+18
2.7581513e+20 1.0271475e+17 8.377598e+16 2.7011262e+19 4.266377e+19 3.691643e+15 1.01435216e+15 6.067014e+17
0.0 0.0 0.0 0.0 3.9889993e+20 4.6412383e+16 3.55076e+17 1.5739433e+20
4.246393e+17 2.3573452e+16 6.556943e+16 1.2050741e+18 4.352796e+18 3.9916973e+17 2.540988e+17 1.2324549e+19
1.10863276e+18 1.7970011e+16 3.6721116e+16 5.5130145e+17 0.0 0.0 0.0 0.0
1.3673439e+16 2.4566845e+15 1.1299169e+16 8.204881e+16 6.9268036e+20 4.2063388e+17 3.914224e+17 7.153849e+19
4.5908706e+20 6.24205e+16 1.34467875e+17 5.3635664e+19 0.0 0.0 0.0 0.0
1.1186871e+19 5.0795212e+16 7.307736e+15 5.6970254e+17 1.4127894e+17 1.1069229e+16 1.5535219e+16 3.668155e+17
4.6138488e+20 2.711041e+16 5.0012017e+16 2.303951e+19 6.33233e+20 1.0226686e+17 2.11906e+17 7.521831e+19
0.0 0.0 0.0 0.0 7.083119e+20 4.36467e+16 1.5357832e+17 6.448069e+19
1.2021366e+19 1.525641e+16 2.72741e+15 1.3949723e+18 0.0 0.0 0.0 0.0
0.0 0.0 0.0 0.0 0.0 0.0 0.0 0.0
9.2023344e+17 5.723829e+06 1.861403e+11 1.9338164e+17 0.0 0.0 0.0 0.0
2.5869389e+19 1.7777778e+15 4.0235138e+15 1.4711482e+18 1.03408185e+21 1.0604131e+17 3.932662e+17 1.6968337e+20
9.979427e+18 6.1062e+16 1.9976269e+16 9.488379e+17 6.577944e+18 4.4057875e+14 2.3836738e+16 2.1323827e+18
2.1573236e+17 8.241616e+16 8.0998685e+16 1.7796793e+18 3.5245292e+21 3.3939996e+17 3.7002033e+17 1.1119855e+20
2.016834e+20 8.295415e+16 1.9305193e+17 7.3086847e+19 2.4762167e+19 1.3925032e+17 1.330961e+17 1.9899859e+19
3.114158e+20 1.0604238e+17 1.2412e+17 3.7353414e+19 0.0 0.0 0.0 0.0
2.7137961e+20 4.200662e+16 5.231063e+15 2.619936e+18 0.0 0.0 0.0 0.0
2.2388495e+17 1.1256667e+17 2.8892905e+17 2.4505203e+18 8.516748e+21 5.4220492e+17 1.13813864e+18 4.14675e+20
0.0 0.0 0.0 0.0 1.31924665e+20 1.1928088e+16 3.403164e+16 1.4987047e+19

exp_avg f4 [50]
00000000: 0000 0000 0400 0000 0400 0000 640c 0000
00000010: 0400 0000 0400 0000 0000 0000 0400 0000
00000020: 0400 0000 0400 0000 0400 0000 0400 0000
00000030: 0000 0000 3f2c 0000 0400 0000 0400 0000
00000040: 0400 0000 0000 0000 0400 0000 0400 0000
00000050: 0400 0000 0000 0000 0400 0000 0400 0000
00000060: 0400 0000 0400 0000 0000 0000 0400 0000
00000070: 0400 0000 0000 0000 0000 0000 0000 0000
00000080: 0400 0000 0000 0000 0400 0000 085d 683f
00000090: 0400 0000 0400 0000 0400 0000 540b ba41
000000a0: 3db9 c33d 11c1 cebc 0400 0000 0000 0000
000000b0: 0400 0000 0000 0000 0400 0000 308a f3c1
000000c0: 0000 0000 0400 0000
0.0 6e-45 6e-45 4.445e-42 6e-45 6e-45 0.0 6e-45
6e-45 6e-45 6e-45 6e-45 0.0 1.5873e-41 6e-45 6e-45
6e-45 0.0 6e-45 6e-45 6e-45 0.0 6e-45 6e-45
6e-45 6e-45 0.0 6e-45 6e-45 0.0 0.0 0.0
6e-45 0.0 6e-45 0.90766954 6e-45 6e-45 6e-45 23.255531
0.09556816 -0.025238546 6e-45 0.0 6e-45 0.0 6e-45 -30.442474
0.0 6e-45

exp_avg_sq f4 [50]
00000000: 0000 0000 09ec 7b48 39b0 6a46 3702 b248
00000010: 46d6 2245 3b04 8945 0000 0000 07b9 4245
00000020: ffc9 0247 1780 7b46 cc7a 3d47 4949 9445
00000030: 0000 0000 5d3e b947 d9cd a243 3008 2d45
00000040: 15e3 b243 0000 0000 e963 e541 a0f6 d947
00000050: 6e65 a347 0000 0000 c9ea da44 c674 f042
00000060: fc94 8147 7480 db47 0000 0000 eb4e ef47
00000070: f807 0045 0000 0000 0000 0000 0000 0000
00000080: ff9b 4343 0000 0000 0616 7e45 61a3 4048
00000090: c18c d144 e80a d144 09d4 e443 6903 e348
000000a0: 0924 4f47 426b bf45 8cd8 5c47 0000 0000
000000b0: b2b0 e946 0000 0000 e315 4344 adef 9449
000000c0: 0000 0000 dc4a bb46
0.0 257968.14 15020.056 364561.72 2605.392 4384.529 0.0 3115.5642
33481.996 16096.022 48506.797 4745.1606 0.0 94844.73 325.6082 2768.5117
357.77408 0.0 28.673784 111597.25 83658.86 0.0 1751.337 120.22807
66345.97 112384.91 0.0 122525.836 2048.498 0.0 0.0 0.0
195.60936 0.0 4065.3765 197261.52 1676.3986 1672.3408 457.65652 464923.28
53028.035 6125.407 56536.547 0.0 29912.348 0.0 780.342 1.2200856e+06
0.0 23973.43

exp_avg f4 [4, 50]
00000000: 0000 0000 0400 0000 0400 0080 eaba 0484
00000010: 0400 0000 0400 0000 0000 0000 0400 0000
00000020: 0400 0080 0400 0000 0400 0000 0400 0080
00000030: 0000 0000 f819 be05 0400 0080 0400 0080
00000040: 0400 0080 0000 0000 0400 0000 f400 0000
00000050: 0400 0000 0000 0000 0400 0000 0400 0080
00000060: 0400 0080 0400 0080 0000 0000 0400 0000
00000070: 0400 0080 0000 0000 0000 0000 0000 0000
00000080: 0000 0000 0000 0000 0400 0000 c2b5 a2cb
00000090: 0400 0000 0400 0080 0400 0000 020f 3acd
000000a0: 8d05 71cb e624 6a3d 0400 0000 0000 0000
000000b0: 0400 0080 0000 0000 0400 0080 1491 eacc
000000c0: 0000 0000 0400 0080 0000 0000 0400 0000
000000d0: 0400 0080 af10 a984 0400 0000 0400 0080
000000e0: 0000 0000 0400 0000 0400 0080 0400 0000
000000f0: 0400 0000 0400 0000 0000 0000 fd51 de05
00000100: 0400 0000 0400 0080 0400 0080 0000 0000
00000110: 0400 0080 3304 0000 0400 0000 0000 0000
00000120: 0400 0000 0400 0000 0400 0080 0400 0080
00000130: 0000 0000 0400 0080 0400 0080 0000 0000
00000140: 0000 0000 0000 0000 0400 0080 0000 0000
00000150: 0400 0080 7a5f a14b 0400 0080 0400 0000
00000160: 0400 0000 5c4a 8f4e 0b04 0000 a391 b540
00000170: 0400 0080 0000 0000 0400 0000 0000 0000
00000180: 0400 0000 1235 1d4e 0000 0000 0400 0000
00000190: 0000 0000 0400 0000 0400 0000 69bb 0400
000001a0: 0400 0080 0400 0080 0000 0000 0400 0080
000001b0: 0400 0080 0400 0000 0400 0000 0400 0000
000001c0: 0000 0000 1019 c800 0400 0080 0400 0000
000001d0: 0400 0000 0000 0000 0000 0000 3b00 0000
000001e0: 0400 0000 0000 0000 0400 0080 0000 0000
000001f0: 0400 0080 0400 0080 0000 0000 0400 0000
00000200: 0400 0000 0000 0000 0000 0000 0000 0000
00000210: 0400 0080 0000 0000 0400 0080 839b a94b
00000220: 0400 0080 0000 0000 0400 0080 807d 9ecb
00000230: 91ad 104c 1140 a0c7 0400 0000 0000 0000
00000240: 0400 0000 0000 0000 0400 0080 8c7d 00cc
00000250: 0000 0000 0400 0000 0000 0000 0400 0080
00000260: 0400 0000 bbda 6203 0400 0080 0400 0080
00000270: 0000 0000 0400 0080 0400 0000 0400 0000
00000280: 0400 0080 0400 0080 0000 0000 3f42 5503
00000290: 0400 0080 0400 0080 0400 0080 0000 0000
000002a0: 0000 0000 e900 0000 0400 0000 0000 0000
000002b0: 0400 0000 0000 0000 0400 0080 0400 0000
000002c0: 0000 0000 0400 0000 0400 0000 0000 0000
000002d0: 0000 0000 0000 0000 0000 0000 0000 0000
000002e0: 0400 0000 46ff 92cb 0400 0000 0400 0000
000002f0: 0400 0000 b26d 3fcd 389f 6fcb 06cf 14c7
00000300: 0400 0000 0000 0000 0400 0080 0000 0000
00000310: 0400 0080 0bdc f9cc 0000 0000 0400 0080
0.0 6e-45 -6e-45 -1.5602352e-36 6e-45 6e-45 0.0 6e-45
-6e-45 6e-45 6e-45 -6e-45 0.0 1.7877054e-35 -6e-45 -6e-45
-6e-45 0.0 6e-45 3.42e-43 6e-45 0.0 6e-45 -6e-45
-6e-45 -6e-45 0.0 6e-45 -6e-45 0.0 0.0 0.0
0.0 0.0 6e-45 -2.1326724e+07 6e-45 -6e-45 6e-45 -1.950966e+08
-1.5795597e+07 0.057164095 6e-45 0.0 -6e-45 0.0 -6e-45 -1.2298051e+08
0.0 -6e-45 0.0 6e-45 -6e-45 -3.974703e-36 6e-45 -6e-45
0.0 6e-45 -6e-45 6e-45 6e-45 6e-45 0.0 2.0906897e-35
6e-45 -6e-45 -6e-45 0.0 -6e-45 1.506e-42 6e-45 0.0
6e-45 6e-45 -6e-45 -6e-45 0.0 -6e-45 -6e-45 0.0
0.0 0.0 -6e-45 0.0 -6e-45 2.1151476e+07 -6e-45 6e-45
6e-45 1.2020076e+09 1.45e-42 5.674028 -6e-45 0.0 6e-45 0.0
6e-45 6.593752e+08 0.0 6e-45 0.0 6e-45 6e-45 4.34572e-40
-6e-45 -6e-45 0.0 -6e-45 -6e-45 6e-45 6e-45 6e-45
0.0 1.837609e-38 -6e-45 6e-45 6e-45 0.0 0.0 8.3e-44
6e-45 0.0 -6e-45 0.0 -6e-45 -6e-45 0.0 6e-45
6e-45 0.0 0.0 0.0 -6e-45 0.0 -6e-45 2.223079e+07
-6e-45 0.0 -6e-45 -2.0773632e+07 3.7926468e+07 -82048.13 6e-45 0.0
6e-45 0.0 -6e-45 -3.368299e+07 0.0 6e-45 0.0 -6e-45
6e-45 6.666652e-37 -6e-45 -6e-45 0.0 -6e-45 6e-45 6e-45
-6e-45 -6e-45 0.0 6.267112e-37 -6e-45 -6e-45 -6e-45 0.0
0.0 3.27e-43 6e-45 0.0 6e-45 0.0 -6e-45 6e-45
0.0 6e-45 6e-45 0.0 0.0 0.0 0.0 0.0
6e-45 -1.9267212e+07 6e-45 6e-45 6e-45 -2.0072733e+08 -1.5703864e+07 -38095.023
6e-45 0.0 -6e-45 0.0 -6e-45 -1.3099836e+08 0.0 -6e-45

exp_avg_sq f4 [4, 50]
00000000: 0000 0000 effe 535f 0437 a45d bd85 b85f
00000010: 78ba b35d 60c6 d55c 0000 0000 909e 305c
00000020: 67db 585d e27c 405f e5c0 135f 4b20 495e
00000030: 0000 0000 5aa9 325f ab0b 7a5a da55 ca5d
00000040: 3ed6 ac5a 0000 0000 7f4a e359 ebbe 0460
00000050: 5342 905e 0000 0000 cf1c 9b5d c825 ab5a
00000060: 9295 e55e b780 aa60 0000 0000 dc9a d15f
00000070: 146e 015e 0000 0000 0000 0000 0000 0000
00000080: 0000 0000 0000 0000 f020 335d d7de a25e
00000090: 4bdb 0d5d 4916 4a53 d371 a359 9e18 0e62
000000a0: e741 a05e f511 bf5e 30e8 b45d 0000 0000
000000b0: 76dd 3a5f 0000 0000 60a0 2a5b 7405 a261
000000c0: 0000 0000 51de bb5d 0000 0000 f296 fe61
000000d0: d617 7b60 b599 2562 780a 965c 0580 3d5c
000000e0: 0000 0000 a85d c35c dc2f 4160 64ea 1f61
000000f0: 9c27 5161 c8b5 0961 0000 0000 e89c dc5f
00000100: eaf0 a059 816d 295d 8242 7d5b 0000 0000
00000110: 7321 8a59 035b 4962 dac8 6061 0000 0000
00000120: e07b a05e 57be d558 d36f 6c60 3b8a 0463
00000130: 0000 0000 0992 ae61 ba00 e161 0000 0000
00000140: 0000 0000 0000 0000 fdea 9955 0000 0000
00000150: f18d af5e 5057 6160 aa0f 2f5f 2b24 f85c
00000160: 6e3d 8356 d23c b763 deaa 8e5e 1625 2b62
00000170: dbe4 df60 0000 0000 b5d4 8462 0000 0000
00000180: f883 ad4f 15af 4963 0000 0000 d48c 1561
00000190: 0000 0000 6ffe 235f 0447 205d 7fb6 835f
000001a0: a298 ba5c eb2c 785a 0000 0000 e130 a75a
000001b0: 97d1 065d 1a36 875e 310e 825e 164a 3c5e
000001c0: 0000 0000 c044 c45e b35b 8a5a afa9 025d
000001d0: 8fb1 8957 0000 0000 0000 0000 379e 9a5f
000001e0: d513 515e 0000 0000 3444 2f5c 0000 0000
000001f0: 0244 f55d c1e5 3a60 0000 0000 f048 075f
00000200: 20ba 905e 0000 0000 0000 0000 0000 0000
00000210: a4e8 5454 0000 0000 403e 885c 9ea9 3d5e
00000220: e83a aa5c 0000 0000 7bf1 605b b0aa 0162
00000230: a1e2 da5d e79e 0d5f afe1 e85d 0000 0000
00000240: de92 7d5f 0000 0000 e4f1 a65a d45b 8461
00000250: 0000 0000 fe56 b45d 0000 0000 488e 1b5f
00000260: 4b20 4d5d 3739 725f e27a 595d 65bf 1e59
00000270: 0000 0000 b650 395a fa58 865c a4ce 165e
00000280: fca4 d05d 62b4 5a5d 0000 0000 ce67 335f
00000290: 91dc d85b 7ff3 065e 0c00 a159 0000 0000
000002a0: 0000 0000 e4e6 915f 66f4 e85d 0000 0000
000002b0: c073 305c 0000 0000 48fa 1c5d 9eb6 2160
000002c0: 0000 0000 421b 975e 40e1 d15d 0000 0000
000002d0: 0000 0000 0000 0000 0000 0000 0000 0000
000002e0: 2395 985b 3a1f 8f5e f73e 135c 82f4 9659
000002f0: 6406 a15a ad0b f461 11b9 575e 3acb 955e
00000300: e074 575d 0000 0000 ab61 875e 0000 0000
00000310: df86 ae5b 88ac 7161 0000 0000 aa67 2a5d
0.0 1.527591e+19 1.4791164e+18 2.6592483e+19 1.6188495e+18 4.813783e+17 0.0 1.9885575e+17
9.766373e+17 1.3870209e+19 1.0646761e+19 3.6231665e+18 0.0 1.287392e+19 1.7595393e+16 1.8224749e+18
2.4324629e+16 0.0 7.997091e+15 3.8261364e+19 5.197481e+18 0.0 1.3971295e+18 2.408688e+16
8.2716447e+18 9.828817e+19 0.0 3.0207252e+19 2.3316035e+18 0.0 0.0 0.0
0.0 0.0 8.067238e+17 5.868027e+18 6.388654e+17 8.679573e+11 5.7506965e+15 6.553029e+20
5.7738825e+18 6.8840275e+18 1.6294652e+18 0.0 1.3465048e+19 0.0 4.802708e+16 3.735957e+20
0.0 1.6921683e+18 0.0 5.8704372e+20 7.237266e+19 7.636971e+20 3.3786206e+17 2.1335812e+17
0.0 4.3992477e+17 5.5682347e+19 1.8437012e+20 2.4113898e+20 1.5876892e+20 0.0 3.1793672e+19
5.6626105e+15 7.6303475e+17 7.1286295e+16 0.0 4.8600406e+15 9.285884e+20 2.5915897e+20 0.0
5.7820414e+18 1.8801078e+15 6.814827e+19 2.4449308e+21 0.0 4.0253205e+20 5.1882122e+20 0.0
0.0 0.0 2.1154318e+13 0.0 6.325016e+18 6.495014e+19 1.2614488e+19 5.587645e+17
7.214993e+13 6.7602735e+21 5.1401366e+18 7.892664e+20 1.29066084e+20 0.0 1.2251487e+21 0.0
5.822214e+09 3.7204115e+21 0.0 1.7241954e+20 0.0 1.1817005e+19 7.2182526e+17 1.8981826e+19
4.2017734e+17 1.7463796e+16 0.0 2.3530032e+16 6.071695e+17 4.8715017e+18 4.685741e+18 3.3919203e+18
0.0 7.07132e+18 1.9472186e+16 5.8845306e+17 3.027914e+14 0.0 0.0 2.2282806e+19
3.7664048e+18 0.0 1.9733244e+17 0.0 2.2091566e+18 5.386953e+19 0.0 9.748305e+18
5.2143415e+18 0.0 0.0 0.0 3.6577445e+12 0.0 3.0679233e+17 3.416657e+18
3.833241e+17 0.0 6.3315905e+16 5.979823e+20 1.9715432e+18 1.0204848e+19 2.0976108e+18 0.0
1.8271911e+19 0.0 2.3495404e+16 3.051984e+20 0.0 1.6243566e+18 0.0 1.1208976e+19
9.23806e+17 1.7454042e+19 9.794429e+17 2.792718e+15 0.0 1.3040403e+16 3.0252382e+17 2.7167008e+18
1.8793023e+18 9.8495805e+17 0.0 1.2927528e+19 1.2208222e+17 2.431064e+18 5.6646903e+15 0.0
0.0 2.1026682e+19 2.0982692e+18 0.0 1.9866746e+17 0.0 7.0696454e+17 4.66107e+19
0.0 5.4441845e+18 1.8904299e+18 0.0 0.0 0.0 0.0 0.0
8.589635e+16 5.1565127e+18 1.6578421e+17 5.3112607e+15 2.2662249e+16 5.6273086e+20 3.8861186e+18 5.3968924e+18
9.7033e+17 0.0 4.877633e+18 0.0 9.824988e+16 2.786311e+20 0.0 7.674356e+17

exp_avg f4 [4]
00000000: 0569 83c2 1e0c 6f43 766e 8341 b453 4dc2
-65.70512 239.04733 16.428936 -51.33174

exp_avg_sq f4 [4]
00000000: 7e4f 744a cb5c 0f4c 1742 714a 46e1 614a
4.0027835e+06 3.7581612e+07 3.9527738e+06 3.7008175e+06
